output/FEM_GAN_40/model.pt (torch, 153208 bytes, 65 tensors)

embedder.emb_rnn.weight_ih_l0 f4 [60, 10]
00000000: 9212 543f 03f2 203e 3119 983e fcb1 7c3e
00000010: 8e16 593e 73a7 41be 5ed3 4abe 3bcb d83b
00000020: c9fe 6f3e a509 f2bd 417f 00c0 16ff b1be
00000030: a829 e7be a2e7 eebe dcf1 8cbe 8b4f 0fbf
00000040: e64c 16be 9039 56be f0a7 15be 0826 2bbf
00000050: e132 96be aaaa 403e a007 953e 8086 1d3e
00000060: eabe 05bc 9d2d 71bc 8d80 99bd e09c 89bd
00000070: 735f 64bd 8029 78bd bfae 93be 6cca 86be
00000080: e7e7 cbbc 4b6c 66be d657 5bbe e5c5 79bd
00000090: 646a 163d 7947 8e3e 151f 53be 1b10 d1bc
000000a0: 9237 fbbe 130d 0e3d ac3f ddbe 7785 93be
000000b0: a6c7 7a3d 8a5f a4be cdea d2be 95cd dbbe
000000c0: 52cf 20be 1123 87bd 1355 d43e 212c f9bc
000000d0: a36b 03bd 4583 513e 6aee 8e3e b6cf 22be
000000e0: 0233 3dbe 89a9 0e3e 00ba 7abe 9415 86be
000000f0: b5c5 acbe a436 91be e4fa 21be f788 c9bd
00000100: eb02 20bc 685e 2ebe c5fd d53d e61b cdbe
00000110: 278a 213b fa2b c8be 5510 f83d 9452 fb3d
00000120: 4dd0 193e ef71 73be a868 05be 5187 71be
00000130: 4ef2 28be 4fec 7abe 4ee1 0d3d 1f85 d1bd
00000140: 8919 95bd d3e5 90be b0ff 69be 0b5c 8bbe
00000150: fe53 76be dc10 2dbd f801 983e 410e 173e
00000160: 1698 65be ce7b a33e 7276 c33d 7022 b0be
00000170: 3234 8d3d 5856 a5be 9741 d0be 3825 c3bc
00000180: 90dd 60be 2a72 a5be ac11 583e ff94 843b
00000190: fb8f f83e 515c e1bd cddc 15be fdf9 0d3e
000001a0: a39b 25bd 18b6 f73b 9ae0 4ebe 404f 87be
000001b0: 4f6b 2a3e 69cf 6abe 1cf5 933e 47be 72bc
000001c0: 2951 7d3d eac2 61be ef38 5ebe 5e72 efbd
000001d0: 6e3e 9cbd 0ea8 5dbe 49e3 a7bd b69a 853e
000001e0: ab38 e3be f48c 54be 8d14 c3be bc0f 643c
000001f0: 78db 8ebe 9006 74bd af07 633e 56af 47bd
00000200: 88cc 7f3b 7386 a7ba e8a7 043f 697d 83be
00000210: 3060 b1be 2fbd 3abe 97a0 d0be feef 663e
00000220: b224 19be e514 83be 0734 e4bd 29ec 9abe
00000230: 72de 7bbf bdf6 ffbd 9721 513e b5c4 8f3e
00000240: 75e8 4e3d c23d 7c3e 8a9d 053f 64b8 a33e
00000250: ed5e c03e 18ea b53e 4aa2 18bf 7a3a 3dbe
00000260: 3114 a9be 1774 f8be 35b6 c5be dbac 95be
00000270: 5893 d33e db40 e23e c0a4 343e 101d b23e
00000280: a913 d23e dfa8 dc3d 7612 b7be 1b82 82be
00000290: ddc5 74be 8028 8dbe 20cd 423e 350c d73e
000002a0: accc 323e 3cae c7bd 3b5e 053f 7cfd ec3c
000002b0: f1b6 a73e 5cb5 793d afac 853e b248 283d
000002c0: 1d03 073f 6624 173f 92e0 e93e 5ce5 9a3d
000002d0: 74f9 f13e d3b9 05be 3f03 9d3e fc6c f43b
000002e0: cd5e 033d b51f 63bd 2010 333e b73b 503e
000002f0: 5ff3 683e 1514 95be 9e4e c43d 6120 6abe
00000300: c9b1 47be d9de bcbe 8cde 95be ee15 b03d
00000310: 490e 31be 040c 1abe 2b6a 37be 0b50 813d
00000320: e50f 77bf 56d2 8bbd c98f 0ebe c199 2e3e
00000330: 538c bebd 4e71 76be 781c 103d 256e 02be
00000340: 985a c13d a1d5 12be 5fd8 07bf 3565 2fbf
00000350: a44f c3bf 0235 a4bf cebb b5bf ee1a acbf
00000360: 5ae3 c0bf 8f70 f0bf f206 afbf e604 e9bf
00000370: a5e5 bcbf 09a3 69bf f47f acbe 5003 e53d
00000380: 9103 053d f001 0bbf fcaf 093e 86c2 ba3e
00000390: 81f6 903d 3d1f f13e e7f3 9f3c 9db3 0b3e
000003a0: 6c4c c13d b8f6 023d 1da7 11be 1436 15bc
000003b0: 1af7 9f3e 77fc 46be 3e5c 46bd 8919 4d3e
000003c0: 6523 22bf 7270 83be ebc6 72bc 6fa7 37be
000003d0: 012d 30bd 54fc 49be cfe5 60bf 6337 debe
000003e0: 9652 51bf d211 0fbf ea34 81bf 2438 d3be
000003f0: 82e0 d7be 4cf0 37bf 562e 7fbe 82f6 6dbe
0.82840836 0.1571732 0.2970672 0.2467727 0.2120001 -0.18911533 -0.19807193 0.006616024
0.23437037 -0.11818246 -2.007767 -0.34764928 -0.4514897 -0.46661097 -0.27528274 -0.5598075
-0.14677772 -0.20920396 -0.14614844 -0.66854906 -0.29335693 0.18815103 0.2910738 0.15383339
-0.008163193 -0.014720348 -0.07495222 -0.06719375 -0.05575509 -0.060586452 -0.28844258 -0.2632631
-0.024890853 -0.22502248 -0.21420226 -0.060979743 0.036722556 0.27788904 -0.20617326 -0.025520375
-0.49065834 0.034680437 -0.4321264 -0.28812763 0.061225556 -0.3210414 -0.41194764 -0.42930284
-0.15704086 -0.06598485 0.41471156 -0.03041655 -0.032085072 0.20460232 0.2791627 -0.15899548
-0.18476489 0.1393186 -0.24485016 -0.26188338 -0.33744588 -0.28362 -0.15818363 -0.09840577
-0.009766321 -0.170282 0.10448793 -0.40060347 0.0024648996 -0.3909605 0.1211249 0.1227161
0.15020867 -0.23773931 -0.13028204 -0.23586775 -0.16498682 -0.24504207 0.034638695 -0.10230469
-0.07280261 -0.28300342 -0.22851443 -0.2721866 -0.24055478 -0.042252406 0.29689002 0.14751531
-0.22421297 0.31930393 0.09544076 -0.34401274 0.06894721 -0.32292438 -0.4067504 -0.023821458
-0.2195952 -0.32313663 0.21100491 0.004046082 0.48547348 -0.11003936 -0.1463501 0.13864894
-0.04043163 0.007559549 -0.20202866 -0.2642765 0.16642497 -0.22930683 0.2889794 -0.0148158735
0.06184498 -0.2204701 -0.21701406 -0.11691736 -0.07629095 -0.21646139 -0.08197648 0.26094598
-0.44379172 -0.20756894 -0.38101617 0.013919767 -0.27901816 -0.05957657 0.221709 -0.048751198
0.0039031822 -0.0012781158 0.51818705 -0.25681618 -0.34643698 -0.1823623 -0.4074752 0.22552487
-0.14955404 -0.2560188 -0.11142736 -0.302583 -0.983863 -0.124982335 0.2042297 0.28079763
0.050514657 0.24632934 0.5219351 0.31976616 0.37572423 0.35530162 -0.59622633 -0.18479338
-0.33023217 -0.4852607 -0.38615575 -0.2923344 0.41323352 0.44190106 0.17640972 0.34787798
0.41030625 0.10774397 -0.35756272 -0.25489888 -0.23903604 -0.27569962 0.19023561 0.420015
0.17460889 -0.097500294 0.5209691 0.028929465 0.3275676 0.060963973 0.2610831 0.041084953
0.52739125 0.59039915 0.45679146 0.07563278 0.4726063 -0.13059168 0.3066654 0.007459281
0.03207283 -0.05545016 0.1748662 0.2033528 0.22749089 -0.29116884 0.095853075 -0.22863914
-0.19501413 -0.3688877 -0.29271352 0.08597933 -0.17290606 -0.15043646 -0.17911594 0.06314095
-0.9650863 -0.06827228 -0.13922037 0.1705084 -0.093041085 -0.2406666 0.0351834 -0.1273733
0.094411075 -0.14339305 -0.5306453 -0.68513805 -1.5258679 -1.2828677 -1.4197938 -1.3445718
-1.5069382 -1.878435 -1.3673995 -1.820462 -1.4757582 -0.91264397 -0.3369137 0.111822724
0.032474104 -0.5429983 0.13446039 0.36476535 0.07078267 0.47094145 0.019525481 0.13642736
0.094384044 0.03197357 -0.14223905 -0.0091071315 0.3124321 -0.19432245 -0.048427813 0.20029272
-0.6333526 -0.25671726 -0.014817934 -0.17934965 -0.04301167 -0.19725162 -0.8785066 -0.43401632
-0.8176664 -0.55886567 -1.0094273 -0.4125377 -0.42163473 -0.7185104 -0.2492002 -0.23238567

embedder.emb_rnn.weight_hh_l0 f4 [60, 20]
00000000: fecb 08be 7ff3 723e 5708 ecbe 2902 523d
00000010: a411 83be 9b6f 99be e9b4 ccbd 9821 90be
00000020: dc99 b93e 906a 1dbe bf2a edbd 1373 0ebe
00000030: 8736 2fbe 16ec 893e 9475 bc3d b424 6e3d
00000040: a467 1abe b13a 49bd faa7 9c3e f41e 6f3d
00000050: 764f 4cbe a28e fc3d 9366 7f3d d533 8abe
00000060: 6909 093e 4b71 2a3e 0dbd 10bc 3414 b9bd
00000070: 5ed1 bdbd bf6d 673d 90bb 6bbe 1db4 86be
00000080: 5fb9 91be d5e8 1fbd 444f bbbe 12ec 88bd
00000090: 0dd4 353b 0f0c 313e 6b97 0b3e c696 223e
000000a0: 6980 b9bc 0dc4 acbe 767a b13c a699 143d
000000b0: 9cb0 4ebe a901 3e3e db32 943e cff2 8d3d
000000c0: b87a 813e 388a dfbd e4bf 133e 0e21 89bc
000000d0: 5a93 5c3e 0b09 4ebd 82ec 3c3e 02bc a0be
000000e0: d6c7 273e ab78 91be f0c9 d53e 6c7c c33e
000000f0: 990f 9bbe 93aa 85be 7bbb 12be 3a66 1d3e
00000100: 9386 e7bd f3de 203e c92b 063e 4722 6cbe
00000110: 19a8 e03e b32d 97be 2c24 21be 26a8 2ebe
00000120: 7bfb 8cbd 4074 19be f96c 04be 0b9f c7bd
00000130: d7c7 6ebd 10ba 79be 6b09 b6be a40f 45be
00000140: bbfa d13c 760b 82ba 8c18 d5bc 65db 69be
00000150: d239 243e 0e8d 68be 13b3 08bc 0b2c a53c
00000160: a269 8dbe 2a67 44bc b3d6 623e 3642 1c3d
00000170: 6562 813e 7247 65be f4ba 54be 0971 44be
00000180: 2152 4fbe a0ec 433e 130c 8c3c 9bd8 5b3d
00000190: 7063 5a3e c823 a43e 32f7 a1bc 6184 3a3e
000001a0: 201b 93bd 3d2c eebd 5337 783e cbbf 0d3f
000001b0: 2741 8f3d 5967 8c3d 327c bc3d 53f1 8a3e
000001c0: 6d02 f5bd 6a3f c43d 8332 db3d 69ab 103e
000001d0: f8dc af3e a749 0f3e 98ed 683e 3539 0bbf
000001e0: 4330 62be b25b 1f3e a140 59bd 0f98 463d
000001f0: b824 45be 2429 bf3d 109d 44bd f293 f3bd
00000200: 3122 163e 45e2 cc3d 71e7 95be 6fe1 e6bd
00000210: ef54 283d af5b d93d 2dbe 97be ecd5 a43d
00000220: bb77 dcbd e7e9 b23d 9dcb 34be 81aa b4be
00000230: a069 db3d bc2b ac3d fc93 f53d 392b 15be
00000240: b416 90be 7609 42be 6550 c3bb e845 8dbe
00000250: d5a3 a7be ac62 163e 2e33 4a3e 7df0 ac3d
00000260: d599 ce3c 085b e73d c52a 363e d050 37be
00000270: a6d5 5abe 5260 93be bc80 79be dc87 e13e
00000280: 5026 d03d c4e8 763d bcc3 ec3e 4958 a53d
00000290: bf1d 07bd 6f53 15bd ebcd aa3b ea74 00be
000002a0: 961a 76be eb70 a93e 3bd0 d5bd 4bac a43a
000002b0: 0d96 9e3e 6da4 003e 4c6f fabd f167 2abe
000002c0: b532 b23d 3d55 803e 1c87 9cbe aa0a 0bbe
000002d0: 57f3 40be af61 e5bd 1946 0a3e 08b1 d6bd
000002e0: 3394 09be c305 e7bd f044 af3e 2302 dd3b
000002f0: 3fcf 363e d0fe 6a3e edb2 963e 0929 52bd
00000300: 0341 293e a2de a73e 31f8 8cbe 6843 00be
00000310: dee0 e3bd 77dd babd ebc0 463e 2268 2bbe
00000320: 4a7b 2b3d 243a 803b c75e 1d3e 95f5 363e
00000330: 7281 323e 5025 60be 5390 7bbe 0ad4 b3be
00000340: 8901 333e 9413 063e d193 07bf 9c04 8bbd
00000350: 3167 263b 109f 96be 9cef 163e c75f 94be
00000360: 65d2 90be e0a3 9abe ca91 293d 4851 4d3e
00000370: 4af3 6fbc e4ae 87be 66a8 213e d495 4c3d
00000380: 9e64 6e3e f02d 4dbe 7184 bc3d e20d 213e
00000390: d235 743d ecd6 ddbd 52c5 b13e 0a4f c9bd
000003a0: 0990 3abe ab0a 98be 62cc 24bd 7e92 2dbd
000003b0: 1af4 edb9 9b37 6dbe 1011 f33c ebc7 8b3d
000003c0: 5736 0bbe c6e2 3cbe ccad aebe 3225 013d
000003d0: 9186 5d3d 9b93 313e 1e5b a2be fccb 9cbe
000003e0: 3b81 7cbe 5547 193e ba4f 0abe d49b 93be
000003f0: 24b9 9d3c 6bd6 803e e144 c8bd ebbe abbd
-0.13359067 0.23725699 -0.46100113 0.05127159 -0.25599396 -0.2996796 -0.099954434 -0.2815063
0.36250198 -0.15372682 -0.11580419 -0.13911085 -0.17110644 0.26937932 0.09202114 0.05814047
-0.15078598 -0.049128238 0.30596906 0.05837913 -0.19952187 0.123318925 0.06235368 -0.2699267
0.13382496 0.1664478 -0.008834136 -0.090370566 -0.09268449 0.056501146 -0.23020768 -0.2630929
-0.2846174 -0.039040405 -0.36583912 -0.06685652 0.00277448 0.17289756 0.1363198 0.15877828
-0.022644239 -0.33743325 0.02166484 0.036279343 -0.20184559 0.18555321 0.2894505 0.06931078
0.2528894 -0.10915035 0.14428669 -0.016739395 0.21540585 -0.050301593 0.18449596 -0.3139344
0.16384825 -0.28412375 0.4175563 0.38180864 -0.30285338 -0.261067 -0.1432933 0.15371028
-0.11304965 0.15710048 0.1310264 -0.23059951 0.43878248 -0.29527053 -0.15736455 -0.17056331
-0.068839036 -0.14985752 -0.12932195 -0.09747132 -0.05829605 -0.24387383 -0.3555406 -0.19244248
0.025632253 -0.0009921629 -0.026012681 -0.22837599 0.16037682 -0.22710058 -0.008343476 0.020162603
-0.27619654 -0.011987487 0.22152214 0.03814908 0.25270382 -0.22390535 -0.20774442 -0.19183744
-0.20246173 0.19133234 0.017095601 0.053673368 0.21326995 0.3205855 -0.019771192 0.18214561
-0.07182908 -0.116295315 0.24239855 0.5537078 0.06994849 0.068556495 0.09203376 0.2713724
-0.11963353 0.09582408 0.10702994 0.14127888 0.34348273 0.1399294 0.22746885 -0.54384166
-0.22088723 0.15562323 -0.05304015 0.048484858 -0.19252288 0.09334019 -0.04800135 -0.11893453
0.1466148 0.10004095 -0.29278138 -0.11273467 0.041096624 0.106131904 -0.2963728 0.08048615
-0.10765024 0.087360196 -0.17655797 -0.35286334 0.10713506 0.08406779 0.119911164 -0.1456727
-0.2814232 -0.18948922 -0.0059605115 -0.27592397 -0.3274218 0.14686078 0.19746086 0.08444307
0.025219837 0.1129666 0.17789753 -0.17901921 -0.21370563 -0.28784424 -0.24365515 0.44048965
0.101635575 0.060280576 0.46243083 0.0807348 -0.032987352 -0.03645652 0.0052125356 -0.12544599
-0.24033579 0.33093962 -0.104401074 0.0012563554 0.30973855 0.12562723 -0.122282594 -0.16641213
0.08701078 0.25065032 -0.3057183 -0.13578287 -0.18842827 -0.11200272 0.13503303 -0.10482985
-0.1343544 -0.11280396 0.34232283 0.0067446395 0.17852496 0.22948766 0.29433385 -0.051308665
0.16528706 0.32787043 -0.27533105 -0.12525713 -0.111268744 -0.09124272 0.1940953 -0.16738942
0.041865624 0.003913181 0.15368186 0.1786712 0.17432192 -0.21889234 -0.24566774 -0.3512271
0.17481054 0.13093406 -0.52959925 -0.067879885 0.0025391097 -0.2941823 0.14739841 -0.28979322
-0.28285518 -0.30203152 0.0413988 0.20050538 -0.014645407 -0.26500618 0.15786895 0.049947575
0.2328057 -0.20037055 0.09204949 0.15727952 0.05962164 -0.10832009 0.34720856 -0.09829529
-0.18219008 -0.2969564 -0.040233977 -0.042376034 -0.00045386032 -0.23165743 0.029671222 0.06825241
-0.13594948 -0.18445882 -0.34116971 0.031529613 0.05408341 0.17341463 -0.31710142 -0.30624378
-0.24658673 0.14968617 -0.13506976 -0.28829825 0.019253321 0.25163588 -0.097787626 -0.08386024

embedder.emb_rnn.bias_ih_l0 f4 [60]
00000000: 875e 683f 7e89 7e3f 0083 773f bf91 703f
00000010: 7896 7f3f 0f50 8c3f 6aad 653f af26 733f
00000020: bece 8d3f b358 803f b886 733f 529f 793f
00000030: a5da 7d3f 9758 733f d0ae 6f3f 6f16 823f
00000040: b739 833f d51c 933f af9b 7d3f 2605 953f
00000050: bd77 853f a73b 81be f38d ea3e a25f 523f
00000060: ac2a c43e b22b 103f 35db 823f c130 e83e
00000070: 3fcb eb3f 840d bb3e 4cc9 e03e 7fa1 543f
00000080: 96de 653e 6edc 01bf 2e46 2b3f e5c2 8d3d
00000090: 4f03 373f 015f 3a3e c121 c53e c6fc 3c3f
000000a0: 1cc4 653f d65a 2a3f a3c1 7b3f a0bf 823f
000000b0: 8d81 763f 8bca 743f 78b2 763f 9af0 773f
000000c0: c597 523f 9a56 843f 323b 7b3f f2c6 8b3f
000000d0: 72ab 8d3f 9ced 6f3f 91e3 7a3f fad6 893f
000000e0: b956 873f 6842 7f3f bff6 7b3f 7de8 573f
0.9076924 0.99428546 0.96684265 0.9397239 0.9983897 1.0961932 0.89717734 0.949809
1.1078718 1.0027069 0.9512744 0.9750873 0.9916175 0.9505705 0.9362612 1.0163096
1.0251988 1.1493174 0.9906568 1.1642196 1.0427166 -0.25240824 0.45811424 0.82177174
0.38313806 0.56316674 1.0223147 0.45349696 1.8421401 0.3653375 0.43903577 0.83058923
0.22448191 -0.50726974 0.6690396 0.06921939 0.71489424 0.18200304 0.38502315 0.738232
0.89752364 0.66544855 0.9834234 1.0214729 0.9629143 0.95621556 0.9636607 0.96851504
0.8226283 1.0338929 0.981372 1.0920088 1.1067946 0.9372194 0.9800349 1.0768731
1.0573341 0.997107 0.9842338 0.84339124

embedder.emb_rnn.bias_hh_l0 f4 [60]
00000000: f30d bdbd ec59 bbbb 0fcf 07bd 22e7 76bd
00000010: 365d d2ba 4a03 c53d 1195 d2bd ac96 4dbd
00000020: 6dec dc3d 9a96 313b e392 47bd 3019 ccbc
00000030: 3d5d 09bc 4a73 4abd b88a 82bd 2695 853c
00000040: f466 ce3c 84e7 183e 7e1c 19bc f726 283e
00000050: cbf7 2e3d fa4e a0bf ffb8 0abf 3281 36be
00000060: b7ea 1dbf 01a8 dfbe b6cc b63c 6fe7 0bbf
00000070: e096 573f 5279 22bf 539b 0fbf 717a 2dbe
00000080: 5388 46bf eded c0bf a073 a9be b647 6ebf
00000090: 96f9 91be 4c68 51bf d86e 1dbf 4106 86be
000000a0: ef3f 2fbd 2c9b dfbe 95ff e9bc 50f0 903d
000000b0: df53 92bd d39c 5d3c f020 a0bc eef2 02bd
000000c0: 7857 31be f658 283e 4d5e 45bd 5004 f23d
000000d0: f9d0 ee3d 84c1 c9bd 69cd 6fbd 79fc 623e
000000e0: f80c 273d 938f bd3b 5b0c 38bc 0a38 22be
-0.09231176 -0.0057175066 -0.03315645 -0.06027902 -0.0016049508 0.09619768 -0.102823384 -0.05019252
0.10787282 0.0027097822 -0.048724066 -0.024914354 -0.008384046 -0.049426354 -0.06374115 0.016306471
0.025195576 0.14932066 -0.009345172 0.16421114 0.042716783 -1.2524102 -0.5418853 -0.17822722
-0.6168627 -0.43682864 0.02231441 -0.54650015 0.8421459 -0.6346637 -0.5609638 -0.16941239
-0.77551764 -1.5072609 -0.33096027 -0.9307817 -0.2851073 -0.8179977 -0.6149726 -0.26176646
-0.04278558 -0.43673074 -0.028564254 0.07077086 -0.071449034 0.013526159 -0.019546956 -0.031969957
-0.17318523 0.16440186 -0.048185635 0.11817229 0.11660952 -0.09851363 -0.058545504 0.22166623
0.040783852 0.0057849376 -0.0112334145 -0.1584169

embedder.emb_rnn.weight_ih_l1 f4 [60, 20]
00000000: 3610 cabd 07d1 a43d 51b1 d0bd 1490 d4bd
00000010: 6b00 29be 04e8 4a3e eb0f bdbe cfba 2dbe
00000020: 6c78 123e 2732 833e 0fc9 1b3d b0b3 263d
00000030: bac5 8dbd ebfc b9bc c5e8 b7bd f9dd 34be
00000040: 88b9 24be 4551 3f3d 0e7e 96be d7e9 843e
00000050: f88b 923e 6eb1 833e 973d 25be da69 87bd
00000060: 6c1f cd3d a713 5dbe 8a89 dcbe d1c0 4ebf
00000070: e5f0 c5bf eca2 313c d09e 70bc b557 153e
00000080: 0738 83bb 31ba 01bf ff81 743d 0c9d 42be
00000090: 3959 14be 67f6 4b3e 39c1 5cbe 24a7 a9bd
000000a0: 4fe1 34be b423 c33e 6172 493e 3978 5c3e
000000b0: 74ad 893e 2a02 f4bc bb04 fcbd c74b 143c
000000c0: 920d d53d 1f95 943e 616e b73e 5f11 04be
000000d0: 388d c5bd f919 753e 6e23 2b3d 2ad6 b83d
000000e0: 47ae 063d cba3 5b3e a124 33bd efa0 40be
000000f0: f117 7bbe b2e0 6c38 c298 fd3e a74b 043e
00000100: 5593 4a3e 8ba9 433e fd4d e0bd 682d 3fbf
00000110: 1aee 463e acd1 6cbe 9560 4fbe 807b 93bc
00000120: 0e8a 5a3e 3aa4 d6be e595 833e e23a 27be
00000130: fb6d fd3d f4da 37be 024e 95be eae1 fa3d
00000140: 73ec 81be e121 4f3e 1359 babd 9b00 4c3e
00000150: 6453 8cbe 2270 833e 8b87 783d b6b5 c2bd
00000160: f0a5 063c 0168 f2bd 76c7 873e d509 213d
00000170: 1277 79be cc93 7d3d d571 4dbe 0099 193e
00000180: c972 d73e dd88 1a3d ec33 743c ab21 8c3d
00000190: 2cf6 4a3e 7398 033f cad3 453e 0cac 9e3d
000001a0: 821d a7bd 3913 a0bd 29fc 80be 21f3 963e
000001b0: f1b8 253e ffc0 90be f8d1 2bbe b472 41be
000001c0: f1a6 293e 25a7 30be 0402 113d f58a 8c3d
000001d0: 18a2 0d3e c671 a83c 3f0f 593c c1c2 403e
000001e0: f6ed 91be a82c a5bd 4037 9abd 9d31 183e
000001f0: d91d b83d 1041 93be cd1a 2f3e f17d 853d
00000200: 35b9 debd b2ae 3bbe fbd0 82bd 4f8d 89be
00000210: 0b72 a8be eecf 8fbc 9c13 123e 4959 6b3e
00000220: 7d1d 723e baec 71be da9c 60be cb4c d63e
00000230: 2309 9a3c a82a d53d bac6 64be 8941 0f3e
00000240: 7480 47bd 5c12 78bc c5c5 dfbb 0e2c 113e
00000250: 3346 383e 1196 423e 3c86 b03e 43e6 c73d
00000260: 5816 153e 6c9f 943e ad0c 0a3d 0fbb 3bbe
00000270: 1f48 963e ad26 b03d 131c 10be c489 453e
00000280: 0e8c 49be e89b d43d 6213 043f a23f 933e
00000290: fdd1 83be 0d0c 223e ee5f cabd 34de 84bd
000002a0: 2797 6e3e 9378 203e e756 c33e 8846 7f3e
000002b0: f18b e83d 0a1c a5be fedc 16be 2b12 3e3e
000002c0: 93e3 1ebe ec35 4fbe 676f f63d d18f 0abf
000002d0: a4e3 dcb8 36e0 50be 33bb abbf b010 753d
000002e0: 5c6a 8dbe 3016 2ebe e05a 8ebe 8fa2 a03e
000002f0: 8137 32bf 3902 403c d312 123f ddc6 9cbe
00000300: 8337 7fbe 2e7c 503f 0762 82be 0020 9abe
00000310: 2f84 813e de27 96bd 6ac4 bc3c 6c5a f73d
00000320: e984 a1bd 0f09 f53e 0b8f 69be 453a a73d
00000330: db7b ca3e fb8d 6cbe 4f0f ecbe a604 dabe
00000340: c457 043f 189b 90bc 7c6e 413e 9ace 8b3a
00000350: fe51 5abe dfc5 5bbd 704f 4d3e c692 0e3e
00000360: 4398 b4be d262 933e 07ef c4be 2040 c93e
00000370: 0b69 babb fb9d fabd 436d bc3d 32d9 a73d
00000380: 2c58 f23d 54dd 293e 62dd 0cbe d31e 10bf
00000390: 5517 de3d e22a 38be e88a 04bd 4dcf bc3d
000003a0: 90b6 94bd ec17 d2be 9ca9 bcbb e0e1 273d
000003b0: b4fd 86be 9983 39bd 3c98 33be dc4f 91be
000003c0: 2dcb e63d 7ead 4dbe e0b0 8f3e 5056 fc3d
000003d0: 26b9 0fbe 66be 803e 7504 193e b4d5 e2bc
000003e0: a106 a53d 527f cf3d 46ed 8bbe f80c 17be
000003f0: 5fe4 3a3d 7087 d93d aa3e 8ebd e985 18be
-0.09866373 0.08047681 -0.101900704 -0.10379043 -0.16504066 0.1981507 -0.36926207 -0.16965793
0.1430375 0.256242 0.03803354 0.040698707 -0.06922479 -0.022703608 -0.08979944 -0.17662801
-0.160864 0.046708364 -0.29393047 0.25959656 0.28622413 0.25721306 -0.16136776 -0.066119865
0.10015759 -0.21589528 -0.43073684 -0.80762964 -1.546414 0.010842066 -0.014686301 0.14584239
-0.0040044817 -0.5067473 0.059694286 -0.19005221 -0.1448716 0.19918214 -0.21558084 -0.08283833
-0.17664073 0.38113177 0.19672538 0.21530236 0.26890147 -0.029786188 -0.1230559 0.00905127
0.10402979 0.2902002 0.358264 -0.12897252 -0.09646076 0.23935689 0.041781835 0.090252236
0.032881048 0.21449201 -0.043736104 -0.18811391 -0.24520852 5.647605e-05 0.49530607 0.12919484
0.19782765 0.19107644 -0.10952375 -0.7467866 0.19426766 -0.23126858 -0.20251687 -0.018003225
0.21341726 -0.4192217 0.25700298 -0.16331056 0.12374493 -0.17954618 -0.29161078 0.12250121
-0.2537571 0.20227768 -0.09099021 0.19922106 -0.27407372 0.25671488 0.06067614 -0.09507315
0.0082182735 -0.118362434 0.26519364 0.039316017 -0.24361828 0.06190853 -0.20062955 0.14999771
0.42079762 0.03772818 0.014904957 0.06842359 0.1982047 0.51404494 0.19319072 0.07747659
-0.08159925 -0.078161664 -0.25192383 0.29482368 0.16183831 -0.28272244 -0.16779315 -0.18891412
0.1656759 -0.1725126 0.035402313 0.068624415 0.13831365 0.020562064 0.013248264 0.18824293
-0.28501862 -0.08065158 -0.07530069 0.14862676 0.08990068 -0.28760576 0.17100067 0.06518162
-0.10875169 -0.1832836 -0.06387516 -0.26865622 -0.32899508 -0.017555203 0.14265293 0.22983278
0.23644061 -0.2362546 -0.21934834 0.41855463 0.018803185 0.10408527 -0.22341433 0.13989843
-0.048706487 -0.015141096 -0.006828996 0.14176962 0.17995529 0.19002558 0.34477413 0.09760716
0.14559305 0.2902788 0.033703495 -0.18333076 0.293519 0.08601127 -0.1407321 0.19290835
-0.19682333 0.10381299 0.51592076 0.28759485 -0.25746146 0.1582491 -0.098815784 -0.064876944
0.23299848 0.15670995 0.3815224 0.2492925 0.11354817 -0.32247955 -0.1473274 0.18561618
-0.155165 -0.20235413 0.12032967 -0.54125696 -0.00010532819 -0.2039803 -1.3416504 0.059830368
-0.27620208 -0.17000651 -0.27803707 0.31374022 -0.6961594 0.01171928 0.57059973 -0.3062047
-0.2492352 0.81439483 -0.25465414 -0.3010254 0.2529616 -0.07331823 0.023042876 0.120777935
-0.07886679 0.47858474 -0.22808473 0.08165411 0.3954762 -0.23101036 -0.4610543 -0.4258167
0.5169642 -0.01765208 0.18889803 0.001066643 -0.2132034 -0.0536555 0.20049834 0.13923177
-0.35272416 0.2878633 -0.38463613 0.39306736 -0.0056887916 -0.12237164 0.092005275 0.081957236
0.11833224 0.16588336 -0.13756326 -0.56297034 0.10844294 -0.17985108 -0.032359034 0.09219227
-0.072613835 -0.41033876 -0.0057575237 0.040986896 -0.26365435 -0.045291517 -0.17538542 -0.2838124
0.112692215 -0.20085713 0.28064632 0.1232115 -0.14035472 0.25145262 0.14943106 -0.027689792
0.08057905 0.10131706 -0.27329463 -0.14751041 0.045627948 0.10621536 -0.06945546 -0.14894833

embedder.emb_rnn.weight_hh_l1 f4 [60, 20]
00000000: fa68 f03c c03b 013e 08ef 353d d206 0dbd
00000010: a60b ae3c 1804 90bd 56c1 93be 2acf 033c
00000020: fa89 41be 0734 a1bd 560e e63d f3f6 27be
00000030: 771e abbd 2de9 5bbe 886d f3be cdf8 943c
00000040: 21ea 10be 820f 9cbe f63b 66be 525f 66bc
00000050: bcb9 523e 6620 013e 50c1 c03d f3b1 a23d
00000060: 946e 03be e2b9 68be a189 373e 4234 91be
00000070: 7d4f 0bbe f94a 853e d206 7cbe 8449 c1be
00000080: 4774 e43c cc8f 85be 3669 9a3e 2cb1 97be
00000090: 0331 ea3d e9b2 27be 56d6 1d3e 7388 37be
000000a0: 0d65 c53c e7de c23d c71f 9d3e d7e6 15b9
000000b0: 0675 6dbd 206f b73e 4791 683d 8c09 ed3d
000000c0: 730a e6bd a12d a13e 4905 68bd 2105 9a3d
000000d0: 8dd3 9ebe 308d 43be 7350 f7bd d8e7 a63e
000000e0: f2d5 8e3e 9fbf d93d cb73 2d3e 31a2 7abe
000000f0: ad04 0d3e 9edc 5ebc 95b3 07be 6b15 073e
00000100: 86ec a63d d8ff 943d 017a 2dbf ef0b f3bd
00000110: 7000 bc3d 6eca 0bbe 77b7 2e3e fd0c 5bbe
00000120: d750 473d 9f01 0f3c 1f9f 5ebe e3db 053d
00000130: e7ea 97be 08ab acbe 9d17 8cbe e86f 89be
00000140: 53ec 533e 4232 fdbc e1b2 d0bd 2b31 afbd
00000150: e0e0 36be 6afb 06be f1d1 0dbd 4fd8 e23b
00000160: 84a6 273e 2db7 0cbe d56a 753e d9eb 2cbd
00000170: cc22 00bb bf5a c7bd c2e9 14be 0098 5ebe
00000180: 14af 81be bea6 2fbe 1816 5a3d 0fbe cfbd
00000190: 1e6c a33d fdea 97be d133 b0bd 6111 95be
000001a0: 7958 4fbe 55a8 c1bd 5a33 16be f4ff 14be
000001b0: ea73 083e 6615 60be 1cb7 e83d 7044 953c
000001c0: c452 0c3e dec4 94be 530a 56be e1df a93d
000001d0: ac7a 0bbe d336 8c3e d13e c7bd 1143 0a3e
000001e0: 0e9f 2b3e 058e f33d 3a37 4b3e 1f79 7cbc
000001f0: 77c4 e8bd de49 223d a91b a33e 1141 7f3e
00000200: 21dd f1bd 98ac d23c 6ad1 993e 0e42 ed3e
00000210: 51db 323e c2e7 92be 70e1 013d 197e 7e3d
00000220: 227f bfbd 09c7 e93e 2c45 a9be 981c 9ebe
00000230: cb59 573d 6e8c 863d ec8f e73d 82de 67bc
00000240: 92ad 97bd 7698 20be 0b65 8abd 8835 81be
00000250: 2836 34bd 32a7 6f3b fc10 a7bd 3e51 e13d
00000260: 450f 3b3e fe48 18be eb27 0a3e a1b7 923d
00000270: a34a 9e3d 6310 40be 9762 563e 51d7 0c3e
00000280: 805f 3abd 17b4 fb3d d852 683d 2d68 9b3e
00000290: 2b4b 90bd a840 223e d96f acbc 797f a3bd
000002a0: d57a 88be 93e5 043e 449f 0bbe 82d0 6f3d
000002b0: c25d 02be 040d f83d 96ac de3d 3620 16be
000002c0: 278a 3bbc f418 863e c2f1 5dbd 63ac 093e
000002d0: b1c0 1f3d fa24 28bd 89ff dc3c 434d d43b
000002e0: 1087 17be 6a65 3bbd 2d98 8bbe fa3b a8be
000002f0: f68d 71be 1f51 dd3b 063c 84be 997c 1dbf
00000300: af67 26be 9818 523d 99ff 9d3d 4d09 073e
00000310: fa37 dbbc c175 87bb e805 b9be 7745 2fbd
00000320: ecc4 a6bd 5e64 66be f81c 7c3d fcf5 32be
00000330: 404d 513d 19db 6f3d acce f2bd 06cf 86bb
00000340: 39b6 92bd 9dd0 243d b3f2 b93d 64d8 7f3b
00000350: 535c 413e 6871 0ebe 7db0 0bbe 5b47 51be
00000360: e97c 54bd 2905 fabc a524 82bd 2289 733e
00000370: 7e76 00be aaa3 2a3e d545 10be c6cf 0e3e
00000380: 7bbc 35be 1bd5 4fbe d084 a63d 52ca 5fbe
00000390: 03cc d0bc bf6d 6ebe c671 78be c334 6cbd
000003a0: dad1 673e 673a 5e3e 8572 8c3e 01d2 c3bc
000003b0: ebd3 b2bd b3fc 803e e2a7 69be d36a 57be
000003c0: fbe0 c93d 3df6 ec3d a9db bdbd ddef 92be
000003d0: 4324 7d3d e6f9 85be 626f 273e d9c2 583e
000003e0: 27dc 803e 8f9f da3d deab b83d 2d91 b93c
000003f0: d6f2 61be c00c 933e 82ba dfbd 521d 383e
0.029346932 0.12620449 0.04441741 -0.034430332 0.021245789 -0.07032031 -0.2885844 0.008044997
-0.1890029 -0.078712516 0.11233203 -0.16402797 -0.0835542 -0.21475668 -0.47544503 0.018185044
-0.14151813 -0.30480582 -0.22483811 -0.014060812 0.20578665 0.12610015 0.094118714 0.07944097
-0.12835151 -0.22727159 0.17923595 -0.28360182 -0.13604541 0.26033762 -0.24611977 -0.377514
0.027887477 -0.2608627 0.30158395 -0.2962736 0.114351295 -0.16376843 0.15413794 -0.17923145
0.024096036 0.095151715 0.30688307 -0.00014295742 -0.05797293 0.3582697 0.056779172 0.115740865
-0.11232462 0.31480125 -0.056645665 0.075205095 -0.31020775 -0.19096828 -0.12075891 0.32598758
0.27897602 0.10632252 0.16938703 -0.24475934 0.13771315 -0.013602404 -0.13252099 0.13191764
0.08150582 0.07275361 -0.6776429 -0.118675105 0.09179771 -0.1365144 0.17062174 -0.21391673
0.04866108 0.008728414 -0.21740387 0.032680403 -0.29671404 -0.33724236 -0.27361766 -0.2684319
0.2069562 -0.030907754 -0.101903684 -0.085543 -0.1785922 -0.13181844 -0.034624044 0.0069227587
0.16372114 -0.13741751 0.23966534 -0.04221711 -0.001955199 -0.09734105 -0.14542297 -0.21737671
-0.25328887 -0.17153451 0.053243726 -0.10143673 0.07979606 -0.2967147 -0.08603633 -0.29114822
-0.20248593 -0.09455935 -0.14668027 -0.14550763 0.13325468 -0.21883163 0.1136305 0.01822111
0.13703448 -0.29056448 -0.20902376 0.08294655 -0.13621014 0.27385578 -0.09728778 0.13502146
0.16759893 0.118923225 0.19845286 -0.015409737 -0.11365598 0.039621226 0.3185704 0.24927165
-0.11809755 0.025717065 0.30042583 0.46339458 0.17466475 -0.28692442 0.031709135 0.062131975
-0.093504205 0.45659664 -0.33060586 -0.3088119 0.052575868 0.065697536 0.11306748 -0.014152171
-0.07406153 -0.15683159 -0.06757554 -0.25236154 -0.04399696 0.0036568162 -0.081575364 0.11001824
0.18267544 -0.14871594 0.1349179 0.07163931 0.077290796 -0.18756251 0.20936047 0.13754012
-0.045501232 0.12290209 0.05671963 0.30352917 -0.07045587 0.15844977 -0.021049427 -0.07983298
-0.26656213 0.129782 -0.13634974 0.058548458 -0.12731078 0.121118575 0.10872762 -0.14660725
-0.011446512 0.26190913 -0.054185636 0.13444667 0.039002124 -0.04105089 0.026977317 0.006478937
-0.14797616 -0.045751013 -0.27264538 -0.32858258 -0.2358931 0.006754055 -0.25827044 -0.61518246
-0.1625049 0.051292986 0.07714767 0.13187142 -0.02676009 -0.0041339104 -0.3613732 -0.042790856
-0.081430286 -0.22499225 0.061551064 -0.17476648 0.051099062 0.058558557 -0.11855826 -0.0041140346
-0.071636625 0.04023801 0.09079494 0.003903889 0.18882875 -0.13910449 -0.13641544 -0.20437376
-0.051876936 -0.030520039 -0.06354646 0.23782781 -0.12545201 0.16663995 -0.14089139 0.13946447
-0.17747681 -0.20296137 0.08130801 -0.21854523 -0.025487905 -0.23284052 -0.24262151 -0.057667505
0.22638646 0.21701966 0.2743112 -0.023903849 -0.087318264 0.25192794 -0.22817948 -0.21036844
0.09857365 0.11570404 -0.092704125 -0.28698626 0.06180216 -0.2616722 0.16351083 0.21168078
0.25167963 0.10674965 0.09017156 0.022652233 -0.22065291 0.28720665 -0.109242454 0.17979935

embedder.emb_rnn.bias_ih_l1 f4 [60]
00000000: 1cee 843f 5eb0 823f 9951 903f 2a36 6c3f
00000010: e955 843f 3169 7e3f c490 723f 114a 893f
00000020: 2e6a 813f 126b 5b3f 83e1 823f 8fae 7d3f
00000030: 8c6c 803f 6af6 8b3f 00e2 8e3f 6b8d 803f
00000040: 5d0c 7f3f 3562 8d3f 4c1d 7f3f 95fc 813f
00000050: ce94 253f fd56 fa3e 5711 893f c503 a83e
00000060: 619d 213f af38 7b3f 35e5 563c bbed 203f
00000070: c843 3d3f df59 b53e 29d4 da3e d193 4c3f
00000080: 8c7c 243f 411e 383f bfd8 533f 8ca7 4c3f
00000090: 9cfd 6c3f b9b1 c23e efca 223f e06b 4d3f
000000a0: 09ae 8b3f 062a 623f 885e 873f ea53 773f
000000b0: 8f10 a93f 8c66 873f d86b 713f 8b04 653f
000000c0: 4f39 733f 8035 8a3f 50b4 513f e587 773f
000000d0: e95a 653f e4b7 683f d09e 853f 87eb 613f
000000e0: 2149 893f 56c2 693f 6f07 8d3f 30b1 703f
1.0385165 1.0210073 1.1274902 0.9227015 1.0338718 0.9937926 0.94752145 1.0725728
1.0110528 0.8571025 1.0225071 0.9909448 1.0033126 1.0934575 1.116272 1.0043157
0.9962824 1.1045595 0.9965408 1.0155207 0.6468018 0.48894492 1.0708417 0.32815376
0.63130766 0.9813337 0.013116171 0.6286275 0.7393155 0.3542013 0.4273999 0.7991305
0.64252543 0.71921164 0.82752603 0.79943156 0.9257448 0.38026217 0.635909 0.8024273
1.0912486 0.8834537 1.0575724 0.9661242 1.3208178 1.057817 0.9430518 0.8946006
0.9500932 1.0797577 0.8191576 0.96691734 0.8959184 0.90905595 1.0439091 0.8825001
1.0725442 0.9131216 1.1017894 0.94020367

embedder.emb_rnn.bias_hh_l1 f4 [60]
00000000: abc0 1d3d cb13 ac3c ee8c 023e 8b4f 9ebd
00000010: d2c7 0a3d c87d cbbb adf3 56bd 36a0 943d
00000020: 1dfb 343c 3453 12be 535f b83c 6452 14bc
00000030: 6763 593b 9668 bf3d c820 ee3d fe9b 8d3b
00000040: 6327 74bb c723 d63d b9ce 62bb f03a 7e3c
00000050: d5d5 b4be 87d4 02bf 9113 913d 2ffe 2bbf
00000060: 9dc4 bcbe afdb 98bc 5da4 7cbf 9024 bebe
00000070: 3b78 85be f752 25bf 0396 12bf 03b0 4dbe
00000080: 6706 b7be fbc2 8fbe 079d 30be 1961 4dbe
00000090: a712 98bd 23a7 1ebf c769 babe b451 4abe
000000a0: e10e b83d 4e45 00be d600 8e3d 5b9e adbd
000000b0: f12b db3e 1041 843d f1af 93bd 59f2 d2bd
000000c0: bc19 4ebd 53c2 e63d 5750 68be 82cf 82bd
000000d0: fed7 07be d32f b3bd c65a 213d a94d 05be
000000e0: ae50 df3d 742f bbbd 957e c33d c926 5dbd
0.03851382 0.021005532 0.12749073 -0.07730015 0.03388197 -0.0062100627 -0.05247848 0.0725712
0.011046198 -0.14289552 0.022506392 -0.009052847 0.003317082 0.0934612 0.11627346 0.0043215742
-0.0037254922 0.10456043 -0.003460808 0.0155169815 -0.3531939 -0.5110554 0.0708381 -0.6718473
-0.36868754 -0.01865944 -0.986883 -0.3713727 -0.2606829 -0.6457972 -0.5726015 -0.20086674
-0.35747072 -0.28078446 -0.17247401 -0.20056571 -0.07425433 -0.6197378 -0.36408827 -0.1975773
0.08987213 -0.12526438 0.06933753 -0.084774695 0.42806962 0.06457722 -0.072112925 -0.103001304
-0.05031751 0.11267533 -0.22686897 -0.06387235 -0.13265988 -0.08749356 0.03939321 -0.13017906
0.1090406 -0.0913991 0.09545628 -0.053992067

embedder.emb_rnn.weight_ih_l2 f4 [60, 20]
00000000: f847 eb3b fe94 223e 9ee1 b0be 60be 84be
00000010: bef9 17be 8b06 643d a022 8f3e 8e00 b5bd
00000020: 961c 3dbe 3296 14be a070 9e3e ceda a7be
00000030: f9c3 f4bd 118d 163e 8a51 f4be 3a8a a03d
00000040: c9b0 4c3d cc56 a9bd 5ab7 b1be b862 52be
00000050: 87fa d23d 11cf 02be 1608 4cbe 7a17 ec3c
00000060: d0e8 afbb 1c58 793e 2c13 623e ff7a 633e
00000070: 6f35 e8bd 964d 76be 269e 45be e732 a93e
00000080: 760f 9b3e ea4e bb3d f463 68be 98c9 a03d
00000090: bea3 c2bd b38d 4d3e cf81 14be 30c6 9d3e
000000a0: c17b df3d e6b4 863e 65b6 5c3e 1168 2c3e
000000b0: b661 893a d6ad ddbd 44f9 3c3e ffb3 bf3c
000000c0: b754 3bbe ac15 78be d452 bfbd 013a 13bc
000000d0: ec96 71be f2ef 80be cbb4 32be f321 14bf
000000e0: a5cd 81be c90c 8cbe 8b06 683e 2817 173e
000000f0: 1a1a 3f3e 4e52 01be d118 423d 8962 c13e
00000100: 4bdc a83d cb74 3dbe 5c47 13be 11bd 813e
00000110: ad35 e43d 6de8 87bd 9771 613e 11e5 61be
00000120: 2b54 303e a522 ddbd af28 f7bd 220d 4e3e
00000130: c15c 35bb d139 d0bd 61a0 243e df2a 1d3e
00000140: 73b1 c7bc 3024 c93d 434c 4fbe d218 6bbe
00000150: 4623 19be 4cb2 50be b5b2 db3e 6645 4fbe
00000160: 64ec 8a3c 931e 1f3e 6471 f93d c16d a53e
00000170: a8a9 b9bd 7d49 0d3e 1f03 a13e ec0f ab3e
00000180: eb44 803e 1384 123d bf1c 183d 368a 0bbd
00000190: e1f7 1b3e 4682 d63d 2ad8 70be 4253 4d3d
000001a0: d957 48be 2760 90be 3c88 b4bd ba76 69be
000001b0: dde7 0f3e 182a 493e abbc e9bd c234 a53e
000001c0: cfc3 f73d 116a 323e f8ad 91bd 8c13 89bc
000001d0: fb74 77bb 95ce f73d eb89 863d d1e8 293e
000001e0: b2ea a9be c027 a53e 4738 d9bd b5e6 fe3c
000001f0: 8f4a ddbd 6d88 47be be9a 793f 2eec 663e
00000200: 631a 84be ada6 b1bd 72e3 933e 23fa 813e
00000210: 9c14 20bb 86e0 b0be 85fa aa3d a0fe 5fbc
00000220: 5d39 3abe d9d0 31be 14bf 80be 7467 d5be
00000230: 8c07 9fbc 7c1c b33c d54c 63be 4c70 c03e
00000240: 7377 1cbb f07d d73d c4b5 8d3d 60e9 cc3e
00000250: 7394 b9be 5744 a3be 2c34 64be 0d6f 77be
00000260: 3963 bdbd 5fa5 183e adc6 8b3d b456 353d
00000270: fb07 87bd 8967 24bd f009 bebd 790e e1bd
00000280: 12f3 63bd 7025 f83d dae2 323e 7cca 4bbd
00000290: 0005 293e 2518 2a3e 43b5 e83e 8028 f03d
000002a0: 7a88 28bd 280d dcbc a6de 8e3e ac3a 443d
000002b0: 4211 ba3e ffc6 2ebd fc26 2cbe b3e0 32bd
000002c0: 46d3 bc3d cd3e c5bd 0f74 b7bd 78b5 90be
000002d0: 7e56 1dbd 967b 37bd 6095 66be 9e1e 11bc
000002e0: 04cf 8dbd a135 a7bc 097d ccbe 549f 503e
000002f0: 8cb2 e83e c4a6 a43b c5ec 45be b4b4 a03e
00000300: 0211 babd 8996 1f3e ca45 a9be d8b5 693e
00000310: e597 35be 8ac1 3cbd 8ae4 773d 1409 df3e
00000320: 5320 9839 0163 be3d d0b8 dfbd ac5f 1cbe
00000330: 6bfd 713d 489e 63be 88df a33f 6900 453e
00000340: 9990 c13c e0b6 c23d b5d3 9f3e f32c 633d
00000350: 25a4 86be b0af 103c e2cf cbbd 5452 ed3d
00000360: e67f c83c 5712 bf3e 6de0 c038 459d 013c
00000370: 8dad 3fbd 77aa e2bd 45d2 75be 7a60 1e3e
00000380: 3036 b23d 4889 c83c 1d69 403e 503d 953e
00000390: da15 91ba 0682 8dbd 5e48 623d c36b 763e
000003a0: 1720 213d 7212 253e 5082 f9bc c132 253e
000003b0: 68bc 143e 11bc fd3c 85dc 91be 8b0f 9f3e
000003c0: 90e8 25be a33b 923d 4c7c 8fbd 905b de3d
000003d0: 7d4b 5abd a01b 1f3e 5da3 7abe 6291 abbe
000003e0: 683f 683d 360b 083d 03a0 a7be 0109 febc
000003f0: 0971 483c 7cb4 493e d459 653e 66d8 10bd
0.00718021 0.15877149 -0.34547132 -0.25926495 -0.14841363 0.055670302 0.27956104 -0.088379964
-0.18467936 -0.1451042 0.309453 -0.32784122 -0.11951441 0.1470225 -0.4771846 0.078388646
0.049973283 -0.08268508 -0.347102 -0.2054547 0.103016905 -0.12774302 -0.1992496 0.028819788
-0.0053683296 0.24350017 0.22077626 0.22214888 -0.11338317 -0.24053034 -0.1929861 0.33046648
0.30285233 0.09145911 -0.22694379 0.07850951 -0.095038876 0.20073585 -0.14502643 0.30815268
0.10912276 0.2630989 0.21553953 0.16836573 0.0010481391 -0.10824172 0.18454462 0.023401259
-0.18294035 -0.24227017 -0.0934197 -0.008985997 -0.23592728 -0.25183064 -0.1745178 -0.578643
-0.25352207 -0.27353504 0.22658746 0.14754927 0.186623 -0.12629053 0.047386948 0.3777049
0.082451425 -0.18501584 -0.1438269 0.2533956 0.1114305 -0.066361286 0.22015987 -0.22060038
0.17219608 -0.107976235 -0.12068307 0.20122197 -0.0027673694 -0.101672776 0.16076805 0.15348385
-0.024376607 0.09821355 -0.20243935 -0.22958687 -0.14954862 -0.20380515 0.4290978 -0.20241317
0.016958423 0.15539007 0.12179831 0.32310298 -0.090655625 0.13797565 0.31447694 0.33410585
0.2505258 0.035770487 0.03713679 -0.034067355 0.15231277 0.104740664 -0.2351996 0.05012823
-0.19564761 -0.28198358 -0.08815047 -0.22799197 0.14053293 0.19644964 -0.11412939 0.32266814
0.120978944 0.17423274 -0.0711326 -0.016732953 -0.0037758935 0.12099949 0.065692745 0.16592719
-0.3318687 0.3225689 -0.10606437 0.031115869 -0.108052365 -0.19485636 0.9750174 0.22551033
-0.2580138 -0.08674369 0.28884465 0.25386152 -0.0024426347 -0.34546298 0.08348564 -0.013671547
-0.18185945 -0.17364825 -0.2514578 -0.4168049 -0.019412778 0.021864168 -0.22197278 0.37585676
-0.0023874908 0.105220675 0.06919435 0.400218 -0.3624607 -0.31888077 -0.22285527 -0.24163456
-0.09247441 0.14906834 0.06825004 0.04427214 -0.06593319 -0.0401378 -0.09279239 -0.109890886
-0.05565173 0.12116516 0.1746935 -0.04975365 0.16505814 0.16610773 0.45450792 0.11726475
-0.04114578 -0.026861742 0.27904242 0.047907516 0.36341292 -0.042670246 -0.16811746 -0.04367132
0.09219985 -0.09631119 -0.08957683 -0.2826345 -0.038412564 -0.044795595 -0.2251792 -0.008857397
-0.06924251 -0.020411314 -0.39939144 0.20373279 0.4544872 0.005024763 -0.19328602 0.31387866
-0.09085275 0.15584768 -0.33061057 0.22823274 -0.17733724 -0.04608301 0.060520686 0.43561614
0.00029015783 0.09296227 -0.10923922 -0.15270871 0.05907957 -0.22228348 1.2802591 0.19238438
0.02362852 0.09507537 0.31216207 0.05546279 -0.26297107 0.00883095 -0.0995176 0.115879685
0.02447505 0.3731868 9.197076e-05 0.007911031 -0.04679637 -0.1106767 -0.24005993 0.1546649
0.08701742 0.024479523 0.18790098 0.2914834 -0.0011069134 -0.06909566 0.055244796 0.24064545
0.039337244 0.16120318 -0.030457646 0.16132642 0.14524996 0.030973466 -0.28488556 0.31066546
-0.16201997 0.07140281 -0.070061296 0.10857308 -0.053294647 0.15537882 -0.2447638 -0.33509356
0.056701094 0.033213817 -0.32739267 -0.031010153 0.012233981 0.19697756 0.22397548 -0.035362624

embedder.emb_rnn.weight_hh_l2 f4 [60, 20]
00000000: d94f 49be 27e0 6c3e 31f5 86bb 511b 423c
00000010: 461d 833e 0034 1ebe 03d8 bebd 3962 4cbe
00000020: 9dd6 29be 18c2 743e dcde ef3c ef6a 4f3c
00000030: 15f1 21be 8f65 21be 9d08 0c3e 10f9 b2be
00000040: 608c 97bd 5a3f 883d 23db be3d ea0f 843d
00000050: 4810 41be 5048 643e fd78 eebd 9889 603b
00000060: 7ce6 3c3e 0f84 1f3e 31f0 663e 5064 b53c
00000070: 2be4 203d 06c7 78be 7f63 5a3d f38c 08be
00000080: b312 273d 072c 6dbe f2f8 16bd b269 25be
00000090: eb37 6d3e 4487 8d3e 235d 18be c390 fe3d
000000a0: dc64 cebe de09 be3e de38 babe d628 06be
000000b0: 2a69 0bbd 4961 463e c57b afbd 6172 ed3d
000000c0: 3ab9 3a3b 95d8 013e 529d 24be d51e 5ebe
000000d0: baab 533e 6673 07be a764 dd3e 846f 9c3e
000000e0: a8f8 e5bc d2a1 7bbe b45a 073e 6e5f 05bf
000000f0: 79cc 0fbe e07f e43c 478c 013e 805c d23c
00000100: 97a4 b7be a6e1 653e 828e 99be 6b35 3b3e
00000110: 2e85 9fbe d004 a8be 5748 29be e11d d6bd
00000120: 4d5d 8fbe cb99 d1be d5f5 39bd 12df 143e
00000130: 2f40 143e eb35 f43a e70c 3fbe 9bfc ea3d
00000140: c5b7 82be d8b5 8e3e 9aa5 0e3e dae3 1a3e
00000150: 74fd 1bbd 5035 94bd 3d41 3bbe 0eb8 5a3e
00000160: 61ba 313e f357 1c3d fe04 003e 0417 863e
00000170: 6cec c8bd 96d4 833e 2bd6 c63e 36ab 973e
00000180: 6cac 72bd e6bf 18be feaf 51be 0dc0 04bd
00000190: c0cc 18bd 9c4b d53d 25c0 8bbe 7170 843d
000001a0: 0aca 1ebf a4ca 963e caa1 3fbe cd41 1a3c
000001b0: 3c86 263c 7995 13be 8b78 c1bd 5a09 113e
000001c0: 7d4b 123e 44f9 6cbe 2ef2 37be 2394 47be
000001d0: e2ca f8bd 03c0 75be 518e 04be 1116 b7bd
000001e0: 4ef2 70be 4430 873c e644 b9be ed9b 173e
000001f0: 7ead b8be c44b e83d 3f12 223d 16b0 fa3d
00000200: 962f 383d f386 943b 00f8 98bb ae2e 32be
00000210: 02c2 ccbd e6d4 373e e388 79bd ec38 fb3d
00000220: 5b35 273e 4b8c f1bc b1f0 e83e 2a9a 26be
00000230: 96b5 6c3d dcaf 5f3d 2935 453e 9020 ef3d
00000240: f6ba 82be 7e8a 69bd 3659 e7bd c052 98be
00000250: 3750 72be ebb3 bb3d 2946 c7bd ac0c cb3d
00000260: d41a 0c3e 26f5 ac3e 1d06 99be 0739 4fbe
00000270: 135b 4a3d 035c 703e cb45 df3c 4243 f13d
00000280: 6e2c 9cbe bf07 1f3e c821 88be bdcb 3fbe
00000290: 3b13 183e 4738 253e 1815 fe3d e365 473e
000002a0: fef4 f2bd c166 793e 5260 da3d 6cf8 40bd
000002b0: 0ee0 0bbe c562 b0be 018e 43be 44c0 87bd
000002c0: 92f1 2a3d 3662 363e d66a e03d 6041 183e
000002d0: dc65 953e d20c cf3e d88f 163e a67b 323e
000002e0: c383 123d 7c2f 8cbd 0ba0 3abe d05c 373d
000002f0: 0004 49be 6518 7a3e 4d2f 273e 0cfc b23d
00000300: aa1a 653e 85a5 3b3d 69ad 863e 73e1 fabc
00000310: bf5d 463e a149 903e 76a0 e3bc 35ac f6bd
00000320: 4e74 57be 26f2 843c c46d 8ebe 6db6 703d
00000330: a50b 753e e149 96bd 6481 383e 480d a7be
00000340: 6c9f 8d3d 3042 3abe a026 22be 9d61 1a3e
00000350: d8f1 8ebe 9a1f adbe 893b 76be 913f a53c
00000360: 94bd 8dbd 6b45 95be 5159 89be 6204 44bd
00000370: 0a26 fe3d 4f43 ce3c 49fb 45bc 21a4 a8bd
00000380: 1506 0d3e 15fe 043e 80ed bb3e f82e 39bd
00000390: 8019 80be d7fe e93d 1948 2e3e 9947 363e
000003a0: 3583 3d3e faf0 26be c075 f53d 996b c5bd
000003b0: 41ec 543e 4e5e 77bc 087b 9fbe d4ba d5bd
000003c0: 87d4 55be d861 f5bd 64d3 c33b 013e 623e
000003d0: 70fc 47bc ab6f 443e 11a7 74bd d3ea 46be
000003e0: c3ef 2ebe 49b8 4d3e 402d 97be 91f5 58be
000003f0: d662 3d3d 10ce 773d 33fe 273f 351a df3d
-0.19659366 0.23132382 -0.0041185846 0.011847333 0.2560827 -0.15449524 -0.09318545 -0.19959344
-0.16585775 0.23902166 0.029281072 0.012659772 -0.15814622 -0.15761398 0.1367516 -0.34955645
-0.07399821 0.06652708 0.09319141 0.06448348 -0.18853867 0.2229321 -0.116441704 0.00342617
0.18447298 0.1557772 0.22552563 0.02214256 0.039280098 -0.24294671 0.053317543 -0.13335018
0.040789317 -0.23161326 -0.036858507 -0.16153601 0.23165862 0.27642262 -0.14879279 0.12429955
-0.40311325 0.37116903 -0.3637151 -0.13101515 -0.03403584 0.19373049 -0.08568529 0.11594082
0.0028491751 0.12680276 -0.16075638 -0.21691449 0.20670977 -0.13227615 0.43240854 0.3055383
-0.02807267 -0.24573448 0.13218194 -0.5209874 -0.14042844 0.027893007 0.12651168 0.025678873
-0.3586776 0.2244936 -0.29991537 0.18282096 -0.31156296 -0.32816172 -0.16531502 -0.10454918
-0.2800087 -0.40937647 -0.04540046 0.1453822 0.14477609 0.0018631791 -0.18657266 0.11473962
-0.2553083 0.2787311 0.1393036 0.15125981 -0.03808351 -0.07236731 -0.18286605 0.21359274
0.17356254 0.038169812 0.12501904 0.26189435 -0.09810719 0.25748128 0.38835272 0.2962281
-0.059246466 -0.14916953 -0.20477292 -0.032409716 -0.03730464 0.10414812 -0.27295032 0.06466759
-0.6202704 0.29451478 -0.18714061 0.009415102 0.01016384 -0.14412488 -0.0944682 0.14163724
0.14286609 -0.23141962 -0.17963478 -0.19490103 -0.12148072 -0.23999028 -0.12944914 -0.08939756
-0.23529932 0.016502507 -0.36185378 0.14805575 -0.36069864 0.11342576 0.039568182 0.12240617
0.044967256 0.0045326888 -0.004668236 -0.1740062 -0.099979416 0.17952308 -0.06092156 0.12266716
0.16328947 -0.029485842 0.45496133 -0.16269746 0.05779036 0.054611072 0.1925856 0.11676133
-0.25533265 -0.057016842 -0.112963125 -0.29750633 -0.23663412 0.09165176 -0.09730179 0.09914526
0.13682109 0.33780783 -0.29887477 -0.20236598 0.04940326 0.234726 0.02725496 0.117804065
-0.30502647 0.15530299 -0.26588273 -0.18730064 0.14851086 0.1613475 0.12406367 0.1947246
-0.11863135 0.24355604 0.10662903 -0.047111914 -0.13659689 -0.34450355 -0.19097139 -0.06628469
0.041734286 0.17810902 0.10957877 0.14868689 0.29179275 0.4043947 0.1470331 0.1742998
0.03577019 -0.068449944 -0.18225114 0.044766247 -0.19630432 0.24423368 0.16326638 0.087394804
0.22373453 0.04581215 0.26304176 -0.03062508 0.19371699 0.28181174 -0.027786475 -0.12044565
-0.2104046 0.016228747 -0.2781812 0.058767725 0.23930223 -0.0733831 0.18018109 -0.3262732
0.06915173 -0.18189311 -0.15835047 0.15076299 -0.27918887 -0.33813173 -0.24046148 0.020171912
-0.06920925 -0.29154524 -0.26825956 -0.047855742 0.12409599 0.02517858 -0.012083837 -0.0823443
0.13771851 0.1298755 0.36704636 -0.04521081 -0.25019455 0.1142556 0.1701969 0.1780075
0.18507083 -0.16302863 0.1198535 -0.09639663 0.20793249 -0.015098168 -0.31148553 -0.10436025
-0.20881854 -0.11981553 0.0059761275 0.22093965 -0.012206182 0.19183223 -0.05972964 -0.19425516
-0.1708365 0.2008983 -0.2952671 -0.21187426 0.046236835 0.06049925 0.6562225 0.108936705

embedder.emb_rnn.bias_ih_l2 f4 [60]
00000000: 81d2 663f 2bc9 803f 0b36 7c3f bdd7 703f
00000010: 1546 803f 3a3b 813f 491d 6a3f 6dc3 673f
00000020: b855 6d3f 9dad 833f 9eec 753f de1b 6e3f
00000030: 0206 723f a71b 8d3f 7e00 683f 9516 7e3f
00000040: f4c5 603f f55e 6c3f 1cd1 833f 0cda 513f
00000050: bd20 223f 9247 ab3e 3049 153f 8cab 5d3f
00000060: b9bf fb3e f8e0 3a3f 5721 df3e d4ac 273f
00000070: bc05 f53e 8057 253f 9db6 6f3e 4214 703f
00000080: c4be e63e a203 873f 7eb9 cd3e fdd0 983f
00000090: af8d 343f 5362 2c3f e980 1e3f b8b5 aa3e
000000a0: cfe2 6e3f 211f 713f df25 7b3f 55e1 763f
000000b0: d126 7b3f e786 663f d525 733f bee9 743f
000000c0: 3862 7b3f d67e 683f 30ef 633f 1a59 7a3f
000000d0: f71e 773f 5594 6a3f 929c 853f e9ef 6a3f
000000e0: c0e3 7b3f 20ae 6e3f 4acd 753f d253 753f
0.90164953 1.0061392 0.98519963 0.9407919 1.0021387 1.00962 0.91450936 0.9053257
0.9270892 1.0287358 0.96064174 0.9301127 0.9454042 1.1024064 0.9062575 0.9925321
0.8780205 0.9233239 1.029819 0.8197334 0.63331205 0.3345304 0.583148 0.86589885
0.4916971 0.72999525 0.43580124 0.6549809 0.47855937 0.6458664 0.23409505 0.9378091
0.45067418 1.0547984 0.40180582 1.1938778 0.7052869 0.6733753 0.6191545 0.33341765
0.9331483 0.94188124 0.9810466 0.9643758 0.98106104 0.90049595 0.949796 0.9566916
0.98196745 0.90818536 0.89036846 0.9779221 0.96531624 0.91632587 1.0438406 0.91772324
0.98394394 0.93234444 0.9601637 0.95831025

embedder.emb_rnn.bias_hh_l2 f4 [60]
00000000: 836b c9bd d125 c93b f16f 72bc f382 72bd
00000010: 97cb 0b3b cea9 1d3c dc14 afbd d2e4 c1bd
00000020: f953 95bd 6868 eb3c 3832 21bd 3421 8fbd
00000030: 76a0 5fbd 8eb9 d13d d2fc bfbd ebbe f4bb
00000040: 47d1 f9bd 8b09 9dbd 7d3c f43c f697 38be
00000050: e0be bbbe 115c 2abf f36c d5be 7351 09be
00000060: 1a20 02bf d33d 8abe 826f 10bf 5ca6 b0be
00000070: e27c 05bf bf50 b5be 6a12 44bf 03bb 7ebd
00000080: a5a0 0cbf af78 603d 4223 19bf a186 463e
00000090: 48e4 96be da3a a7be 2afe c2be 51a5 2abf
000000a0: 04fa b2bd 4f35 8cbd 46ba 343d 32e8 46bd
000000b0: 954d d7bc 5685 a0bd b9b3 ce3c 4b62 80bc
000000c0: ddc1 61bc df66 d2bd 28c9 36be 5778 bcbc
000000d0: 1f80 88bd fd73 b0bd 2a71 013d 19d5 aebd
000000e0: 1403 a9bc 327f b3bd f51f 1bbd 2163 4fbe
-0.09834959 0.0061385413 -0.014797197 -0.059206914 0.0021331066 0.009623004 -0.085489005 -0.09467472
-0.07291407 0.028736308 -0.039354533 -0.06988755 -0.054596387 0.1024047 -0.093743935 -0.0074690483
-0.121981196 -0.07667836 0.029814 -0.18026718 -0.36669064 -0.6654673 -0.41684684 -0.13409977
-0.50830233 -0.27000293 -0.5642015 -0.34501922 -0.5214368 -0.35413167 -0.765906 -0.062190067
-0.54932624 0.054802593 -0.59819424 0.19387294 -0.2947104 -0.32662088 -0.38084537 -0.666585
-0.08739093 -0.06846105 0.044122957 -0.048561282 -0.026282111 -0.07837932 0.025232183 -0.01567187
-0.013779131 -0.10273527 -0.17850173 -0.023006601 -0.06665062 -0.08615873 0.031602062 -0.08536739
-0.02063135 -0.08764495 -0.037872273 -0.20252658
