output/FEM_GAN_40/model.pt (torch, 153208 bytes, 65 tensors)

embedder.emb_rnn.weight_ih_l0 f4 [60, 10]
00000000: ddec 0f3d ca47 6e3e 026c 1d3e 16fe 20be
00000010: ec9e 4a3d 43da ab3d 2f0d b93d 55b6 133e
00000020: 17bf 6f3e 79f1 a13e c824 d53e 4844 7a3e
00000030: bc78 ce3e e69b d03d 5f66 cc3d 1f9c 33be
00000040: 5e08 dfbd bc44 993e 6b77 6a3d ba1e 5bbe
00000050: 639f a3be 9312 5bbe 79fc f0be 0a75 98be
00000060: 672c 8bbe 3714 acbe 7ce1 323e c28d 81be
00000070: 6fcd a93d 0932 edbd 4350 33be 907e fcbc
00000080: 574e 92be 1ca3 a1bd 6b8f 8a3e 0afa 653e
00000090: 7135 713e 98d5 a43e 50cd c33c 1d22 033d
000000a0: 208f 923e 1a76 ac3e b117 4b3e 7d41 3d3e
000000b0: 91db 603e a02e 7f3d 1b8f 713e daec c33d
000000c0: 70a8 73be 2230 383e ea47 ac3e 908c 19be
000000d0: ee00 5abc 199f bd3d af7a a7bd 7187 bdbe
000000e0: e686 d83d 9b61 94be 682c 96be 4da2 e0bd
000000f0: b430 88bf b2e0 9dbf cd93 b8bb c463 123c
00000100: 2204 883d bdf0 c43f 008b 5fbf ee10 81bf
00000110: 8c53 b9be 8cf2 02bf e0f6 7a3e 80b1 49be
00000120: 5c00 4cbe 4c51 96be 5997 453e 50d8 90be
00000130: 420c a43d 1b43 823d cf55 f0bd d3dc cd3d
00000140: 0516 6c3e 50ed 6f3d f963 0d3d 9612 9a3e
00000150: 6ed2 833e 931b d23d c089 4d3d 74bd 893e
00000160: 569a 813e 946b 2f3e d061 dbbe b263 3bbd
00000170: 1408 283e 06ce 883d d51e 08bd 7346 8fbe
00000180: 48b8 78be e809 813d 68c3 bdbd 6b9e bebd
00000190: 7df9 2e3f 7a38 ff3c c826 803e 616b b93e
000001a0: a6e7 283e ecbe 3d3e eaa1 e3be 2353 b1be
000001b0: d464 85be bd9d c9be e2dc abbb a1b4 873e
000001c0: 1f6f 85be aac2 803e a596 71be 2b52 33be
000001d0: aef2 1d3e 4ed9 a63d 73c4 923d 0b69 00be
000001e0: 37b2 ad3e 7dbc d9bd 5e3e 893e 395d 823e
000001f0: 2e9f af3e f41d a1bd 66d4 a3bb 636e d93b
00000200: 75d5 523e d512 503d b4ed eebd 09d5 743e
00000210: c54d 373c 3309 263e 9940 053e fd80 883e
00000220: c1bb 343e c81a 61be e768 94be 1c5e 0c3c
00000230: d2dc 63bd 4e2c 8d3e 0363 703e 9153 853e
00000240: 6173 c4bd 0cd2 3e3e 46e3 5fbe 927b 4fbd
00000250: 799b ccbd a506 5bbe 1090 edbd ede5 2a3d
00000260: a9f4 963d eaa7 913c 94c6 103e a862 f83d
00000270: 7195 853c 05f0 493e 0587 9abc 476c 833c
00000280: 1297 173f 74b4 323e e352 44bf 0f74 4fbf
00000290: ca95 24bf 5a55 08bf c06a 4d3e a855 20be
000002a0: 0284 543e 7625 05be 6538 b5be 0a36 9cbe
000002b0: 3417 fcbd 4db6 783c bb75 f63d 702f 67be
000002c0: 6d16 39be 42a7 72be 4d57 eebe 786b bfbe
000002d0: ffb8 aabd ca9f 363e 31da e63d dff1 c1bd
000002e0: b016 ad3e b656 353e 97c2 cc3d 4cff c8bd
000002f0: ec8d b83e 9d64 603c e4c2 4bbe 7b75 053e
00000300: c7a9 12bf d442 0bbf 9f0e 15bd 7747 c4be
00000310: 5c1e 5c3e 4575 1d3e 8d1d aebd 738c 8fbd
00000320: 1201 28bf 23ad 98bd 9e79 35bf 1cb3 35bf
00000330: ac3d 3c3d 6a98 a0be 3e8c dcbe 0596 cebe
00000340: 8187 1cbe b683 9cbd d6de 46bf 1603 b4be
00000350: f863 31bf d103 77bf 3309 bfbe 95c3 dbbc
00000360: dc53 5bbf 7ee0 59bf 9f8d 52bf 9780 a3bf
00000370: d1a7 dabf 4df2 ffbd 144d 4bbe 1747 98bd
00000380: a8ca 823d 2537 53bf c891 173d d04a 7e3e
00000390: 953d c33d 9493 013f c919 54be 2a99 863e
000003a0: e0a2 a03e 3810 d23e 76d8 cc3e b465 ba3e
000003b0: c241 1dbf 6bf8 3ebe 65ac 01bf ec71 c5be
000003c0: 5cc6 08bf aa8b 8e3c daef b13e ad85 793e
000003d0: ad5d 31be 2e77 ba3e 27d3 82be 268e 84be
000003e0: 6853 1cbe 7910 1f3c a558 a8bd 006c c53d
000003f0: 78ae 67be 4c89 83bd dfd5 3c3c 4185 acbe
0.035138 0.23269573 0.15373233 -0.15721926 0.049467966 0.083912395 0.09035718 0.14425023
0.23412739 0.31629542 0.41629624 0.2444011 0.40326488 0.10185985 0.09980463 -0.17540024
-0.10890268 0.29935253 0.057242792 -0.2139844 -0.3195754 -0.21393804 -0.4706762 -0.29776794
-0.27182314 -0.33609173 0.17468828 -0.25303465 0.082911365 -0.11581809 -0.17511086 -0.030822068
-0.28575394 -0.07892439 0.27062544 0.22458664 0.23555543 0.3219421 0.023901612 0.032014955
0.2862482 0.33683854 0.19833256 0.18482013 0.21958758 0.062300324 0.23589747 0.0956666
-0.23794723 0.17987111 0.33648616 -0.14995027 -0.013305886 0.09258861 -0.08177697 -0.37017396
0.10572605 -0.28980717 -0.29330754 -0.109684564 -1.0639863 -1.2334197 -0.0056328536 0.008934919
0.06641413 1.5385967 -0.8732147 -1.0083292 -0.36196554 -0.5115135 0.24508238 -0.19696617
-0.19922012 -0.293589 0.19296016 -0.28290033 0.080101505 0.063604556 -0.11735117 0.100518845
0.23055275 0.05857593 0.03451917 0.30092305 0.25746483 0.102591656 0.050180197 0.26902354
0.2531306 0.17130882 -0.42848063 -0.045749374 0.16409332 0.06679921 -0.03323253 -0.27983436
-0.24289048 0.063007176 -0.092657864 -0.093075596 0.6834944 0.03115486 0.25029588 0.36214736
0.16494617 0.18529862 -0.44459468 -0.3463374 -0.26053488 -0.39378157 -0.005244837 0.26504996
-0.2606134 0.25148517 -0.23592623 -0.17511813 0.15424606 0.08146916 0.07166376 -0.1254007
0.3392503 -0.106316544 0.26805395 0.25461748 0.34301132 -0.07867041 -0.004999685 0.0066354736
0.2058924 0.05079921 -0.11666432 0.23909391 0.011187975 0.16214447 0.13012923 0.2666091
0.17649747 -0.21982872 -0.28986284 0.008567359 -0.055630513 0.27572864 0.2347527 0.2604032
-0.09592319 0.18634814 -0.21864042 -0.050654955 -0.099905916 -0.21389253 -0.11599743 0.04172318
0.07370884 0.017780263 0.14138252 0.12128192 0.01630661 0.19720466 -0.01886321 0.016042842
0.5921489 0.1745165 -0.76688975 -0.81036466 -0.6429106 -0.53255236 0.20060253 -0.15657675
0.20753482 -0.13002571 -0.35394588 -0.3050998 -0.12309113 0.015180183 0.12034174 -0.2257669
-0.18074961 -0.23696616 -0.4655098 -0.3738668 -0.083360665 0.17834392 0.112720855 -0.094699614
0.33806372 0.17708859 0.099980526 -0.09814319 0.36045778 0.013695863 -0.19898564 0.13033096
-0.5729031 -0.54398847 -0.036390897 -0.38335773 0.21495956 0.15376766 -0.0850173 -0.070092104
-0.65626633 -0.07454898 -0.708887 -0.70976424 0.045957252 -0.31366283 -0.43075746 -0.4034883
-0.15286066 -0.07642309 -0.7768377 -0.35158604 -0.69293165 -0.964902 -0.37311706 -0.02682666
-0.85674834 -0.8510817 -0.82247347 -1.2773618 -1.7082464 -0.12497387 -0.19853622 -0.07435434
0.0638631 -0.8250602 0.037004262 0.24833226 0.0953323 0.5061581 -0.20712961 0.2628873
0.31374264 0.41028 0.40008897 0.36405718 -0.61428463 -0.18649451 -0.5065368 -0.38563478
-0.5342767 0.017400581 0.34753305 0.243674 -0.1732089 0.36419052 -0.2555172 -0.258897
-0.15266192 0.009708517 -0.082200326 0.0963974 -0.22625148 -0.06422672 0.0115256 -0.33695415

embedder.emb_rnn.weight_hh_l0 f4 [60, 20]
00000000: 4179 9dbe 2d04 753e 00fe 3c3d a0e5 d9bc
00000010: 110c 283e 5ad2 c73d 92b5 9f3d a2ad 0d3e
00000020: 3d3d 93bd c492 a3be fbe0 4dbe 7633 3d3e
00000030: 6efa 16be 6862 313b d954 b43d 8dcd f8bd
00000040: 3565 8e3e 257e 433e bd90 3a3e 2121 bdbc
00000050: 6cf8 ee3d a4d5 123e 2646 753a e9c1 cdbe
00000060: aa32 1e3e 3a14 e23d b67d 983d 41c0 583e
00000070: 2cd2 43be 6fc3 00be f1a2 0a3e 3c16 87be
00000080: b481 963c 4734 323d a04b 3bbb f27d 45bc
00000090: 6913 393c 5875 383e fac1 313e 7d88 573e
000000a0: 8564 783e 1c95 353e 4d8a 9a3d 51c0 72be
000000b0: 9f3e da3d 86a0 ec3c 5d70 fc3d 7184 023d
000000c0: 3457 d5bd 0d09 b1be 9f02 e2bd 7542 753d
000000d0: c984 863d 2315 053e 4f57 8dbe c682 c33d
000000e0: 7f08 9cbd 5633 e6bd d94f 93bd 035e 65be
000000f0: ee4b 133d 6bda 8e3e f244 8ebe a975 b43d
00000100: 19fb 7ebe 3aeb 9fbd 036d bcbc 82d4 88bd
00000110: 7d8b cdbe a7f0 91be 3254 23be 1521 92be
00000120: 8b3c c63d c511 5c3e 0da6 bf3c 499d afbe
00000130: 9334 ed3d 6eb3 533e 6cf1 483d 6567 4cbe
00000140: a946 2fbe 0b02 fbbd 4046 573d 6c82 b2bc
00000150: 561c 8bbe c782 bbbe 1a3c 9e3d fbfd 47be
00000160: 461f 08be 98e7 74bd 09be a0be 59ba 53be
00000170: d0dc f1be d82f 7ebe 2c0a 9bbe 4936 3cbc
00000180: e914 a4bd 83ae e23c 1b6a 5ebe 595a 023e
00000190: 344c 6f3e 6a4a 1dbd 59d9 9b3d 42ac a1bc
000001a0: a58e b8be a37d 0d3d a371 a7bc 3bb5 0a3e
000001b0: ca6c fc3d 0134 7a3d 54d0 a0bd 95f8 06be
000001c0: 613d 8c3e e428 eb3d 8c6a 33be 4290 573e
000001d0: e2bc b9be 0813 663e 654b 1c3d 4df4 bcbc
000001e0: 3fd3 2d3e 6015 2fbe 738d db3d d212 adbd
000001f0: 6995 fbbd 7c06 2c3e 9746 9abe effb b3be
00000200: 5d34 9abd 2722 95be 95c5 323b 7a9e 8fbe
00000210: e17b 8ebe 635e 333e 2739 96bb 3073 2fbe
00000220: 64c7 e0bd 6dfb 8a3e c799 a13d 6514 79bd
00000230: d9d5 aebd a668 883e 8957 60be 3766 d4bd
00000240: 97ee 60be 8473 bcbc 9792 8d3d 101b f1bb
00000250: dd50 2e3e 2689 8d3d e64b f3bd 3e4b 863d
00000260: 7551 babd 519b 6d3e cf87 2fbe 2998 81be
00000270: 625b 653f 5fa9 8abd 0d26 19bc 0f25 653d
00000280: 24d5 05be 205e 61be bfdf 76be aa82 12be
00000290: 7f1c 523e 7676 b4be c31a bebc 723a fa3d
000002a0: fd37 d4bc 9d9e c0be d8e0 8ebd 51d5 d7bd
000002b0: d097 c4bc cd99 08bf 677e 373e b988 acbd
000002c0: 73bf debe 963e ffbe ee0b 1bbc a488 4e3e
000002d0: 59b4 7bbe 9e72 193f 4caf b6bc 241c 82be
000002e0: 9b3c 03be 48c0 33be 848d 9dbd 4b2f 363e
000002f0: 348e bbbd b210 383e 51a2 f23d 8e9f 0c3d
00000300: 05f2 efbd 4c61 70bb 0ea2 88be 4dc1 c5bd
00000310: ded7 d3be 5e24 403c 88ac 8e3e 4185 2fbe
00000320: df21 5b3e b3fe 85be 6ccb 023d 8709 3fbe
00000330: 7b56 13be 3e7c 9cbd 9b60 efbd 03bf 283c
00000340: 4772 8cbd 3b77 44be 92be 1fbe 9829 473e
00000350: fcf6 d3be ffaf 363e b9bb 93be eb62 bb3d
00000360: 0a97 0a3f 52d1 bbbd 9cc7 1d3e aee8 e0ba
00000370: 915a 1b3e ba80 4fbe 7b9a fe3d ecae 9ebe
00000380: cf30 8e3d 9ba1 11be 55fb c33d d9f8 b1bd
00000390: 9111 203e c8fd 05bf 1aa7 d3bd b62d 5a3d
000003a0: 6eec dabb 7fb0 8b3e 22c8 5f3e e490 3dbe
000003b0: 4296 353f 2460 60bd cc75 773e 00c4 643c
000003c0: 5464 153e 5ef9 e8bc 4596 6c3d ddb9 0c3e
000003d0: d336 ea3d b94a 643e 3376 4bbe e43a 75be
000003e0: 2e34 a2be 2da6 903e a7fe bbbd 9fb2 cb3c
000003f0: 5a83 7bbd 2ffd 3e3e b06d 2d3d ab57 a9be
-0.30756572 0.23927374 0.04614067 -0.026598752 0.16410853 0.09756918 0.07798304 0.13835767
-0.07189415 -0.3194791 -0.20105354 0.18476662 -0.14743969 0.0027066711 0.08805246 -0.12148581
0.2781159 0.19091089 0.18219276 -0.023087086 0.116684765 0.1433931 0.0009356461 -0.40187004
0.15449014 0.11039014 0.074458525 0.21167089 -0.19123143 -0.12574552 0.1353872 -0.2638415
0.018372394 0.043506887 -0.0028579012 -0.0120539535 0.011296132 0.18013513 0.17359152 0.2104816
0.24257095 0.17732662 0.0754591 -0.23706175 0.10656475 0.028885137 0.12326119 0.031864587
-0.10417023 -0.34577218 -0.11035656 0.05987783 0.065682955 0.12996344 -0.27605674 0.095464274
-0.07618808 -0.1124026 -0.07192964 -0.22399144 0.035961084 0.27901015 -0.27786976 0.088115044
-0.24900474 -0.07808538 -0.0230012 -0.06681158 -0.40145484 -0.28503916 -0.15950087 -0.28540865
0.096795164 0.21491154 0.023394609 -0.34299687 0.11582293 0.20673916 0.049058363 -0.19961317
-0.17116798 -0.12256249 0.05255723 -0.021790706 -0.27170056 -0.36623213 0.07726307 -0.1953048
-0.1329318 -0.059791178 -0.31394985 -0.20676555 -0.4723878 -0.24822938 -0.30281198 -0.011487552
-0.08011801 0.027671104 -0.21720164 0.12729777 0.23368913 -0.038401045 0.07609815 -0.01973546
-0.3604633 0.034543645 -0.020439928 0.13545696 0.12325437 0.06108475 -0.078522354 -0.13180764
0.27390578 0.11482409 -0.17521113 0.21051124 -0.3627692 0.22468197 0.03815784 -0.02306571
0.16975115 -0.17097998 0.10720339 -0.08450855 -0.12284357 0.16799349 -0.3013198 -0.35153148
-0.07529519 -0.2912762 0.0027278413 -0.28050596 -0.27828887 0.17516474 -0.00458445 -0.17133784
-0.10975531 0.27144948 0.07890659 -0.060810465 -0.08536882 0.2664234 -0.21908392 -0.103710584
-0.21966015 -0.0230043 0.069127254 -0.0073579624 0.17023034 0.069109246 -0.11879711 0.0655732
-0.09097568 0.2320378 -0.1714165 -0.253114 0.89592564 -0.06770586 -0.009347451 0.055943545
-0.13069588 -0.22008562 -0.2410879 -0.14307657 0.20518683 -0.3524663 -0.02320612 0.12218179
-0.025905604 -0.37621012 -0.06976479 -0.10538734 -0.023998171 -0.5335968 0.17919312 -0.08424515
-0.4350544 -0.49852437 -0.0094632935 0.20169312 -0.24580516 0.59940517 -0.022300385 -0.25412095
-0.12816088 -0.17553818 -0.076930076 0.17791478 -0.091579825 0.17975119 0.11847366 0.03433185
-0.117160834 -0.0036679087 -0.26686138 -0.0965601 -0.4137563 0.011727421 0.27866006 -0.17140676
0.2139964 -0.26170883 0.03193228 -0.18655978 -0.14388458 -0.07640885 -0.11688348 0.010299447
-0.06857734 -0.19186108 -0.1560004 0.1944946 -0.41399372 0.17840575 -0.2885416 0.091497265
0.5413672 -0.09170784 0.15408176 -0.0017159188 0.15171267 -0.20263949 0.124318086 -0.3099283
0.06942903 -0.14221804 0.09569422 -0.08690042 0.15631701 -0.52340364 -0.103346065 0.05326625
-0.0066810166 0.27283093 0.21853688 -0.18512303 0.709324 -0.054779187 0.2416603 0.013962746
0.14589053 -0.02843922 0.057760496 0.13742776 0.11436238 0.2229413 -0.19869308 -0.23948246
-0.31680435 0.28251782 -0.091794305 0.024865447 -0.061404563 0.1865127 0.042340934 -0.33074698

embedder.emb_rnn.bias_ih_l0 f4 [60]
00000000: df15 793f 2cba 813f 7a92 663f aa74 5f3f
00000010: 2130 673f f8c0 743f eb08 853f 067f 733f
00000020: b1fc 813f a6af 733f 0ef8 803f 7f51 7c3f
00000030: 0a5f 683f b331 7b3f 4e52 7a3f 8b5a 7a3f
00000040: b1b3 753f b5be 833f 5537 933f 523b 883f
00000050: e6e9 233e 6dc8 593e c069 88be 39b1 803f
00000060: a98e 483f ee68 a43e f666 c13e 6eb5 5b3f
00000070: d234 413f e78e 653f d49e 083f 115c 803f
00000080: 178b 4b3f 3e6a 1f3f 3281 4a3f 8d86 013e
00000090: 6cb5 40bf de3d 113f 1c39 443f c82f 083f
000000a0: 9f51 863f 61bf 6a3f 21bd 7c3f 60f5 783f
000000b0: 0a21 743f 79ef 4f3f 6335 5c3f 6ef4 813f
000000c0: a3b0 933f 8ed3 6d3f 0b9b 483f 9712 833f
000000d0: 3e6a 823f 069c 6d3f 171f 783f 5d3c 8c3f
000000e0: 66f6 893f 06f3 673f 0720 603f bfbb 8a3f
0.97299 1.013494 0.90067255 0.8728739 0.90307814 0.95606947 1.0393347 0.951157
1.015524 0.95189893 1.00757 0.98561853 0.9077002 0.9812271 0.97781837 0.9779441
0.9597731 1.0292574 1.1501261 1.0643103 0.16007194 0.21267863 -0.2664318 1.0054084
0.7834268 0.32111305 0.37773865 0.85823715 0.7547122 0.89671177 0.5336735 1.0028096
0.7950911 0.6227149 0.79103386 0.12648983 -0.7527683 0.56735027 0.7664964 0.5319791
1.0493659 0.9169827 0.9872609 0.9724941 0.95362914 0.8122478 0.8601896 1.0152719
1.153828 0.9290093 0.78361577 1.0240048 1.0188673 0.928162 0.9692244 1.0955921
1.077832 0.906052 0.8754887 1.0838546

embedder.emb_rnn.bias_hh_l0 f4 [60]
00000000: 174b ddbc d32c 5d3c 846a cbbd ef2d 02be
00000010: 597e c6bd f4ee 33bd 4727 213d cd0d 48bd
00000020: 6857 7e3c e000 45bd e6fc f73b b4a1 6bbc
00000030: c306 bdbd b5c9 99bc adb4 b5bc 30b0 b4bc
00000040: 91c4 24bd efaa ef3c 9fb9 193e 9db1 833d
00000050: a605 57bf c88d 49bf 651a a2bf c133 b13b
00000060: a4c4 5dbe a0cb 2dbf 714c 1fbf 5d29 11be
00000070: ff2a 7bbe 7488 d3bd 5ec2 eebe 1e38 383b
00000080: a2d3 51be 4b2b c1be 47fb 55be 659e 5fbf
00000090: 905a e0bf 2084 ddbe ad1c 6fbe 9fa0 efbe
000000a0: e266 163d 2242 8ebd 9fd6 fabb c455 8cbc
000000b0: baf6 c9bc 9d7e 48be 0ef5 f2be 09ee 093c
000000c0: 2cc0 173e d759 61bd 6a7f 81be 3c9d c03c
000000d0: d9d3 e93b 7673 a2bd 4ceb c6bb f96e ae3d
000000e0: fbfa ae3e d526 03be 11c1 01be 9a5f 1e3e
-0.027013345 0.013499456 -0.099324256 -0.12712835 -0.09692068 -0.043929055 0.0393441 -0.048841286
0.015523769 -0.048096538 0.0075679896 -0.014381815 -0.09229805 -0.01877294 -0.02218088 -0.022056669
-0.040226523 0.029256312 0.15012215 0.064303614 -0.83992994 -0.78731966 -1.2664305 0.005407781
-0.21657044 -0.6788883 -0.62226015 -0.14175935 -0.2452812 -0.10328761 -0.46632665 0.002810962
-0.20490888 -0.37728342 -0.20896636 -0.87351066 -1.7527637 -0.43264866 -0.23350783 -0.46802232
0.03671921 -0.069462076 -0.0076549794 -0.01713074 -0.024653781 -0.19579549 -0.47452587 0.008418568
0.14819402 -0.05501732 -0.25292522 0.023512475 0.00713585 -0.07932179 -0.00607053 0.0851726
0.34175858 -0.12807782 -0.12671305 0.15466157

embedder.emb_rnn.weight_ih_l1 f4 [60, 20]
00000000: 8a00 a53d 4f09 aa3e 98aa 24bc eee4 f4bd
00000010: acc0 13bd c25d 273e a45c debe de57 78be
00000020: 6393 3f3d 677c e53e 4517 eb3b b34d 073e
00000030: e18f e83d 14e9 913e aba9 3fbe 0078 42be
00000040: 9f4f 8abd dd49 043e 5332 bf3d 56a7 8c3d
00000050: 870f c3be 4402 bb3d 04cf 3e3e 41dc 44be
00000060: 6c5d 48bc 9b12 f73c 5b41 5ebe 6ed2 fa3c
00000070: 99a7 e93c 3b95 503d 0319 cbbc 0304 763e
00000080: e129 103d 358d 893e 0066 56be 2e83 4fbe
00000090: 87ab 4ebe b14f d7be 085b 1cbd 7a3a 20be
000000a0: fb4a 223e 9527 ef3e f004 ce3d 0f22 e7bd
000000b0: e33d 6dbe 5d7c 923d f785 88bd b43e 763e
000000c0: 74ac 4cbe c182 b9bd 9eab e3bd c448 0b3e
000000d0: b8d8 f1be 9761 7c3e 9fd6 373e 6532 903e
000000e0: 229d f6bd 65ef ea3d fff4 ca3e a84c 363e
000000f0: a951 1cbe a284 a03e dbb8 79be 884f 663c
00000100: d192 69be 8107 463e 5730 0c3e 6081 423c
00000110: af31 5dbe f2bf b3be 8383 8d3e 38a3 4e3d
00000120: d12d d33e 07f3 aaba 7850 8ebe 28b6 1a3e
00000130: d384 6c3e 5554 d53e c60a 12bd 2740 11bd
00000140: 54ca 67bd b6fd 0b3e 39e6 4abe 120e 87bd
00000150: 95f0 323e e048 ee3d 48f2 a7be f467 1bbd
00000160: 2472 ea3d e8f4 4f3d efb2 f43d f2de 523d
00000170: 2f84 32be 144e 2a3e de1f 73be c743 9bbd
00000180: 45e5 afbe 7ef4 093e 44dd 1e3e 25cf 773d
00000190: 7ca8 a43d 9abe b63d abc4 263c 8076 3cbd
000001a0: 1d98 7cbe 4b59 0ebe 432b c33d 7247 55be
000001b0: 1a51 cbbe 516c 053f ed18 8d3d 2271 b9be
000001c0: b761 fdbd 5185 553e 5e0e 3d3e 0597 5a3c
000001d0: b9ff a53e 24eb 433d 3b3b b33e 912c 74be
000001e0: 7a59 a3bd ac97 30be 3c4d e3be 5017 77be
000001f0: 859d 25be 7dfd 6fbe 7041 a8be 2513 03be
00000200: 48c3 5bbe b48b 2fbe a3b3 083e 1a34 d0be
00000210: 391b 42bd a51e 5d3e 7722 fb3c b563 5b3d
00000220: fc52 64be d0a9 d93d 1504 103e 56da 44be
00000230: a9f0 90bd b56f 363e 560e 8e3e 5d9b 9a3d
00000240: dd93 9bbd e4f3 2abe bd30 653e 38ef aa3d
00000250: 3fc0 123e 1fd2 eabd f50c 26be 6ae7 dc3d
00000260: 17e3 aa3e 41ec debd 930c 81be be9f b5bd
00000270: 61ad 703c 1072 1ebe cb79 353e 62ca d03d
00000280: 5414 17bd ad8c f13e 190d 05bf ad27 ed3d
00000290: b1cc 093e 1ca8 abbe 16af 82be 5329 1b3d
000002a0: 444b 8abe 9d9a c9be 9803 e53e 18ed df3d
000002b0: ad33 53bf b7f2 f1be 50a5 173e 9d81 0ebe
000002c0: e184 58bf 6757 7cbe 8462 08be 71d1 16be
000002d0: da74 26bf 4007 9e3e 81ce 58be aaf6 f3bd
000002e0: 1553 033e e3f5 47be 43f4 88bd ba9d a33c
000002f0: 9ca0 9ebe 36a1 bcbe 1c55 acbe c8c7 fbbc
00000300: eb26 7bbc d5b0 ebbe b6cf a0be 26c3 5a3e
00000310: 1f6a 753e 502b 923d e9d8 54bd 55c0 68be
00000320: 6ffb bc3d bfc3 6d3d a076 a4be 522e 19bc
00000330: 514c 483e 5840 14bf 7dbc dfbe a525 38be
00000340: b3ba 9abd ab03 c1bd 40df 08bf bdd3 753d
00000350: 31e2 d1be 0b5f 15be 888a 7b3c a686 83ba
00000360: 3ce3 6ebe 8f74 e7be 62e8 183e ee18 dbbd
00000370: 07e7 bcbd 487b 3c3e 72f9 1cbe 5bf1 673c
00000380: 4fb4 1cbe bd13 65bd eba6 63be ce32 0c3e
00000390: 8412 3b3e 6d1b 06bd e12d 583e 70af 663d
000003a0: a84a a2be a973 8d3e 14ee 8ebe 9d56 f63d
000003b0: 83ba 823e c5e9 e03e 88d0 eb3e 148d 203e
000003c0: abaa 81bd 440d febe 5810 3d3e a8f2 59bd
000003d0: fe9d 97bd e5e6 82bf 2f46 1f3f 86fd af3d
000003e0: 7928 6c3d 8a45 febd 0d7e b93d f7f2 973e
000003f0: 1c7a 22bf 6ee9 e3be 7449 11be e5a5 75be
0.080567434 0.33210227 -0.010050438 -0.119577274 -0.036072418 0.1634436 -0.43430054 -0.24252269
0.04677142 0.44821474 0.007174405 0.13213234 0.11355568 0.28498137 -0.18717067 -0.18991089
-0.06753468 0.12918802 0.093357705 0.06867854 -0.38097784 0.091312915 0.18633658 -0.19224645
-0.012229305 0.030160239 -0.21704619 0.030617919 0.0285223 0.050923567 -0.0247922 0.24024968
0.03519619 0.26865545 -0.20937347 -0.20264885 -0.2018262 -0.42052987 -0.03817275 -0.15647307
0.15848915 0.46709886 0.100595355 -0.11285793 -0.23168139 0.07152627 -0.06666177 0.24047357
-0.1998766 -0.090581425 -0.11116718 0.13601977 -0.47235656 0.24646603 0.17952965 0.28163448
-0.120416895 0.11471442 0.39640042 0.1780268 -0.15265526 0.3135119 -0.24386923 0.014057048
-0.22809912 0.193388 0.13690315 0.011871666 -0.21600984 -0.3510738 0.27639398 0.050448626
0.41245893 -0.0013042398 -0.27795768 0.1510855 0.23097543 0.41665903 -0.035654806 -0.03546157
-0.05658944 0.13671002 -0.19814385 -0.065944806 0.17474587 0.116349936 -0.32802033 -0.037940934
0.11447552 0.05077067 0.119481914 0.05148215 -0.17433237 0.16631347 -0.23742625 -0.07581287
-0.34354606 0.13472173 0.15514094 0.060500283 0.08039948 0.08923073 0.010178725 -0.046011448
-0.24667402 -0.1390125 0.09529736 -0.20828035 -0.39710313 0.521184 0.0688952 -0.36219126
-0.12372153 0.20851637 0.18462512 0.01334167 0.32421663 0.04783167 0.35006127 -0.23845126
-0.07976051 -0.17245358 -0.44394863 -0.24129987 -0.1617337 -0.23436542 -0.32862425 -0.12800272
-0.21461213 -0.17143136 0.13349776 -0.4066475 -0.047389243 0.21593721 0.030656083 0.053561885
-0.22297281 0.10628092 0.14064057 -0.19223914 -0.07077152 0.1781605 0.27745312 0.075491644
-0.07596562 -0.166946 0.22381873 0.083464086 0.14331149 -0.11465859 -0.1621588 0.10786326
0.3337638 -0.108849056 -0.25204906 -0.08868359 0.014689774 -0.15473199 0.17722242 0.101948515
-0.03688462 0.4717764 -0.5197311 0.11579833 0.1345699 -0.33526695 -0.25524205 0.037881207
-0.27010548 -0.39375773 0.44729304 0.10933894 -0.82500726 -0.4725549 0.14809155 -0.13916631
-0.8457776 -0.24642716 -0.1331883 -0.14728333 -0.6502205 0.30864906 -0.21172525 -0.11912282
0.12824662 -0.19527392 -0.06687214 0.01997267 -0.3098191 -0.36841744 -0.33658683 -0.030734912
-0.015329103 -0.4603335 -0.3140847 0.21363506 0.23966263 0.071371675 -0.051964674 -0.22729619
0.09227645 0.058048006 -0.32121754 -0.0093494225 0.19560362 -0.5791068 -0.43698493 -0.1798311
-0.07555141 -0.09424528 -0.5346565 0.060016382 -0.40992883 -0.14587037 0.015352853 -0.0010034635
-0.2332887 -0.45206115 0.14932397 -0.10698114 -0.092237525 0.18406403 -0.15329531 0.014156665
-0.15303157 -0.055927027 -0.22231643 0.13691255 0.18268782 -0.032741 0.21111251 0.056319654
-0.31697583 0.27627304 -0.27916014 0.12028239 0.25532922 0.43928352 0.46057534 0.15678817
-0.063313805 -0.49619496 0.18463266 -0.05320993 -0.074031815 -1.0226713 0.62216467 0.08593278
0.057655785 -0.12415607 0.090572454 0.29677555 -0.63467574 -0.4451403 -0.14188176 -0.23989065

embedder.emb_rnn.weight_hh_l1 f4 [60, 20]
00000000: b392 2fbe 7246 9abe eb95 17be 779d a03e
00000010: b6fa a13d 7f80 21be 5178 18be 22ce 81bc
00000020: 83d8 af3d 4b7f f2bc 3243 133d a6f0 a4be
00000030: 618c 983e e677 163e 6398 1fbf 1f95 523e
00000040: b4a8 23bf f250 2b3e c308 19bf ac6b 0dbe
00000050: 9320 8b3e 2025 e4be 3ca6 923e a50e 933e
00000060: a07e 743d d0b7 24be 780f 08be d317 1fbd
00000070: f04b bf3d 74d8 90be 2517 683e 70e3 83be
00000080: c3ef d13b 5839 203e 01f0 453d 0f24 89be
00000090: e79a 00be 914a 03be 5bf6 c4bc ae85 e83d
000000a0: 1a1c 7b3e 555b 203e eeeb 5f3c 6363 02be
000000b0: cc9e 4dbe 1a0e 0f3e 3d6f 35be a8d3 1b3e
000000c0: 8800 8d3e 227b 5f3e 01fa 47be 600d ed3c
000000d0: c09f aebc 7e8a dd3d f471 94be 4767 6ebd
000000e0: 5031 47be dbf9 c33e ef0f 30be f8f6 f6bd
000000f0: 3635 ae3b 299a 0fbe d55b 083d b4f0 56be
00000100: d072 f73c 6b26 83be c137 843e 67d4 32bd
00000110: 8629 6e3e 43ca b9be 0b16 c8bd 9f75 dcbd
00000120: 9725 f4bd e291 c2be eeed a23e ff26 7dbe
00000130: c75e eabd 65f6 66be 7805 923f cdb7 12be
00000140: f530 52be 40d8 a63d 7e82 c3be ec92 9a3c
00000150: 169a 02bf 3603 1abe faf2 c9bd 5c8e 88bd
00000160: 403a 6bbd a75d 71be c82e cfbe 9452 953d
00000170: f6f1 6a3e 74b1 7fbe e43b 853d 7210 353e
00000180: 0d20 52bc 4b11 85bd c0d3 bdbe 99ee 363d
00000190: 2aa8 c0be d49f 783e 9dda c93d 8b0c a0bd
000001a0: 64e2 d7bd fa7d d9bd b4d4 013e e186 34be
000001b0: cbeb 253e e26c 49be 5c5e 203d f7aa 33be
000001c0: d379 6e3e 1548 30be f87f 9ebe efc2 bbbd
000001d0: 22ba adbe 66d1 183e 08ab e2be 8beb 82be
000001e0: 94fb 543e 7bca ee3d ebfc ed3d 0a69 9bbe
000001f0: 0f6f 3a3e 36f7 a33d b0b5 94be c8a8 5e3d
00000200: b3d0 883e 7ce4 563e 2d0a 2a3e b044 e5be
00000210: 36ec 063d 6294 863d 764e 493d 093b 0c3e
00000220: 8a11 6dbe a7b9 fc3e 5d81 0ebe 9977 edbe
00000230: bf0c 5ebe ea71 243e cf17 87be e40b ae3c
00000240: f7d0 41be 5905 343e dd2d 9d3e c1ae 043e
00000250: 823e 49be 35b3 fdbd d89b 0dbe 60e7 13bd
00000260: c814 713e 3e1c 4b3e e1e7 e53e b243 02be
00000270: 3385 453c 45c4 e03d 4ad0 173f 93fa 16be
00000280: 76cd a1be cdd9 60bf 84ee dabe 0518 7abd
00000290: 3fcc c4bd c222 f7bd f379 dabe 1e81 e03c
000002a0: 5be9 aebe eb0d 4dbd b8a1 d03d 28f5 d93d
000002b0: 8e0b 2b3e b364 5d3e ecab 8abc e2a8 0fbd
000002c0: 68f7 5fbe 51c4 3fbe b307 35be 2d55 df3d
000002d0: 4de5 3ebd 2a46 0e3d 1f84 43be 260f dc3d
000002e0: d516 a23e 1213 6ebe 1d15 ae3d e103 89be
000002f0: 26fa 8a3e a46f d6bd a340 f8bd 853f f9b9
00000300: b0ef 713e d33d 86be 18be b9be c2f6 b7bb
00000310: 6762 a13d 62a1 403c f3de 053d 4e9e acbc
00000320: c7ea 85be 061b 8d3d 03dc 8dbe 17f8 afbd
00000330: 16f4 88bd aca1 c63d ab52 9e3e 9ab7 e3bd
00000340: 43f5 403e 2094 a6bd cfe0 1fbe eb2b cebd
00000350: 2f75 423e 93b1 49be 38d3 d2be 2c32 03be
00000360: d9a7 efbc 57ad 82be f0af 78bd dbe6 6dbe
00000370: c98e 0fbe 6fb5 ad3e 9007 5abe c6da 013e
00000380: 46b6 32be 7540 10bd 1450 a6bd 459f 8b3d
00000390: 7c1c c63e 40b8 20bd 2870 d63d f3cf 813e
000003a0: 7ff2 cc3e ca1b 683e d930 04bf 7c03 0a3e
000003b0: 16d9 babe 3597 76be 6c96 a63d 202c 91bd
000003c0: 974b 95be 17aa cc3e 9d97 9b3e c103 5e3e
000003d0: 89a0 0e3e a081 523e 8f30 613d 16cb 43be
000003e0: a824 c13d a725 59be 67d4 d1be a371 dbbd
000003f0: 4083 c63e f243 2dbe f687 72be d807 843e
-0.17145805 -0.3013187 -0.14803283 0.31370136 0.079091474 -0.15771674 -0.14889647 -0.015845362
0.08586218 -0.029601714 0.035952754 -0.3221485 0.297946 0.14694175 -0.623419 0.20564698
-0.63929296 0.16730097 -0.59778994 -0.13810605 0.2717329 -0.44559574 0.28642452 0.2872211
0.05969107 -0.16085744 -0.13287151 -0.03884108 0.09340656 -0.2829014 0.22665079 -0.2575946
0.0064067557 0.15646875 0.04832459 -0.26785323 -0.1255909 -0.12821414 -0.024043253 0.113536224
0.24522439 0.1565984 0.01366709 -0.12733226 -0.20080107 0.13970223 -0.17718215 0.15217459
0.27539468 0.21824315 -0.19528963 0.028937042 -0.02131641 0.10817431 -0.2899319 -0.05820396
-0.19452405 0.38276562 -0.17193578 -0.12058824 0.005316402 -0.14023651 0.033290703 -0.20990258
0.030206114 -0.25615248 0.25823787 -0.043659594 0.23258027 -0.36287126 -0.09769829 -0.10764622
-0.11921232 -0.38001925 0.3182215 -0.24721907 -0.114438586 -0.2255493 1.1407919 -0.14327927
-0.20526488 0.08146715 -0.38185495 0.018868886 -0.51016366 -0.15040287 -0.09860797 -0.06667778
-0.0574286 -0.23570882 -0.4046538 0.07291141 0.22943863 -0.24970037 0.06505564 0.17682055
-0.012825024 -0.06497439 -0.37075615 0.04466114 -0.376283 0.2427972 0.0985615 -0.078148924
-0.105412275 -0.10619731 0.12678796 -0.17629577 0.16203229 -0.19670442 0.039152488 -0.17545687
0.2328866 -0.17214997 -0.30957007 -0.0916804 -0.3393107 0.14923629 -0.4427111 -0.2557033
0.20799094 0.11659714 0.11620506 -0.30353576 0.18206428 0.08006136 -0.29044867 0.05436018
0.26721725 0.20985597 0.16605444 -0.44778967 0.032940112 0.065712705 0.04914709 0.13694395
-0.23151222 0.49360391 -0.13916536 -0.46380308 -0.2168455 0.1605908 -0.26385352 0.021245904
-0.1892737 0.17580165 0.30699053 0.12957288 -0.19652751 -0.12387697 -0.13828981 -0.03610933
0.23543084 0.19834992 0.44903472 -0.12721136 0.012055683 0.109749354 0.593022 -0.14744024
-0.31602067 -0.8783234 -0.42760098 -0.061058063 -0.09609269 -0.120671764 -0.42671165 0.027405318
-0.3416241 -0.0500621 0.101870954 0.10642463 0.16703627 0.21620445 -0.016927682 -0.03507317
-0.21871722 -0.18727233 -0.17678718 0.10904918 -0.046605397 0.034734882 -0.19093369 0.10745077
0.31658044 -0.23249462 0.08500121 -0.26760772 0.27143973 -0.104705125 -0.121217035 -0.00047540307
0.2362659 -0.26219043 -0.36277843 -0.0056141326 0.07880097 0.011757227 0.032683324 -0.02107158
-0.26155683 0.0688992 -0.27706918 -0.08592241 -0.06687181 0.09698805 0.30922446 -0.111190036
0.1884356 -0.08133721 -0.15613101 -0.100669704 0.18990014 -0.19696645 -0.41176772 -0.12812108
-0.02925484 -0.25522873 -0.060714662 -0.23232596 -0.14019312 0.33927485 -0.21291947 0.12681112
-0.17452344 -0.03521772 -0.081207424 0.068174876 0.38693607 -0.039238214 0.10470611 0.25353965
0.4002876 0.2266685 -0.51637036 0.13477892 -0.36493748 -0.24081118 0.081341594 -0.07088494
-0.29159233 0.39973518 0.3038911 0.2168112 0.13928427 0.2055726 0.05497795 -0.1912044
0.0943082 -0.2120577 -0.40982363 -0.10715034 0.3877201 -0.1692045 -0.23684677 0.25787234

embedder.emb_rnn.bias_ih_l1 f4 [60]
00000000: 2efc 753f 378e 763f a49d 8a3f 7ba4 6f3f
00000010: d7ac 723f c559 5d3f ef56 6a3f 6cf4 823f
00000020: dc7a 753f 14c9 6a3f 5c71 713f 7699 7f3f
00000030: d357 843f b3a1 7c3f 930c 693f 3106 ab3f
00000040: 3299 7f3f bfdc 703f 0dac 813f 285f 643f
00000050: f687 2b3f bc67 f63e 02ea 683f 5ac8 313f
00000060: 8fb5 0c3f 8e31 403f 89f1 a03b 015e 343f
00000070: 1044 d53e 8ca6 233f 699c 393f 6871 bd3d
00000080: 4ffd a13e 53f9 6b3f 53d4 423f 2be5 d63e
00000090: 42e9 063f 16e3 363f cf76 823f 6109 613f
000000a0: 487a 8b3f db5d 723f 2045 7a3f 74df 823f
000000b0: 24bf 693f 8fd0 7d3f a839 653f 821d 743f
000000c0: 594b 5a3f a83d 7c3f ff1f 763f 6b4d 6c3f
000000d0: a1c9 583f 8279 833f f33c 683f e1c3 7a3f
000000e0: 028b 713f 133b 843f cdbc 743f 6b54 793f
0.9608792 0.9631075 1.0829358 0.9361035 0.9479498 0.864651 0.915389 1.0230842
0.95890594 0.9171307 0.943136 0.9984354 1.0339302 0.98684233 0.9103481 1.3361264
0.9984313 0.9408683 1.0130631 0.89207697 0.67004335 0.48126018 0.9098207 0.6944634
0.54964536 0.75075614 0.0049116057 0.7045594 0.4165349 0.63926005 0.7250429 0.09250146
0.31638572 0.92177314 0.7610523 0.41971716 0.52699673 0.71440256 1.0192508 0.87904936
1.0896692 0.9467446 0.97761726 1.0224442 0.9130728 0.9914636 0.895411 0.95357525
0.8527122 0.9853158 0.9614257 0.9230563 0.8468266 1.0271456 0.90718 0.9795514
0.94352734 1.0330528 0.9560059 0.97394437

embedder.emb_rnn.bias_hh_l1 f4 [60]
00000000: e039 20bd d220 17bd 4ada a93d c6dc 82bd
00000010: 9a34 55bd 3a99 0abe e348 adbd 6416 bd3c
00000020: 6e53 28bd 7bb7 a9bd b6e9 68bd b9d3 ccba
00000030: eff7 0a3d 4aa3 57bc 569b b7bd ab18 ac3e
00000040: 76be cdba 4633 72bd b903 563c 4e06 ddbd
00000050: 8aef a8be 32cc 04bf b2ae b8bd 396f 9cbe
00000060: a594 e6be c539 7fbe edbd 7ebf 8144 97be
00000070: fb5d 15bf f0b2 b8be 1fc7 8cbe 0052 68bf
00000080: 0701 2fbf c135 a0bd 5eae 74be 728d 14bf
00000090: 612d f2be 393a 92be 87ad 9d3c 73b2 f7bd
000000a0: 8205 ae3d e469 82bd efa7 44bd 8d26 833d
000000b0: d0ba e5bd 0d6e bf3b e611 82bc f0f3 57bd
000000c0: e9d9 1fbe a069 85bd 4f81 463c ebfe bbbd
000000d0: 2583 46be aaa6 92ba 1e5d 6fbd 9c59 30bd
000000e0: 8c2f b7bc cf74 b93c a7f2 71bd 018f c5bd
-0.039117694 -0.036896534 0.082935885 -0.063897654 -0.052052118 -0.13535014 -0.08461168 0.023081966
-0.04109519 -0.08286949 -0.05686351 -0.0015627063 0.033927854 -0.01316149 -0.08965175 0.3361257
-0.001569702 -0.05913093 0.013062411 -0.10792218 -0.32995254 -0.5187408 -0.090176955 -0.30553606
-0.45035282 -0.24924381 -0.99508554 -0.29544452 -0.5834653 -0.36074018 -0.27495667 -0.9075012
-0.6836094 -0.07822753 -0.23894641 -0.5802833 -0.47300246 -0.28560045 0.019247783 -0.12094583
0.08497144 -0.06367853 -0.048011716 0.06403837 -0.11217272 0.0058419765 -0.015877675 -0.05272287
-0.1561047 -0.06514287 0.0121157905 -0.09179481 -0.19385965 -0.0011188586 -0.058438413 -0.04305421
-0.02236154 0.022638706 -0.059069302 -0.096464165

embedder.emb_rnn.weight_ih_l2 f4 [60, 20]
00000000: 3dfa b0be 6224 61bf df45 b3bd d8b8 8d3a
00000010: 7af7 53be c3bf 86bd 0c60 31be c5fa 46ba
00000020: 2806 9fbe 4dc4 67be 287d 073f b0de a7be
00000030: 78b7 33be 45ac 5cbe 68f9 0a3f 7fcf d13d
00000040: f998 71bd b92a c73c 8e88 913e 3dae 863c
00000050: 4aec 0d3e 0660 4a3e 4384 233e d2b9 38be
00000060: 2499 8b3c bcde 3f3e 112a 103e 7865 2dbe
00000070: e944 aa3d 7122 80bd 303e a2be be09 9b3d
00000080: 9ebb 28be 0347 fcbc 0347 d8bd ed39 723e
00000090: 5c65 163e ed34 96bd d474 7cbd 2188 5d3d
000000a0: 43f8 b23d 67bb cbbe 782d 52be 2419 0bbe
000000b0: 445c b1be 9db8 8bbe 4300 de3e e84d 173e
000000c0: de16 193e 0107 6bbe bc6c e63e f889 08bf
000000d0: e29f 19bd 7f0b 68bc e728 723e c968 6f3e
000000e0: eb98 debd 5e57 65be d9fa bfbe ae40 9bbe
000000f0: 0ac4 033b dfcf 0cbf 2cbf debc e46b 853e
00000100: b865 063e 3796 4dbe 363b 063e 556b 913d
00000110: cc19 04be 29e0 b9be 8f0a 49be f860 46bf
00000120: 0775 cf3c 0e48 433e ca0b d1bd 7604 a1be
00000130: c8fc 5cbe bb38 56be 1bbf b7bd 2400 f3bc
00000140: 8008 523d a02d 983d 7d96 a6be 1d76 cc3c
00000150: 0eb3 a13d 7597 5dbe 255e eb3e b74a 02be
00000160: d31d b8bd f349 983e c762 a03d 92ef 503f
00000170: 87d9 2e3d 0869 bbbd e10d bc3e 18c5 f23d
00000180: ee1b a33d 8499 bdbe 213d 283f c055 7ebe
00000190: dbbc ba3d 8397 403e 4221 e23d e650 18be
000001a0: ac64 97be 6d5c 7d3c c2e2 f9bd 0047 7a3d
000001b0: e573 ce39 3dab 893d b2b1 adbe 36c1 903e
000001c0: 0265 87be fa87 41be 4363 d7be c4f2 59be
000001d0: ab7a 393e 7a78 62be 22c7 003d 7bfa d53b
000001e0: 0f36 6a3e 1bd8 d2bd d54a 91be 9f78 6abe
000001f0: d529 223f 94bb 333e 6be5 b9be b0f0 ec3d
00000200: 69c2 2f3d fc04 743e a238 b53b d1f7 fabe
00000210: 1df7 33be 65a3 5ebe dd2d 453f a4f8 803c
00000220: 7dd3 9dbe 8ff7 46be e3dd fe3e 75ad 613d
00000230: 985a 353c ea73 fdbd 1929 1f3e cb9e ed3d
00000240: ee40 3f3f 000c 193d 3cc6 03bf dbfc d6be
00000250: 1095 2bbf 094b 9d3c 8562 19be 043e c0bf
00000260: 6d01 f0be d08a 2f3e 2639 4abf 5735 3abe
00000270: d793 7c3e e18c fc3e be43 2ebf 4d08 94be
00000280: 02d0 74bd 4d99 e73b a97d c33c 43ae b0bd
00000290: ed39 f93e d752 8dbc 79a7 7dbe b906 03bd
000002a0: f11c 493e cfea f43b cd7e 063e 6075 cb3d
000002b0: 14ae 9fbe 2fb5 973d b8b2 06be 194c ca3d
000002c0: da0a 803e 57f9 b73d 3295 3a3e fa69 543e
000002d0: 61b3 193b 5d3f 3b3f 7939 b3be 5f5e bfbd
000002e0: 0d92 773e 4055 8f3d 016d 76be 3132 663e
000002f0: 6d12 f13e 3939 3bbe 1e36 15bf 2d29 d63c
00000300: 2e8e f23e fb1b 07be 40c2 333d 5f9c 99be
00000310: 3c83 f0be 5956 e2bd 50ca 81be 4903 aabe
00000320: 8c6a 183e 62e6 66bd 9bff 093e 0a5d c8be
00000330: 3ec8 8dbe bcfb b5bd 3acc 5cbe 76a7 56be
00000340: 7285 47be ebd2 1cbb 9d28 153e c98d 57bf
00000350: 6a36 853e 852b 7ebe 7787 483f 7501 afbe
00000360: 9322 763e b7e7 fbbe 17a1 183f 7581 933d
00000370: 3551 05be 9d41 0ebe 57a7 663d 79d2 1e3e
00000380: e213 0c3e 9225 003e 3127 a13d 62f0 69be
00000390: 846f 8d3e 3a30 483c 751b a7bd 37be df3d
000003a0: d1b7 ce3e 338e ac3d 190c afbe 766c 0cbe
000003b0: f449 03be 9451 db3d 0ff2 8abd 6da0 67be
000003c0: 37d0 1abe f70c bd3e bbb4 cabe 462b a1be
000003d0: 4a40 57be 7eb1 c2bd a8bb 7dbe 2bb5 84be
000003e0: 8234 5ebc 7f12 553e 5074 8ebe 46bb c2bf
000003f0: 4b37 2f3d 5be5 de3d e8ef 29bf 0df6 1cbe
-0.34565917 -0.8794614 -0.08753561 0.0010812534 -0.20699874 -0.065795444 -0.17321795 -0.0007590468
-0.31059384 -0.22633477 0.5292535 -0.32787085 -0.17550457 -0.2155009 0.54286814 0.10244655
-0.058983777 0.024312364 0.28424495 0.016440505 0.13859668 0.19763193 0.15968423 -0.18039635
0.017040797 0.1873731 0.14078547 -0.16933239 0.08313925 -0.06256569 -0.3168807 0.075702175
-0.1647782 -0.03079558 -0.105604194 0.2365491 0.14687103 -0.073343135 -0.061634853 0.0540849
0.087387584 -0.39791414 -0.20525157 -0.13583809 -0.34640706 -0.27289286 0.43359575 0.14775813
0.1495013 -0.2295189 0.45004833 -0.53335524 -0.03750599 -0.014162897 0.23648416 0.23379816
-0.108690105 -0.22396609 -0.3749607 -0.30322784 0.0020105862 -0.55004686 -0.027190767 0.26058877
0.1312474 -0.20076834 0.13108525 0.0710055 -0.12900466 -0.36303833 -0.19632934 -0.7749171
0.025324358 0.19070455 -0.10207327 -0.31448716 -0.21580803 -0.20920078 -0.08971997 -0.029663153
0.051277637 0.07430577 -0.32536688 0.024958665 0.0789548 -0.21639808 0.45970264 -0.12723814
-0.089900635 0.2974392 0.0783134 0.81615555 0.04268792 -0.091508925 0.3672934 0.11853999
0.079643115 -0.37031186 0.65718275 -0.24837399 0.091180526 0.18807797 0.110415 -0.1487461
-0.29568994 0.015463931 -0.12201454 0.061102867 0.0003937773 0.06722114 -0.33924633 0.28272408
-0.2644425 -0.18899527 -0.42067918 -0.21284014 0.181132 -0.2211627 0.031439908 0.0065301037
0.22872184 -0.10295125 -0.28377405 -0.22897576 0.6334508 0.17552024 -0.36307845 0.11569345
0.042910013 0.23830026 0.005530433 -0.49017194 -0.17574735 -0.21742018 0.77023107 0.015743561
-0.30825415 -0.19430374 0.4977866 0.055097062 0.0110689625 -0.123756245 0.15543021 0.11602553
0.7470845 0.03736496 -0.51474357 -0.41989788 -0.67024326 0.019200819 -0.14978988 -1.5018926
-0.46876088 0.17142797 -0.7899345 -0.1818441 0.24665771 0.49326232 -0.68072116 -0.28912583
-0.059768684 0.0070678354 0.02386363 -0.08626988 0.48677006 -0.017251415 -0.24770917 -0.031988833
0.19639947 0.0074742804 0.13134308 0.09934497 -0.311875 0.07407605 -0.13154113 0.09877796
0.2500828 0.08983105 0.18220976 0.20743552 0.0023452865 0.7314356 -0.35004786 -0.09344172
0.24176808 0.06998682 -0.24065019 0.22480084 0.4708437 -0.18283547 -0.582857 0.026142681
0.473741 -0.13194267 0.043886423 -0.30002114 -0.46975124 -0.11051626 -0.25349665 -0.3320563
0.14884394 -0.056372054 0.13476412 -0.39133483 -0.27691835 -0.08885905 -0.21562281 -0.20962319
-0.19484499 -0.0023929428 0.14566274 -0.8420072 0.26018077 -0.24821289 0.783317 -0.341808
0.24036627 -0.49200222 0.59620804 0.07202426 -0.1301926 -0.13892217 0.05631193 0.15509976
0.1367946 0.12514332 0.07868803 -0.22845605 0.27624142 0.012218529 -0.08159534 0.109249525
0.40374616 0.0842556 -0.34188917 -0.1371325 -0.1282118 0.10708919 -0.0678445 -0.22619791
-0.1511849 0.36923954 -0.3959101 -0.31478328 -0.21020618 -0.0950651 -0.24778616 -0.2591947
-0.0135623235 0.20807837 -0.27823114 -1.5213401 0.04277734 0.1088359 -0.6638169 -0.15328236

embedder.emb_rnn.weight_hh_l2 f4 [60, 20]
00000000: 5808 4abd 27c8 4ebb 65da d83d a5ca 463e
00000010: 87b5 da3d 2519 cebc 4956 b2be bd98 e9be
00000020: 9f9c 96bd 9587 5ebe fdb5 d23e d5be c8bd
00000030: fee8 86bd 686d 8cbe 061b 42be 8e0e 213e
00000040: fbaa d73d 666f 1b3d edec b3bd 7cad c13e
00000050: 9762 d83d 66da fd3d d2fe e8bc 7c88 783e
00000060: caec 40be 362e 2c3d 0804 0abe c1a7 1ebe
00000070: 5085 9bbe 08f6 16bd 3546 033c b63b e93d
00000080: 52f0 73be 33c1 5bbe 6b08 8cbc ed6f f4bd
00000090: dc40 123e 6d6f 4c3e 486b 82be df34 eb3c
000000a0: 75eb 35be cdcb 473f 301c a53d c9f0 653e
000000b0: 7a55 643d 1da4 91be db93 0b3e 20bc aabe
000000c0: fc52 80bd 223e 973d 3ac3 adbc 84ef f1bd
000000d0: bf23 3ebe 726d 163e 832b 3abe 19cb 19be
000000e0: 267f 0f3d 585c bcbd ad61 b4bd e508 0a3f
000000f0: cc09 09bc 9222 07bf 46d2 9e3d 510a 8abd
00000100: a240 d4bd 90ac 843d 719f d93e bb6e 463f
00000110: 9981 593e b1f9 a43c a513 adbe da66 3c3c
00000120: 7e87 063f 0b10 40be 9ccc 113e ad58 bc3e
00000130: ab4c d63e e61d 10bf f386 b83b 3bb3 183d
00000140: 3fd1 6e3d 1dbe 9dbf a2ef 46be 3a36 763e
00000150: fb73 0abe cf29 9fbe 7750 b43e afee e53d
00000160: 5c1c 20bd 0e3b 983c 59bf 42be e19c 74bd
00000170: 93c9 c53e 2b2b 8dbe be65 cd3c 2201 ea3c
00000180: 10d6 d93c c469 87bd 457b a13e 3a0d 6abe
00000190: e0bf 37be 1e31 94be 9db9 87be 1fc9 3fbd
000001a0: e257 303e ed3f 2ebe 2eec 123e c4d2 9ebd
000001b0: 6493 81bd f156 da3d c19d f03d 3554 38bc
000001c0: 77b6 a6be a203 86bd f8da 213d 8ab9 513e
000001d0: b72f c9bc 5fce a6be 74ac 7b3e eecb 243e
000001e0: 130c 183e 6d8f 40be 0ae8 d23d e071 ca3e
000001f0: 3a05 363e b834 db3d 9a8d 5c3e 0c2e 4dbe
00000200: fe06 993e 1a5f 163d c9f3 29bd 9afc 2fbe
00000210: 0a21 55be c01a 783e 53fb c0bd 4a4e ffbd
00000220: d8b2 b13d c8ba 0abd d88a 3d3d fa95 0cbe
00000230: 5298 983d 2afd 26be 83c5 f8bd 838c 163e
00000240: 162e 87be 8219 abbd acf5 873d db47 b03e
00000250: a72e 10bd 79ce 58be b824 86be e3de 8cbe
00000260: 35db 823e 9efb 81be f95a 103e bdc2 fd3d
00000270: e182 cb3b 83a3 6dbe c68f 1d3e cf14 04be
00000280: a8bf 81be b5c3 43be fe18 2fbe b286 0a3e
00000290: ac1a bc3d cb24 1dbe c29f f03d 2ec6 d4bd
000002a0: 9e4d 37be 3968 623c 0210 40bd 2b8b e0bd
000002b0: be46 f6bd d89f 64bd add7 e63d d100 e1bd
000002c0: e52e 8bbe 43c7 91be 0960 66be d5e4 27be
000002d0: 3d27 cd3d 8e4e fabd 9352 cbbe 3272 8bbd
000002e0: fd41 003d 9c3e 8cbe 3c9a 22bd f5fa a7bd
000002f0: 4b5f 31be c2ae 833d a80c 9ebe 5a62 16be
00000300: 46b4 883d 7cb6 b53d e285 4abe a78f 673e
00000310: 83af 9cbe 884d 293e 4d13 9e3d cd2f 5cbd
00000320: 35f6 703d 97fd d23e adde 23bd 347d 003d
00000330: a427 ecbe bd0f 67be 6351 5c3e 2ffe 7dbe
00000340: e9d5 e0bd 40e5 753e 7ce8 eebd 8c8b cdbd
00000350: 149b c0bc 6e80 a6be 598b 0abd 20ff 8dbe
00000360: 022a 2ebe bb7b 773e c8e6 c6be 5c4a ea3e
00000370: e4f9 8e3e 3703 65bd eea8 343b 8916 3dbe
00000380: 9470 223e bdf0 82bd 5e0d 0bbe c2dd 77be
00000390: 6b5c 1d3e 3dbc 3c3e 0180 9a3d a425 4ebe
000003a0: 2f7e e53d ebeb 82be 25b5 7cbe fff2 7c3e
000003b0: 8b3a 053c ebca d83e 533e 52bd 7b04 d4bd
000003c0: 729f 6ebe cdf2 e63e 862d 563e 95a4 023d
000003d0: 84f4 d03d 88a9 24be 3bfd 13be 51a1 6d3e
000003e0: 7609 5d3c 8898 91be 291b 5abc f13f e2bd
000003f0: 0c41 a4be 752f 423e ba02 a1bd 0004 183d
-0.049324363 -0.0031552406 0.105885305 0.1941324 0.10679155 -0.025158474 -0.34831455 -0.45624343
-0.07354092 -0.21731408 0.4115447 -0.09802023 -0.065874085 -0.2742722 -0.18955621 0.15728208
0.10530659 0.037948035 -0.087854244 0.3782767 0.105656795 0.12395172 -0.02844182 0.24270815
-0.18840328 0.042036258 -0.134781 -0.1549368 -0.30375147 -0.036855727 0.008012344 0.11388342
-0.23822144 -0.21460418 -0.017093858 -0.11935411 0.14282554 0.1996438 -0.25472474 0.028711734
-0.17765601 0.7804535 0.08062017 0.22455133 0.05574558 -0.2844552 0.13630621 -0.33346653
-0.06265828 0.07384898 -0.021211255 -0.11813262 -0.18568324 0.14690188 -0.18180661 -0.15018882
0.035033368 -0.09197301 -0.08807693 0.5391982 -0.008364152 -0.52787125 0.0775495 -0.06740249
-0.1036389 0.06478226 0.42504457 0.7751271 0.21240844 0.020138593 -0.3380405 0.011499131
0.52550495 -0.1875612 0.14238209 0.36786404 0.41855368 -0.5629562 0.0056313216 0.037280302
0.05830502 -1.2323643 -0.1942735 0.24044123 -0.13520806 -0.31086585 0.3521764 0.11227166
-0.039089546 0.018582847 -0.19018306 -0.059719924 0.3863035 -0.27571997 0.025072929 0.028564993
0.02659133 -0.0661197 0.3153936 -0.22856608 -0.17944288 -0.28943723 -0.265088 -0.046822663
0.17221025 -0.17016573 0.14347908 -0.07755044 -0.06326941 0.10661114 0.11748839 -0.011250545
-0.32561085 -0.06543662 0.039515465 0.20480934 -0.024558885 -0.32579324 0.24577504 0.16093418
0.14848356 -0.18804713 0.10298164 0.39540005 0.17775431 0.10703415 0.21538392 -0.20037097
0.29888147 0.03671179 -0.041492257 -0.17186204 -0.20813385 0.24228954 -0.09422936 -0.12466104
0.0867669 -0.033869535 0.04627499 -0.13729087 0.07450928 -0.16307512 -0.12147047 0.14702038
-0.26402348 -0.083544746 0.06638655 0.3442982 -0.03520074 -0.21172513 -0.2619989 -0.275138
0.25557867 -0.2538728 0.14097203 0.12390659 0.0062106703 -0.23206906 0.15386876 -0.12898563
-0.25341535 -0.19117625 -0.17099378 0.13527945 0.09184775 -0.15346067 0.117492214 -0.10389362
-0.17900702 0.013818794 -0.046890266 -0.10964044 -0.12025212 -0.0558165 0.11271606 -0.10986484
-0.27184215 -0.28472337 -0.22497572 -0.16395886 0.1001725 -0.12222014 -0.39711437 -0.068088904
0.03131293 -0.27391517 -0.03969787 -0.08202163 -0.17321508 0.06429817 -0.3086903 -0.14685956
0.066750094 0.08872697 -0.19777635 0.22613393 -0.30602655 0.16533482 0.07718525 -0.053756524
0.05882855 0.412091 -0.040007282 0.031369403 -0.46123993 -0.22564597 0.21515422 -0.24803995
-0.109783 0.24013233 -0.116654366 -0.10036382 -0.023511447 -0.3251986 -0.0338243 -0.27733707
-0.17008212 0.24168293 -0.38847947 0.45759857 0.27925026 -0.05591127 0.002756651 -0.18465628
0.15863258 -0.063935734 -0.13579318 -0.24205688 0.15367286 0.18431182 0.07543946 -0.20131546
0.11205708 -0.25570616 -0.24678476 0.2470207 0.0081316335 0.42342314 -0.05132897 -0.10352417
-0.23303011 0.45107117 0.20915803 0.03189524 0.10202888 -0.16080296 -0.14452069 0.23206069
0.013491025 -0.28436685 -0.01331214 -0.11047352 -0.32080877 0.18963416 -0.07861848 0.03711319

embedder.emb_rnn.bias_ih_l2 f4 [60]
00000000: 834d 813f 0f4f 7d3f 56c2 7e3f b304 7a3f
00000010: aed4 7c3f f103 5d3f 4238 7f3f 496b 6d3f
00000020: d793 803f bc6a 6c3f d7d4 583f a14c 743f
00000030: 4302 6a3f 0b89 643f 758a 6e3f e5e3 6d3f
00000040: f42e 773f 95d5 843f b8f8 6a3f d137 733f
00000050: ef3e 3b3f 0218 803e 7ce5 bb3e b916 8cbe
00000060: 2e5a 923f 3d99 723f b903 a83e ced3 f53e
00000070: 41ef a43e e622 0e3f 8147 703f a858 483f
00000080: 67f1 833f 300e 1b3f 3044 753f d0ff ca3e
00000090: cbbe 423f bf90 a6be c48e 693f 0b27 a83e
000000a0: 986d 603f 0f3f 663f bf02 7b3f a33e 523f
000000b0: d6ec 7b3f bae3 733f 3795 7d3f 4d4e 8d3f
000000c0: 081f 6a3f e668 7f3f 9348 763f dc4d 713f
000000d0: 161f 7e3f 0c9a 883f 9d00 743f 3d48 643f
000000e0: 2f0b 7a3f c8b7 673f d247 7b3f 8a19 793f
1.010178 0.9894876 0.99515283 0.9766342 0.98762023 0.8633414 0.9969522 0.9274183
1.0045117 0.92350364 0.8469977 0.95429426 0.914097 0.8927161 0.9318002 0.92925864
0.9655602 1.037768 0.91785765 0.95007044 0.73142904 0.25018317 0.3669852 -0.27361086
1.1433771 0.94765073 0.3281534 0.48013157 0.32213786 0.55522 0.93859106 0.7826028
1.0308045 0.60568523 0.9580717 0.39648294 0.76072377 -0.32532308 0.9123347 0.32842287
0.87667227 0.8993997 0.98051065 0.82126826 0.9840826 0.9526936 0.9905581 1.103952
0.914536 0.9976944 0.9620449 0.9425943 0.99266183 1.0672011 0.95313436 0.89172727
0.97673315 0.905148 0.98156464 0.97304595

embedder.emb_rnn.bias_hh_l2 f4 [60]
00000000: d4ba 263c 7d3c 2cbc beb6 9ebb d966 bfbc
00000010: 34d6 4abc a7f0 0bbe 838a 47bb 86a5 94bd
00000020: dccc 933b 95ab 9cbd d5ab 1cbe d03b 3bbd
00000030: 4fee afbd 8cb6 dbbd 95ab 8bbd dddf 90bd
00000040: f40c 0dbd 2eb3 1a3d 9f39 a8bd 3f81 4cbd
00000050: 8f81 89be 5af4 3fbf 2d0d 22bf b405 a3bf
00000060: 19d1 123e d96a 56bd 45fe 2bbf ec15 05bf
00000070: c588 2dbf f7b9 e3be d38a 7bbd af9d 5ebe
00000080: d15e fc3c 2de3 c9be 60c0 2bbd f97f 1abf
00000090: 6d05 75be 3aa4 a9bf 198b b3bd 93ec 2bbf
000000a0: 3ab5 1ebe 3fff c7bd 7484 1b3d 0281 5dbe
000000b0: 73d0 38bc d341 06bd 1f8c 05bc 8728 69be
000000c0: e53a 8abd 625a 5cbe fd75 54bd f913 4dbd
000000d0: 0031 68be 784f 953d c34f 4dbd d0e3 c7bd
000000e0: 98c6 78bc 23ce 03be 403c 27bd bfd9 ddbc
0.010176379 -0.010512468 -0.004843562 -0.023364471 -0.012380172 -0.1366602 -0.003044755 -0.072581336
0.004510505 -0.07649914 -0.15299924 -0.04571134 -0.08590376 -0.107281774 -0.06819836 -0.070739485
-0.03443618 0.037768535 -0.08214115 -0.049927946 -0.26856658 -0.74982226 -0.63301355 -1.2736115
0.14337577 -0.05234799 -0.6718486 -0.51986575 -0.6778682 -0.44477817 -0.06141169 -0.21739839
0.03080693 -0.39431134 -0.04193151 -0.6035152 -0.23927851 -1.3253243 -0.08766765 -0.6715786
-0.1549882 -0.09765481 0.037968114 -0.21631244 -0.011280167 -0.03277762 -0.008151083 -0.22769366
-0.067495145 -0.21518853 -0.051870335 -0.050067876 -0.22674942 0.07290548 -0.050124895 -0.09760249
-0.015184067 -0.12871604 -0.040828943 -0.027081368
