output/FEM_GAN_80/model.pt (torch, 153208 bytes, 65 tensors)

embedder.emb_rnn.weight_ih_l0 f4 [60, 10]
0	0x3d3d234f	0.04617625
1	0xbdb526d6	-0.08845298
2	0xbe5b890e	-0.21439001
3	0x3e449f39	0.19201364
4	0xbe5b6636	-0.21425709
5	0xbe0f35a0	-0.139853
6	0x3da8bd0d	0.082391836
7	0x3ea14291	0.314961
8	0xbb7f1333	-0.0038921356
9	0x3ec1e994	0.37873518
10	0x3ef3534f	0.47524497
11	0x3deb0cee	0.114770755
12	0x3ed44284	0.41456997
13	0x3eb9b919	0.3627403
14	0x3e4d3622	0.20040181
15	0x3ed15d7e	0.4089164
16	0x3e093308	0.13398373
17	0x3e879a52	0.26484925
18	0x3db1d048	0.086823046
19	0xbe589c57	-0.21153389
20	0x3f288733	0.658313
21	0x3e9ac858	0.30230975
22	0xbed83070	-0.42224455
23	0x3da3e4b3	0.08002605
24	0x3e107191	0.14105822
25	0xbe409471	-0.18806626
26	0x3e8a8f0a	0.27062255
27	0x3ef2aa91	0.47395757
28	0x3d7074c4	0.058705106
29	0xbd312ec8	-0.043257505
30	0x3f03d91c	0.5150316
31	0x3e921515	0.2853171
32	0x3e9aaec9	0.30211475
33	0x3d7d0e9a	0.061781503
34	0x3e351f36	0.17687687
35	0x3ee8dc76	0.45480698
36	0xbe8e7e15	-0.27830568
37	0xbea5dc01	-0.32394412
38	0xbe29ae7c	-0.16570467
39	0xbf2645ac	-0.6495006
40	0xbb6ed658	-0.0036443677
41	0xbe3ab15a	-0.18231717
42	0x3dcbbc13	0.09947982
43	0x3e4d8da3	0.20073561
44	0xbe44a465	-0.19203337
45	0xbd8eaa0b	-0.06966027
46	0x3ea7c7bc	0.32769573
47	0x3e674509	0.22584929
48	0xbd2384cc	-0.039921567
49	0x3e84979e	0.25896925
50	0xbf01af94	-0.50658536
51	0x3e7c8eb2	0.24663809
52	0x3cc72d1d	0.024313504
53	0x3d901843	0.070358776
54	0xbe73fde1	-0.23827316
55	0xbd620c5f	-0.05518758
56	0xbd8de133	-0.06927719
57	0xbeca21fd	-0.39479056
58	0x3cbafd14	0.022825755
59	0xbdb3875f	-0.08766054
60	0x3ede0c53	0.43368778
61	0x3e0cc4ea	0.13746992
62	0xbf359b7c	-0.70940375
63	0xbf086abf	-0.5328788
64	0xbe1da9df	-0.15396832
65	0xbf90efed	-1.132322
66	0x3dfbcb59	0.12294645
67	0x3ecf8080	0.40527725
68	0x3eb753e1	0.35806182
69	0xbd9fffea	-0.078124836
70	0xbd6bd0c2	-0.057572134
71	0xbe0d5519	-0.13801993
72	0xbed801fb	-0.4218901
73	0x3dfbfeb8	0.12304443
74	0xbe902e56	-0.28160352
75	0xbe0bbe60	-0.13646841
76	0xbd1503c2	-0.036380537
77	0xbdf917ae	-0.1216272
78	0xbde35dc9	-0.111018725
79	0xbe3157cc	-0.17318648
80	0x3e2feead	0.17180891
81	0x3e0ffe67	0.1406189
82	0x3c06ddbc	0.0082315765
83	0xbe0b0832	-0.13577345
84	0xbe9f6af0	-0.31136274
85	0xbe9aedb6	-0.30259484
86	0x3e8de3b1	0.27712777
87	0xbd0077a4	-0.0313641
88	0xbd782c35	-0.060589034
89	0xbe198acf	-0.14994358
90	0xbd84cd4a	-0.06484468
91	0x3d635cee	0.055508547
92	0x3eabc946	0.33551997
93	0xbe5a52a6	-0.2132059
94	0xbe034cac	-0.12822217
95	0x3eb20730	0.3477111
96	0x3ec72d48	0.38901734
97	0xbd1dcd82	-0.038526066
98	0x3e6623cb	0.22474591
99	0xbd95f41d	-0.073219515
100	0xbd6141f2	-0.05499453
101	0xbe5bfb7b	-0.21482651
102	0xbe7727a4	-0.24136215
103	0xbe871de0	-0.2638998
104	0xbe75679e	-0.23965308
105	0xbeb68b33	-0.35653076
106	0x3dad2acb	0.08455428
107	0x3d040579	0.03223178
108	0xbbea8c2f	-0.0071578245
109	0xbeb00330	-0.34377432
110	0xbf554828	-0.83313227
111	0xbeb0a240	-0.34498787
112	0xbee1d2ef	-0.44106242
113	0xbf10b3f6	-0.565246
114	0xbe4cfbc5	-0.20017917
115	0xbe7b7bb3	-0.24558906
116	0xbf346865	-0.70471793
117	0xbf46c4a8	-0.77643824
118	0xbf696944	-0.9117625
119	0xbf873ad8	-1.0564833
120	0xbe9f1422	-0.31070048
121	0x3dede6e5	0.11616305
122	0xbd0c42b2	-0.034243293
123	0x3e91d1da	0.28480417
124	0x3e956ccb	0.29184565
125	0x3e467249	0.19379534
126	0x3d04e012	0.032440253
127	0x3e180525	0.14845712
128	0xbdf5e8b9	-0.12007279
129	0x3d776933	0.06040306
130	0x3eb8902d	0.36047497
131	0x3f35d169	0.7102266
132	0xbda1b32b	-0.07895502
133	0x3d4dc9d0	0.05024129
134	0xbe476583	-0.19472317
135	0xbf2d6b7b	-0.6774213
136	0xbd99c4df	-0.07508253
137	0xbe985009	-0.29748562
138	0xbe8417e5	-0.2579948
139	0xbe9e089a	-0.30865937
140	0x3f846b76	1.0345294
141	0xbdfc7a7d	-0.1232805
142	0x3ca539a9	0.020169096
143	0xbe925875	-0.28583112
144	0xbbff8fb0	-0.0077991113
145	0xbeaaec6a	-0.33383495
146	0x3d0b3891	0.033989493
147	0x3e88ce00	0.26719666
148	0xbdb9ef15	-0.090788044
149	0x3e4286ba	0.18996707
150	0x3cab2deb	0.020895919
151	0xbdc35237	-0.095371656
152	0x3e5ea529	0.21742691
153	0x3dca5ecc	0.09881362
154	0xbd86cf90	-0.06582558
155	0xbe5a6dd2	-0.21330956
156	0x39583fe7	0.0002062317
157	0xbea58db4	-0.32334673
158	0xbe901bc1	-0.28146175
159	0xbd6f9071	-0.05848736
160	0xbefc4b25	-0.4927608
161	0xbe23a268	-0.15979922
162	0x3de209c4	0.11037019
163	0xbea34caf	-0.31894442
164	0xbed33472	-0.4125095
165	0xbe7e3108	-0.24823391
166	0x3dc70ddb	0.097194396
167	0xbd2567ae	-0.04038208
168	0x3e29d707	0.16585933
169	0x3eaf5feb	0.34252867
170	0xbf6a9c37	-0.91644615
171	0xbedf0d45	-0.4356481
172	0xbe0889bc	-0.13333791
173	0xbecbac04	-0.39779675
174	0xbe24f2a6	-0.16108188
175	0xbec167c2	-0.37774473
176	0x3e95112e	0.2911467
177	0x3ed6ec26	0.41977042
178	0x3f136945	0.57582504
179	0x3eadfa6c	0.3398012
180	0xbecbdfff	-0.39819333
181	0x3de828dc	0.11335918
182	0x3ea18d36	0.31553048
183	0x3e506734	0.20351869
184	0x3dc3eb25	0.09566335
185	0xbdaac178	-0.083376825
186	0xbd7b7e71	-0.06139988
187	0xbe7c550d	-0.2464182
188	0xbe2ec7e6	-0.17068443
189	0xbea57ca6	-0.32321662
190	0xbe969086	-0.29407138
191	0xbea2f2e3	-0.31825933
192	0xbd5d4263	-0.05401839
193	0x3e68fede	0.22753474
194	0x3b3256a2	0.0027212282
195	0x3e44e0b9	0.1922635
196	0xbe34876a	-0.17629781
197	0xbe5896a4	-0.21151215
198	0x3e7fc8eb	0.24978988
199	0xbe541904	-0.20712668
200	0x3ef64abe	0.481039
201	0x3e4c008c	0.19922084
202	0xbe7270ec	-0.23675889
203	0xbe77f66e	-0.24215099
204	0xbee9ccd2	-0.45664078
205	0xbec5ffd0	-0.38671732
206	0xbf3fd10c	-0.74928355
207	0xbf587755	-0.84557086
208	0xbf3a979d	-0.72887594
209	0xbed0f398	-0.40810847
210	0xbf7f1bbd	-0.996517
211	0x3d3c6e2d	0.04600351
212	0x3e0397e9	0.12850918
213	0x3f01adc1	0.5065575
214	0x3ed938df	0.42426202
215	0x3ec241d6	0.37940854
216	0xbf5e1c53	-0.8676197
217	0xbf84651b	-1.0343355
218	0xbf8d6400	-1.1046143
219	0xbf85885d	-1.043224
220	0x3f377c66	0.7167419
221	0x40124848	2.2856617
222	0xbfba4ad3	-1.4554085
223	0xbf6a3f8e	-0.91503227
224	0xbe2729f8	-0.16324604
225	0xbe2bc0db	-0.16772787
226	0x3c1be731	0.00951557
227	0x3e9365e3	0.2878867
228	0xbe552c14	-0.20817596
229	0xbe1372d8	-0.14399278
230	0x3f4dd386	0.80400884
231	0xbe6bec10	-0.2303927
232	0xbdf7dcdc	-0.121026725
233	0xbe94b6f0	-0.2904582
234	0xbeb2f442	-0.3495198
235	0xbec7edae	-0.39048523
236	0xc01be804	-2.436036
237	0xc00758b8	-2.11479
238	0xc00e3d3f	-2.2224882
239	0xc0030087	-2.0469072
240	0x3f04968c	0.51792216
241	0xbebd8a83	-0.3701974
242	0xbf374053	-0.71582526
243	0xbf7453f7	-0.9544062
244	0xbf052dda	-0.5202309
245	0xbf34fc90	-0.7069788
246	0xbec69e57	-0.3879268
247	0xbefc6f06	-0.49303454
248	0xbe35041d	-0.1767735
249	0xbe79feef	-0.24413656
250	0xbf542d5e	-0.82881725
251	0x3e2c3c08	0.16819775
252	0xbf8a44d6	-1.0802257
253	0xbf7257b9	-0.94665104
254	0xbe8ceb60	-0.27523327
255	0xbf704221	-0.93850905

embedder.emb_rnn.weight_hh_l0 f4 [60, 20]
0	0x3dea67b0	0.11445558
1	0x3ea38f73	0.3194538
2	0xbed646a1	-0.4185076
3	0x3d90b67d	0.07066057
4	0x3dc4c178	0.09607214
5	0xbe60bcaf	-0.21946977
6	0x3e9b36ba	0.3031519
7	0x3e5cabce	0.21549913
8	0x3c809c52	0.01569954
9	0xbd90032c	-0.07031855
10	0xbd21602c	-0.039398357
11	0x3c1802c0	0.009277999
12	0xbe23b5b4	-0.15987283
13	0x3dcd3fc2	0.100219265
14	0xbe2e63f3	-0.17030315
15	0x3c4da69c	0.01255193
16	0xbc7b0154	-0.015320141
17	0x3e68970f	0.22713874
18	0x3ebbcae0	0.3667822
19	0xbe1c070c	-0.15237063
20	0xbcb1ec55	-0.021719137
21	0x3e6fc7fc	0.23416132
22	0xbebb1d3b	-0.3654574
23	0xbe912067	-0.28345034
24	0xbe64490d	-0.22293492
25	0xbe753180	-0.23944664
26	0x3e2aaecd	0.16668244
27	0x3d3c46e1	0.045966033
28	0xbe74835c	-0.23878235
29	0xbe936425	-0.28787342
30	0x3dd7e4d5	0.10541693
31	0xbd87c4e4	-0.06629351
32	0xbdf5c084	-0.1199961
33	0x3d42c97a	0.047555424
34	0xbe8ea08c	-0.27856863
35	0x3e0e944d	0.1392376
36	0x3e8c7f8f	0.2744107
37	0xbe4bf21d	-0.19916578
38	0xbe8c6d3d	-0.27427092
39	0xbe20a4fb	-0.15687935
40	0xbdc2005a	-0.09472723
41	0xbe47cd3d	-0.19511886
42	0x3e35fccd	0.17772217
43	0x3d8eb548	0.069681704
44	0xbd1d083c	-0.03833793
45	0xbe46a21d	-0.19397779
46	0x3d25338d	0.040332366
47	0xbda0203a	-0.07818647
48	0x3e5b40f1	0.21411492
49	0xbe49450b	-0.19655244
50	0xbee4faa3	-0.4472247
51	0xbe540ab3	-0.20707206
52	0xbe168941	-0.14700796
53	0xbe7a30fe	-0.24432752
54	0xbd9d8163	-0.07690694
55	0x3d1e6198	0.03866729
56	0x3e8dc81a	0.27691728
57	0xbe9da6cb	-0.30791315
58	0xbf0876b9	-0.53306156
59	0x3ef92af6	0.4866559
60	0xbe75a64b	-0.23989217
61	0xbe31d952	-0.17368057
62	0x3e5a364c	0.21309775
63	0xbea1171c	-0.31462944
64	0xbd2ad657	-0.041708317
65	0xbddec289	-0.108769484
66	0xbea35d93	-0.3190733
67	0xbe6e4ca8	-0.2327143
68	0xbde901dc	-0.11377308
69	0xbc91b756	-0.017787617
70	0xbe577298	-0.21039808
71	0xbeb37abb	-0.35054573
72	0xbe72f3f4	-0.23725873
73	0x3d386b7e	0.045024388
74	0xbe77211e	-0.24133727
75	0xbe107811	-0.14108302
76	0xbe7b898a	-0.24564186
77	0xbedfb79e	-0.43694776
78	0xbd2b58d7	-0.04183277
79	0xbe4a196c	-0.1973626
80	0xbec1e57a	-0.3787039
81	0xbcad0aeb	-0.02112337
82	0xbe5d28ed	-0.21597643
83	0x3de4dd8c	0.11175069
84	0xbe833544	-0.25626576
85	0x3c6a92b8	0.014317207
86	0xbe8d40fe	-0.27588648
87	0x3e4bf718	0.19918478
88	0xbeb090ab	-0.34485373
89	0x3da4293b	0.080156766
90	0xbdd6979e	-0.104781374
91	0x3e4f198a	0.20224586
92	0xbe22c38b	-0.15894906
93	0xbe89740b	-0.26846346
94	0xbeb8cdc5	-0.3609449
95	0x3dc630c8	0.09677273
96	0x3d694c73	0.056957673
97	0xbeb6fb03	-0.35738382
98	0x3cf06b31	0.029347988
99	0xbe323ebb	-0.17406742
100	0x3e436af7	0.19083773
101	0xbe2de151	-0.16980483
102	0x3cc15bd2	0.023603354
103	0x3d697f2b	0.057006042
104	0xbdaad1db	-0.08340808
105	0x3e1c63bf	0.15272425
106	0x3cc25048	0.023719922
107	0xbe308579	-0.17238416
108	0x3ea4a40a	0.32156402
109	0x3d9f5a8e	0.07780944
110	0x3e83094a	0.25593024
111	0x3d77ee33	0.0605299
112	0xbd93537f	-0.0719366
113	0xbe3ca303	-0.18421559
114	0x3d27eca3	0.04099716
115	0x3989eb7e	0.00026306132
116	0x3e91fa68	0.28511357
117	0xbe273455	-0.16328557
118	0xbe95bd99	-0.29246214
119	0x3daa1eb3	0.08306637
120	0x3e02c017	0.12768589
121	0x3e26f42d	0.16304083
122	0x3ce75d3d	0.028242702
123	0x3e096873	0.1341875
124	0x3dd3c9f8	0.10341257
125	0x3e12dcee	0.1434209
126	0xbe1cc5df	-0.15309857
127	0xbdf42cc5	-0.119226016
128	0xbe504399	-0.20338286
129	0x3e9f9642	0.31169325
130	0xbf180fad	-0.5939892
131	0xbd9ec40c	-0.07752237
132	0x3d96766e	0.073468074
133	0xbda38b01	-0.07985497
134	0xbde254e9	-0.110513516
135	0xbe9f2f1b	-0.31090626
136	0xbebc4265	-0.36769405
137	0xbe3b4e2b	-0.18291537
138	0xbec188ff	-0.37799832
139	0x3e90e159	0.28296927
140	0xbb329e6a	-0.0027255067
141	0xbd92a011	-0.071594365
142	0x3d8fe99b	0.070269786
143	0xbe0f5bd9	-0.13999881
144	0x3eab2575	0.33427015
145	0x3eadfa31	0.33979943
146	0x3e5fef3e	0.21868607
147	0x3d49caf9	0.049265835
148	0x3dd39675	0.10331432
149	0xbb10398c	-0.0022006957
150	0xbe12e5fb	-0.14345543
151	0x3e9d25f0	0.30693007
152	0x3e30d2a1	0.17267849
153	0x3ea4564c	0.3209709
154	0x3e4ce03e	0.20007417
155	0x3c33be23	0.010970625
156	0xbddd8fd9	-0.108184524
157	0x3d4d0406	0.050052665
158	0x3ddfbf0c	0.10925111
159	0xbe3ab795	-0.18234093
160	0xbe837b33	-0.2567993
161	0xbe16b498	-0.14717329
162	0xbd03ed29	-0.032208595
163	0xbe789389	-0.2427503
164	0x3e3eb42f	0.18623422
165	0xbea5708c	-0.3231243
166	0x3dc8ac02	0.09798433
167	0xbde226bb	-0.110425435
168	0xbcbcbf54	-0.023040451
169	0xbe0b6608	-0.1361314
170	0x3f09a90c	0.5377357
171	0x3e80d27f	0.25160596
172	0x3d3914c2	0.04518581
173	0x3da0e16e	0.07855497
174	0xbe811f49	-0.2521918
175	0xbde9d98c	-0.11418447
176	0xbdd2c4a1	-0.1029141
177	0x3e50abac	0.20377988
178	0x3e457e6c	0.19286507
179	0xbe228d03	-0.15874104
180	0x3e31b9ba	0.17356005
181	0xbd1e5b5d	-0.03866135
182	0xbdeeb29c	-0.11655161
183	0x3de96e44	0.113979846
184	0x3e669d18	0.22520864
185	0x3e9064ba	0.28201848
186	0x3e895016	0.26818913
187	0x3e02973e	0.12753007
188	0xbecc4a92	-0.39900643
189	0xbc09a6a0	-0.008401543
190	0x3ea9e863	0.3318511
191	0x3dd7db98	0.10539931
192	0x3e0e7440	0.13911533
193	0x3d5df130	0.054185092
194	0x3e65eefb	0.22454445
195	0x3ee13153	0.43982944
196	0xbd92097b	-0.071307145
197	0xbda1ba44	-0.078968555
198	0x3eb78d5d	0.3585004
199	0xbea15cf0	-0.31516218
200	0x3e1b4ef6	0.1516684
201	0x3d3b3776	0.04570719
202	0x3e8608b3	0.26178512
203	0x3e9d72b0	0.30751562
204	0x3ea32148	0.3186133
205	0x3e33bc15	0.17552216
206	0x3e994c13	0.29940853
207	0x3cd8001b	0.026367238
208	0x3de61128	0.11233741
209	0x3ea96eb1	0.33092263
210	0x3e410fd4	0.18853694
211	0xbb678153	-0.0035324886
212	0x3e0113af	0.12605165
213	0x3e8c8646	0.27446193
214	0xbd46d879	-0.04854629
215	0xbc51bdda	-0.012801612
216	0x3e545b91	0.20738055
217	0x3eba9a49	0.36445835
218	0xbd590461	-0.05298269
219	0x3e883e0e	0.26609844
220	0x3e0fcae2	0.14042237
221	0x3d4c1e67	0.04983368
222	0x3d84a3f5	0.06476585
223	0xbc8df27e	-0.017327543
224	0xbeb615de	-0.35563558
225	0xbd8f275d	-0.0698993
226	0xbdc0a210	-0.09405911
227	0xbe17a6a7	-0.14809667
228	0xbda00165	-0.07812766
229	0xbe34e08f	-0.17663787
230	0x3e135f38	0.14391792
231	0xbda6f03e	-0.08151291
232	0xbe5b1b8f	-0.21397232
233	0xbeb82f80	-0.3597374
234	0xbe8cfa9b	-0.27534947
235	0x3d92dcc4	0.07171014
236	0xbe0a0309	-0.1347772
237	0xbe7a5723	-0.24447303
238	0x3f0242ed	0.5088337
239	0x3e3ff667	0.18746339
240	0xbeaf1f6f	-0.3420367
241	0xbe53484f	-0.20633052
242	0xbd0965a8	-0.033544213
243	0xbe584584	-0.21120268
244	0x3e31089c	0.1728844
245	0xbee1484b	-0.44000468
246	0x3da31716	0.07963388
247	0xbe0730e8	-0.1320225
248	0xbe64ed59	-0.22356166
249	0xbde230c8	-0.110444605
250	0x3e338005	0.17529304
251	0x3e4fa0ec	0.2027623
252	0xbdfc3b82	-0.12316038
253	0xbde5c330	-0.1121887
254	0x3d977ef1	0.07397259
255	0x3af5ea9d	0.0018761937

embedder.emb_rnn.bias_ih_l0 f4 [60]
0	0x3f8b8400	1.0899658
1	0x3f74e545	0.9566234
2	0x3f5f78d3	0.8729374
3	0x3f57a530	0.8423643
4	0x3f624fd5	0.88403064
5	0x3f82fdd9	1.0233718
6	0x3f8f88fa	1.1213677
7	0x3f8b9edf	1.0907859
8	0x3f7650d0	0.9621706
9	0x3f8c8930	1.0979366
10	0x3f890f22	1.0707743
11	0x3f83dc94	1.030169
12	0x3f6a8a66	0.9161743
13	0x3f87d7f6	1.0612781
14	0x3f6f8a37	0.93570274
15	0x3f8d1233	1.1021179
16	0x3f88f3d1	1.0699407
17	0x3f7d004e	0.9882859
18	0x3f8af49a	1.0855896
19	0x3f79212a	0.9731623
20	0x3d90aab3	0.07063808
21	0x3eb4db5f	0.35323617
22	0x3e540f9c	0.2070908
23	0x3f031db0	0.51217175
24	0xbe98181a	-0.29705888
25	0x3f3ab898	0.7293792
26	0x3e146ea0	0.14495325
27	0x3f9677eb	1.1755346
28	0x3e5e6713	0.21719007
29	0xbeae8376	-0.34084672
30	0x3f5eba09	0.8700262
31	0x3f02f507	0.5115513
32	0x3f2914e7	0.6604752
33	0x3e9a33a8	0.30117536
34	0x3e8f7ff3	0.28027305
35	0x3f037753	0.5135395
36	0x3f9f853c	1.2462535
37	0x3dea8149	0.114504404
38	0x3f370703	0.71495074
39	0x3f7886fc	0.9708097
40	0x3f8d46f9	1.1037284
41	0x3f6da5a2	0.9283086
42	0x3f843a93	1.0330375
43	0x3f310419	0.6914688
44	0x3f728321	0.94731337
45	0x3f87260f	1.055849
46	0x3f856b52	1.0423377
47	0x3f688100	0.9082184
48	0x3f8b3ec6	1.0878532
49	0x3f9976fd	1.1989437
50	0x3f5d5766	0.86461484
51	0x3f4d78bd	0.80262357
52	0x3f8a9999	1.0828124
53	0x3f7c6fcf	0.98608106
54	0x3f92a14d	1.1455475
55	0x3f5fc95a	0.87416613
56	0x3f6c0add	0.92204076
57	0x3f8d69aa	1.1047871
58	0x3f573c38	0.8407626
59	0x3f6cf6d5	0.92564136

embedder.emb_rnn.bias_hh_l0 f4 [60]
0	0x3db8401d	0.08996604
1	0xbd31ac8c	-0.043377444
2	0xbe021c2b	-0.12706058
3	0xbe216afd	-0.15763469
4	0xbded7f3c	-0.11596534
5	0x3cbf7528	0.023371294
6	0x3df88bb2	0.1213602
7	0x3db9ef69	0.09078867
8	0xbd1af12e	-0.037827663
9	0x3dc89214	0.09793487
10	0x3d90f287	0.070775084
11	0x3cf72691	0.030169757
12	0xbdabb08b	-0.08383282
13	0x3d7b04bd	0.061283816
14	0xbd83ab93	-0.064292096
15	0x3dd12197	0.10211485
16	0x3d8f3a4c	0.06993541
17	0xbc3fddb3	-0.011710572
18	0x3daf4ad7	0.085591964
19	0xbcdbe360	-0.02684182
20	0xbf6deaa2	-0.92936146
21	0xbf259280	-0.64676666
22	0xbf4afbff	-0.79290766
23	0xbef9c530	-0.48783255
24	0xbfa6060f	-1.2970599
25	0xbe8a8f02	-0.2706223
26	0xbf5ae435	-0.85504466
27	0x3e33c07d	0.17553897
28	0xbf48664a	-0.7828108
29	0xbfaba0c2	-1.3408434
30	0xbe051789	-0.12997259
31	0xbefa15fa	-0.48844892
32	0xbeadd675	-0.3395268
33	0xbf32e611	-0.69882303
34	0xbf38400a	-0.71972716
35	0xbef911cd	-0.48646393
36	0x3e7c2906	0.24625024
37	0xbf62b008	-0.8854985
38	0xbe91f20e	-0.28504986
39	0xbcef1db7	-0.029188974
40	0x3dbae838	0.091263235
41	0x3d4a9526	0.049458645
42	0xbd60cd76	-0.054883443
43	0xbe24bfa0	-0.16088724
44	0xbb9a9341	-0.004717261
45	0x3da13c88	0.078728735
46	0x3d87945c	0.06620094
47	0xbdcff6dc	-0.101545066
48	0x3dc1e9c9	0.09468419
49	0x3e393cf1	0.18089654
50	0xbe09fea4	-0.13476044
51	0xbe9a1314	-0.3009268
52	0x3d88202e	0.06646763
53	0xbd232aa8	-0.039835602
54	0x3e516ded	0.2045209
55	0xbdff50a9	-0.124665566
56	0xbdecf76c	-0.115706295
57	0x3dba56c9	0.09098584
58	0xbe2700c4	-0.16308886
59	0xbd8ee0c4	-0.069764644

embedder.emb_rnn.weight_ih_l1 f4 [60, 20]
0	0x3e2e9652	0.1704953
1	0xba0691dd	-0.00051334297
2	0xbedbe746	-0.42949885
3	0xbe6b5edf	-0.22985409
4	0x3dfa6853	0.122269295
5	0x3d5a4c2f	0.05329531
6	0x3e7d284c	0.24722403
7	0xbe1b31f1	-0.1515577
8	0xbdc1068d	-0.094250776
9	0xbd422082	-0.047394283
10	0xbe11762f	-0.1420524
11	0xbe3fb476	-0.18721184
12	0x3cd18aac	0.02557882
13	0x3d799022	0.06092847
14	0x3d96cb33	0.07362976
15	0x3cbbbf40	0.022918344
16	0xbdc01fae	-0.093810424
17	0xbe3e2cd5	-0.1857179
18	0x3ef29d4f	0.47385642
19	0x3ea66774	0.32500803
20	0xbd698001	-0.05700684
21	0x3df6121b	0.12015172
22	0x3e9352ca	0.287741
23	0xbe737f9d	-0.2377915
24	0xbdd24872	-0.10267724
25	0x3e24156b	0.16023795
26	0xbbcb1005	-0.006196978
27	0x3ed1f2eb	0.41005644
28	0x3da092bd	0.07840488
29	0xbe8a11c7	-0.26966688
30	0x3d473383	0.04863311
31	0xbe3aa950	-0.1822865
32	0xbdd67781	-0.10472012
33	0xbd90fe12	-0.0707971
34	0xbe67a45d	-0.22621293
35	0xbf13edbc	-0.5778463
36	0x3fb7c7f4	1.4357896
37	0xbe7cc37f	-0.24683951
38	0xbf7d6e13	-0.98996085
39	0x3f159c91	0.58442026
40	0x3ea41662	0.32048327
41	0x3e2c5fff	0.16833495
42	0xbd393f95	-0.045226652
43	0xbd396a07	-0.04526713
44	0xbbf450f6	-0.0074559404
45	0x3e3e7d93	0.1860259
46	0xbe037cde	-0.12840602
47	0x3df022a8	0.1172536
48	0x3e405e67	0.18786012
49	0x3ddc3e1f	0.10754036
50	0xbefe310d	-0.49646798
51	0xbe8a2d51	-0.269877
52	0x3e835b88	0.2565577
53	0x3e67c173	0.22632389
54	0x3d041f8e	0.032256655
55	0xbed5d4f7	-0.41764042
56	0x3ef7d7e7	0.48406908
57	0x3dbd1f75	0.092345156
58	0xbe0c7a63	-0.13718562
59	0xbe3cda2d	-0.18442602
60	0xbe8ce229	-0.27516297
61	0x3cc9c312	0.02462915
62	0x3ddcada7	0.10775309
63	0xbd70d7d7	-0.05879959
64	0x3e278552	0.16359451
65	0x3e2b8136	0.16748509
66	0xbe3a8fc5	-0.18218906
67	0x3e9602f2	0.29299122
68	0xbdc61ce6	-0.09673481
69	0xbe495617	-0.19661747
70	0x3d8abff4	0.067748934
71	0x3e7e9522	0.24861577
72	0x3d09c0a1	0.03363097
73	0x3e4e4eaa	0.20147195
74	0x3e86bdfb	0.2631682
75	0x3e26fbb0	0.16306949
76	0x3dde8fd3	0.10867276
77	0xbe8db840	-0.27679634
78	0x3dd28ecd	0.10281143
79	0xbf362a9b	-0.7115876
80	0x3e8ca322	0.2746821
81	0xbdfbaeaa	-0.12289174
82	0xbe597a17	-0.2123798
83	0x3e44e8d5	0.19229443
84	0xbe09a097	-0.13440166
85	0x3ddc18ad	0.10746894
86	0x3c590ee1	0.013248176
87	0x3e51c3d4	0.20484859
88	0x3e30eebd	0.17278571
89	0x3ea69d95	0.325421
90	0x3dc85c70	0.09783256
91	0x3e5404e4	0.2070499
92	0xbe013f04	-0.12621695
93	0xbd596053	-0.053070378
94	0x3ec68917	0.38776466
95	0x3eac7a86	0.33687228
96	0x3ebfdb65	0.37472072
97	0x3eb175f5	0.34660307
98	0x3e687851	0.22702147
99	0x3df09ce8	0.117486775
100	0xbba8305b	-0.0051327175
101	0xbe2a3ab0	-0.1662395
102	0xbea81694	-0.32829726
103	0x3e12b007	0.14324962
104	0xbccbe4b7	-0.024889333
105	0xbe4d096e	-0.20023128
106	0x3e4d6d26	0.20061168
107	0x3e1fe241	0.15613653
108	0x3e940ad3	0.28914508
109	0xbe29066c	-0.16506356
110	0x3e8f8f8b	0.28039202
111	0xbdeb5782	-0.114913
112	0xbe984529	-0.29740265
113	0x3e106f63	0.1410499
114	0xbe4db457	-0.20088325
115	0xbeec6d2c	-0.46177042
116	0xbcb5c5f0	-0.02218911
117	0x3dd44e33	0.10366478
118	0xbea7ff3e	-0.32811922
119	0x3eb98ca5	0.36240116
120	0x3e4026de	0.18764827
121	0xbdeb3b9a	-0.114859775
122	0x3e32fa88	0.17478383
123	0x3e5ecb18	0.21757162
124	0x3d8bcb72	0.068259135
125	0x3e41e432	0.18934706
126	0x3e8236b9	0.25432375
127	0x3e8eb436	0.27871865
128	0xbdcebb51	-0.100943215
129	0xbe386d95	-0.18010552
130	0x3e8c7709	0.27434567
131	0xbe116c5e	-0.14201495
132	0x3e490737	0.19631658
133	0xbe089e3f	-0.13341616
134	0xbdff660d	-0.124706365
135	0x3ea8cfaf	0.3297095
136	0x3e88f7f6	0.2675168
137	0x3ddc8d21	0.10769106
138	0xbf86aca9	-1.0521442
139	0xbd812d0f	-0.06307422
140	0x3dcdbf5c	0.100462645
141	0xbc2d4e28	-0.010577716
142	0xbeb274eb	-0.34854826
143	0xbda1b841	-0.07896472
144	0xbde9d475	-0.11417476
145	0x3e7debeb	0.24797027
146	0x3b025392	0.0019886238
147	0x3f1100f2	0.5664207
148	0xbd786938	-0.06064722
149	0x3e033940	0.12814808
150	0x3e9fb7ee	0.31195015
151	0x3f15cf57	0.585195
152	0xbe87d348	-0.26528382
153	0x3eb7d05b	0.3590115
154	0x3eb3aa07	0.35090658
155	0x3e215577	0.15755259
156	0x3e38f6a0	0.1806283
157	0xbe0c643f	-0.13710116
158	0x3ec75e86	0.38939303
159	0xbef3fa6e	-0.47652
160	0xbe7fd702	-0.24984363
161	0xbdb79ce2	-0.0896547
162	0xbe555e38	-0.20836723
163	0x3d0a5aaf	0.03377789
164	0x3e0e7c14	0.1391452
165	0xbe580367	-0.21095048
166	0xbe30d084	-0.17267042
167	0xbe350afc	-0.17679971
168	0xbe38e86c	-0.18057412
169	0xbe3abd9e	-0.18236396
170	0x3ecb2866	0.3967926
171	0x3e81eb5b	0.25374874
172	0x3dfdda18	0.12395114
173	0x3dd5750b	0.10422715
174	0xbe12d910	-0.14340615
175	0x3ece69cc	0.40315092
176	0x3eebe13b	0.46070275
177	0x3e0facc4	0.14030749
178	0xbe9dca0f	-0.3081822
179	0xbeb53e66	-0.3539917
180	0xbd29ceb2	-0.041456886
181	0xbceffa65	-0.029294202
182	0x3c0165d2	0.007897811
183	0x3ea3150e	0.31852
184	0x3e3e9e0c	0.18614978
185	0x3e346956	0.17618307
186	0x3d9d72cd	0.07687912
187	0xbe951294	-0.29115736
188	0x3dc7b69d	0.097516276
189	0x3e919ce7	0.2844002
190	0xbddbf0c4	-0.10739282
191	0x3d8c0cbe	0.06838368
192	0xbdac47fd	-0.08412168
193	0x3e427eb3	0.18993644
194	0x3d34a5bc	0.04410337
195	0xbd4979da	-0.049188472
196	0xbd873c21	-0.066032656
197	0xbdfc7635	-0.12327234
198	0xbe51fb3c	-0.20505995
199	0xbe4416a7	-0.19149266
200	0x3e49390d	0.1965067
201	0xbdc7250b	-0.09723862
202	0x3c9d7008	0.01921846
203	0x3df0d388	0.117590964
204	0xbe8aed34	-0.27134097
205	0x3d1c419f	0.03814852
206	0x3d287049	0.04112271
207	0x3e1b0dc7	0.15141974
208	0xbe9fe298	-0.31227565
209	0xbe317cdd	-0.17332788
210	0x3dc50623	0.09620311
211	0xbde897ed	-0.113571025
212	0x3e67ccdf	0.22636746
213	0xbe6db3cc	-0.23213118
214	0xbd95c6ad	-0.07313285
215	0x3dc7eec7	0.0976234
216	0xbefe9c0f	-0.49728438
217	0x3e25820c	0.1616289
218	0x3dd24841	0.102676876
219	0xbd0b9b88	-0.034083873
220	0x3e68cd26	0.22734508
221	0xbc6cb856	-0.014448246
222	0x3d58a3d8	0.05289063
223	0x3dc9d292	0.09854616
224	0xbe907dd8	-0.2822101
225	0x3e408c98	0.18803632
226	0xbe330cc8	-0.17485344
227	0xbd8a80b5	-0.0676283
228	0xbe98190c	-0.2970661
229	0xbdc7ab53	-0.097494744
230	0x3e22bc2c	0.15892094
231	0xbce9aeff	-0.028525827
232	0xbdfeab34	-0.12434998
233	0xbe1cc89d	-0.15310903
234	0x3e5e9f0b	0.21740358
235	0x3bc60cbf	0.006044
236	0xbe7a9113	-0.24469404
237	0xbdb91c03	-0.09038546
238	0x3d1b2a13	0.037881922
239	0xbe06f9fe	-0.13181302
240	0x3e18c20c	0.14917773
241	0xbdc71b4b	-0.097220026
242	0x3cbf683b	0.02336513
243	0xbea0ecfb	-0.31430802
244	0xbd674bbf	-0.05646872
245	0xbd8b47ac	-0.0680078
246	0xbeb5e27d	-0.3552436
247	0xbeb73688	-0.35783792
248	0x3e6b128b	0.22956292
249	0x3d93591c	0.07194731
250	0xbe852184	-0.26002133
251	0xbec7d028	-0.39025998
252	0xbe9e74ef	-0.30948588
253	0xbd1c757b	-0.038197976
254	0xbeb1e55f	-0.3474531
255	0xbebd6e3d	-0.36998168

embedder.emb_rnn.weight_hh_l1 f4 [60, 20]
0	0x3d317905	0.043328304
1	0x3df5ce59	0.12002248
2	0x3b2d9603	0.002648712
3	0xbc8acad8	-0.016942427
4	0x3e6c1286	0.23053941
5	0x3e56a30d	0.20960636
6	0xbdf05a7f	-0.11736011
7	0x3e9897f6	0.29803437
8	0xbe5857d6	-0.21127257
9	0xbe47a23e	-0.19495484
10	0x3ebc1cd7	0.36740753
11	0x3e07836b	0.13233726
12	0xbdaa3e90	-0.08312714
13	0x3e40c846	0.18826398
14	0xbe41e53c	-0.18935102
15	0x3ded3e7b	0.11584183
16	0xbcf376d1	-0.029719742
17	0x3dc7f2f9	0.0976314
18	0x3ebf2875	0.37335554
19	0x3d1dcabd	0.038523424
20	0x3e3cb0b0	0.18426776
21	0xbe4657e9	-0.19369473
22	0x3e67fff9	0.2265624
23	0x3d0555b4	0.032552436
24	0xbe477f10	-0.19482064
25	0x3d67cdfd	0.05659293
26	0x3e4290ce	0.19000551
27	0x3e27cc20	0.16386461
28	0xbe26ad70	-0.16277099
29	0xbd414242	-0.04718233
30	0xbd5e0f51	-0.054213826
31	0x3e78dbfa	0.24302664
32	0x3e8c4885	0.27399078
33	0x3d1c45f5	0.038152654
34	0xbcd833b4	-0.026391841
35	0x3dfda799	0.12385482
36	0x3d4696ef	0.048483785
37	0x3e544e2d	0.20732947
38	0x3eee762e	0.4657454
39	0x3e980ee8	0.29698873
40	0x3bdb7fab	0.006698569
41	0x3eb472b0	0.3524375
42	0x3dbcc051	0.09216369
43	0xbdba1b10	-0.09087193
44	0xbd522720	-0.051306844
45	0x3e8f1be7	0.27950975
46	0x3dd1833d	0.1023011
47	0xbe1d983d	-0.15390106
48	0x3e206e19	0.15666999
49	0xbe04d7a7	-0.1297289
50	0xbdbd7b45	-0.092520274
51	0xbd32e82e	-0.043678455
52	0xbe359a20	-0.17734575
53	0x3e45a1e3	0.19300036
54	0xbd025f83	-0.03182937
55	0x3e59d17a	0.21271315
56	0xbda3c7f8	-0.079971254
57	0x3d9fa6a6	0.077954575
58	0xbd8bee95	-0.06832615
59	0x3d17e5f9	0.037084553
60	0x3d11af59	0.035567615
61	0xbe9e27c0	-0.30889702
62	0x3dc76194	0.097354084
63	0x3e3ec209	0.18628706
64	0x3e94445b	0.289584
65	0xbe034915	-0.12820847
66	0xbe0abe41	-0.13549139
67	0x3cbfce69	0.023413854
68	0x3e6d835a	0.23194638
69	0x3e292167	0.16516648
70	0xbea89cc4	-0.32932103
71	0xbf0a1e6f	-0.5395269
72	0xbee196c8	-0.4406035
73	0x3de22641	0.110424526
74	0x3e115dae	0.14195892
75	0x3c8952a9	0.016763048
76	0x3c9b20a7	0.018936468
77	0x3e2e9925	0.17050608
78	0x398a3168	0.00026358222
79	0x3d25b8e7	0.04045954
80	0xbd6f8160	-0.05847299
81	0x3ddb54ee	0.107095584
82	0x3df66461	0.120308645
83	0x3db5c260	0.08874965
84	0x3d786d83	0.060651314
85	0x3ecbf85e	0.39837927
86	0x3e2c9b5e	0.16856143
87	0xbe0bfb87	-0.13670169
88	0xbd9793f5	-0.074012674
89	0x3eaf1711	0.34197286
90	0x3e9812b8	0.2970178
91	0x3f0956a9	0.5364786
92	0xbeb4c223	-0.35304365
93	0xbdd902fd	-0.10596273
94	0xbcfc525d	-0.030800993
95	0x3e97e690	0.29668093
96	0xbeaba55b	-0.33524594
97	0x3e5af76b	0.21383445
98	0x3ecff5c5	0.40617195
99	0x39d74302	0.0004105792
100	0xbe87bb50	-0.26510096
101	0x3e9a4538	0.30130935
102	0xbedfaba3	-0.43685636
103	0xbde83c5b	-0.11339637
104	0xbdb746a3	-0.0894902
105	0xbc189571	-0.009312973
106	0xbe624f52	-0.22100571
107	0x3e4d7bf1	0.20066811
108	0xbdbea3dd	-0.09308598
109	0x3e3b9983	0.18320279
110	0x3f49d4de	0.78840435
111	0x3eab41d0	0.33448648
112	0x3ef24d20	0.47324467
113	0x3d96fa57	0.07371967
114	0x3dc0c877	0.09413236
115	0x3e270dba	0.1631383
116	0x3e702b22	0.23453954
117	0x3e1c99ae	0.15292999
118	0x3db3c360	0.08777499
119	0x3e3a5807	0.18197642
120	0x3d45adf2	0.04826159
121	0xbe731c83	-0.23741345
122	0xbdf221cd	-0.11822853
123	0x3dd0f2d4	0.10202566
124	0xbe4860a8	-0.19568121
125	0xbda7e23c	-0.08197448
126	0xbddc5c8c	-0.107598394
127	0x3d3173db	0.04332338
128	0xbe1fd14c	-0.15607184
129	0x3e7091d2	0.23493126
130	0x3d6cb53e	0.057790034
131	0x3cd89a15	0.02644066
132	0xbcf3022f	-0.029664127
133	0x3e95bee5	0.29247203
134	0x3e6a52db	0.2288317
135	0x3d6cb0f7	0.057785954
136	0x3e01b11e	0.12665221
137	0x3dacd238	0.084385335
138	0xbdc3506d	-0.095368244
139	0x3e4313b9	0.19050492
140	0xbdbca20a	-0.09210594
141	0xbe1b94ee	-0.15193531
142	0x3d756d17	0.05991849
143	0x3e10c6c1	0.14138319
144	0xbe2763d2	-0.16346672
145	0xbdca17c3	-0.098678134
146	0x3e67c175	0.22632392
147	0xbcd2eb7d	-0.025747055
148	0xbd5b6f30	-0.053572834
149	0xbdb65304	-0.08902553
150	0x3ca4c594	0.020113744
151	0xbd82dea8	-0.063901246
152	0x3a00fd2c	0.0004920538
153	0xbd1e04dc	-0.038578853
154	0x3e5e29d9	0.21695651
155	0xbe370751	-0.17873885
156	0xbc4419fd	-0.011969087
157	0xbeab2818	-0.33429027
158	0xb8997f20	-7.3192874e-05
159	0xbddab552	-0.10679115
160	0x3dfb51cd	0.12271462
161	0x3ed214b2	0.41031414
162	0xbe1c3256	-0.15253577
163	0x3e35e025	0.17761286
164	0x3d3a15eb	0.04543106
165	0x3e301cac	0.17198437
166	0xbebc95f0	-0.36833143
167	0xbd376c74	-0.044781163
168	0x3e6d3d5f	0.23167942
169	0xbd8a1daf	-0.06743943
170	0x3e2bf1e4	0.16791493
171	0xba0035c5	-0.0004890825
172	0x3e5b3849	0.2140819
173	0x3e96daa6	0.2946369
174	0xbea1b0be	-0.31580156
175	0x3d9ca1e0	0.07648063
176	0x3aff407c	0.0019474174
177	0x3e80606a	0.25073558
178	0xbf0ecf3b	-0.5578496
179	0xbdd62059	-0.104553886
180	0xbd954b2b	-0.07289728
181	0xbe8b7d0f	-0.2724385
182	0xbccc71ac	-0.024956547
183	0xbe6ed806	-0.23324594
184	0xbe7eb918	-0.24875295
185	0x3e838d92	0.25693947
186	0x3e3215e7	0.17391168
187	0xbe48f8cf	-0.19626163
188	0x3ca8110a	0.020515937
189	0x3e1d45e8	0.15358698
190	0x3e3904aa	0.18068185
191	0x3e0dbc57	0.13841377
192	0x3da6c550	0.08143103
193	0xbd38413a	-0.04498408
194	0x3e71a73e	0.23598954
195	0x3c1ad243	0.009449544
196	0xbe4b4e27	-0.19854032
197	0xbe2d3921	-0.16916324
198	0xbda5029e	-0.0805714
199	0xbe10106a	-0.14068761
200	0x3e321f79	0.17394818
201	0x3c730b69	0.014834263
202	0x3e1b1325	0.15144022
203	0x3ed79386	0.4210474
204	0x3c227db4	0.009917665
205	0xbcf7a7a4	-0.030231304
206	0xbc7ba1ff	-0.015358447
207	0x3b64e2d5	0.0034925241
208	0x3d048fed	0.03236382
209	0xbd257c36	-0.04040166
210	0x3d042afc	0.032267556
211	0x3f1c39c7	0.6102566
212	0x3d0c6d0d	0.034283686
213	0x3e6dc054	0.23217899
214	0xbe26719d	-0.16254278
215	0x3e031961	0.1280265
216	0x3d24b743	0.040213834
217	0xbd9ed50e	-0.07755481
218	0x3e737cc6	0.23778066
219	0x3e16f131	0.14740445
220	0x3e05e256	0.13074622
221	0x3e62d669	0.22152103
222	0x3dab8e35	0.08376733
223	0xbe63a480	-0.2223072
224	0x3ec356fa	0.38152295
225	0x3d86f737	0.06590121
226	0x3da301b2	0.07959308
227	0xbda8ad8c	-0.082362264
228	0x3e31ea24	0.17374474
229	0xbdd1451f	-0.10218262
230	0x3e195206	0.14972696
231	0x3e3c70ff	0.1840248
232	0xbdc39b7b	-0.0955114
233	0x3a316cb9	0.0006768215
234	0xbcddc127	-0.027069641
235	0x3df4f15b	0.119600974
236	0xbeb3d285	-0.3512155
237	0x3e016df6	0.12639603
238	0x3d8ed5bd	0.06974361
239	0x3debeec5	0.11520151
240	0xbea3ae14	-0.3196875
241	0x3d902c1d	0.07039664
242	0x3eab15f5	0.3341519
243	0x3e0dbffe	0.1384277
244	0x3e8e5f17	0.27806923
245	0x3dd7db9d	0.10539935
246	0xbe9c02fc	-0.30471027
247	0xbe0f1686	-0.13973436
248	0xbc67847f	-0.014130711
249	0x3d457969	0.04821149
250	0xbc2197d1	-0.009862856
251	0x3dece2d9	0.11566705
252	0x3c63eb6f	0.013911112
253	0x3ccd5c3e	0.025068399
254	0xbe8de8d2	-0.2771669
255	0xbe88e49f	-0.26736924

embedder.emb_rnn.bias_ih_l1 f4 [60]
0	0x3f7de836	0.9918245
1	0x3f758a3f	0.9591407
2	0x3f84ca06	1.0374153
3	0x3f7c3f33	0.98533934
4	0x3f915bee	1.135618
5	0x3f74eaa4	0.95670533
6	0x3f81fc48	1.0155115
7	0x3f87efcb	1.0620054
8	0x3f7cb6b2	0.9871627
9	0x3f86dda2	1.0536387
10	0x3f7a18c6	0.9769405
11	0x3f74e469	0.95661026
12	0x3f5dfc4c	0.867131
13	0x3f69e30f	0.9136209
14	0x3f80d0a8	1.0063677
15	0x3f875fe2	1.0576136
16	0x3f631f0d	0.88719255
17	0x3f8a2cc9	1.0794917
18	0x3f83a7c2	1.0285571
19	0x3f87dccd	1.0614258
20	0x3f91f7a4	1.1403699
21	0x3d6bf8b5	0.057610232
22	0x3f3d92f4	0.7405236
23	0x3ed985af	0.42484805
24	0x3f41949f	0.756174
25	0x3f9b074b	1.2111601
26	0x3e686978	0.22696483
27	0x3e941bbd	0.28927413
28	0x3f52593e	0.8216742
29	0x3f59598c	0.8490226
30	0x3ed18fd8	0.40930057
31	0x3f434ceb	0.7628924
32	0x3eee26f0	0.46514082
33	0x3cc086a7	0.023501707
34	0x3f66d4bd	0.9016836
35	0x3f82105a	1.016124
36	0x3efc7394	0.4930693
37	0x3f2788ec	0.654433
38	0x3f1d10f6	0.61354005
39	0x3f0f5fd0	0.56005573
40	0x3f84993b	1.0359262
41	0x3f5a572d	0.8528927
42	0x3f65a607	0.8970646
43	0x3f5a9774	0.8538735
44	0x3f61622d	0.8804043
45	0x3f796697	0.97422165
46	0x3f6fa19a	0.9360596
47	0x3f4a2b8d	0.78972703
48	0x3f869c8c	1.0516524
49	0x3f890222	1.0703776
50	0x3f7a708d	0.9782799
51	0x3f708660	0.9395504
52	0x3f6c5c18	0.92328024
53	0x3f821878	1.0163717
54	0x3f85f32d	1.0464836
55	0x3f860aea	1.0472081
56	0x3f72c699	0.94834286
57	0x3f62643e	0.8843421
58	0x3f8008b1	1.0002652
59	0x3f545838	0.8294711

embedder.emb_rnn.bias_hh_l1 f4 [60]
0	0xbc05ec35	-0.008173992
1	0xbd275c8f	-0.040859755
2	0x3d194033	0.03741474
3	0xbc7028cb	-0.014658163
4	0x3e0adfc3	0.13561921
5	0xbd315529	-0.043294106
6	0x3c7e1ee9	0.015510299
7	0x3d7dfdd6	0.062009655
8	0xbc52604d	-0.012840343
9	0x3d5bbbdf	0.053645965
10	0xbcbce08d	-0.023056293
11	0xbd31b859	-0.0433887
12	0xbe080fba	-0.13287249
13	0xbdb0e708	-0.08637816
14	0x3bd0ba6a	0.0063698785
15	0x3d6bfa28	0.057611614
16	0xbde706cb	-0.112805925
17	0x3da2cc8d	0.07949171
18	0x3ce9ea59	0.028554128
19	0x3d7b9966	0.06142559
20	0x3e0fbc24	0.14036614
21	0xbf71404e	-0.94238746
22	0xbe84da69	-0.25947884
23	0xbf133d68	-0.57515574
24	0xbe79ad18	-0.24382436
25	0x3e583af3	0.21116237
26	0xbf45e56f	-0.7730321
27	0xbf35f244	-0.71072793
28	0xbe369b3e	-0.17832658
29	0xbe1a9a4e	-0.15097925
30	0xbf1737ea	-0.59069693
31	0xbe72cc01	-0.23710634
32	0xbf08ec94	-0.5348599
33	0xbf79fb8e	-0.97649467
34	0xbdc95a71	-0.098317035
35	0x3c841296	0.016122144
36	0xbf01c655	-0.50693256
37	0xbeb0ee3d	-0.3455676
38	0xbec5de29	-0.38646057
39	0xbee14013	-0.43994197
40	0x3d46daad	0.04854839
41	0x3ac69a62	0.0015152211
42	0xbde98c5d	-0.11403725
43	0xbe21d137	-0.15802465
44	0xbddff083	-0.10934546
45	0xbccd071b	-0.025027802
46	0xbda8efb4	-0.08248845
47	0xbe7a9c14	-0.24473602
48	0x3dd9a27d	0.10626695
49	0x3da1d96a	0.079027966
50	0xbd1eac11	-0.038738314
51	0xbd8c11e8	-0.06839353
52	0xbd1c9b1a	-0.038233854
53	0xbd33bfab	-0.04388396
54	0x3d82756f	0.06370055
55	0x3d19d0bb	0.037552577
56	0xbd85dd00	-0.06536293
57	0xbdee2610	-0.116283536
58	0x3ac35ef3	0.0014905616
59	0xbe366236	-0.17810902

embedder.emb_rnn.weight_ih_l2 f4 [60, 20]
0	0xbd977e50	-0.07397139
1	0x3e47a576	0.19496712
2	0x3e1b102a	0.15142885
3	0x3eacb892	0.33734566
4	0x3ea15679	0.31511286
5	0xbe91edb6	-0.28501672
6	0xbe8e9e37	-0.27855083
7	0x3e409897	0.18808208
8	0xbc027036	-0.0079613235
9	0x3e27ed80	0.16399193
10	0x3e81efb1	0.25378183
11	0x3df03155	0.11728159
12	0x3e828512	0.2549215
13	0xbdcb2d99	-0.099208064
14	0x3e15cd08	0.14628994
15	0xbde53b10	-0.11192906
16	0x3e01205d	0.12610002
17	0xbdfa7635	-0.122295775
18	0xbe93e752	-0.2888742
19	0x3ed9489b	0.42438206
20	0xbe544769	-0.20730366
21	0xbe93e624	-0.2888652
22	0x3be070b0	0.006849371
23	0xbda2e3e8	-0.07953626
24	0x3e0a0506	0.13478479
25	0x3e28cfa4	0.16485459
26	0xbe0d175b	-0.1377844
27	0xbc4abfe9	-0.0123748565
28	0xbeaaf0af	-0.33386752
29	0x3e3156c4	0.17318255
30	0xbe9cd337	-0.30629894
31	0xbe882594	-0.2659117
32	0xbe0de29a	-0.13855973
33	0xbf12c0f0	-0.5732565
34	0x3e237da8	0.15965903
35	0xbd8c73c0	-0.06858015
36	0xbf1f9887	-0.62342113
37	0x3e4dd1cb	0.20099561
38	0x3e89e31b	0.2693108
39	0x3eb25697	0.34831688
40	0xbe115be5	-0.14195211
41	0xbe96d3a9	-0.2945836
42	0x3d58bac0	0.052912474
43	0xbe3dcbed	-0.18534823
44	0xbda4184e	-0.08012448
45	0x3d7a5f9f	0.061126348
46	0x3e301558	0.17195642
47	0x3d8ca31b	0.068670474
48	0x3e4bfdad	0.19920988
49	0x3d6774fa	0.056508042
50	0xbe474bf3	-0.19462566
51	0xbd8f9e6f	-0.07012641
52	0xbdf15d46	-0.117853686
53	0x3ec7fe1b	0.39061055
54	0x3e3817ab	0.17977779
55	0xbd294851	-0.041328732
56	0x3e5d0c2b	0.21586673
57	0xbdf26cc1	-0.118371494
58	0xbd1bd469	-0.038044367
59	0xbda6394d	-0.08116398
60	0x3dcd9c9b	0.10039636
61	0xbd691584	-0.056905285
62	0x3e523234	0.20526963
63	0x3dbc563c	0.091961354
64	0x3d19216b	0.037385385
65	0x3e469a99	0.19394912
66	0x3e871d47	0.26389524
67	0xbd3a6946	-0.045510553
68	0xbe8633bd	-0.26211348
69	0x3db6dc64	0.08928755
70	0x3e0da9f7	0.13834368
71	0x3e49ae15	0.19695313
72	0xbef1a0e0	-0.4719305
73	0xbe054bb3	-0.13017158
74	0x3d085001	0.033279423
75	0x3e03dc79	0.12877072
76	0xbe3cfaac	-0.18454999
77	0x3d1514a2	0.03639663
78	0xbd659d2b	-0.05605809
79	0xbdd373fc	-0.10324857
80	0xbdced209	-0.10098655
81	0xbd9770ef	-0.07394587
82	0x3d70162b	0.05861489
83	0xbef66bd8	-0.48129153
84	0xbc49ed6a	-0.01232467
85	0xbdd66b65	-0.10469703
86	0xbcc6c913	-0.024265802
87	0xbe5feee4	-0.21868473
88	0xbe497093	-0.1967185
89	0xbd043a85	-0.03228237
90	0x3c8882f6	0.01666401
91	0xbef9fdc6	-0.48826426
92	0xbe76789c	-0.24069446
93	0x3d12699d	0.035745252
94	0xbdc78fb1	-0.09744204
95	0xbc9e26c3	-0.019305592
96	0xbd893fb5	-0.06701604
97	0x3cba4b0e	0.022740867
98	0x3d94c242	0.07263614
99	0xbe982236	-0.297136
100	0xbe7ce459	-0.24696483
101	0xbded63ce	-0.11591302
102	0xbe4af80b	-0.19821183
103	0x3dbdfc94	0.09276691
104	0xbe437676	-0.19088158
105	0x3e2ee008	0.17077649
106	0x3e3234f9	0.1740302
107	0x3e33fa56	0.17575964
108	0xbd88b229	-0.06674606
109	0xbd8548cb	-0.06508025
110	0x3c3e197d	0.011602757
111	0x3e439fca	0.19103923
112	0x3eb38522	0.3506251
113	0x3e8510d7	0.2598941
114	0x3daea8fb	0.08528324
115	0xbe56a419	-0.20961036
116	0xbdc1adf3	-0.09457006
117	0x3e824a03	0.2544709
118	0x3f1c36a0	0.6102085
119	0x3e610cef	0.2197759
120	0xbd3b293c	-0.04569362
121	0xbdb6c738	-0.08924717
122	0x3e332de5	0.17497976
123	0x3dc1593f	0.094408505
124	0xbe7900b7	-0.24316679
125	0x3cd90136	0.026489835
126	0x3df02e00	0.11727524
127	0x3e8f46ee	0.27983803
128	0x3ca7c2dc	0.020478658
129	0xbd23e40f	-0.040012415
130	0xbefb5217	-0.49086067
131	0xbf60129b	-0.8752839
132	0x3d2d4759	0.04230437
133	0x3e2059fb	0.15659325
134	0xbe92af1d	-0.28649226
135	0xbd011457	-0.03151354
136	0xbe716515	-0.23573716
137	0x3ea6654a	0.32499152
138	0xbed764da	-0.4206913
139	0xbd1f1fd3	-0.03884871
140	0xbe5e196a	-0.21689382
141	0x3dba8677	0.091076784
142	0xbe298016	-0.16552767
143	0xbe606d68	-0.21916735
144	0xbd30d5ac	-0.043172523
145	0x3da08a6d	0.078389026
146	0x3eddeb9a	0.43343812
147	0x3e3026e0	0.1720233
148	0xbcf3f254	-0.029778637
149	0x3d75f2c9	0.06004599
150	0xbe34e0e0	-0.17663908
151	0x3eb9bc9b	0.36276707
152	0x3db4f82e	0.08836399
153	0x3d4af79f	0.049552556
154	0xbe1b34ce	-0.15156862
155	0xbe8b30f4	-0.27185786
156	0x3e213c99	0.15745772
157	0xbc50dd86	-0.012748128
158	0x3d69af76	0.0570521
159	0x3d76a71f	0.060217973
160	0xbdf33835	-0.11875955
161	0x3decad50	0.11556494
162	0x3d0ab9b6	0.033868514
163	0xbd8a0dc9	-0.067409106
164	0x3e154423	0.14576773
165	0x3db7b691	0.08970369
166	0x3c44fb52	0.01202281
167	0x3d6439a0	0.055719018
168	0xbe06c62c	-0.13161534
169	0xbe249f86	-0.16076478
170	0x3ba41c81	0.0050082807
171	0xbe92fde5	-0.2870933
172	0xbeecb10c	-0.46228826
173	0xbdaab7cb	-0.08335837
174	0xbe52d196	-0.20587763
175	0x3bcaa811	0.006184586
176	0xbcc9d3e2	-0.024637166
177	0x3d259ea7	0.040434506
178	0xbe809b25	-0.25118366
179	0x3dc03b1e	0.09386276
180	0xbe673651	-0.22579314
181	0xbe1fca39	-0.15604486
182	0x3e97637d	0.2956809
183	0x3d43bad5	0.0477856
184	0xbe1c582a	-0.15268007
185	0xbdc2a330	-0.09503782
186	0x3d105bfc	0.035243973
187	0x3e3d496d	0.18485041
188	0xbeb1c562	-0.34720904
189	0x3d9932f4	0.07480422
190	0xbe54f720	-0.20797396
191	0xbeabaff3	-0.33532676
192	0x3ebe26e4	0.37139046
193	0xbdd7da9f	-0.105397455
194	0xbe29fd83	-0.16600613
195	0x3da918df	0.08256697
196	0x3ecfd289	0.40590313
197	0x3e2ba8bc	0.16763586
198	0xbe30c6d2	-0.17263344
199	0x3ebe9bf3	0.37228355
200	0xbe767ac2	-0.24070266
201	0xbea8af12	-0.32946068
202	0x3e5ee022	0.21765187
203	0xbd8210ee	-0.06350885
204	0x3e9e4515	0.3091208
205	0x3e5ca568	0.21547472
206	0x3d8cf993	0.0688354
207	0xbc4f3250	-0.012646273
208	0xbe58470a	-0.21120849
209	0xbe4fd625	-0.20296533
210	0xbeb4417a	-0.35206205
211	0x3dd61de0	0.10454917
212	0xbea04881	-0.31305316
213	0xbed3ce59	-0.41368368
214	0x3e4cc5e9	0.19997372
215	0xbd9e6ab9	-0.077351995
216	0xbbb0261b	-0.0053756363
217	0xbe397fed	-0.18115206
218	0xbd8dff2c	-0.06933436
219	0x3e453cc0	0.19261456
220	0xbe4d87a9	-0.20071281
221	0xbe70570b	-0.23470704
222	0xbe0e8c6f	-0.13920759
223	0x3e720339	0.23634042
224	0xbe8c2311	-0.27370504
225	0x3dacf735	0.084455885
226	0x3e2a82ad	0.16651411
227	0xbe09301f	-0.13397263
228	0xbd9a4a24	-0.075336725
229	0xbe10ff40	-0.1415987
230	0xbe463c98	-0.19359052
231	0xbf55a79b	-0.8345887
232	0xbe6c5417	-0.23078953
233	0x3e115503	0.14192586
234	0x3e2d865a	0.16945782
235	0xbe1b37a4	-0.15157944
236	0x3ed0166e	0.40642112
237	0xbe72e433	-0.23719864
238	0x3f2a43a0	0.6650944
239	0x3e1c0bc5	0.15238865
240	0x3e814baf	0.25253054
241	0x3dfa37b3	0.12217655
242	0x3e2bd14f	0.16779064
243	0x3d46821b	0.048463922
244	0xbe0739c8	-0.13205636
245	0x3d3d6abb	0.046244364
246	0x3e39dea6	0.1815134
247	0x3e2ba641	0.1676264
248	0x3c9b1d98	0.01893501
249	0xbbc734ac	-0.006079277
250	0xbe917d53	-0.28415927
251	0xbdd343b7	-0.1031565
252	0xbe9e5041	-0.30920604
253	0x3d2052ad	0.039141346
254	0x3d92a3e0	0.07160163
255	0x3e0630ff	0.13104628

embedder.emb_rnn.weight_hh_l2 f4 [60, 20]
0	0x3c666b8f	0.01406373
1	0xbeabfdd0	-0.3359208
2	0x3e391f12	0.18078259
3	0x3eba67b2	0.36407238
4	0xbddefd3b	-0.10888144
5	0x3e2e6c0a	0.17033401
6	0xbcf2e441	-0.029649856
7	0xbe596176	-0.21228585
8	0xbd9bab10	-0.07600987
9	0xbdced409	-0.10099036
10	0x3ea4e6a4	0.32207215
11	0xbe5112ac	-0.20417279
12	0x3dfc4bec	0.123191684
13	0xbe938f68	-0.28820348
14	0x3e458c5d	0.19291826
15	0xbe7cfcaf	-0.24705766
16	0xbe1c3aa8	-0.1525675
17	0x3da8cb15	0.0824186
18	0xbdd6cb41	-0.10487986
19	0x3dd10226	0.10205488
20	0xbe3dd48a	-0.18538108
21	0x3db77843	0.08958485
22	0xbe002a92	-0.1251624
23	0x3dcef04b	0.10104426
24	0x3d8c96d6	0.06864707
25	0xbe389e7b	-0.18029206
26	0xbe8963dd	-0.26834002
27	0xbe9b81f2	-0.30372578
28	0xbeabdca5	-0.33566776
29	0xbc648ba0	-0.013949305
30	0x3e6f2ee6	0.23357734
31	0xbe3a7c9b	-0.18211596
32	0x3ddd3444	0.108009845
33	0x3da08965	0.07838706
34	0x3e81fc60	0.2538786
35	0x3e9b0d16	0.3028342
36	0xbdac8e1a	-0.08425541
37	0x3dbcc2bd	0.09216831
38	0xbd61fc69	-0.055172358
39	0xbd6d9d6b	-0.058011454
40	0x3e44f542	0.19234183
41	0x3db21842	0.08696033
42	0xbe84cfab	-0.25939688
43	0x3cec8512	0.028872047
44	0xbd392136	-0.045197688
45	0xbe2827dd	-0.16421457
46	0x3df68f58	0.120390594
47	0x3b398a50	0.00283112
48	0x3db4f48b	0.08835705
49	0xbe1f0966	-0.15530929
50	0xbed1e8b3	-0.40997848
51	0x3d2c22cd	0.042025376
52	0xbe4c2f80	-0.19939995
53	0x3d21ef8e	0.039535098
54	0xbe936604	-0.2878877
55	0xbe6fbb6e	-0.23411343
56	0x3d505279	0.050859902
57	0x3e914ce2	0.2837897
58	0xbe109d0b	-0.14122407
59	0xbe2bea83	-0.16788678
60	0xbe9c58fb	-0.30536637
61	0x3e4f46f5	0.20241912
62	0x3df32acb	0.118733965
63	0x3ec6d93d	0.38837615
64	0x3d3b63a1	0.04574931
65	0x39813b14	0.00024648814
66	0xbd8e3599	-0.06943817
67	0x3cf6b59b	0.030115893
68	0xbe318de6	-0.17339286
69	0x3d4af836	0.04955312
70	0x3f0c1212	0.54715073
71	0x3d6412bd	0.055681933
72	0xbe2ef43f	-0.1708536
73	0x3cf1c77f	0.029514072
74	0x3e351b3e	0.17686173
75	0x3e5fca0a	0.21854416
76	0xbbbac6e5	-0.0056999796
77	0x3e859b9a	0.26095277
78	0x3e622971	0.22086121
79	0x3e4f5d45	0.20250423
80	0xbb18183d	-0.0023207807
81	0x3db75e52	0.08953537
82	0x3e85e781	0.26153186
83	0xbe30673c	-0.17226881
84	0xbd01c980	-0.031686306
85	0x3ea30b02	0.31844336
86	0x3cc3c832	0.023899172
87	0x3de54540	0.11194849
88	0x39147198	0.00014156697
89	0x3cf61bd1	0.03004256
90	0xbebf0345	-0.37307182
91	0xbd006a2e	-0.03135126
92	0xbd70eb1a	-0.05881796
93	0x3e3e7cb3	0.18602256
94	0xbe0a6288	-0.13514149
95	0xbe507f82	-0.2036114
96	0xbea75d90	-0.3268857
97	0x3d2a9ed0	0.04165536
98	0xbe304c84	-0.17216688
99	0xbdd6a001	-0.10479737
100	0xbe0c4404	-0.13697821
101	0x3da7162e	0.08158527
102	0xbe53a084	-0.206667
103	0x3d9c6af4	0.07637587
104	0xbc212e69	-0.009837725
105	0x3e8f0345	0.27932182
106	0xbdcbf73d	-0.09959266
107	0xbdaf0fc0	-0.08547926
108	0x3ec9712c	0.39344156
109	0x3ec507fa	0.38482648
110	0x3da2396b	0.07921108
111	0xbd03aba9	-0.03214613
112	0xbe83da3b	-0.25752434
113	0x3dfe3230	0.12411916
114	0xbe944852	-0.28961426
115	0x3d5a67be	0.053321593
116	0x3e18b7b6	0.1491383
117	0x3d56ef57	0.052474346
118	0x3e624fce	0.22100756
119	0x3e8f3520	0.2797022
120	0xbca4c8da	-0.020115305
121	0x3e2b42cc	0.167247
122	0xbd6b1a2b	-0.057398003
123	0xbe660dd5	-0.22466214
124	0xbde95b23	-0.11394336
125	0x3de52810	0.11189282
126	0xbe4bb027	-0.19891416
127	0xbe2190c6	-0.15777883
128	0x3e0159fa	0.1263198
129	0x3f0577ad	0.52135736
130	0xbe8608d8	-0.26178622
131	0x3dfbef8e	0.12301551
132	0xbda7a1e7	-0.08185177
133	0xbea585a9	-0.32328537
134	0x3eca2271	0.39479402
135	0xbc9268eb	-0.017872294
136	0x3e8355e5	0.2565147
137	0x3e9bc7ff	0.30426022
138	0x3e91c1a3	0.28468046
139	0x3d857858	0.065170944
140	0xbe345948	-0.17612183
141	0xbd213cf7	-0.03936478
142	0xbdf44f8b	-0.11929234
143	0xbe33e89d	-0.17569204
144	0xbcfff0c5	-0.031242738
145	0xbe8a3007	-0.26989767
146	0x3b098fdb	0.0020990286
147	0xbe942b60	-0.28939342
148	0xbe1d8880	-0.15384102
149	0xbdda777c	-0.10667321
150	0xbdee75c9	-0.116435595
151	0x3d5f396e	0.05449813
152	0xbd934abc	-0.07191989
153	0xbe4f2acf	-0.20231174
154	0xbe7bcdcc	-0.24590224
155	0xbe06541f	-0.13118027
156	0x3e61324b	0.21991841
157	0xbe92f061	-0.2869902
158	0xbe2084d6	-0.15675673
159	0x3d89774d	0.06712208
160	0xbe9fdead	-0.31224576
161	0xbe739815	-0.23788483
162	0x3d3cf63b	0.04613326
163	0xbe93c78d	-0.28863183
164	0x3e3dc4a5	0.18532045
165	0x3d64864e	0.055792145
166	0xbe90e26a	-0.2829774
167	0xbdd8464f	-0.10560285
168	0x3e6ffa13	0.2343524
169	0xbe43abb7	-0.19108473
170	0xbdae3192	-0.085055485
171	0xbc532577	-0.01288735
172	0xbe1a9a72	-0.15097979
173	0xbeb4856a	-0.35258037
174	0x3deaf3f3	0.11472311
175	0x3b744914	0.0037275003
176	0xbe76ee72	-0.24114397
177	0x3e7bfd10	0.24608254
178	0xbe22cd15	-0.15898545
179	0x3e33723e	0.17524049
180	0x3b7ee7a8	0.0038895402
181	0x3e0b7fe2	0.13623002
182	0xbead6ec1	-0.3387356
183	0xbdd745c4	-0.105113536
184	0x3dd88d9a	0.10573883
185	0xbe0b4dcf	-0.136039
186	0x3d2df32a	0.042468227
187	0xbdff1b29	-0.12456352
188	0xbe422cf5	-0.18962462
189	0xbe3d3cff	-0.184803
190	0x3e278b12	0.16361645
191	0xbea75cf2	-0.326881
192	0xbd55d44e	-0.052204423
193	0xbec06eeb	-0.37584624
194	0xbe45471a	-0.19265404
195	0x3e675af1	0.22593285
196	0x3e7d8f7d	0.24761768
197	0x3e2ca448	0.16859543
198	0x3ee9659b	0.4558533
199	0x3d4fd8f9	0.05074403
200	0xbdd9dbc7	-0.10637622
201	0xbe719dda	-0.23595372
202	0xbe8aa617	-0.27079841
203	0xbe0a8821	-0.13528492
204	0x3e5d2dda	0.21599522
205	0x3d9abe58	0.075558364
206	0xbe176dc2	-0.14787963
207	0x3e614cad	0.22001906
208	0xbcc8d82d	-0.024517143
209	0xbdc33f4d	-0.09533558
210	0x3e38a053	0.18029909
211	0xbb94c166	-0.0045396565
212	0xbe8dfb1a	-0.27730638
213	0xbda6b1dd	-0.081393935
214	0x3ea90823	0.3301402
215	0x3e451675	0.19246848
216	0xbe251954	-0.16122943
217	0x3e485c58	0.19566476
218	0xbe143049	-0.14471544
219	0xbd24bfef	-0.040222105
220	0x3d90c150	0.070681214
221	0xbd3f7b59	-0.046748493
222	0xbd633344	-0.055468813
223	0x3df51881	0.119675644
224	0xbe56059e	-0.2090058
225	0x3e8c3919	0.27387312
226	0x3d7a1807	0.06105807
227	0xbe75f57a	-0.24019423
228	0x3ed945af	0.42435977
229	0x3d74c7f3	0.059761
230	0x3e509544	0.2036944
231	0x3e0f7a77	0.1401156
232	0x3dae0180	0.0849638
233	0x3e736ced	0.2377202
234	0xbc383a5e	-0.011244385
235	0x3e07d295	0.13263924
236	0x3e9545b6	0.29154748
237	0x3e263ae4	0.16233402
238	0x3ec15b6f	0.3776507
239	0xbdb28431	-0.0871662
240	0xbe7f5e6d	-0.24938364
241	0x3c3ceb19	0.011530661
242	0x3e77c421	0.24195911
243	0xbddd69e8	-0.10811216
244	0x3e805c0a	0.2507022
245	0x3e87b70f	0.2650685
246	0x3e259478	0.16169918
247	0x3e4a2d7a	0.1974391
248	0x3c633918	0.013868593
249	0xbe486f89	-0.19573797
250	0xbdd783cc	-0.10523185
251	0x3dc68f80	0.09695339
252	0xbd12479c	-0.035712823
253	0xbd7edcd9	-0.062222335
254	0x3d541f65	0.051787753
255	0xbe34f949	-0.1767322

embedder.emb_rnn.bias_ih_l2 f4 [60]
0	0x3f7bd77c	0.9837568
1	0x3f675205	0.90359527
2	0x3f8456a8	1.0338945
3	0x3f78b603	0.9715273
4	0x3f88de6e	1.069288
5	0x3f79952b	0.9749324
6	0x3f678516	0.9043745
7	0x3f70a087	0.93994945
8	0x3f6acaae	0.91715515
9	0x3f63c784	0.8897631
10	0x3f7df990	0.9920893
11	0x3f85d831	1.0456601
12	0x3f7ea5e7	0.99471897
13	0x3f8861d8	1.065486
14	0x3f6e06be	0.9297904
15	0x3f773222	0.9656087
16	0x3f7886ed	0.9708088
17	0x3f74e139	0.9565616
18	0x3f7e2a7a	0.99283564
19	0x3f82fe45	1.0233847
20	0x3f999bb7	1.2000645
21	0x3f37cc8e	0.717965
22	0x3f6a0f9a	0.91430056
23	0x3f1b0ebd	0.60569364
24	0x3f11a159	0.5688682
25	0x3f7c5447	0.985661
26	0x3f84677d	1.0344082
27	0x3f8343b7	1.025504
28	0x3f1784ae	0.5918683
29	0xbeb0f6b4	-0.3456322
30	0x3eb0b5bc	0.34513652
31	0x3f37534e	0.7161149
32	0x3f55d2cd	0.8352478
33	0x3f9c072c	1.2189689
34	0x3f46900e	0.7756356
35	0x3f1824b9	0.59431034
36	0x3f2bc7f5	0.67101985
37	0xbb761fb2	-0.0037555513
38	0x3f23b27c	0.6394422
39	0x3ee4f292	0.44716316
40	0x3f7b08e9	0.9806047
41	0x3f80d823	1.006596
42	0x3f7fc37b	0.99907655
43	0x3f780ee9	0.9689775
44	0x3f61449b	0.8799531
45	0x3f760ddc	0.961149
46	0x3f7cebef	0.98797506
47	0x3f845a4e	1.0340059
48	0x3f80a0b9	1.0049049
49	0x3f82f813	1.0231956
50	0x3f7fc85c	0.999151
51	0x3f83730c	1.0269485
52	0x3f73f3f4	0.9529412
53	0x3f62803c	0.8847692
54	0x3f7959de	0.9740275
55	0x3f7c3916	0.98524606
56	0x3f6c980f	0.92419523
57	0x3f78dcf7	0.97212166
58	0x3f7928ae	0.973277
59	0x3f780521	0.96882826

embedder.emb_rnn.bias_hh_l2 f4 [60]
0	0xbc850ed4	-0.016242422
1	0xbdc56fda	-0.096404746
2	0x3d0ad2ec	0.033892557
3	0xbce93b2a	-0.028470594
4	0x3d8de8ef	0.06929194
5	0xbccd62ba	-0.02507149
6	0xbdc3d8da	-0.095628455
7	0xbd75f729	-0.060050163
8	0xbda9ad7e	-0.08285044
9	0xbde1c2eb	-0.11023506
10	0xbc019350	-0.007908657
11	0x3d3b05c8	0.04565981
12	0xbbad29a5	-0.0052845054
13	0x3d861fc0	0.065490246
14	0xbd8fc917	-0.07020777
15	0xbd0cdafb	-0.034388524
16	0xbcef224b	-0.029191157
17	0xbd31f298	-0.043444246
18	0xbbeaca8f	-0.00716526
19	0x3cbf828c	0.02337768
20	0x3e4cdc95	0.2000602
21	0xbe906703	-0.28203592
22	0xbdaf832a	-0.085699394
23	0xbec9e2c1	-0.39430812
24	0xbedcbd58	-0.43113208
25	0xbc6aea1d	-0.0143380435
26	0x3d0cedf9	0.034406636
27	0x3cd0f501	0.025507452
28	0xbed0f658	-0.40812945
29	0xbfac3db4	-1.345633
30	0xbf27a4f3	-0.6548607
31	0xbe9159b7	-0.2838876
32	0xbe28b56a	-0.16475454
33	0x3e60398d	0.21896954
34	0xbe65bdd2	-0.22435692
35	0xbecfb67b	-0.4056891
36	0xbea87022	-0.3289805
37	0xbf807b19	-1.0037566
38	0xbeb89ad9	-0.3605564
39	0xbf0d86bf	-0.5528373
40	0xbd1c9340	-0.038226366
41	0xbd2f0b86	-0.0427356
42	0xbc84d6d1	-0.016215714
43	0xbd87e649	-0.0663572
44	0xbdebea91	-0.11519349
45	0xbb47f901	-0.0030513408
46	0xbd3a71b7	-0.045518603
47	0x3d28a2be	0.041170828
48	0xbb860902	-0.0040904293
49	0x3dbf753e	0.09348534
50	0xbcdfcaab	-0.02731832
51	0x3d7b12a6	0.06129708
52	0xbd3b3805	-0.04570772
53	0xbe004127	-0.12524854
54	0xbde693ff	-0.11258697
55	0xbc958a49	-0.018254416
56	0xbdb06c30	-0.08614385
57	0xbc9158c4	-0.017742522
58	0xbdade33b	-0.084906064
59	0x3d0827ea	0.03324119
