output/FEM_GAN_80/model.pt (torch, 153208 bytes, 65 tensors)

embedder.emb_rnn.weight_ih_l0 f4 [60, 10]
0.118438736 0.2941991 0.17920978 -0.13709636 0.08183256 0.13859114 0.14537978 0.20643996
0.30254242 0.39246744 0.23867847 0.37788242 0.5912966 0.2763833 0.24923235 -0.038020227
-0.4047206 -0.0002016738 -0.22985162 -0.49689713 0.044779498 -0.30407882 -0.39686212 -0.2733109
-0.26608127 -0.34419465 0.110107474 -0.33397132 0.03308994 -0.1727335 -0.50523937 0.059176527
-0.23079497 -0.01341163 0.33950654 0.2607994 0.24020559 0.33327004 -0.008836772 -0.007756877
0.20950475 0.4643715 0.29765773 0.28902274 0.32722056 0.19764435 0.20820668 0.069779746
-0.24741136 0.1773611 0.51671094 1.0644549 1.2814713 1.3509022 1.1180423 0.32829317
-0.47625777 -0.8850935 -0.8294199 -0.6401388 -0.11361925 -0.2073726 -0.41619173 -0.3722626
-0.13470075 -0.43842003 -0.4803896 -0.37347814 -0.08472255 -0.21809813 0.20776594 -0.08293664
-0.10163235 -0.17919533 0.3026829 -0.1050593 0.081241205 0.07882674 -0.13605466 0.080707006
0.106315225 -0.11933972 -0.23767386 0.06502416 0.04377716 -0.06014976 0.08441578 0.33462465
0.24513292 0.16571435 -0.24033386 0.03457147 0.23964235 0.14271025 0.040038925 -0.20819776
-0.2094268 0.09682028 -0.062340207 -0.061648633 -0.011161166 -0.22392796 0.21214895 0.36501586
0.11871851 0.18220049 -0.30550456 -0.16658437 -0.13470118 -0.26234365 -0.17242463 0.14464487
-0.37492412 0.13710138 -0.34969965 -0.30198485 0.068648055 -0.004285624 -0.017915696 -0.21753639
0.32291138 -0.12280792 0.28644446 0.2608297 0.3434352 -0.11106567 -0.025983607 -0.032105677
0.21059287 0.053327844 -0.22219656 0.2208613 -0.050224025 0.07237269 0.07330245 0.20983808
0.26417115 -0.1011822 -0.19880778 0.102234185 -0.14473987 0.30470258 0.20311621 0.24520606
-0.098743714 0.23856643 -0.17782404 0.0033344403 -0.060404986 -0.16705462 -0.3242654 0.06372898
0.3663401 0.26318744 0.31521696 0.23451912 -0.12134103 0.0133725265 -0.12252942 -0.09558314
0.15177464 -0.04415763 -0.05514275 -0.08739927 -0.19184665 -0.099786505 -0.0059848516 -0.41227183
-0.009508844 -0.37684587 -0.3166686 -0.24000831 -0.06344916 0.06924788 0.1737832 -0.14581527
-0.12018321 -0.17748937 -0.38337502 -0.28381696 -0.3463293 0.26985818 0.28192675 0.06317385
0.47553763 0.28707692 0.19308218 -0.006697608 0.46606845 0.12056237 0.25046447 -0.09606899
-0.78167754 -0.6694077 -0.13021186 0.023236439 0.5425482 0.5657271 0.12753198 0.13434316
0.076374196 -0.09474164 0.029076964 0.06652785 0.38435742 -0.1317452 -0.527614 -0.60705143
-0.1853539 -0.13324535 -1.5529083 0.31326136 0.27126318 0.062278714 0.5357415 0.5013005
-0.3072352 -0.3082769 -0.18378113 -0.6341481 -1.6040938 0.08032469 -0.25679934 -0.123301476
0.09274922 -0.59103835 -0.22352743 -0.002611432 -0.16800626 0.23942819 0.31145933 0.5062479
0.4082789 0.50650436 0.5521593 0.5837615 -0.75326216 -0.3522361 -0.6531164 -0.5408845
-0.37568483 0.562336 0.4467508 0.32313344 0.08101721 0.44593498 -0.41671634 -0.3947842
-0.30995947 -0.13955882 0.55807847 0.40593007 0.067095615 0.2519648 0.3953796 0.4998537
00000000: 0290 f23d 44a1 963e c582 373e fd62 0cbe
00000010: d497 a73d d6ea 0d3e 70de 143e ff64 533e
00000020: d7e6 9a3e 7ef1 c83e 2168 743e ce79 c13e
00000030: 375f 173f 1d82 8d3e c436 7f3e 19bb 1bbd
00000040: 8a37 cfbe 6678 53b9 395e 6bbe 4d69 febe
00000050: b56a 373d 38b0 9bbe 8331 cbbe 68ef 8bbe
00000060: ce3b 88be 483a b0be 0780 e13d 4afe aabe
00000070: 5189 073d 0de1 30be 5e57 01bf 1663 723d
00000080: 8455 6cbe 74bc 5bbc cdd3 ad3e 8087 853e
00000090: 74f8 753e 5fa2 aa3e 1cc8 10bc 672d febb
000000a0: 6a88 563e 1ac2 ed3e 9866 983e cafa 933e
000000b0: 7489 a73e 4863 4a3e 2234 553e afe8 8e3d
000000c0: 6759 7dbe 269e 353e 2b47 043f 0f40 883f
000000d0: 4007 a43f 5dea ac3f 031c 8f3f 0b16 a83e
000000e0: 0fd8 f3be 7d95 62bf dd54 54bf 23e0 23bf
000000f0: 36b1 e8bd 7c59 54be 1517 d5be 3499 bebe
00000100: feee 09be 9778 e0be a0f5 f5be 8738 bfbe
00000110: 0483 adbd 1e55 5fbe 98c0 543e afda a9bd
00000120: 9f24 d0bd fb7e 37be 41f9 9a3e 5529 d7bd
00000130: ca61 a63d ea6f a13d ea51 0bbe b749 a53d
00000140: ccbb d93d 6268 f4bd c760 73be 632b 853d
00000150: ae4f 333d 985f 76bd 2ee2 ac3d ec53 ab3e
00000160: 2004 7b3e 06b1 293e 141a 76be d09a 0d3d
00000170: ce64 753e a322 123e dbff 233d cb31 55be
00000180: fb73 56be b649 c63d 7258 7fbd 4783 7cbd
00000190: 53dd 36bc 5f4d 65be 933d 593e 5ce3 ba3e
000001a0: b122 f33d c492 3a3e 186b 9cbe 1895 2abe
000001b0: 1bef 09be e851 86be 1590 30be c91d 143e
000001c0: 0ef6 bfbe 4e64 0c3e d50b b3be c29d 9abe
000001d0: 5a97 8c3d 6b6e 8cbb f0c3 92bc dcc1 5ebe
000001e0: a454 a53e b882 fbbd d9a8 923e 788b 853e
000001f0: bdd6 af3e 6676 e3bd 93db d4bc 3e81 03bd
00000200: a8a5 573e 4c6e 5a3d 7f87 63be 7729 623e
00000210: b5b7 4dbd 2238 943d 981f 963d cbdf 563e
00000220: 7141 873e 9d38 cfbd 4494 4bbe 2860 d13d
00000230: b036 14be fa01 9c3e b2fd 4f3e 4c17 7b3e
00000240: 253a cabd c24a 743e 8117 36be a086 5a3b
00000250: 386b 77bd 5e10 2bbe 1d06 a6be 5784 823d
00000260: ee90 bb3e 81c0 863e 1e64 a13e c825 703e
00000270: a581 f8bd 7118 5b3c b4f0 fabd 18c1 c3bd
00000280: d06a 1b3e a2de 34bd 5ddd 61bd 63fe b2bd
00000290: 7373 44be de5c ccbd 931c c4bb 4b15 d3be
000002a0: fcca 1bbc f1f1 c0be 6322 a2be bdc4 75be
000002b0: a2f1 81bd d5d1 8d3d 39f4 313e 9950 15be
000002c0: 9d22 f6bd c6bf 35be bb49 c4be 7550 91be
000002d0: 1352 b1be da2a 8a3e b458 903e 4b61 813d
000002e0: ab79 f33e bffb 923e 56b7 453e 9c77 dbbb
000002f0: 86a0 ee3e 67e9 f63d e13c 803e d2bf c4bd
00000300: 051c 48bf 4e5e 2bbf 4256 05be 585a be3c
00000310: 70e4 0a3f 7ed3 103f be97 023e 4191 093e
00000320: 136a 9c3d e807 c2bd d032 ee3c c13f 883d
00000330: 7fca c43e 37e8 06be b611 07bf b967 1bbf
00000340: 6acd 3dbe 7871 08be b3c5 c6bf cb63 a03e
00000350: 02e3 8a3e f717 7f3d 5b26 093f 3b55 003f
00000360: ef4d 9dbe 78d6 9dbe 1f31 3cbe 8857 22bf
00000370: f252 cdbf 4581 a43d 347b 83be 7c85 fcbd
00000380: 4ef3 bd3d 4a4e 17bf 60e4 64be 8f24 2bbb
00000390: d509 2cbe aa2c 753e 9977 9f3e 7699 013f
000003a0: ef09 d13e 45aa 013f 505a 0d3f 6571 153f
000003b0: cad5 40bf 4a58 b4be a332 27bf 6877 0abf
000003c0: c359 c0be 41f5 0f3f 85bc e43e bf71 a53e
000003d0: 5aec a53d 9751 e43e d85b d5be 2821 cabe
000003e0: 02b3 9ebe 82e8 0ebe 3bde 0e3f 11d6 cf3e
000003f0: 6d69 893d 8801 813e 326f ca3e d3ec ff3e

embedder.emb_rnn.weight_hh_l0 f4 [60, 20]
-0.21439978 0.22431284 0.08109599 0.033953063 0.22078994 0.072453395 0.12049776 0.18494119
-0.00287332 -0.20608272 -0.15980527 0.22162265 -0.17216201 0.08489683 0.13324188 -0.053223968
0.07643111 0.18258435 0.20781985 0.03381415 0.080893025 -0.039958503 -0.15078633 -0.33613813
0.20494898 0.07297677 0.0639937 0.19280726 -0.08773555 -0.49875313 0.21730617 -0.42542055
-0.27328798 -0.2900049 -0.014008677 0.024727046 -0.41838154 -0.03898897 0.25742748 0.1676798
0.29419637 0.1942169 0.18708172 -0.21728124 0.1562013 0.01005226 0.14752679 -0.0010114796
-0.1342771 -0.15002343 -0.12654413 0.12223037 -0.052297466 0.128494 -0.2824517 0.19821973
0.2715341 -0.23372762 0.15748355 -0.21293548 0.041659433 0.22829059 -0.2636127 0.13235684
-0.20734954 0.05407649 0.028257739 -0.002673988 -0.34546423 -0.17384525 -0.09313436 -0.25140348
0.36424106 0.08603747 0.17763907 -0.27556297 -0.30676824 0.040787727 0.26829565 -0.18018495
-0.034604467 -0.301441 0.1858552 0.040132444 -0.21685836 -0.36326084 0.14956996 -0.12750705
-0.08968413 -0.026139036 -0.2678987 -0.1192735 -0.33936545 -0.044291176 -0.23404911 0.014668696
0.09102444 0.001643462 -0.21542892 0.20037027 0.28479832 0.022625677 -0.045039933 -0.076937154
-0.45341387 0.3441429 -0.0965418 -0.003323609 -0.008855614 -0.06455698 -0.17892602 -0.22349936
0.41051084 0.13112664 -0.23806754 -0.10901716 -0.15630274 -0.3433698 0.19679032 -0.081294656
0.22366336 -0.10014719 -0.015463526 0.11274043 -0.09364182 0.20138855 -0.26432258 -0.29118848
-0.016789882 0.0004002711 0.17365418 -0.25452334 -0.04909993 0.20612603 0.06993504 -0.14429633
-0.10991152 0.15644203 0.26433405 0.024766244 -0.004797069 0.41134134 -0.10255096 -0.053441595
-0.16278633 -0.1060738 0.18046242 0.025489537 0.18937978 0.13224283 0.02680597 0.16433203
-0.08087448 0.2745344 -0.13001786 -0.103065625 0.9370489 -0.23130766 0.19081122 0.13701041
0.010817191 -0.04411121 -0.053511746 -0.13213614 0.28094628 -0.27399632 -0.1775883 0.19884512
0.01827556 -0.22216316 -0.073505744 -0.14703578 0.04963176 -0.18165702 0.20724025 -0.028541125
0.10326165 -0.2060222 0.2043808 0.26194966 -0.18066703 0.23315153 0.025044708 -0.20740044
-0.06209781 -0.26736733 -0.04407975 0.20156997 -0.060735464 0.090682305 0.15070808 0.08463898
-0.228671 -0.1231815 -0.24387652 -0.1497375 -0.09890193 -0.20651236 0.10853363 -0.17550206
0.16726923 -0.089173235 -0.08326947 -0.13821727 -0.15036593 -0.12999412 -0.046301063 0.0836614
-0.014389657 -0.008563954 0.043615706 0.14362268 -0.4342225 -0.13866112 -0.29034093 0.069038175
-0.18353134 0.46807632 0.06592315 0.023623994 0.1501779 -0.1761216 0.114256345 -0.2642038
0.08337226 -0.15408266 0.12952575 -0.031709556 0.1870545 -0.12067358 -0.030549943 0.032204557
0.0075157126 0.22371578 0.26107502 -0.15012145 0.36687386 0.109383814 0.28291747 0.051321797
0.1614554 0.08898169 0.04745806 0.1542544 0.13131948 0.1802481 -0.11766465 -0.19465993
-0.27284947 0.25749123 -0.021184416 0.06276186 -0.13505065 -0.02209892 0.088586256 -0.27931172
00000000: 9e8b 5bbe 44b2 653e a815 a63d 5e12 0b3d
00000010: c216 623e 7262 943d 88c7 f63d 3961 3d3e
00000020: 4f4e 3cbb 5907 53be fea3 23be 0cf1 623e
00000030: 3d4b 30be 64de ad3d 8f70 083e 6001 5abd
00000040: ea87 9c3d 64f7 3a3e bace 543e b580 0a3d
00000050: 3eab a53d 87ab 23bd bb67 1abe 4c1a acbe
00000060: 25de 513e d874 953d 210f 833d 446f 453e
00000070: b2ae b3bd 925c ffbe 8285 5e3e b9d0 d9be
00000080: 67ec 8bbe 867b 94be a684 65bc 6090 ca3c
00000090: 1b36 d6be e6b2 1fbd 89cd 833e 41b4 2b3e
000000a0: e8a0 963e cce0 463e 5a92 3f3e f97e 5ebe
000000b0: 3cf3 1f3e 3cb2 243c 4311 173e a093 84ba
000000c0: f07f 09be be9f 19be c994 01be eb53 fa3d
000000d0: de35 56bd ee93 033e 829d 90be 1dfa 4a3e
000000e0: 8406 8b3e 4b56 6fbe 5e43 213e c20b 5abe
000000f0: 15a3 2a3d 02c5 693e 3ef8 86be 8d88 073e
00000100: 7053 54be 4f7f 5d3d c67c e73c 133e 2fbb
00000110: b0e0 b0be 7d04 32be 3abd bebd f5b7 80be
00000120: ce7d ba3e 6a34 b03d 04e7 353e 9716 8dbe
00000130: ba10 9dbe 0811 273d 0c5e 893e 6782 38be
00000140: 6abd 0dbd 7a56 9abe d350 3e3e eb61 243d
00000150: 1e10 5ebe 53fd b9be de28 193e 3591 02be
00000160: 50ac b7bd 8821 d6bc 052a 89be aa45 f4bd
00000170: 4fc1 adbe aa6a 35bd 92aa 6fbe f854 703c
00000180: 066b ba3d 6f69 d73a 6699 5cbe dd2d 4d3e
00000190: 16d1 913e 7c59 b93c cb7b 38bd 3a91 9dbd
000001a0: dd25 e8be 8033 b03e b5b7 c5bd e8d0 59bb
000001b0: 2317 11bc 7336 84bd 6238 37be 04dd 64be
000001c0: 7a2e d23e 1046 063e fac7 73be 6444 dfbd
000001d0: d30d 20be 2bce afbe 6783 493e d07d a6bd
000001e0: 0208 653e f819 cdbd bb5a 7dbc 74e4 e63d
000001f0: 48c7 bfbd cd38 4e3e 4a55 87be a816 95be
00000200: ef8a 89bc 7adb d139 67d2 313e e250 82be
00000210: 021d 49bd b412 533e 1a3a 8f3d 6bc2 13be
00000220: 4a19 e1bd 5732 203e cb56 873e 94e2 ca3c
00000230: bb30 9dbb 559b d23e 3d06 d2bd 93e5 5abd
00000240: 76b1 26be 383d d9bd 24cb 383e 6fcf d03c
00000250: c6ec 413e aa6a 073e 3298 db3c a846 283e
00000260: 85a1 a5bd c68f 8c3e 6723 05be 1214 d3bd
00000270: 70e2 6f3f eadb 6cbe 0464 433e 754c 0c3e
00000280: 963a 313c f5ad 34bd 222f 5bbd b24e 07be
00000290: 31d8 8f3e 3f49 8cbe b5d9 35be 0e9e 4b3e
000002a0: a1b6 953c bd7e 63be 2e8a 96bd 8c90 16be
000002b0: ac4a 4b3d 4c04 3abe ca36 543e 14cf e9bc
000002c0: d87a d33d 7cf7 52be 3349 513e 441e 863e
000002d0: c700 39be 46bf 6e3e 8f2a cd3c c860 54be
000002e0: 465a 7ebd 5fe4 88be f88c 34bd 5c68 4e3e
000002f0: c0c5 78bd a5b7 b93d 3853 1a3e 3457 ad3d
00000300: bb28 6abe 9546 fcbd c4ba 79be ca54 19be
00000310: 188d cabd fa77 53be e146 de3d d0b6 33be
00000320: a048 2b3e 75a0 b6bd 2f89 aabd d488 0dbe
00000330: 87f9 19be 2e1d 05be 2fa6 3dbd ab56 ab3d
00000340: 99c2 6bbc d44f 0cbc 62a6 323d d311 133e
00000350: 6952 debe 2efd 0dbe 91a7 94be e363 8d3d
00000360: a4ef 3bbe b3a7 ef3e b702 873d 1b87 c13c
00000370: 3cc8 193e 3959 34be 3bff e93d b845 87be
00000380: 13bf aa3d d8c7 1dbe 66a2 043e e1e1 01bd
00000390: 378b 3f3e b623 f7bd e043 fabc ede8 033d
000003a0: 5e46 f63b c015 653e a0ab 853e 70b9 19be
000003b0: e4d6 bb3e 9f04 e03d 8fda 903e ce36 523d
000003c0: 9054 253e 083c b63d 6263 423d def4 1d3e
000003d0: 9d78 063e f592 383e 2afa f0bd ef54 47be
000003e0: edb2 8bbe e4d5 833e f18a adbc 4a89 803d
000003f0: b84a 0abe cb08 b5bc b66c b53d f201 8fbe

embedder.emb_rnn.bias_ih_l0 f4 [60]
1.0182323 0.9251084 0.9299887 0.92752564 0.99055314 0.85334384 0.9827417 1.0295806
1.0309725 0.9788032 1.0122329 1.0072953 0.9239096 1.0142846 1.0291268 1.020846
1.1021647 1.0047116 1.2412271 0.8823274 0.54917693 0.602991 0.52282727 0.94001794
0.78942513 0.24835664 0.45178065 0.929917 0.9050096 0.9277245 0.8579675 0.8003782
0.60819906 0.56958014 0.5447331 0.42578536 1.0102565 1.0854644 0.8269406 0.09981264
1.0568936 0.7924126 0.9921212 0.955948 0.94334453 0.8505629 1.0919443 1.0153823
0.94847643 0.9193566 0.82785887 1.0113206 1.0127999 1.0208226 1.0362012 1.0379134
0.98212105 0.90480304 0.8039324 0.94787157
00000000: 7055 823f e7d3 6c3f bd13 6e3f 5272 6d3f
00000010: e494 7d3f be74 5a3f f694 7b3f 4cc9 833f
00000020: e8f6 833f d992 7a3f d990 813f 0def 803f
00000030: 5785 6c3f 14d4 813f 6dba 833f 15ab 823f
00000040: bc13 8d3f 649a 803f 88e0 9e3f 35e0 613f
00000050: dc96 0c3f 9e5d 1a3f 02d8 053f 04a5 703f
00000060: c417 4a3f 3451 7e3e cb4f e73e 0a0f 6e3f
00000070: b6ae 673f 5a7f 6d3f c2a3 5b3f 96e5 4c3f
00000080: efb2 1b3f 01d0 113f a173 0b3f 8a00 da3e
00000090: 1650 813f 7ff0 8a3f 61b2 533f 926a cc3d
000000a0: 4a48 873f 8ddb 4a3f a8fb 7d3f 02b9 743f
000000b0: 077f 713f 7dbe 593f d5c4 8b3f 0cf8 813f
000000c0: 5acf 723f f45a 6b3f 8fee 533f f472 813f
000000d0: 6da3 813f 51aa 823f 3ea2 843f 59da 843f
000000e0: 496c 7b3f 2ca1 673f 84ce 4d3f b6a7 723f

embedder.emb_rnn.bias_hh_l0 f4 [60]
0.01823592 -0.07489162 -0.07001423 -0.07247137 -0.009448473 -0.14665732 -0.017255476 0.02957896
0.030968307 -0.021193594 0.012238073 0.0072948886 -0.0760904 0.014288085 0.029128559 0.020840611
0.102159455 0.004712607 0.24122651 -0.117673084 -0.4508247 -0.39700475 -0.4771712 -0.05998209
-0.21057503 -0.7516413 -0.5482205 -0.07008315 -0.09499234 -0.07228068 -0.14203356 -0.1996225
-0.3918032 -0.43042046 -0.4552659 -0.574217 0.010256105 0.08546204 -0.17306183 -0.90018374
0.053222913 -0.19970086 -0.045063533 -0.0277018 -0.04977996 -0.12593931 0.088002786 0.012350651
-0.034568843 -0.08259075 -0.21968326 0.024243927 -0.002667177 0.019802943 0.046840712 0.02191249
-0.007106757 -0.12649539 -0.19505623 0.10363802
00000000: 7f63 953c c760 99bd 9f63 8fbd df6b 94bd
00000010: c5cd 1abc 562d 16be 5b5b 8dbc 934f f23c
00000020: 3fb1 fd3c 309e adbc 3382 483c f609 ef3b
00000030: 49d5 9bbd 9218 6a3c 049f ee3c eeb9 aa3c
00000040: fa38 d13d 366c 9a3b 1504 773e 96fe f0bd
00000050: 7fd2 e6be 3544 cbbe c94f f4be c8af 75bd
00000060: fba0 57be 906b 40bf 2e58 0cbf c187 8fbd
00000070: 588b c2bd e507 94bd 3f71 11be d769 4cbe
00000080: 6e9a c8be 1260 dcbe 9d18 e9be e3ff 12bf
00000090: 3909 283c b906 af3d 1f37 31be 7172 66bf
000000a0: 4500 5a3d 627e 4cbe 8a94 38bd e3ee e2bc
000000b0: 12e6 4bbd 3cf6 00be ce3a b43d 635a 4a3c
000000c0: 0f98 0dbd 5725 a9bd a6f4 60be 339b c63c
000000d0: cecb 2ebb c839 a23c 0cdc 3f3d d281 b33c
000000e0: ccdf e8bb 0288 01be d2bc 47be 2c40 d43d

embedder.emb_rnn.weight_ih_l1 f4 [60, 20]
-0.12088438 0.096604936 -0.19231369 -0.034355175 -0.066465884 -0.01287899 0.07679857 -0.2199565
0.12780178 0.013061912 -0.007417523 0.14583713 -0.06019505 -0.016703965 -0.1323979 -0.37832376
0.08822663 0.06643215 0.12787236 0.16521695 -0.35847232 -0.33241186 0.048068665 -0.13617344
0.051030245 -0.06175208 -0.16034853 0.08564299 0.12727186 0.085350774 0.09998325 0.1725198
-0.14773464 0.1972287 -0.22618458 -0.35400233 -0.089368224 -0.29830742 -0.062095083 -0.1829865
0.009081212 0.51910806 -0.076862894 -0.19131239 -0.27841908 0.0570896 -0.07402116 0.179018
-0.27231055 -0.23057888 -0.12255284 0.109538086 -0.7912217 0.0689345 0.08623483 0.098036624
-0.29212886 -0.057663046 0.32281306 0.06461373 -0.17764698 0.3980853 -0.48071808 0.020673238
-0.17804284 0.21177205 0.13567574 0.024916878 -0.22591613 -0.3771486 0.27618593 0.002904169
0.58704525 -0.21674539 -0.21956706 -0.03738985 -0.8430736 0.27664298 -0.06910458 0.019324379
-0.024245284 -0.098006286 -0.16910969 -0.09607018 0.17363502 0.12271527 -0.28326863 -0.045884676
0.059096325 -0.10948717 0.18724935 0.04427138 -0.17909741 0.16570477 -0.24870914 -0.06774037
-0.14370388 0.1246275 0.21622573 0.055087756 0.14996552 0.1341232 0.15809788 0.08759705
-0.12472204 -0.21566525 0.18586321 -0.057867166 -0.3069936 0.24377358 0.27274287 -0.3485255
-0.26542515 0.25902975 0.27686858 0.26377356 -0.17573272 0.14618592 0.293469 -0.16000977
0.056271706 -0.22300443 -0.2846732 -0.21953508 -0.07153913 -0.11514277 -0.13160452 -0.074455015
-0.15993342 0.028882975 0.14351888 -0.31911024 0.114129506 0.6702805 0.16680123 0.14632419
-0.051740754 0.22295448 0.0418727 -0.10229156 -0.15083106 0.18587606 0.3502016 0.10161015
-0.042563833 -0.18135634 0.2527687 0.093992 0.18920897 -0.28538567 -0.13452262 0.11968289
0.3357432 0.10985809 -0.25196627 -0.050524462 0.26057562 -0.041156907 0.22123465 0.12639488
0.06945424 -0.8580104 -0.29838783 0.10099422 0.181838 -0.9343277 0.061177496 0.06257412
-0.25719061 -0.12474026 -0.04608667 0.037979897 -0.77633893 -0.10250095 0.14716843 -0.3101726
0.13533589 -0.14354488 -0.4096503 -0.027669866 -0.49679455 0.28005978 -0.2165772 -0.13697392
0.1206265 -0.21745357 -0.098168395 0.058008377 -0.3115166 0.062316332 -0.3281202 -0.026877977
-0.10116142 -0.5932293 -0.34836307 0.21048702 -0.10017814 0.015564177 -0.088578746 -0.23315172
0.2273961 -0.16107628 -0.06375896 -0.12115039 0.15876028 -0.038806394 -0.03668734 -0.2072167
-0.10539837 -0.13045399 -0.25795418 0.15733908 -0.4511379 -0.49458402 -0.09898355 0.15413292
-0.15847132 -0.21826932 -0.010406466 -0.112870015 -0.037632048 0.49776775 -0.261739 0.005728864
-0.16493908 -0.110479 -0.22405228 0.13380438 0.1591007 -0.41636372 0.24232107 0.040348
-0.47063032 -0.044463493 -0.31743267 0.21320723 -0.39136726 0.23743132 0.32077256 0.1388798
-0.046408586 0.5875659 0.34644377 -0.1444112 -0.09762634 -0.58313185 0.08057273 -0.0052818567
-0.04896587 0.022644483 0.06384779 0.20256445 -0.4314542 -0.21451096 -0.24759974 0.63555145
00000000: 3b92 f7bd cfd8 c53d e1ed 44be 03b8 0cbd
00000010: 441f 88bd 6602 53bc 9248 9d3d 473c 61be
00000020: 78de 023e a101 563c b10e f3bb 5456 153e
00000030: 168f 76bd c1d6 88bc 5193 07be a7b3 c1be
00000040: 2ab0 b43d 940d 883d f9f0 023e a22e 293e
00000050: af89 b7be e331 aabe a6e3 443d 0d71 0bbe
00000060: 1705 513d c0ef 7cbd 6832 24be 9865 af3d
00000070: 8e53 023e 63cc ae3d 05c4 cc3d 08a9 303e
00000080: c047 17be 52f6 493e ee9c 67be cb3f b5be
00000090: b006 b7bd c0bb 98be 6a57 7ebd d060 3bbe
000000a0: 5dc9 143c 44e4 043f 4b6a 9dbd 65e7 43be
000000b0: f28c 8ebe c9d6 693d 6898 97bd 7f50 373e
000000c0: 4a6c 8bbe df1c 6cbe fcfc fabd 8155 e03d
000000d0: 818d 4abf 882d 8d3d e39b b03d 6dc7 c83d
000000e0: ea91 95be 1630 6cbd c147 a53e 3454 843d
000000f0: 17e9 35be d6d1 cb3e ae20 f6be ec5a a93c
00000100: dd50 36be c6da 583e 95ee 0a3e 7b1e cc3c
00000110: 8f56 67be 9f19 c1be 3e68 8d3e df53 3e3b
00000120: 9948 163f 81f2 5dbe 30d6 60be 1926 19bd
00000130: acd3 57bf 26a4 8d3e b486 8dbd 294e 9e3c
00000140: 0c9e c6bc 85b7 c8bd 172b 2dbe 71c0 c4bd
00000150: 61cd 313e 2552 fb3d 9608 91be 92f1 3bbd
00000160: fd0e 723d cf3a e0bd 4bbe 3f3e e855 353d
00000170: 5065 37be 83ae 293e 9cad 7ebe 77bb 8abd
00000180: 1c27 13be b43c ff3d 476a 5d3e b3a3 613d
00000190: 9090 193e 9857 093e 69e4 213e 1566 b33d
000001a0: 456e ffbd 5ad7 5cbe ed52 3e3e 1f06 6dbd
000001b0: 442e 9dbe c89f 793e f4a4 8b3e ef71 b2be
000001c0: cee5 87be 8c9f 843e b8c1 8d3e 540d 873e
000001d0: 47f3 33be c3b1 153e 9241 963e 9ad9 23be
000001e0: 297d 663d 465b 64be b0c0 91be cecd 60be
000001f0: 1b83 92bd f9cf ebbd 56c3 06be df7b 98bd
00000200: 96c5 23be fd9b ec3c 9df6 123e 6b62 a3be
00000210: bbbc e93d 8197 2b3f f1cd 2a3e 02d6 153e
00000220: 1dee 53bd 2e4e 643e b582 2b3d 3d7e d1bd
00000230: 7573 1abe 4b56 3e3e a04d b33e fb18 d03d
00000240: 6a57 2ebd 7ab5 39be e66a 813e e17e c03d
00000250: ffbf 413e 121e 92be 4cc0 09be 4e1c f53d
00000260: 88e6 ab3e 47fd e03d b901 81be bdf2 4ebd
00000270: 2b6a 853e 2594 28bd 568b 623e a96d 013e
00000280: 063e 8e3d 92a6 5bbf 4ac6 98be 0fd6 ce3d
00000290: be33 3a3e 1a30 6fbf 4195 7a3d dc26 803d
000002a0: 7dae 83be d277 ffbd 60c5 3cbd cf90 1b3d
000002b0: 26be 46bf 05ec d1bd 52b3 163e f1ce 9ebe
000002c0: 7e95 0a3e 6efd 12be afbd d1be eaab e2bc
000002d0: db5b febe ff63 8f3e 6ac6 5dbe e442 0cbe
000002e0: 070b f73d 26ac 5ebe 830c c9bd 319a 6d3d
000002f0: 1b7f 9fbe 693f 7f3d 5fff a7be 342f dcbc
00000300: b82d cfbd e0dd 17bf a55c b2be e989 573e
00000310: 322a cdbd e400 7f3c c668 b5bd 53bf 6ebe
00000320: 86da 683e 2ef1 24be 0f94 82bd b21d f8bd
00000330: 0e92 223e 74f3 1ebd 7745 16bd 9d30 54be
00000340: 1adb d7bd bb95 05be 9212 84be 7f1d 213e
00000350: 8cfb e6be 1e3a fdbe e3b7 cabd 05d5 1d3e
00000360: 4e46 22be fe81 5fbe e27f 2abc 6528 e7bd
00000370: 1024 1abd 6adb fe3e a702 86be 32b9 bb3b
00000380: cae5 28be d042 e2bd f66d 65be 0404 093e
00000390: 4beb 223e a02d d5be 0423 783e f243 253d
000003a0: 75f6 f0be 5a1f 36bd 8986 a2be ff52 5a3e
000003b0: 4a61 c8be 3221 733e 4d3c a43e 8236 0e3e
000003c0: ee16 3ebd b86a 163f 1461 b13e 88e0 13be
000003d0: 52f0 c7bd 2148 15bf 5103 a53d 6d13 adbb
000003e0: 7090 48bd ec80 b93c a1c2 823d 0e6d 4f3e
000003f0: 91e7 dcbe c3a8 5bbe c98a 7dbe 80b3 223f

embedder.emb_rnn.weight_hh_l1 f4 [60, 20]
-0.19789876 -0.22653799 -0.09542935 0.058096763 0.23578477 0.014742691 -0.055363126 0.15278769
0.08026139 -0.15568544 0.5390875 0.3625873 0.25853652 0.15257758 0.21253212 0.16104832
-0.22318447 0.1498791 -0.102159195 0.045996655 0.020459393 -0.30244753 0.10079631 0.25189745
0.03795397 -0.16319847 -0.2160555 -0.04874724 0.20543124 -0.30406526 0.21919626 -0.39798552
0.16168283 0.26224262 0.14668454 -0.1816291 -0.36732715 -0.05300344 -0.069541246 -0.010603469
0.07331293 0.0074988175 0.0038142414 -0.2776195 -0.14298563 0.08418057 -0.08279443 0.06355914
0.27809036 0.07854064 -0.15196763 0.04142718 -0.03658853 0.03266528 -0.161971 -0.15186726
-0.24245094 0.2357744 -0.039024252 -0.18439524 0.15728126 0.049260747 0.07889558 -0.11887735
-0.060763706 0.12703826 0.19907029 0.15394786 0.3782552 -0.08088344 0.17582972 0.5380819
-0.19909857 -0.72405165 -0.15661076 -0.1432917 -0.013832463 0.030032363 0.45937544 -0.050875477
-0.24050646 0.06178295 -0.3863264 -0.0041820286 -0.22213502 -0.18412495 -0.05988472 -0.054882705
-0.003440396 -0.14674792 -0.30969515 0.27437398 0.2618709 -0.34124008 0.017146904 0.18911551
-0.018185195 -0.12294127 -0.25062114 -0.007557829 -0.44261655 0.12053261 0.1156975 -0.07583222
-0.069126554 -0.054196116 0.16170178 -0.15096636 0.16904287 -0.15595683 -0.021571787 -0.28109437
0.24613057 -0.01703534 -0.1555479 0.06570318 -0.2893365 0.18765523 -0.40461078 -0.191769
0.266115 0.06210279 0.19382599 -0.2891871 -0.10516323 0.12773485 -0.09955232 0.09431861
0.21041107 0.2490227 0.118238 -0.36424768 -0.0020218396 0.25832027 -0.030790826 0.212115
-0.1371492 0.13183948 0.14053081 -0.3336973 -0.22713709 0.104274645 -0.26417324 0.025182331
-0.029463684 0.18716201 0.33735168 0.16610312 -0.2189302 -0.07633803 -0.112268366 -0.14794968
0.23537181 0.28478545 0.43582264 -0.10144168 0.021660158 0.15309711 0.56198823 -0.1328902
-0.23293307 -0.22148421 -0.25666437 -0.21119037 0.35687897 -0.14013715 0.24241401 0.023753265
0.07690705 -0.060613763 0.11402921 -0.049960453 0.024373652 0.22897318 0.14195418 -0.0926716
0.08850721 -0.233444 0.23220327 0.29326406 -0.062455915 -0.013947921 -0.20639879 0.10179773
0.115767375 -0.2647853 0.07350316 -0.3237447 0.23898228 -0.17069238 -0.21675071 -0.085018516
0.26996025 -0.27605623 -0.4527562 -0.058495343 0.06820397 -0.08481782 0.014288097 0.002944952
-0.23598488 0.093225494 -0.42237994 -0.171416 0.23775585 0.02922814 0.3132779 -0.23394933
0.23414595 -0.16798203 -0.15034674 -0.00818567 0.37981212 -0.34975424 -0.2723461 -0.23389733
-0.116070144 -0.27538925 0.07804188 -0.2867427 -0.14343321 0.3140698 -0.23353888 0.1143724
-0.22024277 -0.11716169 -0.05594868 0.038396087 0.41017997 -0.06653694 0.093303084 0.14741468
0.35932112 0.11760662 -0.018365404 0.06667043 -0.33682725 -0.2661424 0.36848468 -0.082539804
-0.55153453 0.41866153 -0.01939061 0.087860465 0.00082041643 0.21844552 -0.048820008 -0.15163001
0.007029149 -0.22516894 0.23503947 0.06160351 0.34869912 -0.12437031 -0.26623207 0.44510764
00000000: f9a5 4abe 93f9 67be 7770 c3bd dff6 6d3d
00000010: 9071 713e 548b 713c 72c4 62bd 6074 1c3e
00000020: 1560 a43d 016c 1fbe a301 0a3f 0ba5 b93e
00000030: e65e 843e 4c3d 1c3e 05a2 593e dae9 243e
00000040: 788a 64be e879 193e d738 d1bd fd66 3c3d
00000050: 759a a73c 67da 9abe 4c6e ce3d b4f8 803e
00000060: 9f75 1b3d 801d 27be a73d 5dbe 30ab 47bd
00000070: 915c 523e 71ae 9bbe fc74 603e c2c4 cbbe
00000080: 2f90 253e aa44 863e 7934 163e fbfc 39be
00000090: 4e12 bcbe 231a 59bd a46b 8ebd 2cba 2dbc
000000a0: 1725 963d a4b8 f53b 5af8 793b 2524 8ebe
000000b0: d36a 12be dd66 ac3d 2090 a9bd 4b2b 823d
000000c0: dc61 8e3e ead9 a03d 679d 1bbe 8caf 293d
000000d0: dbdd 15bd 07cc 053d badb 25be 1783 1bbe
000000e0: 0f45 78be d86e 713e e5d7 1fbd 1bd2 3cbe
000000f0: 570e 213e a3c5 493d 0194 a13d f875 f3bd
00000100: 5de3 78bd 5116 023e 15d9 4b3e 82a4 1d3e
00000110: aaaa c13e 38a6 a5bd b50c 343e bcbf 093f
00000120: 7fe0 4bbe 735b 39bf 925e 20be 0fbb 12be
00000130: 8ea1 62bc 6e06 f63c 4233 eb3e ce62 50bd
00000140: 5347 76be 1e10 7d3d 93cc c5be 6609 89bb
00000150: 5d77 63be 408b 3cbe ae49 75bd b0cc 60bd
00000160: 4478 61bb 1645 16be 5d90 9ebe bf7a 8c3e
00000170: f113 863e 05b7 aebe aa77 8c3c 7fa7 413e
00000180: 1ef9 94bc a2c8 fbbd 6a51 80be aaa7 f7bb
00000190: a39e e2be cdd9 f63d d0f2 ec3d ec4d 9bbd
000001a0: 3992 8dbd bffc 5dbd 2795 253e ed96 1abe
000001b0: 9319 2d3e 26b3 1fbe 51b7 b0bc 9aeb 8fbe
000001c0: a709 7c3e b38d 8bbc f347 1fbe 648f 863d
000001d0: ea23 94be b128 403e 2529 cfbe 185f 44be
000001e0: 3a40 883e 7f5f 7e3d 527a 463e 5510 94be
000001f0: d25f d7bd edcc 023e 16e2 cbbd 1e2a c13d
00000200: 0076 573e cfff 7e3e c426 f23d ac7e babe
00000210: d780 04bb 8e42 843e 0b3d fcbc ad34 593e
00000220: d770 0cbe ee00 073e 4fe7 0f3e 5fda aabe
00000230: a096 68be f28d d53d b741 87be 2d4b ce3c
00000240: d35d f1bc 66a7 3f3e 5cb9 ac3e f016 2a3e
00000250: 3d2f 60be 1d57 9cbd f5ec e5bd 1f80 17be
00000260: 4f05 713e 66cf 913e 2524 df3e a8c0 cfbd
00000270: a570 b13c 7dc5 1c3e 76de 0f3f 5e14 08be
00000280: 0286 6ebe c2cc 62be 8369 83be 4a42 58be
00000290: d7b8 b63e 1d80 0fbe 613b 783e 3596 c23c
000002a0: 7281 9d3d 2346 78bd 2588 e93d 55a3 4cbd
000002b0: 41ab c73c f277 6a3e 705c 113e 9cca bdbd
000002c0: 4543 b53d f20b 6fbe b2c6 6d3e b526 963e
000002d0: c6d1 7fbd d285 64bc 345a 53be 547b d03d
000002e0: 7217 ed3d f091 87be d388 963d dec1 a5be
000002f0: c5b7 743e fcc9 2ebe e6f3 5dbe 301e aebd
00000300: 3b38 8a3e 3e57 8dbe a9cf e7be d098 6fbd
00000310: 86ae 8b3d f7b4 adbd 9f18 6a3c 1900 413b
00000320: 05a6 71be 02ed be3d 2f42 d8be ad87 2fbe
00000330: 4576 733e da6f ef3c f665 a03e 6a90 6fbe
00000340: f5c3 6f3e 7b03 2cbe 7ff4 19be 301d 06bc
00000350: bc76 c23e fd12 b3be f370 8bbe c882 6fbe
00000360: 2fb6 edbd d2ff 8cbe 6cd4 9f3d f0cf 92be
00000370: 28e0 12be c2cd a03e d124 6fbe 143c ea3d
00000380: 5287 61be 78f2 efbd 712a 65bd 3745 1d3d
00000390: 1c03 d23e 8544 88bd b015 bf3d e0f3 163e
000003a0: f0f8 b73e bddb f03d 0b73 96bc 828a 883d
000003b0: 9f74 acbe d143 88be 06aa bc3e a10a a9bd
000003c0: 5e31 0dbf ce5a d63e 0ed9 9ebc 30f0 b33d
000003d0: 3711 573a 2fb0 5f3e 7df7 47bd e644 1bbe
000003e0: c754 e63b b092 66be 30ae 703e f653 7c3d
000003f0: b188 b23e dcb5 febd 924f 88be 26e5 e33e

embedder.emb_rnn.bias_ih_l1 f4 [60]
0.9802699 0.9753687 0.9646347 0.98563135 0.93616873 0.95014876 1.0287727 1.0525997
0.97590846 0.8995409 0.8949128 0.9783281 0.98218447 1.0798416 0.94840884 1.0227906
0.9641545 0.9283689 1.0450407 0.879466 0.3843092 0.60057425 1.2576345 0.6055317
0.02427498 0.41959274 0.6165747 0.6838157 0.25592068 0.68285084 -0.48468873 -0.61940706
0.18797694 0.8550103 0.17217988 0.69745326 0.5458648 0.79176456 0.86872554 0.79765797
1.067288 0.9188668 1.0667249 1.0119481 0.9017136 0.9621809 0.7778141 0.9478058
0.8427508 0.9596354 0.9127018 0.9677534 0.85420835 0.9933469 0.9198027 1.0321271
0.9402527 1.0539877 0.95882535 0.996684
00000000: f8f2 7a3f c3b1 793f 4df2 763f 5652 7c3f
00000010: c1a8 6f3f f33c 733f d3ae 833f 96bb 863f
00000020: 23d5 793f 5048 663f 0119 653f b673 7a3f
00000030: 7170 7b3f 4038 8a3f ecca 723f cdea 823f
00000040: d4d2 763f 96a9 6d3f e5c3 853f af24 613f
00000050: 2dc4 c43e 3cbf 193f 2bfa a03f 2004 1b3f
00000060: 53dc c63c dcd4 d63e d7d7 1d3f 8c0e 2f3f
00000070: 0908 833e 50cf 2e3f 1f29 f8be 7691 1ebf
00000080: 077d 403e f4e1 5a3f ec4f 303e 4c8c 323f
00000090: ccbd 0b3f 15b1 4a3f cc64 5e3f 5033 4c3f
000000a0: e59c 883f db3a 6b3f 718a 883f 8487 813f
000000b0: b4d6 663f 7d51 763f d31e 473f 67a3 723f
000000c0: 84be 573f aaaa 753f d3a6 693f b0be 773f
000000d0: 66ad 5a3f fc4b 7e3f 3178 6b3f be1c 843f
000000e0: 67b4 703f 12e9 863f 9475 753f af26 7f3f

embedder.emb_rnn.bias_hh_l1 f4 [60]
-0.019738827 -0.024629781 -0.03536312 -0.014371157 -0.06383274 -0.04985356 0.028772585 0.052599836
-0.024090564 -0.100460984 -0.10508788 -0.021669582 -0.017815882 0.07983825 -0.051589902 0.022790667
-0.03584452 -0.07162716 0.045045704 -0.12053158 -0.6156992 -0.39942813 0.25763264 -0.39446947
-0.97572273 -0.58040786 -0.38342342 -0.31618422 -0.7440785 -0.3171524 -1.4846936 -1.6194025
-0.81202215 -0.14498903 -0.827822 -0.30254534 -0.45413646 -0.20823419 -0.13127804 -0.20233986
0.06141466 -0.08832491 0.053176828 0.009691758 -0.09706607 -0.05947864 -0.21166685 -0.054863103
-0.32774645 -0.15322194 -0.15550196 -0.0411372 -0.19500844 -0.028243916 -0.04891235 -0.04312899
-0.014973833 0.047725685 -0.05273957 -0.015890185
00000000: 52b3 a1bc 65c4 c9bc ebd8 10bd 0075 6bbc
00000010: bdba 82bd 3f33 4cbd 7cb4 eb3c ed72 573d
00000020: 9359 c5bc 7dbe cdbd 5038 d7bd 6884 b1bc
00000030: 9df2 91bc 3d82 a33d ef4f 53bd 7eb3 ba3c
00000040: b4d1 12bd 43b1 92bd d881 383d 43d9 f6bd
00000050: 769e 1dbf d881 ccbe 6de8 833e e7f7 c9be
00000060: f7c8 79bf 9c95 14bf 1350 c4be e6e2 a1be
00000070: ee7b 3ebf cd61 a2be 710a bebf 9548 cfbf
00000080: afe0 4fbf 0178 14be 25ec 53bf 39e7 9abe
00000090: 9384 e8be 583b 55be c06d 06be 2e32 4fbe
000000a0: f08d 7b3d b1e3 b4bd f2cf 593d 2eca 1e3c
000000b0: 93ca c6bd e09f 73bd 32bf 58be 22b8 60bd
000000c0: 62ce a7be 36e6 1cbe e83b 1fbe 7b7f 28bd
000000d0: 4bb0 47be c95f e7bc 5158 48bd 06a8 30bd
000000e0: cf54 75bc 027c 433d 7305 58bd 222c 82bc

embedder.emb_rnn.weight_ih_l2 f4 [60, 20]
-0.13995473 -0.13418871 -0.10426909 0.011512977 -0.0025559468 0.17477117 -0.15140109 0.046020243
-0.20955135 -0.24782278 0.81313235 0.36722687 -0.022859843 -0.18267575 0.38846698 0.1245633
-0.05553862 0.11870967 0.019622752 -0.013752819 0.17585808 0.15560758 0.10706815 -0.19859236
0.18017237 0.2371613 0.2055819 -0.22117642 0.15700796 -0.13752338 -0.24824792 0.14426294
-0.08939622 -0.022500347 -0.050690986 0.2689523 0.12957126 -0.06931707 -0.1604571 0.03169396
0.016472798 -0.01562544 -0.18378162 -0.10638851 -0.1816912 -0.04244986 0.2798914 0.31020603
0.25830537 -0.018524997 0.44693452 0.104829974 0.010791559 0.14059636 0.28435785 0.29067278
-0.2093835 -0.07184644 -0.49256042 -0.2873946 0.05546104 0.040200163 -0.103226475 0.17038952
0.3105266 0.049021155 0.32316747 0.07731935 0.2060635 -0.32242942 0.13823313 0.10879815
0.14079963 0.20718607 -0.44766796 -0.3650927 -0.2058636 -0.23048839 -0.27871937 -0.1506468
0.050653227 0.007586661 -0.34887296 0.054411605 0.7273808 -0.027424753 0.38141742 -0.23064886
-0.083349325 0.21615168 0.38584366 0.7576139 0.052017197 0.14436455 0.37827313 0.14711747
0.007151152 -0.28072917 0.5766252 -0.28852183 0.12748876 0.20308918 0.20559031 -0.1405256
0.04265288 0.029985238 -0.21150002 -0.0019236015 -0.024125861 -0.008519622 0.053355213 0.28091642
-0.28828672 -0.19960813 -0.112988494 -0.18755755 0.3105754 -0.16137867 0.6344559 0.04889901
0.43155617 0.038646366 -0.22209229 -0.2342659 0.5273872 0.1642971 -0.09823814 0.10982945
0.10055852 0.21908791 0.437759 -0.21049272 -0.14301573 -0.27049616 0.26886448 -0.01530398
-0.021965519 -0.20155562 0.3779489 0.09785912 0.07734255 -0.07923083 0.21013923 0.2224198
-0.137301 0.339215 -0.12976907 -0.09699447 -0.46869677 0.07678606 -0.12512378 -0.09478099
-0.5074586 0.118274964 0.24095903 -0.090543166 0.3380604 0.23566885 0.39735222 -0.19660299
-0.070542775 0.32134274 -0.16946672 -0.12965898 0.013195513 0.2676195 0.008419815 -0.08973444
0.23206125 0.012541048 0.06770663 0.2546346 -0.101043686 -0.056297056 -0.24100244 0.045603458
0.17497973 -0.023020618 -0.6914533 0.04782584 0.27174807 0.5728913 -0.39715102 -0.072291106
-0.042923763 0.118950635 0.26477697 0.23325665 0.47573203 -0.17551658 -0.03838571 -0.04936336
0.46476856 -0.176122 0.0777673 -0.2782404 -0.31997117 -0.10371781 -0.017285332 -0.32143176
0.118607804 0.0131008355 0.07407809 -0.31017897 -0.75338286 -0.17797473 -0.14757392 0.02620913
0.041334298 0.21316308 -0.36578006 -0.24262336 0.15634353 -0.31616858 0.23280157 -0.3303449
0.2669324 -0.27901438 -0.7204275 0.008120074 -0.07888582 -0.2930895 0.15405232 0.23104726
0.24587774 0.097233295 -0.096100934 -0.24193913 0.13773388 -0.02844342 -0.20649965 -0.06117968
0.2622145 0.28672987 -0.030361814 -0.0496714 -0.015656726 0.15856844 -0.16600773 -0.115219206
-0.12584849 0.19809791 -0.19086756 -0.28950316 0.48213246 0.039374437 -0.32857054 -0.17065242
-0.0019252297 0.26549447 0.20999862 0.3038796 -0.15656391 0.10913779 -0.072692305 -0.07985288
00000000: 4b50 0fbe c468 09be 088b d5bd eda0 3c3c
00000010: ac81 27bb 37f7 323e e308 1bbe b97f 3c3d
00000020: a194 56be 41c5 7dbe 7129 503f 2905 bc3e
00000030: 9144 bbbc 5a0f 3bbe 25e5 c63e 0b1b ff3d
00000040: 777c 63bd 0e1e f33d e5bf a03c 8153 61bc
00000050: 2414 343e 9857 1f3e 8c46 db3d cc5b 4bbe
00000060: 1b7f 383e 69da 723e 1084 523e 127c 62be
00000070: b2c6 203e eed2 0cbe b434 7ebe aab9 133e
00000080: 5e15 b7bd a652 b8bc 5aa1 4fbd 1eb4 893e
00000090: 54ae 043e 1cf6 8dbd de4e 24be 87d1 013d
000000a0: f6f1 863c ec00 80bc 4031 3cbe 38e2 d9bd
000000b0: 420d 3abe e8df 2dbd ed4d 8f3e 53d3 9e3e
000000c0: 9a40 843e bcc1 97bc 9ad4 e43e 19b1 d63d
000000d0: 14cf 303c 7ef8 0f3e 5a97 913e 10d3 943e
000000e0: a168 56be 3a24 93bd e130 fcbe 6325 93be
000000f0: 1e2b 633d eda8 243d 6768 d3bd 977a 2e3e
00000100: 58fd 9e3e 68ca 483d 3576 a53e 9b59 9e3d
00000110: 4f02 533e 7815 a5be fc8c 0d3e 91d1 de3d
00000120: c72d 103e 9628 543e bc34 e5be 6eed babe
00000130: e8cd 52be 2605 6cbe 4eb4 8ebe 2843 1abe
00000140: c279 4f3d 8699 f83b 7a9f b2be b4de 5e3d
00000150: a135 3a3f e0a9 e0bc 2549 c33e 372f 6cbe
00000160: 0db3 aabd de56 5d3e 4d8d c53e fcf2 413f
00000170: fc0f 553d 4dd4 133e 04ad c13e f6a5 163e
00000180: 3654 ea3b bcbb 8fbe b69d 133f 22b9 93be
00000190: 6a8c 023e 9cf6 4f3e 4486 523e f1e5 0fbe
000001a0: c9b4 2e3d 9aa3 f53c 7693 58be 5b21 fcba
000001b0: 99a3 c5bc e295 0bbc ff8a 5a3d 47d4 8f3e
000001c0: 519a 93be 1366 4cbe 8366 e7bd 160f 40be
000001d0: bd03 9f3e 7340 25be b46b 223f 544a 483d
000001e0: eef4 dc3e a74b 1e3d 296c 63be 66e3 6fbe
000001f0: d902 073f 803d 283e 1431 c9bd 43ee e03d
00000200: a0f1 cd3d 9558 603e f321 e03e 678b 57be
00000210: b772 12be 797e 8abe 9ba8 893e 8bbd 7abc
00000220: 08f1 b3bc 9964 4ebe 8582 c13e 5d6a c83d
00000230: c565 9e3d c643 a2bd bd2e 573e 04c2 633e
00000240: a298 0cbe 97ad ad3e 2fe2 04be 09a5 c6bd
00000250: 06f9 efbe 0342 9d3d 7320 00be 891c c2bd
00000260: cfe8 01bf 253a f23d f7bd 763e b26e b9bd
00000270: 4116 ad3e 2d53 713e c071 cb3e 4b52 49be
00000280: bb78 90bd 0987 a43e af88 2dbe 53c5 04be
00000290: fe31 583c 6c05 893e 44f3 093c b1c6 b7bd
000002a0: 77a1 6d3e f878 4d3c c6a9 8a3d 775f 823e
000002b0: feef cebd be97 66bd 58c9 76be b1ca 3a3d
000002c0: e32d 333e bc95 bcbc 1503 31bf 07e5 433d
000002d0: 9022 8b3e 01a9 123f 6157 cbbe 5c0d 94bd
000002e0: d4d0 2fbd 649c f33d d990 873e d5da 6e3e
000002f0: 2693 f33e 9eba 33be 563a 1dbd 3c31 4abd
00000300: 25f6 ed3e 5359 34be 7644 9f3d 8775 8ebe
00000310: 43d3 a3be 016a d4bd f899 8dbc b492 a4be
00000320: a6e8 f23d e3a4 563c 41b6 973d c7cf 9ebe
00000330: b3dd 40bf 023f 36be 9e1d 17be 88b4 d63c
00000340: 274e 293d 6c47 5a3e 8647 bbbe 4272 78be
00000350: 8518 203e d9e0 a1be 8963 6e3e f722 a9be
00000360: 5dab 883e f9da 8ebe f06d 38bf 0f0a 053c
00000370: e48e a1bd d40f 96be e4bf 1d3e a797 6c3e
00000380: 60c7 7b3e 4022 c73d 91d0 c4bd e4be 77be
00000390: 1c0a 0d3e 2d02 e9bc a574 53be 8b97 7abd
000003a0: fb40 863e 42ce 923e 57b9 f8bc 3d74 4bbd
000003b0: 8942 80bc c45f 223e eefd 29be 0cf8 ebbd
000003c0: 6dde 00be 2eda 4a3e c972 43be c239 94be
000003d0: 11da f63e 1747 213d 663a a8be 82bf 2ebe
000003e0: fd57 fcba e4ee 873e e109 573e 1b96 9b3e
000003f0: 4a52 20be a283 df3d b4df 94bd e889 a3bd

embedder.emb_rnn.weight_hh_l2 f4 [60, 20]
-0.076948285 -0.04600401 -0.10367253 0.18560998 0.16570108 0.14497863 -0.07557501 -0.14802739
-0.20753507 -0.03717233 0.29238063 -0.11737607 -0.058119874 -0.25279498 -0.15829009 -0.045967154
0.08165262 0.070747554 -0.04265232 0.12989439 0.07732353 -0.047310118 0.009819505 0.2004487
-0.27924976 0.056751404 -0.2334278 -0.15368569 -0.28604802 -0.058329996 0.032452833 0.11287072
-0.27369437 -0.22236821 -0.010082966 -0.11828851 0.119661026 0.18596663 -0.22963305 0.07242783
-0.271617 0.28868142 -0.017506314 0.10906785 0.61014867 -0.04053271 0.25236726 -0.080811836
-0.04098091 -0.005683152 -0.09548888 0.013294291 -0.04181367 0.25058395 -0.17407922 -0.15537
0.14381148 -0.088172585 -0.14470637 -0.07178247 -0.07412684 -0.044888765 -0.30646887 -0.1543582
-0.74345875 0.23137203 -0.09414482 0.19450583 0.32669288 -0.080711566 -0.2061398 -0.014450607
0.5676063 -0.1785809 0.21336447 0.37150404 0.20254357 -0.3430624 -0.020467285 -0.19946492
0.06163994 -0.2985666 0.009507281 0.050447315 0.30373484 0.3595156 0.10253043 -0.0041314303
-0.23289484 0.00051426666 -0.2254506 -0.08613895 0.17064466 -0.23051082 -0.013797862 -0.028036466
-0.07024534 0.045390636 0.05451158 -0.03312855 -0.13143103 -0.2524741 -0.13521968 0.09316958
0.718409 -0.12078801 0.1800087 -0.16198577 -0.10011796 0.12572837 0.1355314 0.04989122
-0.2553985 0.014191959 0.07910667 0.17885152 -0.045684833 -0.27584976 0.3030567 0.24923113
-0.038606435 0.18954344 0.18221512 0.42791665 0.12672843 -0.07401586 -0.012462075 -0.2791016
0.16446432 0.08942376 0.08814257 -0.27376893 -0.6207118 0.25949657 -0.13866611 -0.33483058
0.1631859 -0.120221004 -0.11188092 -0.45775092 0.01675657 0.15926857 0.040236525 0.3017875
-0.18648171 -0.27646148 -0.09710384 -0.06888529 0.2510502 -0.18152145 -0.18774444 -0.13751765
0.15508746 -0.15555917 0.20955749 0.050144814 0.3542033 -0.19364728 -0.016523596 0.107372716
-0.52427036 -0.10627296 -0.29269668 0.11983822 -0.026584722 -0.72891515 0.12428264 0.10430616
-0.33804208 0.093584746 -0.13942523 -0.26966736 -0.21484327 -0.15405628 0.067252226 -0.18016014
-0.39754885 -0.1510752 -0.5169932 -0.09731242 0.18209068 -0.007885222 -0.34823906 -0.047953986
0.681867 -0.054110333 0.042683654 -0.31276768 -0.21234784 0.08306066 -0.10245699 -0.10487357
0.31795108 0.087655105 -0.18770343 0.33725825 -0.36399978 0.15921734 0.21403669 0.19193056
-0.11385718 -0.61443883 -0.2567966 -0.15063222 -0.18238246 0.36809227 0.19041102 -0.24053636
-0.20925248 0.16485997 -0.2487414 0.39269623 -0.3935069 -0.44484165 0.07427805 -0.07905719
0.1643869 -0.035170354 0.12131266 0.35832578 0.27919692 -0.09222169 0.051649436 -0.08775934
-0.038165834 0.26200095 0.051861957 -0.08418191 0.1295492 0.31430903 0.1681891 -0.12106703
0.2682525 -0.17820245 -0.11113832 0.11151685 0.10887461 0.27071056 -0.112883195 0.00070614304
-0.027753841 0.09412588 0.24756567 0.13893043 0.38520625 -0.38702035 -0.1974658 0.12659158
0.027413929 -0.21714029 -0.13237068 0.1961518 -0.08979571 0.2717967 -0.022457898 -0.05283342
00000000: 1097 9dbd b36e 3cbd 4352 d4bd 8b10 3e3e
00000010: 8bad 293e 4775 143e 12c7 9abd 7e94 17be
00000020: 1384 54be 0342 18bd eab2 953e dd62 f0bd
00000030: 1b0f 6ebd 586e 81be cc16 22be 0e48 3cbd
00000040: 7d39 a73d 18e4 903d 33b4 2ebd 0903 053e
00000050: cd5b 9e3d 41c8 41bd fde1 203c 6d42 4d3e
00000060: d3f9 8ebe 2974 683d b207 6fbe c85f 1dbe
00000070: e374 92be 6feb 6ebd 43ed 043d c428 e73d
00000080: ab21 8cbe 7eb4 63be 0633 25bc 3f41 f2bd
00000090: d710 f53d 096e 3e3e ed24 6bbe 0b55 943d
000000a0: 6211 8bbe 0dce 933e 6769 8fbc f75e df3d
000000b0: b432 1c3f a005 26bd 4836 813e ad80 a5bd
000000c0: 99db 27bd bc39 babb ad8f c3bd 4cd0 593c
000000d0: d044 2bbd 8a4c 803e d341 32be 5019 1fbe
000000e0: 5143 133e d493 b4bd e82d 14be b002 93bd
000000f0: d0cf 97bd 48dd 37bd 7de9 9cbe 1310 1ebe
00000100: 5053 3ebf caec 6c3e 00cf c0bd 892c 473e
00000110: 4a44 a73e 1b4c a5bd 5016 53be 3dc2 6cbc
00000120: a54e 113f e9dd 36be 377c 5a3e c735 be3e
00000130: 9567 4f3e e0a5 afbe 02ab a7bc 8840 4cbe
00000140: 297a 7c3d b9dd 98be 6dc4 1b3c d8a1 4e3d
00000150: 2283 9b3e 6e12 b83e 79fb d13d f360 87bb
00000160: fc7b 6ebe dacf 063a 86dc 66be 9e69 b0bd
00000170: 79bd 2e3e 070b 6cbe 6e10 62bc bbac e5bc
00000180: cadc 8fbd 88eb 393d 8947 5f3d cdb1 07bd
00000190: db95 06be 4944 81be 0777 0abe b1cf be3d
000001a0: a7e9 373f b45f f7bd 3354 383e 99df 25be
000001b0: a50a cdbd f0be 003e bec8 0a3e bc5a 4c3d
000001c0: 98c3 82be 6485 683c ae02 a23d da24 373e
000001d0: 0520 3bbd 2e3c 8dbe 3f2a 9b3e 7236 7f3e
000001e0: c821 1ebd ad17 423e 9a96 3a3e e417 db3e
000001f0: 19c5 013e a195 97bd bb2d 4cbc 68e6 8ebe
00000200: 5669 283e ce23 b73d 1784 b43d 712b 8cbe
00000210: f8e6 1ebf bcdc 843e 7dfe 0dbe ea6e abbe
00000220: 341a 273e 6e36 f6bd d321 e5bd 545e eabe
00000230: 1345 893c 4d17 233e 0ecf 243d e483 9a3e
00000240: 10f5 3ebe 5c8c 8dbe 61de c6bd bb13 8dbd
00000250: a789 803e c2e0 39be 1440 40be 6dd1 0cbe
00000260: 3fcf 1e3e e74a 1fbe 3d96 563e a664 4d3d
00000270: 235a b53e 794b 46be 7e5c 87bc 3ae6 db3d
00000280: 9536 06bf a3a5 d9bd 57dc 95be be6d f53d
00000290: 34c8 d9bc 2f9a 3abf e687 fe3d 789e d53d
000002a0: da13 adbe 5ca9 bf3d 7dc5 0ebe d711 8abe
000002b0: e0ff 5bbe eec0 1dbe 89bb 893d e67b 38be
000002c0: 868b cbbe 75b3 1abe ab59 04bf bc4b c7bd
000002d0: fb75 3a3e 0531 01bc 644c b2be 666b 44bd
000002e0: d68e 2e3f cca2 5dbd 0ed5 2e3d 1623 a0be
000002f0: b671 59be b51b aa3d f8d4 d1bd f4c7 d6bd
00000300: 7cca a23e 8584 b33d 5435 40be 1dad ac3e
00000310: 2e5e babe df09 233e 6f2c 5b3e 7289 443e
00000320: f42d e9bd dd4b 1dbf d87a 83be 553f 1abe
00000330: 78c2 3abe 9776 bc3e 1bfb 423e 2a4f 76be
00000340: 4846 56be 0dd1 283e 11b6 7ebe 7b0f c93e
00000350: bd79 c9be 49c2 e3be 171f 983d bce8 a1bd
00000360: 0a55 283e ca0e 10bd c672 f83d 7a76 b73e
00000370: e6f2 8e3e bade bcbd 5c8e 533d 2bbb b3bd
00000380: c753 1cbd fd24 863e 346d 543d 9167 acbd
00000390: 8ca8 043e 1ded a03e c339 2c3e fef1 f7bd
000003a0: 6458 893e b47a 36be 7d9c e3bd f262 e43d
000003b0: a7f9 de3d 939a 8a3e 4e2f e7bd 751c 393a
000003c0: 065c e3bc 12c5 c03d db81 7d3e c743 0e3e
000003d0: c139 c53e 8827 c6be 7a34 4abe 39a1 013e
000003e0: 2d93 e03c 065a 5ebe 2e8c 07be 04dc 483e
000003f0: d0e6 b7bd f028 8b3e a0f9 b7bc db67 58bd

embedder.emb_rnn.bias_ih_l2 f4 [60]
1.0205041 0.98184407 1.0375717 0.92482257 0.98505574 0.908654 0.9726427 1.0313469
0.9272945 0.94887155 0.8140182 1.0569931 1.0045801 1.0096301 0.94858456 0.91965777
0.93742025 1.0809566 1.0001291 0.9968401 0.33416122 0.43183145 0.8533219 0.7384139
0.39772683 0.55627006 0.6341827 0.23362349 0.32793942 0.75396717 0.958302 0.60488665
1.0102054 0.72333264 0.75641453 0.42905298 0.60687417 0.52635586 0.57710046 0.61167157
0.91361135 0.931232 1.0093297 0.87892264 0.93353444 0.9032794 1.082343 0.9759807
0.9476318 0.9820384 0.9400147 0.94596446 0.96641153 1.0330887 0.9280667 0.88868135
0.97685987 0.9221559 0.97329533 0.96115875
00000000: e19f 823f 225a 7b3f 26cf 843f 2cc1 6c3f
00000010: 9d2c 7c3f 8c9d 683f 1dff 783f 2d03 843f
00000020: 2c63 6d3f 3fe9 723f 7f63 503f 8d4b 873f
00000030: 1596 803f 8f3b 813f 70d6 723f b16e 6b3f
00000040: c6fa 6f3f c95c 8a3f 3b04 803f ea30 7f3f
00000050: 2e17 ab3e 0319 dd3e 4e73 5a3f b108 3d3f
00000060: daa2 cb3e b767 0e3f cc59 223f ff3a 6f3e
00000070: ade7 a73e fe03 413f 4853 753f dad9 1a3f
00000080: 694e 813f 542c 393f 62a4 413f d5ac db3e
00000090: 1b5c 1b3f 42bf 063f dbbc 133f 8296 1c3f
000000a0: 6fe2 693f 3865 6e3f b731 813f 1301 613f
000000b0: 1dfc 6e3f 523d 673f 378a 8a3f dfd9 793f
000000c0: ff97 723f de66 7b3f cea4 703f ba2a 723f
000000d0: bf66 773f 403c 843f c795 6d3f 9f80 633f
000000e0: 7d13 7a3f 6912 6c3f e229 793f 800e 763f

embedder.emb_rnn.bias_hh_l2 f4 [60]
0.020508414 -0.018161483 0.03757571 -0.07517101 -0.01493932 -0.09134932 -0.027356941 0.03134503
-0.07270338 -0.051128782 -0.18598288 0.05699791 0.0045787143 0.009632124 -0.051410772 -0.08034426
-0.062577665 0.0809521 0.00012745644 -0.003160545 -0.66583955 -0.56817216 -0.14667909 -0.26158428
-0.6022731 -0.4437311 -0.36582133 -0.7663784 -0.67206365 -0.24603367 -0.041701104 -0.39511314
0.010203691 -0.27666876 -0.24358033 -0.5709481 -0.3931268 -0.4736445 -0.42290097 -0.38832524
-0.15331462 -0.056277364 0.033928677 -0.13836598 -0.123523615 -0.0825953 0.10952714 -0.06968936
-0.03783352 -0.2341685 -0.059247658 -0.066081226 -0.06142871 0.036558524 -0.09428805 -0.10077769
-0.024606146 -0.08549565 -0.030830141 -0.03960459
00000000: 4301 a83c 64c7 94bc fde8 193d 42f3 99bd
00000010: 0dc4 74bc 5a15 bbbd aa1b e0bc a563 003d
00000020: 82e5 94bd 6a6c 51bd 4c72 3ebe a476 693d
00000030: 0a09 963b 0ed0 1d3c 1a94 52bd 888b a4bd
00000040: b828 80bd 37ca a53d d4a5 0539 2521 4fbb
00000050: 7674 2abf bb73 11bf 0b33 16be 60ee 85be
00000060: 922e 1abf b930 e3be ef4c bbbe 6031 44bf
00000070: 5d0c 2cbf 40f0 7bbe c7ce 2abd 454c cabe
00000080: 622d 273c 87a7 8dbe 1f6d 79be a829 12bf
00000090: ea47 c9be 8881 f2be 7a86 d8be 91d2 c6be
000000a0: 82fe 1cbe 1883 66bd ccf8 0a3d d0af 0dbe
000000b0: f3f9 fcbd ba27 a9bd c44f e03d 4cb9 8ebd
000000c0: 52f7 1abd dec9 6fbe acad 72bd 9855 87bd
000000d0: ac9c 7bbd 64be 153d 181a c1bd 8964 cebd
000000e0: d492 c9bc 5818 afbd 7e8f fcbc 6c38 22bd
