output/test/model.pt (torch, 153208 bytes, 65 tensors)

embedder.emb_rnn.weight_ih_l0 f4 [60, 10]
0	0x3e2e9fe8	0.17053187
1	0x3eaddc4d	0.3395714
2	0x3e723808	0.23654187
3	0xbdc06d91	-0.09395898
4	0x3df22e0c	0.11825189
5	0x3e1016ed	0.14071245
6	0xbd2a525a	-0.041582443
7	0x3b54b4cc	0.0032456396
8	0x3e1367f9	0.14395131
9	0x3e6df586	0.23238191
10	0xbd8c7685	-0.06858543
11	0x3e4a8e89	0.19780935
12	0x3eae4b22	0.34041697
13	0x3d0bf717	0.03417119
14	0x3d45b358	0.04826674
15	0xbe1043b3	-0.14088325
16	0xbd239196	-0.039933763
17	0x3ebf6743	0.3738347
18	0x3e393f60	0.18090582
19	0xbd909748	-0.070601046
20	0x3e0d314c	0.13788337
21	0xbd261c19	-0.04055414
22	0xbe79d153	-0.24396257
23	0xbdb1c06f	-0.08679282
24	0xbd945075	-0.072419085
25	0xbe56e4fc	-0.20985788
26	0x3e8c439d	0.27395335
27	0xbe28c844	-0.16482645
28	0x3e284a35	0.16434558
29	0xbd2b05f2	-0.041753717
30	0xbe1793cd	-0.14802475
31	0x3dd4dae4	0.103933126
32	0xbdc83da5	-0.09777383
33	0x3dbb0ffe	0.0913391
34	0x3edf297b	0.43586335
35	0x3eadc5ae	0.3393988
36	0x3ebe44c8	0.3716185
37	0x3ee61650	0.44938898
38	0x3e2d4283	0.16919903
39	0x3e330c05	0.17485054
40	0x3dc4f1c3	0.09616425
41	0x3eb77843	0.3583394
42	0x3e72def6	0.23717865
43	0x3e6541f2	0.22388437
44	0x3e81b1e5	0.25331035
45	0x3defa502	0.117013946
46	0x3e9c5013	0.30529842
47	0x3e298423	0.16554312
48	0xbe18272c	-0.14858693
49	0x3e8db3bd	0.27676192
50	0x3ee508a7	0.44733164
51	0xbebe4cce	-0.37167972
52	0xbe932e26	-0.28746146
53	0xbe105451	-0.14094664
54	0xbe9c8805	-0.30572525
55	0xbee46e88	-0.4461558
56	0x3e3dea84	0.18546492
57	0xbe4779e0	-0.19480085
58	0xbe57146f	-0.21003889
59	0xbc80f3fa	-0.015741337
60	0x3e2f243c	0.17103666
61	0xba424dac	-0.00074120867
62	0xbbbb86db	-0.005722863
63	0x3d232cd5	0.039837677
64	0x3e79b511	0.24385478
65	0xbbc74a93	-0.006081888
66	0xbe746be2	-0.23869279
67	0xbe11f89a	-0.1425499
68	0x3e378345	0.17921169
69	0x3d3a2047	0.04544094
70	0x3e325eee	0.17419025
71	0x3dbb8246	0.09155707
72	0x3cfec982	0.031101946
73	0xbd666422	-0.056247838
74	0x3ee2b85c	0.4428128
75	0x3c3ba43d	0.011452732
76	0x3e3eae5c	0.186212
77	0x3e335b4f	0.175153
78	0xbcb7d6ef	-0.022441356
79	0x3e46f5ca	0.19429699
80	0x3e6c20b5	0.23059352
81	0xbd90102b	-0.07034334
82	0xbd1d6755	-0.038428623
83	0x3e53f415	0.20698579
84	0x3e162bd2	0.14665154
85	0xbda19622	-0.07889964
86	0xbd87f94e	-0.06639348
87	0x3e10174d	0.14071389
88	0x3e0bcd46	0.13652524
89	0x3d479b15	0.048731882
90	0xbda07ec2	-0.07836677
91	0x3dfaf907	0.122545294
92	0x3e8916d7	0.26775238
93	0x3e349016	0.1763309
94	0x3dadb69d	0.08482096
95	0xbe2800a6	-0.16406497
96	0xbe22bcbe	-0.15892312
97	0x3e16b1d0	0.14716268
98	0xbc498200	-0.012299061
99	0xbc43517a	-0.011921281
100	0xbe37d380	-0.17951775
101	0xbee26044	-0.4421407
102	0xbe2a63db	-0.16639654
103	0xbd5bad89	-0.053632293
104	0xbe69e75c	-0.22842163
105	0xbe5bcecb	-0.21465604
106	0xbef7b022	-0.48376566
107	0xbeb9074f	-0.3613839
108	0xbe72093b	-0.23636334
109	0xbeb40457	-0.3515956
110	0x3e5fbea2	0.21850064
111	0x3ea2bb02	0.317833
112	0xbe63781b	-0.22213785
113	0x3e93adc7	0.2884352
114	0xbe4966fa	-0.19668189
115	0xbdf0f638	-0.117657125
116	0x3e47b1e5	0.19501455
117	0x3dfcaa06	0.12337117
118	0x3defdc38	0.11711925
119	0xbd9ed598	-0.077555835
120	0x3e291e8a	0.16515556
121	0xbe9193c2	-0.28433043
122	0x3e054a87	0.13016711
123	0x3e1ac26e	0.15113232
124	0x3e6e6646	0.23281202
125	0xbe585aac	-0.21128339
126	0x3e907e92	0.28221565
127	0x3e9f8f1d	0.31163874
128	0x3ef0d5af	0.47038028
129	0x3ea16464	0.31521904
130	0xbf0f9d0d	-0.56099015
131	0x3d56734a	0.052356042
132	0xbbfdf842	-0.007750542
133	0x3d811766	0.06303291
134	0x3d304b4e	0.043040566
135	0x3dc8c656	0.098034546
136	0x3e6ca695	0.23110421
137	0xbe1f42e3	-0.15552859
138	0xbe3d5cd2	-0.1849244
139	0x3ded22e8	0.115789235
140	0xbe029257	-0.12751137
141	0x3e95ce49	0.29258946
142	0x3e46f61e	0.19429824
143	0x3e625a1a	0.22104684
144	0xbdf28e53	-0.118435524
145	0x3e8a544c	0.27017438
146	0xbdcaee25	-0.09908704
147	0x3d9482cb	0.07251509
148	0x3da4ee0a	0.08053215
149	0xbc41db54	-0.011832077
150	0xbe4e35ac	-0.20137662
151	0x3e359b6c	0.1773507
152	0x3dd287cf	0.1027981
153	0x3d59c29c	0.05316411
154	0x3e4afc5b	0.19822828
155	0x3e88cb9e	0.26717848
156	0x3d413ff4	0.04718013
157	0x3e712e3a	0.2355279
158	0x3d1bae02	0.038007744
159	0x3dac7117	0.08420008
160	0xbe9e9a8e	-0.3097729
161	0xbe693efa	-0.2277793
162	0xbe610ce3	-0.21977572
163	0xbe837ec8	-0.25682664
164	0xbebaa2fa	-0.36452466
165	0xbe78bbb9	-0.2429036
166	0xbe32dd6c	-0.17467278
167	0xbf1500f0	-0.58204556
168	0xbe25c900	-0.16189957
169	0xbf05e39b	-0.52300423
170	0xbecabbb1	-0.39596322
171	0xbe64e3da	-0.22352543
172	0xbd0bb7d9	-0.034110878
173	0x3dc7d2a2	0.09756972
174	0x3e4f31f5	0.20233901
175	0xbdedd97e	-0.11613749
176	0xbd4942af	-0.04913586
177	0xbddd725c	-0.10812828
178	0xbe97d3f8	-0.29653907
179	0xbe462b31	-0.19352414
180	0xbe3a1112	-0.18170574
181	0x3e061d84	0.13097197
182	0x3da6e41f	0.081489794
183	0xbe01d9b8	-0.1268071
184	0x3e98a52f	0.29813525
185	0x3e0a3e84	0.1350041
186	0x3d726068	0.05917397
187	0xbe0ec8cd	-0.13943787
188	0x3eac0c49	0.33603123
189	0xbba6059a	-0.0050665857
190	0x3ebc7761	0.3680983
191	0x3e3fb06b	0.18719642
192	0xbe49505a	-0.19659558
193	0xbe54e10e	-0.20788977
194	0x3e814073	0.25244483
195	0x3ccc3fd8	0.024932787
196	0x3e92d7f6	0.2868039
197	0x3e4c7c7e	0.19969365
198	0xbd208283	-0.039186966
199	0xbd46fe75	-0.048582513
200	0xbe05a3d4	-0.13050777
201	0xbec7eb62	-0.3904677
202	0xbed657fa	-0.41863996
203	0xbec38546	-0.38187617
204	0x3a83bb27	0.0010050283
205	0xbf00a672	-0.50253975
206	0xbf1ddf26	-0.6166862
207	0xbf2e70cd	-0.6814087
208	0xbea25d24	-0.31711686
209	0xbe8a4c6a	-0.27011424
210	0x3f67ba7f	0.90518945
211	0x3ed4d2b4	0.41567004
212	0x3deb442b	0.114876114
213	0xbe0536c0	-0.13009167
214	0x3edc0778	0.42974448
215	0x3f0cc478	0.5498729
216	0xbeb3b6ef	-0.35100505
217	0xbeb187dc	-0.34673965
218	0xbe8b427b	-0.27199158
219	0xbf37d7d3	-0.71813697
220	0xbf6e8ce0	-0.9318371
221	0x3e295595	0.16536553
222	0xbe43b25b	-0.19111006
223	0xbda770f5	-0.08175842
224	0x3e2d41af	0.16919588
225	0xbe551e5e	-0.20812365
226	0xbf423d4b	-0.75874776
227	0xbf0c984d	-0.5491989
228	0xbf3ddbba	-0.741634
229	0xbeabf7fd	-0.33587638
230	0x3f72a698	0.9478545
231	0x3e2a8fa7	0.16656362
232	0x3db007ae	0.08595215
233	0x3e172f82	0.14764217
234	0x3e41fcf2	0.18944147
235	0x3d62dd59	0.055386875
236	0xbf0e2740	-0.5552864
237	0xbe0caece	-0.13738558
238	0xbedb1224	-0.42787278
239	0xbe9bc0f6	-0.30420655
240	0x3f7b31dc	0.98122954
241	0x3efa01c2	0.48829466
242	0x3e66552c	0.22493428
243	0x3d800428	0.06250793
244	0xbe02c126	-0.12768993
245	0x3eb162ee	0.3464579
246	0xbefcfbfa	-0.49410993
247	0xbef8e8d2	-0.48615128
248	0xbeb7ecbb	-0.359228
249	0xbe395538	-0.18098915
250	0xbf3d0117	-0.7382979
251	0xbed82fc4	-0.42223942
252	0xbf2511c0	-0.6448021
253	0xbef98606	-0.48735064
254	0xbebc9efc	-0.36840045
255	0xbe99b5a1	-0.30021384

embedder.emb_rnn.weight_hh_l0 f4 [60, 20]
0	0xbee44875	-0.4458653
1	0x3e2aac8c	0.16667384
2	0xbbfef4cf	-0.0077806483
3	0xbdaaf894	-0.08348194
4	0x3dd984bb	0.106210195
5	0x3d539661	0.051657084
6	0x3ce82264	0.028336711
7	0x3dbf446d	0.09339223
8	0xbdf932c2	-0.121678844
9	0xbe9899ed	-0.29804936
10	0xbe586a87	-0.21134387
11	0x3d8e0a35	0.069355406
12	0xbe4b4107	-0.19849025
13	0x3d43d2ce	0.04780846
14	0xbd0b3dc2	-0.033994444
15	0xbe19f52d	-0.15034933
16	0xbe79f452	-0.24409607
17	0x3ec8b54f	0.39200827
18	0x3e2b148b	0.16707055
19	0xbd61fc2e	-0.055172138
20	0xbef7390b	-0.48285708
21	0x3e6ae761	0.22939827
22	0xbd912901	-0.07087899
23	0xbe841d3b	-0.2580355
24	0x3e90f223	0.28309736
25	0x3b8c5f55	0.0042838254
26	0x3e420d81	0.18950464
27	0x3e76c236	0.24097523
28	0xbbf3c5b8	-0.0074393414
29	0xbdfa7769	-0.12229807
30	0x3e8bb43d	0.27285948
31	0xbe5b4e7e	-0.21416661
32	0xbe3302ea	-0.1748158
33	0x3cdd7e4a	0.027037758
34	0x3d86ecc3	0.065881275
35	0xbc8ee7ee	-0.017444577
36	0xbe07f6d6	-0.13277754
37	0xbe3886bf	-0.18020152
38	0xbd967d64	-0.07348135
39	0x3e8bea96	0.27327412
40	0x3ef2297f	0.47297284
41	0x3db4774e	0.08811818
42	0x3ea4e986	0.32209414
43	0xbe07fb83	-0.13279538
44	0x3e5cb1b0	0.21552157
45	0xbd648d63	-0.0557989
46	0x3e4b16a2	0.19832852
47	0x3e65a798	0.22427213
48	0xbb5b7896	-0.0033488623
49	0xbe399573	-0.18123417
50	0xbb7d09d5	-0.0038610597
51	0x3e20fea2	0.15722135
52	0xbe70c9ea	-0.23514524
53	0x3e4ed915	0.20199998
54	0xbe5815e1	-0.21102096
55	0x3e651443	0.2237101
56	0x3e54bdcb	0.20775525
57	0x3e9ccb73	0.3062397
58	0x3d914ee7	0.070951276
59	0xbdb6d60f	-0.08927547
60	0x3d321320	0.04347527
61	0x3e526ea5	0.2055002
62	0xbd392c77	-0.04520842
63	0x3e87195b	0.26386532
64	0xbcf1a9b7	-0.029499872
65	0xbe1b6b36	-0.15177616
66	0x3e539c40	0.20665073
67	0x3dc5af7f	0.09652614
68	0xbe31a9e4	-0.17349964
69	0x3dd98c5c	0.106224746
70	0x3d6e0a8b	0.058115523
71	0xbdbeb7bb	-0.093123876
72	0x3e9c7627	0.30558893
73	0x3e3e84db	0.18605368
74	0x3e96aa78	0.29426932
75	0xbe29b808	-0.16574109
76	0xbe0a80fd	-0.13525768
77	0x3e9f0f77	0.31066486
78	0x3d588d66	0.052869223
79	0x3c7e6ba8	0.015528597
80	0xbeb2afca	-0.3489974
81	0xbe14a293	-0.14515142
82	0x3dd03f05	0.1016827
83	0x3c805676	0.015666228
84	0xbe6bfa9f	-0.23044823
85	0xbeb337aa	-0.35003406
86	0x3e11ee18	0.14250982
87	0xbe43d1e0	-0.1912303
88	0xbddd1731	-0.10795439
89	0xbdc1bc67	-0.09459763
90	0xbe74336c	-0.23847741
91	0xbd11be12	-0.035581656
92	0xbe361622	-0.1778188
93	0xbe015e7c	-0.12633699
94	0xbe7b1081	-0.24518014
95	0x3d2bcc0f	0.041942652
96	0xbdd304ca	-0.10303648
97	0x3d61c6f8	0.055121392
98	0xbe829154	-0.25501502
99	0x3e46e8c0	0.19424725
100	0x3e722f0d	0.23650761
101	0xbe4cf8e1	-0.20016815
102	0x3dc57510	0.096414685
103	0x3c0347e7	0.008012748
104	0xbea50514	-0.32230437
105	0x3deabd51	0.114618905
106	0xbd0e96e2	-0.03481186
107	0x3e0d9b89	0.13828863
108	0x3e435e0d	0.19078846
109	0xbdaf7b38	-0.08568424
110	0xbe7312f4	-0.23737699
111	0xbde6aa4f	-0.112629525
112	0x3e8bc8df	0.2730169
113	0x3e3818b5	0.17978175
114	0xbe733a99	-0.23752822
115	0x3e25dbee	0.16197178
116	0xbe53a4be	-0.20668313
117	0x3da4cf19	0.08047313
118	0x3e3403fa	0.17579642
119	0xbd1a2855	-0.03763612
120	0x3e9380ad	0.2880911
121	0xbe1c047f	-0.1523609
122	0x3b967734	0.004591847
123	0x3e2a890a	0.16653839
124	0xbd4a4e44	-0.049391046
125	0x3c5ecc2a	0.013598481
126	0xbe2cf05a	-0.16888562
127	0xbe7742b8	-0.24146545
128	0x3d0b106e	0.033951215
129	0x3e0ea903	0.1393166
130	0x3e7c30f9	0.24628057
131	0xbdd3f233	-0.1034893
132	0xbe4fb8b4	-0.20285302
133	0x3e25003c	0.1611337
134	0x3e17c5b1	0.14821507
135	0xbe3af295	-0.182566
136	0xbe17c344	-0.14820582
137	0x3d86fa09	0.06590659
138	0xbe433681	-0.1906376
139	0x3d8dd9f9	0.069263406
140	0xbe2f4456	-0.17115912
141	0x3ea57280	0.3231392
142	0xbdd060e5	-0.10174731
143	0x3d8559d4	0.06511274
144	0xbd1653e1	-0.036701087
145	0xbe65eb78	-0.22453105
146	0x3e89d7f9	0.26922587
147	0x3e3617e7	0.17782556
148	0x3ea3ada2	0.3196841
149	0x3e3dd791	0.18539263
150	0x3e046e3f	0.1293268
151	0x3e910aeb	0.28328642
152	0xbe04439c	-0.12916416
153	0x3dadebdc	0.08492252
154	0x3d194557	0.037419643
155	0xbdd5a6c7	-0.10432201
156	0x3e85fb9f	0.26168534
157	0xbe3f654e	-0.18690988
158	0x3b82c2ce	0.0039905077
159	0x3e6f27e6	0.23355064
160	0xbe2d9e0f	-0.16954826
161	0xbe1d31c9	-0.15351023
162	0xbca2809f	-0.019836722
163	0xbe1487c6	-0.14504918
164	0x3e86d3ca	0.26333457
165	0xbe915c98	-0.28390956
166	0xbe218736	-0.15774235
167	0x3e260a28	0.16214812
168	0x3d4782d7	0.048708763
169	0xbe585cca	-0.21129146
170	0xbdbe9ce0	-0.09307265
171	0xbd5fc54c	-0.054631516
172	0x3e0940da	0.13403645
173	0xbe7b8606	-0.24562845
174	0x3e7697e9	0.24081387
175	0x3be1d407	0.0068917307
176	0x3e725b62	0.23667672
177	0xbe235214	-0.15949279
178	0x3e346363	0.17616038
179	0x3e8e9327	0.27846643
180	0xbed2d969	-0.41181496
181	0x3e6e8207	0.23291789
182	0xbd52ba88	-0.05144742
183	0xbe8743df	-0.2641897
184	0xbde5e0cd	-0.11224518
185	0xbeb97fb4	-0.36230242
186	0xbd987755	-0.07444636
187	0x3e29f6cd	0.16598053
188	0xbe0c2486	-0.13685808
189	0x3d647156	0.055772148
190	0x3e11dcbc	0.1424436
191	0x3db76f4e	0.089567766
192	0xbeabc9c9	-0.33552387
193	0xbe70f7ae	-0.23531982
194	0xbe8d9999	-0.27656248
195	0xbe137605	-0.1440049
196	0xbebb2354	-0.3655039
197	0xbce9e721	-0.028552594
198	0x3b96dad2	0.004603722
199	0xbe4d782d	-0.20065375
200	0x3e45672e	0.19277641
201	0xbbd0e1f3	-0.0063745915
202	0xbe14e324	-0.14539772
203	0xbd7d407e	-0.061829083
204	0xbda90564	-0.08252981
205	0xbdf2d96c	-0.11857876
206	0x3cfcd69c	0.030864052
207	0x3c8508d1	0.016239556
208	0xbd5d5b84	-0.054042354
209	0x3dd4bd68	0.10387689
210	0x3e6b4c4f	0.22978328
211	0x3ef33071	0.47497895
212	0xbe8d2cef	-0.27573344
213	0xbdb1002b	-0.0864261
214	0xbe41d28d	-0.18927975
215	0x3dcd4838	0.1002354
216	0x3e08a640	0.1334467
217	0xbe3d09f1	-0.18460824
218	0x3cae0926	0.021244597
219	0x3d8fd365	0.07022742
220	0x3e3be622	0.18349507
221	0xbdd1f8b3	-0.10252514
222	0x3e25733a	0.16157237
223	0xbe54dd03	-0.20787434
224	0x3e1841dc	0.14868873
225	0xbe216d8b	-0.15764444
226	0x3e6ea39d	0.23304601
227	0x3d2bf393	0.041980337
228	0x3e945c76	0.28976792
229	0xbe28114e	-0.16412851
230	0x3d4cc31a	0.04999075
231	0x3dd8ee23	0.10592296
232	0xbd653289	-0.055956397
233	0x3e2f054b	0.17091863
234	0x3ea09a2e	0.3136763
235	0xbdd7f1d4	-0.10544172
236	0x3e862c15	0.26205507
237	0x3ea18e9f	0.31554124
238	0x3e5ac796	0.21365198
239	0x3dea931a	0.11453839
240	0x3e60453f	0.21901415
241	0xbe4c4407	-0.19947825
242	0x3e0ad82c	0.13559026
243	0x3de9a05f	0.114075415
244	0x3d77bcdc	0.060482845
245	0x3e49faa0	0.19724512
246	0xbe2ba5a4	-0.16762406
247	0xbe161707	-0.14657222
248	0xbea9c712	-0.3315969
249	0x3e297f90	0.16552567
250	0xbd6b6595	-0.057469923
251	0x3b313a57	0.002704283
252	0x3e536058	0.20642221
253	0x3e1dbe7c	0.15404695
254	0x3d4c8926	0.049935482
255	0xbecf30fc	-0.4046706

embedder.emb_rnn.bias_ih_l0 f4 [60]
0	0x3f71ca0b	0.9444892
1	0x3f8256f3	1.0182785
2	0x3f85b44a	1.0445645
3	0x3f8a5006	1.0805671
4	0x3f7976aa	0.9744669
5	0x3f68116f	0.906516
6	0x3f834a01	1.0256959
7	0x3f917842	1.1364825
8	0x3f88d6ec	1.0690589
9	0x3f75521f	0.9582843
10	0x3f874d01	1.0570375
11	0x3f89007f	1.0703276
12	0x3f5d176d	0.8636387
13	0x3f6bcfab	0.9211375
14	0x3f871e62	1.0556147
15	0x3f822311	1.0166951
16	0x3f77202c	0.96533465
17	0x3f821aec	1.0164466
18	0x3f90f22a	1.1323903
19	0x3f98a448	1.1925135
20	0x3e09b75c	0.13448852
21	0x3f7ed770	0.9954748
22	0x3e43bc7c	0.1911487
23	0x3f57cf1d	0.84300405
24	0x3f7c09fb	0.9845273
25	0x3e3f5760	0.18685675
26	0x3f46c545	0.7764476
27	0x3ee31931	0.44355157
28	0x3eefba67	0.468219
29	0x3f3c240d	0.7349251
30	0x3eaa42e4	0.33254158
31	0x3f8f7db2	1.1210234
32	0x3d96db51	0.0736605
33	0x3f13f944	0.57802224
34	0x3f37c446	0.71783864
35	0x3e7298e2	0.23691133
36	0xbd6deee7	-0.058089163
37	0x3f22a832	0.63537896
38	0x3f695d22	0.91157734
39	0xbcdcb573	-0.02694199
40	0x3f7d66dc	0.98985076
41	0x3f769331	0.96318346
42	0x3f813a02	1.0095828
43	0x3f7e4a48	0.99332094
44	0x3f76b60f	0.9637155
45	0x3f4f6720	0.8101673
46	0x3f87bc9a	1.0604432
47	0x3f7e60e0	0.9936657
48	0x3f856e8e	1.0424364
49	0x3f77d085	0.9680255
50	0x3f5cfecf	0.8632631
51	0x3f7c6143	0.9858591
52	0x3f813919	1.009555
53	0x3f6220bb	0.8833119
54	0x3f8234d2	1.017237
55	0x3f90714a	1.1284573
56	0x3f857b7e	1.0428312
57	0x3f63fe39	0.8905979
58	0x3f632c8c	0.8873985
59	0x3fa7d7d7	1.3112744

embedder.emb_rnn.bias_hh_l0 f4 [60]
0	0xbd635ea2	-0.05551017
1	0x3c95c134	0.018280603
2	0x3d36885b	0.044563632
3	0x3da500c8	0.0805679
4	0xbcd12a7a	-0.02553295
5	0xbdbf7497	-0.093484096
6	0x3cd27ec7	0.025695218
7	0x3e0bc19e	0.13648078
8	0x3d8d6d90	0.06905663
9	0xbd2ade3c	-0.041715845
10	0x3d69a15a	0.057038642
11	0x3d9007be	0.07032727
12	0xbe0ba28e	-0.13636228
13	0xbda182f0	-0.078863025
14	0x3d63cada	0.055613376
15	0x3c88c431	0.016695114
16	0xbd0dfcf5	-0.034665067
17	0x3c86b86f	0.016445367
18	0x3e079097	0.1323875
19	0x3e4521d4	0.19251186
20	0xbf5d922e	-0.8655118
21	0xbb94432f	-0.0045246105
22	0xbf4f10d1	-0.80885035
23	0xbe20c3aa	-0.1569964
24	0xbc7d7f14	-0.015472192
25	0xbf502a2a	-0.8131434
26	0xbe64eada	-0.22355214
27	0xbf0e7365	-0.5564483
28	0xbf0822c4	-0.5317805
29	0xbe87b7fa	-0.2650755
30	0xbf2ade69	-0.6674562
31	0x3df7dbb5	0.12102453
32	0xbf6d2488	-0.9263387
33	0xbed80d4c	-0.42197645
34	0xbe90779e	-0.2821626
35	0xbf4359bc	-0.763088
36	0xbf876f77	-1.0580891
37	0xbebaafc6	-0.3646223
38	0xbdb51698	-0.088422
39	0xbf8372d7	-1.0269421
40	0xbc5d6aa5	-0.013514196
41	0xbd045068	-0.032303244
42	0x3c0e2308	0.008675344
43	0x3aa8d894	0.0012881928
44	0xbc9b6ca7	-0.018972708
45	0xbdf295f9	-0.11845011
46	0x3d15e8d9	0.036599014
47	0xbc5e3d27	-0.013564385
48	0x3d0ff3ab	0.03514449
49	0xbce57661	-0.028010549
50	0xbe45215d	-0.19251008
51	0xbc519a2e	-0.012793107
52	0xbc616cca	-0.0137588475
53	0xbde1eb78	-0.1103124
54	0x3c8e355a	0.017359424
55	0x3df686f1	0.12037457
56	0x3e0dbcd1	0.13841559
57	0xbe0bbb6f	-0.13645719
58	0xbde9bbc2	-0.11412765
59	0x3e9db65e	0.30803198

embedder.emb_rnn.weight_ih_l1 f4 [60, 20]
0	0x3c5150b1	0.012775586
1	0x3dcd9c53	0.10039582
2	0x3c1b9048	0.009494849
3	0x3d11a654	0.035559013
4	0x3c1d765f	0.009610741
5	0xbdcdbb19	-0.10045452
6	0x3e0d05ce	0.13771746
7	0xbdce3a73	-0.10069742
8	0x3e6cc100	0.23120499
9	0x3d99ffab	0.07519468
10	0xbdac224e	-0.084049806
11	0x3e4e0ca1	0.20122005
12	0xbdf15094	-0.11782947
13	0x3b8badbe	0.004262655
14	0xbd71147f	-0.058857437
15	0xbdca4b0e	-0.09877597
16	0x3dcf7179	0.10129065
17	0x3ddd3c48	0.10802513
18	0xbd8a68cf	-0.06758272
19	0x3e7d6768	0.24746478
20	0xbe0155fb	-0.12630455
21	0xbe02efef	-0.1278684
22	0x3e8629bb	0.26203713
23	0xbe51dd48	-0.20494568
24	0x3c8c7fe0	0.01715082
25	0xbd506ba2	-0.050883897
26	0xbdfe01bf	-0.12402677
27	0x3e27efcc	0.16400069
28	0x3e40c6ba	0.18825808
29	0x3de24543	0.11048367
30	0x3d8c6f33	0.06857147
31	0x3e9819c9	0.29707173
32	0xbdeb10e1	-0.11477829
33	0x3e4cffb5	0.2001942
34	0xbd9afb11	-0.07567418
35	0xbdda4098	-0.106568515
36	0xbde16af9	-0.110067315
37	0xbe1c034f	-0.15235637
38	0xbd86fcda	-0.06591196
39	0xbd93a1f2	-0.07208623
40	0x3c13f716	0.009031078
41	0x3e3d4245	0.18482311
42	0xbdda2a0e	-0.106525525
43	0xbe700b1f	-0.23441742
44	0xbe9432e0	-0.28945065
45	0x3e57f4ed	0.21089526
46	0xbdb23c4a	-0.087029055
47	0x3df13c4b	0.11779078
48	0xbe8e9e02	-0.27854925
49	0xbe4aa228	-0.1978842
50	0xbe18b84e	-0.14914057
51	0x3ddba51d	0.10724852
52	0xbe816055	-0.25268808
53	0x3e2d21dc	0.16907448
54	0x3d30f86c	0.043205664
55	0x3de2fe67	0.1108368
56	0xbe5ba067	-0.21447907
57	0xbe325b6e	-0.1741769
58	0x3e84ced0	0.25939035
59	0x3d1bd1c6	0.038041852
60	0xbed64a48	-0.41853547
61	0x3ea396ca	0.3195098
62	0xbcd8cbc8	-0.026464358
63	0x3d97f1cb	0.07419165
64	0xbdeea14a	-0.11651857
65	0x3dad0725	0.08448628
66	0x3e44c4fe	0.19215772
67	0x3e81f0a6	0.25378913
68	0xbe001e9d	-0.12511678
69	0xbd9c3628	-0.07627517
70	0x3e4f376a	0.20235983
71	0xbc447358	-0.011990391
72	0x3ec63307	0.38710806
73	0x3c21b7d6	0.00987049
74	0xbe1daee6	-0.1539875
75	0x3e64a0db	0.22326986
76	0xbe61bfaa	-0.2204577
77	0x3f285553	0.65755194
78	0xbde24072	-0.11047448
79	0x3de18696	0.11011998
80	0xbe0b02d4	-0.13575298
81	0x3bb160dd	0.0054131583
82	0xbe2dd5f0	-0.16976142
83	0xbda802a1	-0.082036264
84	0x3e36ac87	0.17839251
85	0x3d7f1cfb	0.062283497
86	0xbe9143a6	-0.28371924
87	0xbd54fc55	-0.051998455
88	0x3d95c614	0.07313171
89	0xbe48a6c1	-0.19594862
90	0x3e06d1a3	0.13165908
91	0x3c433026	0.011913335
92	0xbe9e271a	-0.30889207
93	0x3e9b399b	0.30317387
94	0xbe6f7c85	-0.23387344
95	0xbdb230d6	-0.08700721
96	0xbe60183d	-0.21884246
97	0x3e83ecf8	0.2576673
98	0x3e7d875a	0.24758664
99	0x3d46a5d6	0.048497997
100	0x3e72d5de	0.23714396
101	0x3dd7f5c0	0.1054492
102	0x3daae394	0.08344188
103	0x3d8a918f	0.06766044
104	0xbe21ccea	-0.15800825
105	0xbe3edacc	-0.18638152
106	0x3e5b2bb0	0.21403384
107	0xbdd3b250	-0.10336745
108	0xbe8aea38	-0.2713182
109	0x3e9fd304	0.3121568
110	0x3e7e2092	0.24817112
111	0xbe84b250	-0.25917292
112	0xbeb6e02a	-0.357179
113	0x3ddf47f4	0.10902396
114	0x3e950711	0.29106954
115	0x3e18a531	0.14906766
116	0xbbf32a2d	-0.007420799
117	0xbd81437f	-0.06311702
118	0x3e8dd342	0.2770024
119	0xbdfb17e2	-0.12260415
120	0x3e530f7b	0.20611374
121	0xbea4704d	-0.3211693
122	0xbe671b19	-0.2256893
123	0xbe6f02ad	-0.23340864
124	0xbddb6ac9	-0.10713727
125	0xbd076231	-0.033052627
126	0xbe30ce24	-0.17266136
127	0xbcf84a4e	-0.030308869
128	0xbdc32340	-0.09528208
129	0x3db3bd39	0.08776326
130	0x3e4d3513	0.20039777
131	0xbe98dea5	-0.29857364
132	0x3d05413d	0.03253292
133	0x3e713f2f	0.23559259
134	0x3e2bbca7	0.16771184
135	0x3e283df4	0.16429883
136	0x3e3af5f3	0.18257885
137	0x3d406dfb	0.046979886
138	0x3d521345	0.051287908
139	0xbda7a819	-0.08186359
140	0xbf3f7adc	-0.74796844
141	0x3e958dfa	0.29209882
142	0x3e9bcc4c	0.30429304
143	0x3ded122c	0.11575732
144	0xbc96c34d	-0.018403674
145	0xbe851c72	-0.25998265
146	0x3e9b379f	0.30315873
147	0x3e6293ee	0.22126743
148	0x3e816cb6	0.25278252
149	0xbe006e6b	-0.12542121
150	0xbd3203fc	-0.04346083
151	0x3e415252	0.18879059
152	0x3eb84487	0.35989782
153	0xbe4c51f0	-0.19953132
154	0xbe19b322	-0.1500974
155	0x3ba86036	0.0051384224
156	0x3e4ad7c9	0.19808878
157	0x3f05cb95	0.52263767
158	0x3e1fc3de	0.15602061
159	0x3e43125f	0.19049977
160	0x3e018b37	0.12650762
161	0x3e88e91c	0.26740348
162	0xbc94bb07	-0.018155588
163	0x3e074e6b	0.13213508
164	0x3e551720	0.20809603
165	0xbe832d7d	-0.25620642
166	0xbb500c95	-0.003174578
167	0x3e07781e	0.13229415
168	0xbdd56a51	-0.10420669
169	0xbe0bd469	-0.13655247
170	0xbdaa6c41	-0.08321429
171	0x3ce5b45d	0.028040105
172	0xbedea193	-0.43482646
173	0xbdb0f84a	-0.086411074
174	0x3e439e6e	0.19103405
175	0x3bdcceaa	0.0067385035
176	0x3e51bd93	0.20482473
177	0x3e24f80f	0.16110252
178	0x3d847240	0.06467104
179	0x3dc370f6	0.0954303
180	0xbef0840f	-0.46975753
181	0x3e2dc8a5	0.16971071
182	0xbe0ebcfe	-0.13939282
183	0xbdd406c1	-0.10352851
184	0x3e1eb66e	0.15499279
185	0xbe32f861	-0.17477562
186	0xbda89ab9	-0.08232636
187	0x3df8176c	0.12113842
188	0xbea00932	-0.31257015
189	0x3dc5ebbe	0.09664105
190	0xbeab5865	-0.33465877
191	0xbd3af8c8	-0.045647413
192	0xbc7c05fd	-0.015382287
193	0xbebcd75f	-0.36883065
194	0xbeb69eab	-0.3566793
195	0x3e5ae7fb	0.21377556
196	0xbda9ffb9	-0.08300728
197	0x3d6e0dbb	0.058118563
198	0x3c001c75	0.007819285
199	0xbe51fa89	-0.20505728
200	0x3e9d7d9a	0.3075989
201	0xbe153b29	-0.14573349
202	0x3c3caf0a	0.011516342
203	0x3cdd4599	0.027010726
204	0x3e9027b3	0.28155288
205	0xbdc15d30	-0.09441602
206	0x3d743bb8	0.059627265
207	0x3ca86b38	0.020558938
208	0x3d553322	0.052050717
209	0x3c253ad1	0.010084824
210	0xbe1c93f4	-0.15290815
211	0x3e5a3e4e	0.2131283
212	0xbec99e90	-0.39378786
213	0xbdc7466f	-0.09730231
214	0x3d9714de	0.07377027
215	0x3e0f4629	0.13991608
216	0xbc8598b1	-0.01630816
217	0x3e4fd0a0	0.20294428
218	0x3d5687f3	0.052375745
219	0xbb23682e	-0.0024933922
220	0xbc7b9b01	-0.01535678
221	0x3d786867	0.06064644
222	0xbe57f4bb	-0.21089451
223	0x3d866ffb	0.06564327
224	0xbdda465f	-0.106579535
225	0x3c64bd04	0.01396108
226	0xbe24dd5e	-0.1610007
227	0x3e2aee2f	0.16692422
228	0x3e627cc4	0.22117907
229	0xbe94c109	-0.29053524
230	0x3e98ddad	0.29856625
231	0x3de109b6	0.1098818
232	0xbeb9a172	-0.36255985
233	0x3e76018e	0.2402403
234	0xbe6922b8	-0.2276715
235	0x3e21dc6f	0.15806745
236	0xbe5d5338	-0.21613777
237	0x3e29d273	0.16584186
238	0x3ea63b2b	0.32467017
239	0x3e5114f2	0.20418146
240	0xbe561c64	-0.20909268
241	0xbe060399	-0.1308731
242	0x3e433ea8	0.1906687
243	0xbdeb06e2	-0.11475922
244	0xbd81b00b	-0.06332406
245	0xbed0e450	-0.4079919
246	0x3dc6196c	0.096728176
247	0xbc33b0dc	-0.0109674595
248	0xbcd132ee	-0.02553698
249	0xbe552ac9	-0.20817102
250	0x3c51bb14	0.012800951
251	0x3ed0aeb9	0.40758303
252	0xbefc4611	-0.49272206
253	0xbf158c32	-0.58417046
254	0xbe91d101	-0.2847977
255	0xbe56a21e	-0.2096028

embedder.emb_rnn.weight_hh_l1 f4 [60, 20]
0	0xbc99b9af	-0.018765299
1	0xbe6fb0b6	-0.23407254
2	0x3d2b1aad	0.041773487
3	0x3e029544	0.12752253
4	0x3e91c3f3	0.2846981
5	0x3bf9cfe5	0.00762366
6	0xbe0af161	-0.13568641
7	0x3e3353a6	0.17512378
8	0x3b03f279	0.0020133539
9	0xbdc948a9	-0.09828312
10	0x3ea2342a	0.31680423
11	0x3e6d4c77	0.231737
12	0x3dfaa8b6	0.1223921
13	0x3e6b3ae7	0.22971688
14	0x3e6d1009	0.23150648
15	0x3e7c35c7	0.2462989
16	0xbe2ef145	-0.17084225
17	0x3e753259	0.23944987
18	0xbb58ff87	-0.003311129
19	0x3e315035	0.17315753
20	0x3e9af824	0.3026744
21	0xbeaf533f	-0.342432
22	0x3ec28570	0.3799243
23	0x3ed0bcbb	0.4076899
24	0x3e6fbdeb	0.23412292
25	0x3c23433c	0.00996476
26	0xbe7e65f0	-0.24843574
27	0x3df68e0a	0.120388106
28	0xbd889d2a	-0.06670602
29	0xbdf9ee31	-0.122036345
30	0x3e843780	0.25823593
31	0x3d6cd602	0.05782128
32	0x3d12ce60	0.035841346
33	0x3e7e0d4d	0.24809761
34	0x3d6639fe	0.05620765
35	0xbe105edf	-0.1409869
36	0xbe38c78b	-0.1804487
37	0x3b4e204f	0.0031452363
38	0xbd681237	-0.056657996
39	0x3e6870a4	0.22699219
40	0x3e604f0a	0.21905151
41	0x3e3327dc	0.17495674
42	0xbbdb4d97	-0.006692599
43	0xbe8f4b9c	-0.27987373
44	0xbdcaffc8	-0.09912068
45	0x3cf4d822	0.029888216
46	0xbd4e085e	-0.05030095
47	0x3d7091ac	0.058732674
48	0x3eafa440	0.34305
49	0x3e02885a	0.12747326
50	0xbcd16f31	-0.025565716
51	0xbde3a2c1	-0.11115027
52	0xbde5adb3	-0.11214771
53	0x3d1279c5	0.03576066
54	0xbe748bb9	-0.23881425
55	0xbe09fbdf	-0.13474987
56	0xbe6b95af	-0.23006319
57	0x3e502da3	0.20329909
58	0xbd8d8578	-0.06910223
59	0xbde6f2c1	-0.112767704
60	0x3e1b8561	0.15187599
61	0xbe4dafc3	-0.20086579
62	0x3df8ebd3	0.12154355
63	0xbbaf59c6	-0.005351278
64	0xbd8de9b9	-0.06929345
65	0xbde2787d	-0.110581376
66	0x3d9304ff	0.07178687
67	0x3b74e40d	0.0037367374
68	0x3e1dc22a	0.15406099
69	0xbea2371d	-0.31682673
70	0x3e26436f	0.16236661
71	0xbe271b4c	-0.16319007
72	0xbe7ddf7f	-0.24792288
73	0xbeb59c00	-0.3547058
74	0xbdc5b270	-0.09653175
75	0xbc5418d3	-0.012945372
76	0xbbed0d32	-0.007234239
77	0x3ccc9896	0.024975102
78	0x3e4715c2	0.19441894
79	0xbd36ec97	-0.044659223
80	0xbe80159b	-0.25016484
81	0x3da013f7	0.07816308
82	0xbebc2178	-0.36744285
83	0x3b9edc41	0.0048480337
84	0xbeb65c52	-0.3561731
85	0xbe2b1aa1	-0.16709377
86	0xbd7d1a1d	-0.06179248
87	0xbd4112d4	-0.047137097
88	0xbc0f39bd	-0.008741793
89	0xbdbd2ac2	-0.09236671
90	0xbeb39c4e	-0.3508019
91	0x3e529e8f	0.20568298
92	0x3e55a726	0.20864543
93	0xbe88014a	-0.26563483
94	0x3e09acbe	0.13444802
95	0x3e457da5	0.19286211
96	0xbd9f559c	-0.077800006
97	0xbdf53d39	-0.11974568
98	0xbe7f96b2	-0.2495983
99	0x3c7384fb	0.014863248
100	0xbe3ad954	-0.18246967
101	0x3e32d639	0.17464532
102	0x3e2c8278	0.16846645
103	0xbcd82566	-0.02638502
104	0xbc8e8634	-0.017397977
105	0x3dd09865	0.10185317
106	0x3e1fb490	0.15596223
107	0x3b931030	0.0044880137
108	0x3b0ed8bd	0.0021796667
109	0x3a2c8f34	0.0006582618
110	0x3d0dec08	0.034648925
111	0x3d2d8e1e	0.04237186
112	0x3e512252	0.20423248
113	0xbc967799	-0.018367575
114	0xbec54880	-0.38531876
115	0x3cf292a4	0.02961094
116	0xbe8ea947	-0.27863523
117	0x3e1b23ae	0.1515033
118	0xbe9e08b1	-0.30866006
119	0xbe1f2e7f	-0.1554508
120	0x3e378ece	0.1792557
121	0x3e2e25f3	0.17006664
122	0x3e80e997	0.25178215
123	0xbe8ff210	-0.28114367
124	0xbd8200e6	-0.063478276
125	0x3e0bffc2	0.13671783
126	0xbd66bed3	-0.056334328
127	0x3e24edc2	0.16106322
128	0x3e90eaaf	0.2830405
129	0x3eaba5cc	0.3352493
130	0x3e6eef61	0.23333503
131	0xbe4516f6	-0.1924704
132	0xbc0cad5e	-0.008586256
133	0x3e03d637	0.12874685
134	0xbe8edc51	-0.27902463
135	0x3e24adfc	0.16081995
136	0xbdf6a1a8	-0.12042552
137	0x3dd6473b	0.10462805
138	0xbe1e7c06	-0.15476999
139	0xbe8e6adc	-0.27815902
140	0xbe0eb771	-0.13937165
141	0x3e0ea8f4	0.13931638
142	0xbe563fcf	-0.20922779
143	0x3d7f0f84	0.062270656
144	0xbe3a66af	-0.18203233
145	0x3eb57280	0.3543892
146	0x3e8e1d7c	0.2775687
147	0x3ea219f0	0.31660414
148	0xbe8aaf8f	-0.27087066
149	0x3d1d2662	0.038366683
150	0xbd84b78b	-0.064803205
151	0x3df0a320	0.117498636
152	0x3e51d767	0.20492326
153	0x3e76c227	0.240975
154	0x3f0e7d9d	0.5566042
155	0xbcbb01d0	-0.022828013
156	0x3d835d07	0.06414228
157	0x3deb259d	0.114817835
158	0x3e9bbda4	0.30418122
159	0xbdb467d7	-0.088088684
160	0xbebdfa04	-0.3710481
161	0xbe1eace1	-0.15495636
162	0xbeab7804	-0.33490002
163	0xbdedb764	-0.116072446
164	0x3dc06197	0.09393614
165	0xbd95d49d	-0.073159434
166	0x3da57fdc	0.08081028
167	0x3db6a3a0	0.08917928
168	0xbe1a3eab	-0.15062968
169	0xbc13457d	-0.008988735
170	0xbd5b2cd1	-0.053509537
171	0x3e808309	0.25099972
172	0x3d297878	0.041374654
173	0x3e99d893	0.30048046
174	0x3e8746cf	0.2642121
175	0x3d19d5b4	0.03755732
176	0xbeada3f1	-0.3391414
177	0xbe0722c8	-0.13196862
178	0x3e7098e8	0.23495829
179	0x3e8332dc	0.2562474
180	0xbdd7e6e4	-0.10542086
181	0x3ca0a0b1	0.019607874
182	0xbe75d335	-0.2400635
183	0x3de6eb16	0.11275308
184	0x3e7b16d3	0.24520425
185	0xbe2454fd	-0.16048045
186	0x3d831bce	0.06401788
187	0xbea79ba9	-0.32735947
188	0x3e6f6848	0.23379624
189	0xbe6e5e25	-0.23278101
190	0xbe38aec6	-0.18035421
191	0xbca170d7	-0.019707127
192	0x3eaea5a4	0.3411075
193	0xbe7eadc1	-0.2487097
194	0xbeb5fdf8	-0.35545325
195	0xbd0ee35e	-0.034884803
196	0x3c960603	0.018313413
197	0xbda16e55	-0.07882372
198	0x3e614c88	0.2200185
199	0xbc8f2af9	-0.017476546
200	0xbe432311	-0.19056346
201	0xbd99fb42	-0.07518627
202	0xbe8bf107	-0.27332327
203	0xbd853975	-0.065051
204	0x3e778c73	0.24174671
205	0x3ddb32a3	0.107030176
206	0x3e3e3e08	0.1857835
207	0xbdf0c8ef	-0.11757075
208	0x3cdb727a	0.026787985
209	0xbe8838fe	-0.26605982
210	0xbddb8575	-0.10718814
211	0xbe35b549	-0.17744936
212	0x3e3709b9	0.17874803
213	0xbe1b0bae	-0.15141174
214	0x3efddf29	0.4958432
215	0xbd993619	-0.074810214
216	0x3d243e73	0.04009862
217	0xbe6c6dee	-0.2308881
218	0x3e554643	0.20827584
219	0xbe2c916d	-0.1685235
220	0xbdeaf99a	-0.11473389
221	0x3e88bda7	0.26707193
222	0xbe363619	-0.17794074
223	0x3e28d8f4	0.16489011
224	0xbd8cca16	-0.06874482
225	0xbc7502b4	-0.014954258
226	0xbdea1a27	-0.114307694
227	0x3e179812	0.14804104
228	0x3e94714e	0.28992695
229	0x3e5d5132	0.21613005
230	0x3e133342	0.14375022
231	0x3e7434c2	0.2384825
232	0x3e9a8043	0.3017598
233	0x3e87eef6	0.265495
234	0xbd2def33	-0.042464446
235	0x3e2b4da0	0.1672883
236	0xbe9dff3d	-0.30858794
237	0xbe44a97f	-0.19205283
238	0x3e82b911	0.2553182
239	0x3bcfdae7	0.006343234
240	0xbe3b77aa	-0.18307367
241	0x3ea4e0a0	0.32202625
242	0x3a0608c7	0.0005113002
243	0x3e2e409f	0.17016838
244	0x3e411fd8	0.18859804
245	0x3d4287a9	0.047492657
246	0xbdc2b7ed	-0.09507737
247	0xbcc184d3	-0.023622906
248	0x3cdd5248	0.027016774
249	0xbd873ae2	-0.06603028
250	0xbe2f2652	-0.17104462
251	0xbd492dab	-0.049115818
252	0x3e5ba226	0.21448573
253	0xbe21dc7a	-0.15806761
254	0xbe49220a	-0.19641891
255	0x3e6e3a79	0.23264493

embedder.emb_rnn.bias_ih_l1 f4 [60]
0	0x3f84a9cd	1.0364319
1	0x3f88eb44	1.0696797
2	0x3f7123ba	0.9419514
3	0x3f849867	1.035901
4	0x3f6f5320	0.93486214
5	0x3f7cebf3	0.9879753
6	0x3f8592de	1.0435445
7	0x3f8eca85	1.1155554
8	0x3f8bb865	1.0915648
9	0x3f6c0636	0.9219698
10	0x3f8b5c2d	1.0887505
11	0x3f858ad0	1.0432987
12	0x3f8099f9	1.0046989
13	0x3f8561c9	1.0420467
14	0x3f813508	1.0094309
15	0x3f833be6	1.0252655
16	0x3f831e3f	1.0243605
17	0x3f9241cd	1.1426331
18	0x3f874455	1.0567728
19	0x3f7e33d3	0.9929783
20	0x3f8d57d8	1.1042433
21	0x3eff727d	0.49892035
22	0x3f32c94f	0.6983842
23	0x3ee0f3f8	0.43936133
24	0x3f30af17	0.69017166
25	0x3f185d83	0.5951769
26	0x3ecfd3fb	0.40591416
27	0x3f1ac0b6	0.60450304
28	0x3efef945	0.49799553
29	0x3f255257	0.64578766
30	0x3ee52f35	0.4476258
31	0x3ec26fbb	0.3797587
32	0x3ea4bd4d	0.32175675
33	0x3f7a7637	0.9783663
34	0x3f09132b	0.53544873
35	0x3f47c924	0.7804129
36	0x3efe5f18	0.49681926
37	0x3ebb6f6a	0.3660844
38	0x3f22dd61	0.6361905
39	0x3f5d48ab	0.8643901
40	0x3f84bfd7	1.0371045
41	0x3f65750a	0.8963171
42	0x3f840ac2	1.0315783
43	0x3f859219	1.043521
44	0x3f77dc9a	0.96820986
45	0x3f7bcc06	0.9835819
46	0x3f3b720b	0.7322089
47	0x3f6d7f0c	0.92771983
48	0x3f6472fd	0.8923796
49	0x3f7294c9	0.9475828
50	0x3f5962b7	0.8491625
51	0x3f739690	0.95151615
52	0x3f5a9310	0.8538065
53	0x3f881f33	1.0634521
54	0x3f6a069e	0.9141635
55	0x3f8b7c47	1.0897301
56	0x3f75d92d	0.9603451
57	0x3f80f1d9	1.0073806
58	0x3f725e92	0.9467555
59	0x3f7d3522	0.989092

embedder.emb_rnn.bias_hh_l1 f4 [60]
0	0x3d153a2a	0.036432423
1	0x3d8eb4a0	0.06968045
2	0xbd6dc517	-0.058049288
3	0x3d130c1a	0.035900213
4	0xbd8567a9	-0.06513912
5	0xbc44fdf5	-0.012023439
6	0x3d325b12	0.043543883
7	0x3deca70e	0.11555301
8	0x3dbb8642	0.09156467
9	0xbd9fce7e	-0.07803057
10	0x3db5c2fd	0.08875082
11	0x3d315901	0.04329777
12	0x3b99fa95	0.004699061
13	0x3d2c389c	0.042046174
14	0x3c1a8393	0.009430784
15	0x3ccef84d	0.025264883
16	0x3cc78b7f	0.02435851
17	0x3e120eb9	0.14263429
18	0x3d688c2b	0.0567743
19	0xbbe61985	-0.007022085
20	0x3dd57df5	0.10424415
21	0xbf0046c1	-0.5010796
22	0xbe9a6d33	-0.30161437
23	0xbf0f85e6	-0.5606369
24	0xbe9ea1d3	-0.30982837
25	0xbecf451f	-0.40482423
26	0xbf1815fb	-0.5940854
27	0xbeca7ec1	-0.3954983
28	0xbf00835c	-0.5020044
29	0xbeb55b7b	-0.35421357
30	0xbf0d6863	-0.55237406
31	0xbf1ec834	-0.62024236
32	0xbf2da147	-0.67824215
33	0xbcb13b3b	-0.021634689
34	0xbeedd9ab	-0.4645513
35	0xbe60db78	-0.2195872
36	0xbf00d077	-0.5031809
37	0xbf224841	-0.633915
38	0xbeba4578	-0.36381125
39	0xbe0add5b	-0.13561003
40	0x3d1b145d	0.037861217
41	0xbdb04082	-0.08606054
42	0x3bde0e7d	0.0067766295
43	0x3d36496f	0.044503625
44	0xbce28c97	-0.02765493
45	0xbcaee3c0	-0.021348834
46	0xbeb6c706	-0.35698718
47	0xbda59013	-0.080841206
48	0xbde9a028	-0.114075005
49	0xbded8ca7	-0.11599093
50	0xbe794a5a	-0.24344769
51	0xbd6d25a8	-0.05789724
52	0xbe8c9fb4	-0.27465594
53	0x3d08fe73	0.033445787
54	0xbd868fcc	-0.06570396
55	0x3dc15e0a	0.09441765
56	0xbc619ffb	-0.0137710525
57	0x3c2de84b	0.010614465
58	0xbd8f9997	-0.07011717
59	0xbc8e89b1	-0.01739964

embedder.emb_rnn.weight_ih_l2 f4 [60, 20]
0	0xbe8f02e9	-0.27931908
1	0xbe5cd348	-0.21564972
2	0xbdba8b8e	-0.09108649
3	0x3d68eb46	0.056865
4	0x3d50cb00	0.050974846
5	0x3ce219ab	0.02760013
6	0xbe3f46c2	-0.18679336
7	0x3d4e00ac	0.05029361
8	0xbe37db37	-0.17954718
9	0xbe4992be	-0.19684884
10	0x3ee5ad5d	0.44858828
11	0x3c9d4113	0.019196069
12	0xbe4980da	-0.19678059
13	0xbe2afeee	-0.1669881
14	0x3ead1a41	0.33809093
15	0x3e11f5f9	0.14253987
16	0xbc57a50c	-0.013161909
17	0x3e12fe0e	0.14354727
18	0x3e0c8085	0.13720901
19	0x3c785b5c	0.0151585005
20	0x3e05306a	0.1300675
21	0x3d7b760e	0.061391883
22	0x3e073d27	0.13206922
23	0xbe4271dc	-0.18988746
24	0xbbe816f4	-0.0070828144
25	0x3e2a0863	0.16604762
26	0x3e523437	0.20527731
27	0xbe3576af	-0.17721055
28	0x3d9ddb69	0.07707865
29	0xbd813c77	-0.06310361
30	0xbea5ba55	-0.32368723
31	0x3d76bf65	0.06024112
32	0xbe3dee83	-0.18548016
33	0xbd1ed424	-0.03877653
34	0xbe8fd52f	-0.28092334
35	0x3e80bac4	0.2514249
36	0x3e148dd9	0.14507236
37	0xbd87d02b	-0.06631502
38	0xbc933e16	-0.01797394
39	0x3d207fb7	0.0391843
40	0x3d0da1ed	0.034578253
41	0xbccaca8e	-0.024754789
42	0xbe231d33	-0.15929107
43	0xbdf66377	-0.1203069
44	0xbd1a6490	-0.03769356
45	0xbe2800c7	-0.16406547
46	0x3e8ddb8e	0.2770657
47	0x3e802da1	0.25034812
48	0x3e787079	0.24261655
49	0xbe117e5b	-0.14208357
50	0x3eb61e9e	0.35570234
51	0x3e202c32	0.15641859
52	0xbc73cda5	-0.014880572
53	0x3ce43bb5	0.027860502
54	0x3e9de74b	0.30840525
55	0x3e8dc074	0.27685893
56	0xbe4a33da	-0.19746342
57	0xbdac0e6b	-0.084011875
58	0xbe796608	-0.24355328
59	0xbe8a09d3	-0.2696062
60	0xbd0412ee	-0.032244615
61	0xbd784403	-0.060611736
62	0xbdf92c2b	-0.121666275
63	0x3e290047	0.16504012
64	0x3e31f13f	0.17377184
65	0xbe56d9b7	-0.20981489
66	0x3ea2c602	0.31791693
67	0x3c72b715	0.014814158
68	0x3ec350ce	0.38147587
69	0xbebf6e6f	-0.37388942
70	0xbeecd8d0	-0.46259165
71	0x3e0ef48a	0.13960472
72	0x3e5f6752	0.21816757
73	0x3e05f3e5	0.1308132
74	0xbe616720	-0.22011995
75	0xbec855b3	-0.39127883
76	0xbea6b597	-0.32560417
77	0xbe744b3c	-0.23856825
78	0xbdccafdc	-0.0999448
79	0xbdecfb23	-0.11571338
80	0x3e506f15	0.20354874
81	0xbdc1f4c7	-0.09470516
82	0xbe80b27b	-0.2513617
83	0x3e1fc71f	0.15603302
84	0x3e0db362	0.1383796
85	0xbe170d6f	-0.14751218
86	0x3e84e226	0.25953788
87	0xbcfb7461	-0.030695142
88	0xbdd26c8b	-0.10274609
89	0x3edff343	0.4374028
90	0x3d796a7d	0.06089257
91	0x3ea4ef1a	0.3221367
92	0x3d43f416	0.0478402
93	0x3d15958f	0.036519583
94	0x3db98428	0.0905841
95	0x3e6d7972	0.23190859
96	0x3d87c47c	0.06629273
97	0xbe35b711	-0.17745616
98	0x3e1b0118	0.15137136
99	0xbe3b74e5	-0.1830631
100	0x3e1afc9a	0.15135422
101	0x3db4a994	0.08821407
102	0x3e85ca96	0.26131123
103	0xbd17bbcd	-0.037044335
104	0x3d5bae38	0.053632945
105	0x3dbbb7bc	0.09165904
106	0xbe9b33ef	-0.3031306
107	0xbcf58a22	-0.029973093
108	0xbdb25f0d	-0.08709536
109	0xbcd9b6ab	-0.02657636
110	0xbe1c3e9b	-0.15258257
111	0xbc80ebb3	-0.01573739
112	0xbeb8cf24	-0.36095536
113	0xbd961a6c	-0.07329258
114	0xbda87e19	-0.08227176
115	0xbdc03eef	-0.09387004
116	0x3eb9211f	0.36158082
117	0xbd92d0f6	-0.071687624
118	0x3e0f0763	0.13967662
119	0x3e124221	0.14283039
120	0x3e8d9beb	0.27658018
121	0xbd789306	-0.060687087
122	0xbe7ba5cb	-0.24574964
123	0xbe0bb904	-0.13644797
124	0x3e6963ef	0.22792028
125	0x3e47b6f4	0.19503385
126	0xbe518c2e	-0.2046363
127	0x3e752098	0.23938215
128	0x3e07a299	0.1324562
129	0x3eb03e84	0.34422696
130	0xbc65d963	-0.01402888
131	0xbe2dd575	-0.16975959
132	0xbe37c44f	-0.1794598
133	0xbe2fb2d2	-0.17158058
134	0x3e311331	0.17292477
135	0x3d935af9	0.07195086
136	0xbe8e9815	-0.27850404
137	0xbdd6de3d	-0.10491607
138	0xbe0d7c40	-0.13816929
139	0x3dbc2cdd	0.091882445
140	0xbc79a349	-0.015236684
141	0x3e55b400	0.20869446
142	0x3dc51e6a	0.09624942
143	0x3d6420cd	0.055695344
144	0x3dc8038e	0.09766303
145	0x3db089e8	0.086200535
146	0xbd5da592	-0.05411298
147	0xbeb5d0a6	-0.3551075
148	0xbe48db9a	-0.19615021
149	0xbe4a3ac8	-0.19748986
150	0xbe6cdda9	-0.23131432
151	0xbe346669	-0.17617191
152	0xbe912685	-0.283497
153	0x3de3d8e7	0.11125355
154	0x3e0791e9	0.13239254
155	0xbe861f8a	-0.26195937
156	0x3e80349b	0.25040135
157	0x3cfca730	0.03084144
158	0x39bd83ae	0.00036146998
159	0xbea7d5ea	-0.3278039
160	0xbdc3ac5c	-0.09554359
161	0x3e294ad8	0.16532457
162	0xbcb9e33f	-0.022691367
163	0xbdbb6d62	-0.091517225
164	0xbe136902	-0.14395526
165	0xbccc8302	-0.024964813
166	0xbd9f3220	-0.077732325
167	0xbd7c87c5	-0.061652917
168	0x3e77b18b	0.24188821
169	0xbd0b63c8	-0.034030706
170	0x3bdaad31	0.006673478
171	0x3d152cc1	0.036419634
172	0xbed56f3d	-0.4168643
173	0x3d0574bc	0.03258203
174	0xbe222105	-0.15832908
175	0x3d4bff70	0.04980415
176	0x3e2d1cf2	0.16905573
177	0x3d49c526	0.04926028
178	0x3dbceb49	0.092245646
179	0x3e2c6d39	0.1683854
180	0x3da3ab1e	0.079916224
181	0x3e92c0ee	0.2866282
182	0xbe66cfa1	-0.22540142
183	0xbca39d38	-0.019972429
184	0x3d21fc0a	0.039547004
185	0x3e039ba2	0.12852338
186	0x3e0c9d59	0.13731898
187	0x3e9a170e	0.30095714
188	0x3e7a9b4e	0.24473307
189	0xbdce08e4	-0.100602895
190	0x3d7946a2	0.060858376
191	0xbd6d2f9c	-0.057906732
192	0x3e855431	0.26040795
193	0xbd553168	-0.05204907
194	0x3dddac79	0.10823912
195	0xbe5a1dfc	-0.213005
196	0xbe058251	-0.13037993
197	0xbd9272bf	-0.07150792
198	0xbe41959c	-0.18904728
199	0xbe58adb3	-0.21160011
200	0x3e865b43	0.26241502
201	0x3ecfc08f	0.40576598
202	0x3e2a594a	0.16635624
203	0xbe6bdc5b	-0.23033278
204	0xbe737a92	-0.23777226
205	0x3e41967c	0.18905061
206	0xbe74c929	-0.23904862
207	0x3c81d330	0.015847772
208	0xbc8ee5c3	-0.017443543
209	0x3eb2709f	0.34851548
210	0xbc0723b3	-0.008248257
211	0x3daf00a0	0.08545041
212	0x3e943850	0.28949213
213	0xbdd26a00	-0.10274124
214	0xbefbf40a	-0.49209625
215	0xbe3cbee5	-0.18432195
216	0x3e583b5e	0.21116397
217	0xbe5979c4	-0.21237856
218	0xbdc02236	-0.09381525
219	0x3df8eca9	0.12154514
220	0xbda1e811	-0.07905591
221	0xbe42af25	-0.19012125
222	0x3df61201	0.12015153
223	0x3e3db1df	0.18524884
224	0x3e8fcb78	0.28084922
225	0x3e48fdd0	0.19628072
226	0xbd3cae3e	-0.046064608
227	0xbea68076	-0.32519883
228	0x3e3cc6f9	0.18435277
229	0xbeb67fd1	-0.3564439
230	0x3c65bb34	0.0140216835
231	0xbbe96426	-0.0071225343
232	0x3e9a16bf	0.3009548
233	0x3e19b42e	0.1501014
234	0x3e975cc9	0.29562977
235	0xbdc5a7b3	-0.09651127
236	0xbd4aa5d0	-0.049474537
237	0x3dedd841	0.11613513
238	0x3e2dc703	0.16970448
239	0xbe2adf48	-0.16686738
240	0xbe2bb2ca	-0.16767421
241	0x3e9b96c5	0.30388466
242	0xbe76797d	-0.24069782
243	0xbe99ff2e	-0.300775
244	0x3e06e2c1	0.13172437
245	0x3c71a8d0	0.014749721
246	0xbe8bd2ab	-0.27309164
247	0xbe6c0a6c	-0.2305085
248	0x3dd37f6f	0.103270404
249	0x3e9133ae	0.2835974
250	0xbe036a6d	-0.12833567
251	0xbc7157e3	-0.0147304265
252	0xbdccaa14	-0.09993377
253	0x3e2a852c	0.16652364
254	0xbe8d7b11	-0.27632955
255	0xbdd30d0b	-0.10305222

embedder.emb_rnn.weight_hh_l2 f4 [60, 20]
0	0x3cf22af4	0.029561497
1	0xbbb13afd	-0.0054086433
2	0xbdf2cae0	-0.118551016
3	0x3e082e4f	0.13298915
4	0x3e0649e9	0.13114132
5	0x3e319831	0.17343213
6	0xbdabb2e6	-0.083837315
7	0xbda4ea59	-0.08052511
8	0x3b3a4fb2	0.002842885
9	0xbe2137ad	-0.15743895
10	0x3ea3e8a3	0.32013425
11	0xbd44a9cf	-0.048013505
12	0x3a072f83	0.0005156921
13	0xbebe1188	-0.3712275
14	0xbe224682	-0.15847209
15	0x3d8dada0	0.06917882
16	0x3e4e3423	0.20137076
17	0xbbf99865	-0.007617044
18	0xbd23e938	-0.040017337
19	0x3ea5ac67	0.32358095
20	0x3da95bad	0.08269439
21	0xbe2ff93b	-0.17184918
22	0xbbf8edd5	-0.007596711
23	0x3e24a9a0	0.16080332
24	0xbe221ade	-0.15830562
25	0x3c1ba568	0.009499885
26	0xbe6116bb	-0.21981327
27	0xbde3e823	-0.11128261
28	0xbe8f9a09	-0.28047207
29	0xbd7846ff	-0.060614582
30	0x3cea1a86	0.0285771
31	0x3dfe8e74	0.124295145
32	0xbe5b7d34	-0.2143448
33	0xbe77cb18	-0.24198568
34	0x3c94b42e	0.018152323
35	0xbdc84e8b	-0.09780606
36	0x3e042cb9	0.12907685
37	0x3e09a9ff	0.13443755
38	0xbe2682a3	-0.16260771
39	0xbe064313	-0.13111524
40	0xbe703b72	-0.23460177
41	0x3e83668c	0.25664175
42	0xbd231759	-0.039817188
43	0x3ddd5bb3	0.10808506
44	0x3d0e078a	0.03467516
45	0xbe7a6240	-0.24451542
46	0x3e71b350	0.23603559
47	0xbe181a73	-0.1485384
48	0xbd760a58	-0.06006846
49	0x3b27672c	0.0025543673
50	0xbdb9bbf8	-0.09069055
51	0xbd528491	-0.051395956
52	0xbd7dec5d	-0.06199299
53	0x3e59b120	0.21258974
54	0xbe41c2e6	-0.18922004
55	0xbe195ae0	-0.14976072
56	0x3e1c88f2	0.15286615
57	0xbd4e9b99	-0.05044136
58	0xbdc89674	-0.09794322
59	0xbce2f5bb	-0.027705064
60	0xbdae36c3	-0.08506539
61	0xbe2da8a7	-0.16958867
62	0x3b6da1e6	0.003625983
63	0x3c1d4136	0.009598067
64	0xbe020bb1	-0.12699772
65	0x3e543f21	0.20727207
66	0xbdba56c9	-0.09098584
67	0x3d4319d4	0.047632053
68	0x3e5b8af5	0.21439727
69	0x3d0047aa	0.031318344
70	0xbed57896	-0.41693562
71	0xbe08a57a	-0.13344374
72	0x3e05aee4	0.13054997
73	0xbe0354a4	-0.12825257
74	0x3dfde333	0.123968504
75	0x3e881a83	0.26582727
76	0x3e08f6c2	0.1337538
77	0xbdb974a7	-0.09055453
78	0xbe40279e	-0.18765113
79	0xbec8202e	-0.3908705
80	0x3d637084	0.055527225
81	0xbec05723	-0.3756648
82	0xbc9de0c5	-0.019272218
83	0x3da10d97	0.0786392
84	0xbe1f97ca	-0.15585247
85	0xbe5fd3f5	-0.21858199
86	0x3e6a6955	0.22891743
87	0x3e2919ee	0.16513798
88	0xbd5b4109	-0.05352882
89	0x3dc3df64	0.09564093
90	0xbdb2f129	-0.08737404
91	0x3d93470a	0.07191284
92	0x3e9480b5	0.29004446
93	0xbe38388b	-0.1799032
94	0x3d9a6618	0.07539004
95	0xbd27bc3e	-0.040951006
96	0x3e1e06c1	0.15432264
97	0xbe881bea	-0.26583797
98	0x3e7f773a	0.24947825
99	0xbe5c0eed	-0.21490069
100	0xbe1867d3	-0.14883356
101	0xbe3f0452	-0.18653992
102	0xbdf7c38f	-0.12097847
103	0x3e245d64	0.1605125
104	0x3e193875	0.14962943
105	0x3d1de062	0.038544066
106	0x3e5ebc6b	0.21751563
107	0xbdaeb29a	-0.08530159
108	0xbd134867	-0.03595772
109	0x3e42af64	0.19012219
110	0x3e66268d	0.22475643
111	0x3d8722dc	0.06598446
112	0xbe914cc2	-0.28378874
113	0x3d015b6f	0.03158134
114	0x3df85cf7	0.12127107
115	0x3df46bee	0.119346485
116	0x3db47417	0.08811205
117	0xbe979a6a	-0.29609996
118	0x3e3404ae	0.1757991
119	0x3e5a70c5	0.2133208
120	0x3e284460	0.16432333
121	0xbe050924	-0.12991768
122	0x3e1b47b4	0.15164071
123	0x3e4ba8a7	0.19888555
124	0x3e4dc960	0.2009635
125	0x3e38c67d	0.18044467
126	0x3d8485d9	0.06470842
127	0xbe10e080	-0.1414814
128	0x3e9d0eba	0.30675298
129	0x3d6845ad	0.056707073
130	0xbd0d6fea	-0.034530558
131	0xbdcb63e6	-0.099311635
132	0xbe6d5b02	-0.23179248
133	0x3e82058e	0.25394863
134	0xbd9480d1	-0.07251132
135	0xbdeb185e	-0.11479257
136	0x3e88ad2e	0.26694626
137	0xbea44dd1	-0.3209062
138	0x3e3e32c3	0.18574052
139	0xbe7930d5	-0.24335034
140	0x3db88217	0.09009188
141	0x3e67954b	0.22615544
142	0xbe68a02e	-0.22717354
143	0x3e505b26	0.2034727
144	0xbdf65723	-0.12028339
145	0x3d26b292	0.04069764
146	0xbe86f4e2	-0.26358706
147	0xbe80fa7d	-0.25191107
148	0x3e18eb83	0.1493359
149	0xbe90d700	-0.28289032
150	0xbe92fa6f	-0.2870669
151	0xbec748c9	-0.38922718
152	0x39420f4e	0.00018506983
153	0xbe8fd7e5	-0.28094402
154	0x3dfd1cc0	0.12358999
155	0x3dfe26e1	0.12409759
156	0x3dd2bef7	0.1029033
157	0x3e2697a6	0.16268787
158	0xbe86e5ac	-0.263471
159	0xbca0b597	-0.019617839
160	0xbe2fd034	-0.17169267
161	0xbe201ef8	-0.15636814
162	0xbe86dc48	-0.26339936
163	0xbba803eb	-0.00512742
164	0x3e2583c9	0.16163553
165	0xbdbfda2f	-0.09367787
166	0x3e60f51f	0.21968506
167	0xbd033fb8	-0.03204319
168	0xbdace287	-0.08441644
169	0xbcdf1248	-0.027230397
170	0xbddcea19	-0.10786838
171	0xbe0e3926	-0.13888988
172	0xbe8aab11	-0.27083638
173	0xbe4373df	-0.1908717
174	0x3dba69e1	0.09102226
175	0xbe0815b7	-0.13289534
176	0xbe8af198	-0.27137446
177	0xbe889a6c	-0.26680315
178	0xbe519f96	-0.20471033
179	0xbd362762	-0.044471152
180	0x3dd3c53c	0.10340354
181	0xbe49aa02	-0.19693759
182	0xbe66c7ef	-0.22537206
183	0xbcef74b1	-0.029230447
184	0x3d854d87	0.06508928
185	0xbe2c4814	-0.1682437
186	0x3e10839a	0.14112702
187	0xbe54a473	-0.20765857
188	0xbdf0365f	-0.117291205
189	0x3dd41973	0.103564166
190	0xbde44601	-0.11146165
191	0xbd207cc7	-0.039181497
192	0x3e83cd9d	0.25742808
193	0x3d95b08c	0.07309064
194	0xbe7957de	-0.24349925
195	0x3e803c67	0.25046083
196	0xbe3570a2	-0.17718747
197	0xbc264dc3	-0.010150376
198	0x3e1a06df	0.15041684
199	0x3da83960	0.082140684
200	0xbd131047	-0.035904195
201	0xbcd747b5	-0.02627931
202	0xbe710f3e	-0.2354097
203	0x3d0637e0	0.03276813
204	0xbe2b2a09	-0.16715254
205	0x3d5a4092	0.053284235
206	0x3e609be5	0.21934469
207	0xbe755dba	-0.23961535
208	0xbe2fe42b	-0.17176883
209	0x3e9400af	0.28906772
210	0xbe2ef944	-0.17087275
211	0x3e11c057	0.14233528
212	0x3c2a1f1d	0.010383395
213	0xbd9e34a4	-0.07724884
214	0x3e52e535	0.20595248
215	0xbe9a0337	-0.30080578
216	0x3e28e463	0.16493373
217	0x3d116df2	0.035505243
218	0xbe073c71	-0.1320665
219	0x3e75167d	0.2393436
220	0x3e574d37	0.21025549
221	0xbdb64aeb	-0.08901008
222	0x3d360246	0.044435762
223	0xbdf53fd9	-0.119750686
224	0x3e76a472	0.24086168
225	0x3e020863	0.12698512
226	0xbae755e1	-0.0017649495
227	0xbe8cb2ad	-0.2748007
228	0x3dfc3f6b	0.123167835
229	0x3e88fd3a	0.26755697
230	0x3e1626fc	0.14663309
231	0xbe2b85c9	-0.16750254
232	0x3e64b540	0.22334766
233	0xbe1b32b2	-0.15156057
234	0xbe19b450	-0.1501019
235	0x3e22369f	0.15841149
236	0xbdf095fd	-0.11747358
237	0x3f2408c8	0.640759
238	0xbe09c9a7	-0.1345583
239	0x3e016473	0.12635975
240	0xbe86d5e3	-0.26335058
241	0x3d9f20d2	0.07769932
242	0x3e20b346	0.15693387
243	0x3dd0536b	0.10172161
244	0x3e2eeaa5	0.17081697
245	0xbd14302d	-0.036178757
246	0xbe64e96c	-0.22354668
247	0x3d1c64c9	0.038182054
248	0x3c4e0bb7	0.012576035
249	0xbe816ef8	-0.25279975
250	0xbddca69d	-0.107739665
251	0xbc23b781	-0.009992481
252	0xbe4165dc	-0.18886513
253	0x3e3be07a	0.1834735
254	0xbc97a364	-0.018510528
255	0xbcb22f93	-0.0217512

embedder.emb_rnn.bias_ih_l2 f4 [60]
0	0x3f84fbac	1.0389304
1	0x3f7b1973	0.9808571
2	0x3f83c30f	1.0293902
3	0x3f621e83	0.8832781
4	0x3f8ac702	1.0841982
5	0x3f782db5	0.96944743
6	0x3f8550ac	1.0415244
7	0x3f68520b	0.9075019
8	0x3f77b38d	0.9675835
9	0x3f81aba5	1.0130507
10	0x3f7b895c	0.9825647
11	0x3f81f240	1.0152054
12	0x3f743f62	0.95409214
13	0x3f86edce	1.0541322
14	0x3f8187e7	1.0119599
15	0x3f6708bc	0.902477
16	0x3f817bbd	1.0115887
17	0x3f82479d	1.0178105
18	0x3f7d597d	0.98964673
19	0x3f935806	1.1511238
20	0x3efbd052	0.49182373
21	0x3f363717	0.7117781
22	0x3f66a68c	0.9009788
23	0x3f15bac7	0.58488125
24	0x3f993497	1.1969174
25	0x3f14f1fa	0.58181727
26	0x3ee4740e	0.44619793
27	0x3f531c2f	0.8246488
28	0x3ecd9453	0.40152225
29	0x3f464b23	0.774584
30	0x3f4bc269	0.7959352
31	0x3eee30f8	0.46521735
32	0x3f984687	1.1896523
33	0x3f891411	1.0709249
34	0x3f34acb7	0.7057604
35	0x3f0ca396	0.5493711
36	0x3ee640a4	0.44971192
37	0x3f1f1051	0.6213427
38	0x3eee7850	0.46576166
39	0x3f2b2469	0.6685243
40	0x3f657798	0.8963561
41	0x3f6ea4e4	0.93220353
42	0x3f845b1a	1.0340302
43	0x3f5d9572	0.8655616
44	0x3f684fe3	0.907469
45	0x3f631ef8	0.8871913
46	0x3f8cb37b	1.0992273
47	0x3f876857	1.0578717
48	0x3f6d9712	0.9280864
49	0x3f74d063	0.9563047
50	0x3f7a22a6	0.9770912
51	0x3f800ef9	1.0004569
52	0x3f8005fe	1.0001829
53	0x3f83fa11	1.0310689
54	0x3f6fa718	0.9361434
55	0x3f6a9e7f	0.91648096
56	0x3f761734	0.96129155
57	0x3f6e0695	0.92978793
58	0x3f7adfa3	0.9799749
59	0x3f7d52a2	0.9895421

embedder.emb_rnn.bias_hh_l2 f4 [60]
0	0x3d1f7922	0.03893388
1	0xbc9cd337	-0.019143684
2	0x3cf0c03b	0.029388538
3	0xbdef0c00	-0.11672211
4	0x3dac6fc4	0.08419755
5	0xbcfa489c	-0.030552201
6	0x3d2a1504	0.04152395
7	0xbdbd6ff1	-0.09249867
8	0xbd04c676	-0.03241583
9	0x3c55d166	0.013050413
10	0xbc8ed2e4	-0.017434545
11	0x3c791a38	0.015204005
12	0xbd3c0986	-0.04590752
13	0x3d5db770	0.054130018
14	0x3c43f4f8	0.011960261
15	0xbdc7ba2e	-0.09752308
16	0x3c3ddaae	0.011587782
17	0x3c91e75c	0.017810516
18	0xbc299c19	-0.010352158
19	0x3e1abf9c	0.15112156
20	0xbf0217e2	-0.5081769
21	0xbe9391e2	-0.28822237
22	0xbdcacba0	-0.0990212
23	0xbed48a69	-0.4151185
24	0x3e49a4d5	0.19691785
25	0xbed61bea	-0.41818172
26	0xbf0dc5d7	-0.55380005
27	0xbe338f28	-0.17535079
28	0xbf1935db	-0.598478
29	0xbe66d36e	-0.22541592
30	0xbe50f602	-0.20406345
31	0xbf08e77f	-0.53478235
32	0x3e423449	0.18965258
33	0x3d914116	0.07092492
34	0xbe96a67d	-0.29423895
35	0xbee6b8cc	-0.45062864
36	0xbf0cdfb8	-0.5502887
37	0xbec1df4d	-0.37865677
38	0xbf08c3c7	-0.5342373
39	0xbea9b735	-0.33147588
40	0xbdfb16a7	-0.1226018
41	0xbd67d070	-0.056595266
42	0x3d0c3cbc	0.03423761
43	0xbe2632de	-0.16230342
44	0xbde08153	-0.10962167
45	0xbdbc6a28	-0.09199935
46	0x3ddb6a75	0.107136644
47	0x3d02028d	0.031740714
48	0xbd80fb62	-0.062979475
49	0xbd8fc829	-0.070205994
50	0xbd04d8f6	-0.032433473
51	0xbc503d07	-0.012709863
52	0xbbad8758	-0.0052956752
53	0x3ccaf905	0.024776945
54	0xbd95acea	-0.07308371
55	0xbd977e90	-0.07397187
56	0xbd0d8596	-0.034551226
57	0xbda919e7	-0.082568936
58	0xbcea103c	-0.028572194
59	0xbc3945f7	-0.011308185
