output/FEM100/model.pt (torch, 153208 bytes, 65 tensors)

embedder.emb_rnn.weight_ih_l0 f4 [60, 10]
00000000: b4c9 463d afc3 9b3e 193b 803e 4892 8bbd
00000010: 2305 073e c876 4c3e d55a afbd 9a46 34bd
00000020: ade8 c43d 56e9 363e 8a88 9d3d d74e 4f3e
00000030: d64a ba3e 5d6c 6a3d 1991 883d 5fc4 08be
00000040: cd1d ebbc 32d2 c43e 0701 3b3e 2881 92bd
00000050: 7a34 813e 83e1 94bd ef20 80be 3e51 e1bd
00000060: 2a1e c8bd 070d 9abe 639a bd3e c71c 9cbd
00000070: 82ed 8b3e cb4d 923d 8ac9 14be 3eb6 d23d
00000080: 3c58 d4bd f858 b43d 66da dd3e 6a7e af3e
00000090: 851f ca3e 3a79 f33e 5f20 3d3e 63a8 413e
000000a0: ea3d 213e 0934 bd3e 4d45 7a3e fb20 6d3e
000000b0: 39e1 853e 2b00 fc3d 3089 a63e c25f 3e3e
000000c0: c923 0abe 09a3 933e ddd1 473f afcf 933e
000000d0: 2cca 043d 4a9a 1f3e 6dd9 7dbc 04b9 5ebf
000000e0: 8ba4 323f ed18 a23e d95a 963e 9323 fc3e
000000f0: 8b6a a33e f338 7d3e 2395 a53c b0fe ac3d
00000100: f8fb a33e f97d bebb d924 9a3e 60a8 da3e
00000110: 2c98 313f f66c 0e3f 95e8 e5bc 12fb 913d
00000120: bcf6 0e3e 335a cb3c df11 033f 1038 b23d
00000130: 5b93 da3d 498b 603d 9e01 8dbd f2d7 1b3e
00000140: 85ea b63d 77c3 fdbd dc13 81bd e00d 473e
00000150: 97bd 003e ab3a 85bd ecce 25bd e6f2 323e
00000160: 5321 123e c5af 4e3d 4e9b f9bd d0ff 023e
00000170: 016b 7c3e a9c7 253e 437a 9f3d 6374 0fbe
00000180: 779c 2ebe 444b 113e c61f 14bd 356e 1abd
00000190: fec6 97bd 0168 d4be 308c 43be 5904 9dbd
000001a0: a794 75be bdf1 bdbd 769a 98be 28a6 1abe
000001b0: b11b 6bbd 3969 34be 0d90 b33e 8a26 c13e
000001c0: 7d02 2bbe 36d0 af3e 1448 0fbe 5b7d 5bbd
000001d0: ae82 8d3e fdda 513e fc03 493e 25d7 313a
000001e0: be44 0d3e fb75 a2be 2344 b03d 6d12 df3d
000001f0: 2e98 443e 2b63 8dbe 9b5c 8e3e fb2e 9f3e
00000200: 1c81 e73e 5b5d 973e b7b3 17bf ffa2 9c3d
00000210: 54ce 173d ce98 c73d b5c0 683d d485 83bd
00000220: b5b6 5c3e e744 40be 208e 3ebe 7fd2 ef3d
00000230: e3a3 19be 627a 873e ec86 223e 26a6 473e
00000240: 01f4 12be 9738 8c3e cdd1 cbbd 3b54 a13d
00000250: 9d9f 8b3d 6015 dbbc 3202 96be fd9e 7c3e
00000260: b689 153e 1a9c e53d ba5f 8a3e f502 d13e
00000270: bc85 563c 0536 573e ce8a 27bb d845 3a3d
00000280: 261b cabe 5fde 5fbe 68a0 34be 5c4a 60be
00000290: ce93 a9be 0d1c 4abe 46ed 62be d085 23bf
000002a0: 4b43 50be dd38 10bf 377b eebe f490 6bbe
000002b0: 2a10 093c ec85 083e 770f 733e e38f 2fbd
000002c0: 6b26 77bd b018 0cbe 5072 98be 2943 45be
000002d0: 7c65 9cbd 2fc2 0c3e 0cec dc3d 03c7 cdbd
000002e0: 8fd4 a33e 0ebe 213e 59a0 063e 0a0e 8abd
000002f0: 52fb cf3e 613a 843d ea35 963e 651a 363e
00000300: 9d20 71be ab1c 74be 109c 813e 31bd 983e
00000310: 52e5 933e e137 633e eb78 7cbd 68a6 96bd
00000320: 954c 8f3f 25f3 e5be e5f8 873e 0b16 ab3e
00000330: d221 a93e 6d00 46bf e044 0abf 7b07 27bf
00000340: f324 8dbe 4fe3 5cbe 882b 503f 0a5f f13e
00000350: cdf5 1f3e 53c2 b5bd edd1 f33e 2b0e 1c3f
00000360: 6ca2 c1be 8e4d bfbe 9c7f 9abe 5ff2 3fbf
00000370: 6e77 e5bf 245d 1d3d 9913 c2bd de83 813d
00000380: 2129 3ebc cbdc d7bf a3ad 7b3d bf0c 8b3e
00000390: 8723 f4bc 633b d23e 3a2b 7f3f cff2 5f3e
000003a0: 0544 be3d 55ce 1f3e 0519 5e3e 7207 a43d
000003b0: a10e 1fbf 54cb 4ebe e9e6 00bf 4783 c5be
000003c0: 750c 853f b2a7 053f 0b56 5c3e a50a 573d
000003d0: 7ac5 ffbd 0b01 b83e 1156 00bf c6a0 fcbe
000003e0: 3e83 bdbe 7fa3 47be bc80 813e f7a4 c1be
000003f0: 94ec 4cbf ce41 26bf 1937 f4be 21db c5be
0.048532203 0.30422732 0.25045088 -0.0681501 0.13185553 0.19967186 -0.08562247 -0.044012643
0.09614692 0.17862448 0.076920584 0.20244919 0.3638522 0.05723225 0.066683 -0.1335616
-0.028700734 0.38441616 0.1826211 -0.07153541 0.2523535 -0.072695754 -0.25025126 -0.11001824
-0.09771378 -0.30088064 0.3703185 -0.07622676 0.27329642 0.07143744 -0.14530006 0.10288666
-0.10368392 0.08806032 0.43330687 0.34276134 0.39477172 0.47553426 0.1846938 0.1891189
0.15746275 0.36953762 0.24440499 0.23157112 0.26148394 0.123047195 0.3252654 0.18591216
-0.13490213 0.28835323 0.780546 0.28869388 0.03241937 0.155862 -0.015493733 -0.8700106
0.6978232 0.31659642 0.29366186 0.4924589 0.31917223 0.24728756 0.020212715 0.08447015
0.32028174 -0.005813357 0.30106238 0.42706585 0.6937282 0.5563501 -0.028065005 0.07127966
0.13961309 0.024823284 0.51199144 0.08702099 0.10672637 0.054820333 -0.06885074 0.15219095
0.0893145 -0.123907976 -0.06302616 0.19438887 0.12572323 -0.06505331 -0.04048054 0.17475471
0.14270525 0.050460596 -0.12187825 0.12792897 0.24650194 0.16189446 0.077869914 -0.14009242
-0.17051874 0.14188868 -0.036163114 -0.037702758 -0.074110016 -0.414856 -0.19096446 -0.07666845
-0.23982488 -0.092746235 -0.29805344 -0.15102446 -0.057399455 -0.17618264 0.3507084 0.37724715
-0.16700168 0.3433854 -0.1399234 -0.053586345 0.27638763 0.20493694 0.19630426 0.0006784073
0.13795754 -0.31730637 0.08606746 0.10892186 0.19198677 -0.27614722 0.27805027 0.3109053
0.4521569 0.29563412 -0.592586 0.076482765 0.037062004 0.09745942 0.056824405 -0.0642201
0.21554072 -0.18776284 -0.18608904 0.11710071 -0.15003924 0.26460558 0.15871781 0.19496974
-0.14350893 0.27386925 -0.09952126 0.07877394 0.06817553 -0.02674359 -0.2929855 0.24670024
0.14603314 0.11211415 0.2702616 0.4082257 0.013093408 0.210167 -0.0025564912 0.045476764
-0.39473838 -0.21862172 -0.17639315 -0.21903366 -0.3312058 -0.19737263 -0.22160825 -0.63876057
-0.2033817 -0.56336766 -0.4657838 -0.23004514 0.00836567 0.13332337 0.23736368 -0.04286183
-0.060339373 -0.13681293 -0.29774714 -0.19263901 -0.07636544 0.1374595 0.1078721 -0.10047724
0.31998107 0.15795156 0.13147105 -0.06740959 0.4062143 0.064564474 0.29338008 0.17783506
-0.23547597 -0.23839061 0.2531438 0.29831842 0.28885895 0.22189285 -0.061638754 -0.07355958
1.1195246 -0.44912067 0.2655708 0.33415255 0.33033615 -0.773444 -0.54011345 -0.6524579
-0.27567253 -0.21571086 0.81316423 0.47142822 0.1562111 -0.08874955 0.47621098 0.6095912
-0.3781923 -0.37363857 -0.30175483 -0.74979204 -1.7927072 0.038418904 -0.09476394 0.0632398
-0.011606486 -1.6864256 0.06144489 0.27158162 -0.029802097 0.41060933 0.99675333 0.21869968
0.092903174 0.15606053 0.21689232 0.080092326 -0.62131697 -0.20194751 -0.5035234 -0.3857672
1.0394427 0.5220901 0.21517198 0.052500386 -0.124888375 0.35938296 -0.50131327 -0.4934141
-0.37014192 -0.19495963 0.2529353 -0.3782117 -0.8004849 -0.6494416 -0.47698286 -0.38643745

embedder.emb_rnn.weight_hh_l0 f4 [60, 20]
00000000: c184 92be 2a40 343e 6ffd 303c 8d65 2fbe
00000010: eda0 943d f947 883d d225 94bb f013 703d
00000020: fa67 1cbe b2d2 9cbe 59a1 62be ad76 e73c
00000030: 3b4e 49bd 02d8 4c3d 3f9b 8cbd 794e 39be
00000040: 6d34 67be a0a3 6b3e 61a1 283e e282 b8bd
00000050: ac8f 1fbf 340f 243e 973c 4ebd c344 8abe
00000060: 4396 863e 26ea 04be 2fc8 453e 4fc4 763d
00000070: fc2a a5bc 4029 0cbe ad43 a53e e049 39be
00000080: 0d25 f5be 5217 2cbd 48ec 263d 878d 15bb
00000090: 6008 7abe ed86 92be cc4b 03bc 2a53 8c3e
000000a0: de7a 223f 272e 023e cfe8 413e f9e9 5bbd
000000b0: 566a 813e 18a1 b8bd f5bf 5c3e 892a 573e
000000c0: 32a7 343d 4a0d 09be efce 123c 2ee5 5e3e
000000d0: c519 ecbd 1681 393e b7ac 1dbe 0d77 893e
000000e0: f268 853e 4cb5 eb3e e6ed 163d b104 2bbd
000000f0: f175 083e 2400 6b3e a01d d9bc 5cbb 943e
00000100: 0dd0 d33b 6ebd 32be a788 683e c98f 6b3d
00000110: b194 1bbe e4af 063e ef04 a53d 724f 7fbd
00000120: bc37 b93e 7fbc 283e 59df a23e 11e4 0fbe
00000130: 646e 7dbd ffb4 953e 19e7 563d 3609 2b3d
00000140: c86a 9cbe 1a53 21be 8b05 4a3e 2443 8e3d
00000150: ec51 47be 12a0 ccbe e56a 123e 12b5 18be
00000160: f81f c5bd 049b abbd 19f8 61be c0ab a5bc
00000170: b239 8fbe 1089 18be 0b7d 70be f96e 773d
00000180: 7876 9ebd 564d 823d 1d91 2cbe 434a 593e
00000190: bd26 7b3e 2fc0 32be 2673 633e 6620 323d
000001a0: 3504 86be 8fa8 2e3e c448 d5bd fb99 c13d
000001b0: 899f 323e 8234 dabd 7230 adbe 30d9 c9bd
000001c0: 2bb2 b03e 2be3 2c3e 4d50 80be 4e4e 453e
000001d0: 5212 44be 92e9 abbd dc00 0c3e 2ea5 26bd
000001e0: e3d0 683e bd77 9bbe 1bf1 6e3e cae2 073e
000001f0: b8d8 613c e52d d13c 3018 b0bd 1364 70be
00000200: 1593 ad3c aff0 073e ef65 773e fe67 3bbe
00000210: ac2d babe f453 a73d 1c3d 023e a3c7 3ebe
00000220: c52d 73be d734 9c3d 6685 30be 019d 883d
00000230: 03cd 6dbe c445 8a3e 4d4f c6bd bb37 20bc
00000240: 75bf 28be 9588 eabd ccd3 573e b43f ebbd
00000250: a9f6 5e3e 05f1 8d3d ce84 103d aa40 353e
00000260: a5ab 36be 86e6 1f3e f7bc a4bd 0c07 4dbe
00000270: 0ec6 e73d 8b57 82be 3b33 9dbc 59cf 0d3e
00000280: 65ca 62be da54 b9bd 33a9 a3bd 6045 3abe
00000290: 6880 853e 071c 8dbe 6d85 2cbe ac12 213e
000002a0: 1f22 443d 665a 4bbe 629e a8bd 82f2 41bd
000002b0: 0c25 983e c416 85be b8a0 763e f9da 163c
000002c0: 3292 a03e e6bb 62be 0fbc 123e ac0f 8e3e
000002d0: 92b0 aebe 0bc4 7d3e 3866 173b 7c44 86be
000002e0: 9529 ddbd b21f bcbe 443a a2bd 8c26 1e3e
000002f0: ee4c 14be ba1d 623d e485 123e fc34 a73d
00000300: c6a5 b8be 71a1 75be 267d 92be 092b 11be
00000310: 433b 9ebe 31ff 18be 5e46 e93c 0293 4dbe
00000320: b859 7a3e ebeb cbbd 87cf 633d f311 96bd
00000330: 3465 53bd f4dc b3be 6a49 9f3d fb36 193e
00000340: d52a f53b 0695 393e 26a6 c33e 5795 e53e
00000350: 0acd dabe 69ed 39be d5be 01be e67d 193e
00000360: 090f 283e 2e71 a4bc baa3 113e fefc 023e
00000370: 0cc1 3a3e 7177 97bd 2ed3 223e d211 1fbe
00000380: efb9 673e dd97 7ebe 7970 953e f5e7 823d
00000390: 8285 a83e e239 fdbd b6c7 ab3d a0f3 363e
000003a0: eb00 81bd a1c1 dc3d e358 b33e 23cc 18bd
000003b0: 8d58 7b3e 929a b23e 27cb 7b3e 3f4e 373e
000003c0: 4d5c 5e3e 1542 5fbe 5c90 1e3e fa9a 123e
000003d0: 8775 823d 08e4 5d3e e366 3ebe d631 73be
000003e0: 00da b9be e38d 023e 4576 8dbd bab9 873c
000003f0: 885a 633e 50a2 273e 347d 913c 1717 d9be
-0.28616908 0.17602602 0.010802611 -0.17128582 0.07257257 0.06654353 -0.00452111 0.058612764
-0.15274039 -0.30629498 -0.22131862 0.028254831 -0.049146872 0.05001069 -0.06865548 -0.18096341
-0.22578593 0.23011637 0.16467811 -0.09009339 -0.623286 0.16021425 -0.05035075 -0.27005586
0.26286516 -0.12979946 0.19314645 0.06024581 -0.020162098 -0.1368761 0.32278195 -0.18094587
-0.4787983 -0.042014427 0.04075268 -0.0022819953 -0.24417257 -0.28618565 -0.008013677 0.274072
0.6346873 0.12712918 0.18936466 -0.05368993 0.2527644 -0.09015101 0.21557601 0.2101232
0.044104762 -0.13383976 0.00896047 0.21767113 -0.11528353 0.18115649 -0.15397917 0.2684864
0.2605663 0.46036756 0.03684797 -0.04175252 0.13326241 0.22949272 -0.026503384 0.29049194
0.0064640106 -0.17455074 0.22708379 0.05751017 -0.1519344 0.13153034 0.08057582 -0.062331624
0.36175334 0.16478156 0.31811026 -0.14051844 -0.061872855 0.29239652 0.052466486 0.04175683
-0.30550218 -0.15754357 0.19728677 0.069464 -0.19464844 -0.39965874 0.1429859 -0.14912823
-0.09625238 -0.08379176 -0.22067298 -0.020223498 -0.27973706 -0.14896035 -0.234852 0.060408566
-0.0773744 0.06362407 -0.16852231 0.21219735 0.24526496 -0.17456125 0.22211894 0.04348793
-0.26175085 0.17056488 -0.104142696 0.094531976 0.1744367 -0.10654546 -0.33826023 -0.09855878
0.3451093 0.16883533 -0.25061265 0.19268152 -0.19147614 -0.083941594 0.13672203 -0.04068487
0.22735934 -0.3036479 0.23334162 0.13270107 0.01378458 0.02553458 -0.085983634 -0.23475675
0.021188298 0.13275407 0.24159978 -0.18301389 -0.3636297 0.0817031 0.12718624 -0.18630843
-0.23747928 0.07627266 -0.17238387 0.06670571 -0.23222737 0.27006352 -0.09683094 -0.009778912
-0.16479285 -0.11451832 0.21076888 -0.1148676 0.21773781 0.069307365 0.035282902 0.17700449
-0.17838915 0.15615281 -0.08043855 -0.2002222 0.11317073 -0.25457415 -0.019189468 0.13848628
-0.2214752 -0.09049387 -0.079912566 -0.18190527 0.2607453 -0.27560446 -0.16847773 0.15729779
0.047884103 -0.19858703 -0.08233334 -0.047350414 0.29715765 -0.2599393 0.24084747 0.009207481
0.31361538 -0.2214199 0.14329551 0.27746332 -0.34119087 0.24781816 0.0023101699 -0.26224124
-0.10798947 -0.36742932 -0.079212695 0.15444392 -0.14482471 0.05520413 0.14308888 0.08164403
-0.36063975 -0.23987366 -0.28611106 -0.14176573 -0.30904588 -0.14941098 0.028475937 -0.2007561
0.24448287 -0.09957107 0.055617835 -0.07327642 -0.051610187 -0.3512951 0.077776745 0.1496238
0.0074819126 0.18123254 0.382127 0.448405 -0.42734557 -0.18156971 -0.12670453 0.14989433
0.16411985 -0.0200735 0.14222613 0.12791821 0.18237704 -0.073958285 0.15900871 -0.15534142
0.22629522 -0.24862619 0.29187372 0.063918985 0.32914358 -0.12364556 0.08387701 0.17866373
-0.06299003 0.10779119 0.35028753 -0.037304055 0.24545498 0.34883553 0.24589215 0.17900942
0.21714897 -0.21802552 0.15484756 0.14316931 0.06370073 0.21669018 -0.18593936 -0.2374948
-0.36299133 0.12749438 -0.06907324 0.016568054 0.22202504 0.16370511 0.017759897 -0.4240043

embedder.emb_rnn.bias_ih_l0 f4 [60]
00000000: 0080 693f 611c 823f a18c 8b3f 4c96 8d3f
00000010: 2cda 7d3f 8768 693f 3f78 823f 8d80 853f
00000020: 88c7 883f 17ab 753f 7fe0 8d3f cc67 8f3f
00000030: 42a3 573f 6671 6f3f 19f8 863f 23d6 933f
00000040: 9073 6c3f 59c2 7e3f 852a 973f 006d 9a3f
00000050: a59a ebbd dc6d 6f3f 9d39 6f3e 1e11 4a3f
00000060: 432e 723f d571 9abf 295a 363f 4976 0e3f
00000070: 66c7 8e3e 3c84 363f 70c4 4c3f c71b 933f
00000080: 2e4c 7fbe 97ae 053f a6f1 293f 9852 693e
00000090: 5e14 bfbe 432f 253f 7cfd 673f 9b86 b43d
000000a0: 5445 813f a321 863f a783 763f 12a4 7a3f
000000b0: de4f 723f 1ffb 4d3f 662b 773f 38aa 7c3f
000000c0: 7f06 853f 6d78 793f 04bb 4f3f 7c86 833f
000000d0: 1053 833f 4966 603f d1db 833f 55db 973f
000000e0: 970f 843f f38b 653f c1e1 6d3f 7c97 9f3f
0.9121094 1.016491 1.0902292 1.1061492 0.9916103 0.9117512 1.0192946 1.0429856
1.0685892 0.9596419 1.1084136 1.1203551 0.84233487 0.9353241 1.0544463 1.1549724
0.92363834 0.995153 1.1809851 1.2064514 -0.115041055 0.9352701 0.23361821 0.7893237
0.9460184 -1.2065989 0.71231323 0.5564924 0.27886504 0.71295524 0.7998724 1.1492852
-0.24931404 0.5221953 0.6638435 0.22785413 -0.37320226 0.6452524 0.9062116 0.088147365
1.0099282 1.0479015 0.96294636 0.979066 0.9465312 0.80461305 0.96550596 0.98697233
1.0392607 0.9744938 0.8114474 1.0275416 1.0259724 0.87656075 1.0301458 1.186381
1.0317258 0.8966667 0.929226 1.2468104

embedder.emb_rnn.bias_hh_l0 f4 [60]
00000000: d601 b4bd 7d11 873c 3ac8 b83d e861 d93d
00000010: a775 09bc 49bb b4bd 911e 9e3c 9811 303d
00000020: a37a 8c3d b649 25bd 9909 de3d e17b f63d
00000030: ff72 21be 6674 84bd ee06 5f3d 45b1 1e3e
00000040: 7064 9cbd 23e5 9ebb 8553 393e 1c67 533e
00000050: a6b9 8ebf cf90 84bd b331 44bf b5bb 57be
00000060: c91a 5dbd d638 0dc0 f14b 93be df13 e3be
00000070: 229c 38bf eef7 92be 50ee 4cbe a2de 183e
00000080: 82e9 9fbf d3a2 f4be 2e1d acbe 10ab 45bf
00000090: 36c5 afbf 68a1 b5be 0e14 c0bd fd6e 69bf
000000a0: d9a6 2d3b 1e9d 603d 5375 49bd faec 48bc
000000b0: 58a0 0bbd 3018 02be 99e9 88bd 30da adbc
000000c0: 9da6 ea3c dc5f d5bc a783 7abe c211 fc3c
000000d0: 2af4 74bb 40d1 20be 7357 ee3c 752c 363e
000000e0: 2c24 fc3d d7cc 09be 8151 98bd 0589 7d3e
-0.08789413 0.016487831 0.09022565 0.10614377 -0.008389867 -0.08824784 0.019301685 0.04298553
0.068593286 -0.0403535 0.10841674 0.12035347 -0.15766524 -0.06467514 0.054449968 0.1549731
-0.076363444 -0.0048490926 0.18098266 0.20644802 -1.1150405 -0.064729325 -0.76638335 -0.21067698
-0.053980622 -2.206594 -0.28768876 -0.44351098 -0.7211324 -0.2870478 -0.20012784 0.14928678
-1.2493136 -0.47780475 -0.33616012 -0.77214146 -1.3732059 -0.35474706 -0.09378825 -0.9118498
0.0026497154 0.05483734 -0.049184155 -0.012263531 -0.034088463 -0.1270454 -0.0668518 -0.021222204
0.0286439 -0.026046686 -0.24464284 0.030770186 -0.0037376978 -0.15704823 0.029094433 0.17790397
0.12311587 -0.13457046 -0.07437421 0.247593

embedder.emb_rnn.weight_ih_l1 f4 [60, 20]
00000000: 4bfd 663d a3cd ee3d 948f 163d aef9 533d
00000010: fcb0 533c e926 d2bd 42d2 0d3e 267a 5e3e
00000020: b390 743e 182b ad3d a945 a8bd 3c0b 693e
00000030: 1aca c2bc 2d8a e13b efc0 44bd 235a b9bd
00000040: f9b3 c23d 62ae 3d3e 24b0 a1bd cfe8 823e
00000050: f9e7 43be aefd 55bd 61b7 013e ccaf 4cbe
00000060: af3e d73c c5bd 05be 1606 afbd e8c5 fe3d
00000070: 15da 4e3e c708 f23d a815 013e 3f14 903e
00000080: 3723 99bd 1d2f 123e 33d3 4abd adc1 aabd
00000090: 648e 00bd 9e3f 7abd d9cb 57bd f957 41bd
000000a0: c073 563d 0794 243e f48b 68be df24 89be
000000b0: 9990 87be 1f67 753e 78fe ff3c 21cb fb3d
000000c0: 24c7 89be 34d4 77be 7228 3abe 53ed 433e
000000d0: 8dee f2bd 9269 343e 5cc5 1a3d 6ad8 f03d
000000e0: 59af 3ebe 6ed2 febe f943 a93d 60a2 4d3d
000000f0: 54fa 993d 99c1 983e 139c 8a3d a15d 86bd
00000100: 6d5c 45be a3e4 d73d fae1 cd3d 8e2d 5c3f
00000110: 7b84 30be 1938 a1bd 5e99 193e b515 e33c
00000120: 5e98 863f 9f0b 9f3d e8cb 37be d492 3e3e
00000130: 1ebe 99be e4f7 963f d19e 42bd ba9d 973d
00000140: ae96 80be c322 9e3d 91fb 3bbe 9dbb 5cbd
00000150: 8027 793e f457 c83c dd70 87be e56c c33d
00000160: d32c ed3d 58ee 14be 0cdc 213e b9c0 5c3d
00000170: 4226 30be 223e 903e 0df3 36be feaf 1abd
00000180: 4bab 6bbe 1343 1d3f fd9e 773e 6f7c cb3d
00000190: ba5c 0fbf e1d9 3c3e 1b94 bcbe d6ee a0bd
000001a0: a89a 56be 5eeb 21be c91d d23e d1a0 3dbf
000001b0: 61f3 8ebe c1e5 8b3e bf18 9d3e 38a0 cfbd
000001c0: c5af a4be 2ab8 573c bcd2 983e 79f0 093e
000001d0: 616f fbbc d54f 01be c6e5 b83c 9cdb 13be
000001e0: ffe4 abbd f651 79be 004d b1be 5d9f 78be
000001f0: 9d5c 5ebc 69eb ddbd fa95 95bd ee1d f93d
00000200: 655d 2abd a4c3 f23d 252f 953e 6eac 7dbe
00000210: ddb3 ad3e b89b 363e fb36 753e 8a07 803e
00000220: 8e4e f03c 8ef1 063f 4a16 a0bc 98ea 1bbb
00000230: 27e4 2cbf 0ddc 9a3e 9415 bb3e 9272 f73d
00000240: c4ac f6bc 7c73 82be 97c5 903e 6225 b03e
00000250: 2e46 7d3e 8bf5 fdbd f0b5 56bd 03fd 463e
00000260: 4189 0f3f 70a1 42be 4e5d 1dbe b94a 663b
00000270: 2936 783e 7eba 0f3f 80e9 4e3e 62e6 3f3e
00000280: 2bc6 c43d 6444 a53e fb30 8f3c f6a8 f73d
00000290: c421 6e3e 1514 1ebf ddf4 e7bd 0198 f83d
000002a0: 1cd9 ebbd 0d52 11be 6ce6 f9bc e47d 5e3d
000002b0: e65d eebe f47a f1bd 1452 373e db1c 25bb
000002c0: fbd8 353e ae45 de3d a27a 513d a712 a73d
000002d0: f120 0cbf 90a8 273e 343e c9bd b8a3 7abd
000002e0: a9e6 2f3e e12f 33be 00bf bdbd be94 473e
000002f0: db1e 9fbe 2486 ce3d 4725 acbe 3e9b 36bd
00000300: 31f0 bfbd b588 bebe 8b14 babe 9e73 5c3e
00000310: f7c9 9bbd ec1f 863d dfb2 2a3d a653 50be
00000320: 20fb 2d3f 1a05 56be a3d9 28bd 005c 88bd
00000330: 5f3d 6b3e a094 b3bd 5eb2 3a3d 323b a13e
00000340: 2966 4c3b dca0 6fbc 2b6d 2abe 6198 553e
00000350: 643e 0cbe 9620 64bd bc71 7b3c a772 d73d
00000360: 0a7e 57bd 0480 c13e 8c76 173d 4651 1bbd
00000370: c766 26be bd7c 803d 33cd 93be e317 713d
00000380: 7fae e7bd 9140 ca3c 26e8 22be c595 9c3e
00000390: 9c2f 513e 6148 a3be 1b2a a03e e96c cf3d
000003a0: 086d c5be d7bb 7a3e 2e2b 7fbe 1a81 183e
000003b0: 4f78 97be b188 ba3e 470d ab3e e43c 463e
000003c0: 1275 76be 9d27 cbbd 08fe a13d 2073 cebd
000003d0: 58d9 733d 2941 20bf 4bdf 7b3e d538 80bd
000003e0: 8eea 36bd dd73 67be acc9 013e 0813 003f
000003f0: 9eed ebbe ef22 2bbf 97ef 99be b364 23be
0.056393903 0.11660316 0.03675802 0.051751785 0.012920614 -0.10261328 0.13849738 0.21726283
0.23883323 0.08455485 -0.082164116 0.22758192 -0.02377801 0.006882927 -0.04803556 -0.09050395
0.09506983 0.18523553 -0.07894924 0.25568244 -0.1913146 -0.05224388 0.1266761 -0.19988936
0.026275007 -0.13060673 -0.08546083 0.12440091 0.20200379 0.118180804 0.12605917 0.28140447
-0.0747742 0.14275785 -0.04951782 -0.08337722 -0.031385794 -0.061095826 -0.05268464 -0.047203038
0.05235648 0.16072093 -0.22709638 -0.26785943 -0.26477507 0.23965119 0.03124927 0.12294603
-0.26909745 -0.24202043 -0.18179491 0.19133501 -0.11861906 0.17618397 0.037785873 0.11760028
-0.18621577 -0.4976992 0.08264918 0.05020368 0.075184494 0.29835203 0.0676805 -0.06560827
-0.19273539 0.10541656 0.10052867 0.8600701 -0.17238037 -0.07872028 0.14999911 0.027720312
1.0515249 0.077658884 -0.17948878 0.18610698 -0.3002786 1.17944 -0.04751474 0.07403131
-0.2511496 0.07721474 -0.18357684 -0.05388986 0.24331474 0.024456002 -0.26453295 0.09542254
0.11580815 -0.14544046 0.15806597 0.053894732 -0.17202094 0.28172404 -0.17866154 -0.037765495
-0.23014562 0.6143047 0.24181743 0.09935843 -0.56000865 0.18442489 -0.36831746 -0.07858054
-0.20957434 -0.15812442 0.4103835 -0.7407351 -0.27920058 0.27323726 0.30682942 -0.10137981
-0.32165352 0.013166467 0.29848278 0.1347064 -0.030692758 -0.1262811 0.022570502 -0.14439243
-0.08393287 -0.24347672 -0.3462906 -0.24279542 -0.013571885 -0.108359165 -0.073039964 0.12163912
-0.041592974 0.11853722 0.2913753 -0.24772808 0.33926287 0.1783284 0.23946755 0.25005752
0.029334333 0.52712333 -0.019541878 -0.0023790952 -0.6753563 0.3024601 0.365399 0.120823994
-0.030111678 -0.25478733 0.2827575 0.3440352 0.24733803 -0.12400349 -0.052419603 0.19432454
0.5606881 -0.19006896 -0.15367624 0.0035139753 0.2423941 0.5614394 0.2020626 0.18740228
0.0960811 0.3227874 0.01747941 0.120927736 0.23255068 -0.6174939 -0.11326001 0.121383674
-0.1151602 -0.14191456 -0.030505382 0.054319277 -0.46556014 -0.117910296 0.17902404 -0.00251942
0.17758553 0.10853134 0.051142342 0.081578545 -0.54737765 0.16372895 -0.098263174 -0.06119129
0.17177834 -0.17498733 -0.09264946 0.19490334 -0.31078228 0.10084179 -0.3362219 -0.044581644
-0.09371985 -0.37213674 -0.36343798 0.2152848 -0.07606881 0.06549057 0.04167449 -0.2034441
0.6796131 -0.20900384 -0.04122318 -0.066581726 0.2297263 -0.08768582 0.04558026 0.31490475
0.0031188822 -0.014625754 -0.16643207 0.20858909 -0.13695675 -0.05569514 0.015346941 0.10519915
-0.052610435 0.3779298 0.03697829 -0.037919305 -0.16250144 0.06273792 -0.28867492 0.05886067
-0.11312579 0.02468899 -0.1590887 0.30583015 0.20428318 -0.31891158 0.31282124 0.10128195
-0.38559747 0.24485718 -0.24918815 0.14892998 -0.29583976 0.36432412 0.33408567 0.19359165
-0.24068096 -0.09919665 0.07909781 -0.10080552 0.059533447 -0.62599427 0.24596898 -0.0626084
-0.044657283 -0.22602792 0.12674588 0.5002904 -0.46079725 -0.6685018 -0.30065605 -0.15956382

embedder.emb_rnn.weight_hh_l1 f4 [60, 20]
00000000: b53d b8bc 940e 73be 8c83 2c3d 841d 3d3c
00000010: b275 0f3d f618 b7bd 6e46 1fbe 32f4 393e
00000020: 4341 5ebb 9e47 c1bd 23c8 a73e f1d8 8b3e
00000030: 0f89 003e 6891 5b3e 8d2f 263e 6933 843e
00000040: 1706 2fbe 7df1 343e 8234 ad3b 3cc3 313e
00000050: db47 923e 3d42 b7be ad5c e33e 5289 9d3e
00000060: 8a71 9f3e 84d8 fd3b fee5 7abe e212 213e
00000070: afbe ddbd 143e b4bd 72bb 943e ef4e c4bb
00000080: 9db1 e1bc ba83 2c3e ec84 223e 1aa6 fdbd
00000090: 9d24 e7bd 6553 bf3c 3814 b5bc 4267 983e
000000a0: 5aa5 a03e f137 813e 1a53 09bc 43cb edbd
000000b0: 25e3 1bbe a972 de3c a3c8 23bd 296b 223d
000000c0: fe0a ca3e def3 003e 1995 1b3e a039 bdbb
000000d0: 793d c8bd 80c4 15bd 7e0c b4be 9888 f8bd
000000e0: d887 34be 5119 773e 73f3 5cbd e744 1abe
000000f0: 0e49 1d3e 6f9b 45be 521e b53d 53c6 8c3d
00000100: 851f 11be d8bf 34be 910b af3d f28f 56bc
00000110: 8fb3 1c3e 0f23 9cbe 204c bf3d adf0 4abe
00000120: b0fa 5bbe 37ea 84be 564b 27bf 7901 58bd
00000130: cf4b 4bbd 3975 a33e 0324 3b3e 4406 a4bd
00000140: 9c13 5fbe b1b4 b33c cd24 a9be d20a a73c
00000150: 256a 92be 4401 93be ff43 01be 68e6 4a3a
00000160: 0139 2abd a66c 61bd d26b a9be b6e3 1e3e
00000170: cd20 363e 9ea1 6dbe e5fd 9b3d cb10 793e
00000180: 69ce 27bd be63 d73d 0ef5 98be c995 3b3d
00000190: 7061 07be fcf2 023e a9d4 133e 1f69 093e
000001a0: 2e6e f6be 67d2 61be ab72 7d3e d8ea cebc
000001b0: b158 81bd 9a39 28bd 0f7d ad3e af89 6ebd
000001c0: 1b25 5f3e 1dc9 02bd 645d 6cbe c199 2cbe
000001d0: fcc7 86be 63b2 52be 7a36 28be 745a 43be
000001e0: 77de 513e 3bd9 0b3e b5d6 9a3e f597 dabe
000001f0: db8f 49be 0f74 8b3e 9f65 cbbc 190f 3a3e
00000200: 16ab 613e e516 a33e a92d 9f3e d7c2 69be
00000210: 8d8f 7bbd 9e03 2e3e 678f c23d 18a0 af3c
00000220: d72a 88bd a43f 23be 7baa 59bd 7e3f 6bbe
00000230: ba99 1ebe 0f13 103e 2529 5abe 23e2 30bd
00000240: 4f14 2bbe 9262 8b3e 6855 8f3e 63d4 a13e
00000250: 96e4 8bbe cd03 373d 8b18 c1bd cdd3 e53d
00000260: 07dd 543e b117 5b3e 7160 be3e 3996 32bd
00000270: 1537 853d 0586 963d 32f7 a83e 1e93 babd
00000280: 4c04 b4be 50ab 0cbe 9395 57be 70ed 33be
00000290: eb68 cabc 103b b5bd 0a1b bd3d e58e a13d
000002a0: acf4 28be 49a4 9abc 9208 05be 19fe 2b3e
000002b0: ebe3 8dbd 272a 963e 80a4 883e d1d5 8d3c
000002c0: e754 b8bd d9a4 28be 0230 663e 59a7 9b3e
000002d0: 5a75 e6bd 8473 423c 9314 73be fb1d 303d
000002e0: 02e4 ba3e c9e0 92be 4259 143d 8436 adbe
000002f0: c7da 5f3e f343 8bbe a9e0 3fbe 0c41 69bd
00000300: ed41 ac3e 1ab0 72be 6f9d babe 6251 52bc
00000310: f9c8 a03c 31c8 d8bd 2385 583e 9b94 4fbc
00000320: 0af5 63be 7b5c 9bbd 5536 a4be cbf9 723e
00000330: 4c18 e03e fb33 90bd 23e7 3c3e 35a7 21be
00000340: 5a3f 7e3d 3f76 97be 5907 06bd a2a3 40be
00000350: 4851 653e 5efe cfbd ca21 773e 259e ccbd
00000360: 5ab9 ca3b 26e1 923c 65d4 fa3d 1c44 64be
00000370: 7d20 c3bd 0d4e 943e 24da 42be 61d7 323e
00000380: f4be 6fbe 7fcb 2abd 6512 c1bd 414c 0d3e
00000390: c97b 9c3e 7dfb 493e 1ac5 4e3e bcfc 943e
000003a0: 038e a03e 6181 873e a342 aebd cc99 1a3e
000003b0: 4dc2 9ebe cc1e fbbd 86ac 803e 238a 9cbc
000003c0: 6304 26be 7cc3 d23e d3e1 dabd 1798 de3e
000003d0: 8578 123e 0b4a a1bd 821d dbbd 6ded 4bbd
000003e0: 023f 0cbe 1d50 83bd 1f31 2b3c a985 08be
000003f0: 4bf9 a43e bdce 3bbe 81b7 2bbe 16da 7c3e
-0.022490362 -0.2373603 0.04211764 0.011542682 0.035024352 -0.08940308 -0.1555421 0.1815956
-0.003391341 -0.09437488 0.3276988 0.2731395 0.12552284 0.21442187 0.16229077 0.25820473
-0.17092167 0.17670245 0.0052858004 0.17359632 0.28570446 -0.35792723 0.44406644 0.3076883
0.3114131 0.007746758 -0.24501798 0.1572986 -0.10827386 -0.08800903 0.2904926 -0.005990855
-0.027550513 0.16847125 0.15871018 -0.12385197 -0.1128628 0.023355195 -0.022104368 0.2976628
0.31376153 0.25237992 -0.008381629 -0.11611035 -0.15223368 0.027154284 -0.039986264 0.039652977
0.3946151 0.12593028 0.15193595 -0.0057746917 -0.0977735 -0.03656435 -0.3516578 -0.12135428
-0.17629945 0.24130751 -0.05394311 -0.15065347 0.153599 -0.19297574 0.08843674 0.06873765
-0.1417218 -0.17651308 0.08547128 -0.013095843 0.15302871 -0.30495498 0.093406916 -0.19818373
-0.21482348 -0.25959942 -0.6534933 -0.05273578 -0.049632844 0.3192537 0.18275456 -0.080090076
-0.21784824 0.021936746 -0.3303589 0.020390902 -0.28596607 -0.28711903 -0.12623595 0.00077400217
-0.04155827 -0.055035256 -0.33090073 0.15516552 0.1778595 -0.23206183 0.07616786 0.24322812
-0.040968332 0.10517071 -0.29874462 0.045797143 -0.13220763 0.12788004 0.14436592 0.13419007
-0.48130935 -0.22052918 0.24750774 -0.025258467 -0.06315745 -0.041070558 0.33884475 -0.058236774
0.21791498 -0.031930078 -0.230825 -0.16855527 -0.2632445 -0.20575862 -0.16427031 -0.19077474
0.2049502 0.13657086 0.30241933 -0.4269406 -0.19683783 0.27236983 -0.02482873 0.18169822
0.2203792 0.31853405 0.31089523 -0.22828232 -0.061416198 0.16993567 0.09500008 0.021438643
-0.06648796 -0.15942246 -0.0531411 -0.22973439 -0.1548833 0.1406977 -0.21304758 -0.04318441
-0.16706966 0.2722364 0.27994847 0.3160735 -0.27322835 0.04468136 -0.09428509 0.112220384
0.2078744 0.21395756 0.37182954 -0.043600295 0.06504647 0.07349781 0.33001095 -0.091100916
-0.35159528 -0.13737226 -0.21053152 -0.17571044 -0.024708232 -0.08849156 0.09233673 0.07888583
-0.16499585 -0.018877165 -0.1299155 0.1679615 -0.069282375 0.29329035 0.26688004 0.01731387
-0.09000569 -0.16469134 0.22479251 0.30401114 -0.11252852 0.011868361 -0.23738317 0.04299734
0.3650208 -0.28687122 0.036217935 -0.33830655 0.218608 -0.2720028 -0.18738045 -0.0569468
0.33644047 -0.2369999 -0.36448237 -0.012836786 0.019627081 -0.105850585 0.21144538 -0.012669708
-0.22261444 -0.075859986 -0.32072702 0.23728101 0.43768537 -0.070411645 0.18447547 -0.1578644
0.062072136 -0.29582402 -0.03272185 -0.18812421 0.22394288 -0.101559386 0.24133983 -0.09991101
0.0061866464 0.017929625 0.12247542 -0.22291607 -0.09527681 0.28965798 -0.19028527 0.17464973
-0.23412687 -0.041697975 -0.094273366 0.1379862 0.3056319 0.19724841 0.20192376 0.2909907
0.31358346 0.26465896 -0.08508804 0.15097731 -0.31007615 -0.122617334 0.25131625 -0.019108837
-0.16212611 0.41164768 -0.10687604 0.4347541 0.14303787 -0.07875451 -0.106989875 -0.049786974
-0.1369591 -0.06411765 0.010448723 -0.13332237 0.32221445 -0.18340583 -0.1676922 0.24692568

embedder.emb_rnn.bias_ih_l1 f4 [60]
00000000: 10d5 853f 6fba 8c3f 3527 743f b8c7 7f3f
00000010: d32f 7c3f ea27 793f b46b 913f 8865 8e3f
00000020: 0427 8a3f c651 6c3f 0b0b 873f ec1e 843f
00000030: 5d74 7f3f 8988 803f 6d23 7b3f e5f8 8e3f
00000040: 7550 6f3f bd7b 983f 3c30 8a3f 2d76 6a3f
00000050: 6e6b 8b3f 29cf c83e 606a 4c3f f8ef 263e
00000060: d205 3c3f 582c 543f 8998 1b3f e1c0 f83e
00000070: d1bb 043f 0b9d 1d3f bbe2 2f3f 3f41 d33e
00000080: 262f 563e 9460 693f 5d4b 8f3e 34c4 483f
00000090: 8647 b63e d892 dbbd 4ca4 233f 40b7 483f
000000a0: 531a 873f ae74 623f 7bd2 853f c7f2 813f
000000b0: cebb 743f 3298 763f 93bb 3f3f 08f4 6c3f
000000c0: a989 653f 9642 743f 66b6 493f f797 703f
000000d0: 01c7 473f 29ba 8a3f 3c90 693f 8a35 873f
000000e0: 5c2f 623f 0f46 813f d4e9 6e3f 6915 813f
1.0455647 1.0994395 0.95372325 0.9991412 0.98510474 0.9732653 1.1360993 1.1124735
1.0793157 0.92312276 1.0550245 1.0321937 0.9978693 1.0041667 0.9810093 1.1169707
0.9348214 1.1912762 1.079597 0.9158657 1.089216 0.3922055 0.79849815 0.16302478
0.7344638 0.82880163 0.60779625 0.48584655 0.51849085 0.61567754 0.6870534 0.41260716
0.20916423 0.9116299 0.27987185 0.7842438 0.35601443 -0.107213676 0.6392257 0.7840462
1.0554909 0.8845929 1.0454859 1.0152215 0.9559907 0.9632598 0.7489559 0.9255986
0.8966318 0.954141 0.7879394 0.9398188 0.7803803 1.0838062 0.9123571 1.0563214
0.88353515 1.0099505 0.93325543 1.0084659

embedder.emb_rnn.bias_hh_l1 f4 [60]
00000000: b9a2 3a3d dda5 cb3d db8f 3dbd 9b3d 60ba
00000010: 1513 74bc 5600 dbbc 585d 0b3e c258 e63d
00000020: 6e70 a23d 8271 9dbd e15b 613d 35e3 033d
00000030: b2b2 0bbb 128a 883b 228f 9bbc 068a ef3d
00000040: b17c 85bd 81dc 433e ea03 a33d 054f acbd
00000050: acb9 b63d 4398 1bbf f954 4ebe 2b44 56bf
00000060: e6f4 87be 2a4e 2fbe 43cf c8be b79f 03bf
00000070: 6f88 f6be acc5 c4be 413b a0be 885f 16bf
00000080: 4a74 4abf aefd b4bd 255a 38bf d5ee 5cbe
00000090: 81dc 24bf 11b9 8dbf 31b7 b8be 7723 5dbe
000000a0: 3c02 623d 1fa0 c8bd faf5 f83b ee0a 8dba
000000b0: 132f 12bd 7eda 47bd e1fa adbe 2010 a8bd
000000c0: 8fcb dbbd 561c d9bd 1772 9fbe 57ce a2bd
000000d0: 68e4 f0be b3d8 473d e6da 81bd 0b9e 853d
000000e0: 1ae6 00bd 6605 4e3c 9248 acbd a2e3 3d3b
0.04556534 0.09943745 -0.04627977 -0.0008554102 -0.014897128 -0.026733559 0.13609827 0.11247398
0.079316005 -0.076876655 0.055019263 0.032199103 -0.0021316228 0.00416685 -0.01898915 0.11696248
-0.065179236 0.19127084 0.07959731 -0.08413509 0.08922133 -0.6077921 -0.20149602 -0.83697766
-0.2655403 -0.17119661 -0.39220628 -0.5141558 -0.48150966 -0.38432062 -0.31295207 -0.5873952
-0.79083693 -0.08837448 -0.7201255 -0.21575482 -0.6439896 -1.1072103 -0.36077264 -0.2159556
0.055177912 -0.09796166 0.007597682 -0.0010760704 -0.035689425 -0.048792355 -0.33980468 -0.082062006
-0.10732185 -0.10601108 -0.3114173 -0.079495125 -0.4704926 0.048790645 -0.0634058 0.06524285
-0.031469442 0.012574529 -0.08412279 0.002897479

embedder.emb_rnn.weight_ih_l2 f4 [60, 20]
00000000: b4ba 8dbe 63e1 44be 739f 0dbe 50a6 da3d
00000010: 0faa 153e b1cd 93bd 0d1c 20be 1bf6 023d
00000020: fd5b 0abe e6b4 58be 3028 e13e 65fc 4b3d
00000030: d485 0dbe 1e9b 51be eb47 103e c759 193e
00000040: 65d5 45bd 63c0 093e 0771 1b3e 7208 42bd
00000050: d481 1d3e 5621 2d3d d23a 1b3e b3aa 4fbe
00000060: 33ce 223d 9604 183e 32bf 433e 5b57 20be
00000070: 62dd 643d 2791 3ebd d2ec 92be 3f65 df3b
00000080: 9349 50be e439 04bd 0068 50be 1c34 7b3e
00000090: 85f4 243e 1659 b3bd c0bd 88bc d34e 733d
000000a0: 3cab 82bc 6097 56bc b2b6 39be 23cc 883e
000000b0: 1564 ab3d d6e6 23be 5632 8d3e 841c 663e
000000c0: de75 8a3e 20a0 18be 034d 8d3e 6438 283e
000000d0: 1501 1b3c afa5 cd3c 0c56 143f d6eb 6e3e
000000e0: 26a2 66be 238e 9b3f 6f42 70be d9f2 95be
000000f0: 53c4 b93d 3844 a9bd 50c6 03be fb97 fc3f
00000100: da74 503f a46f 07bf b01b 883e 7c6c 833d
00000110: 4938 ca3e 4eaa 90be 70d1 23bf 822a ce3b
00000120: 73f4 7a3e d50c 163e 6d97 0abf 5ee4 cfbe
00000130: 1407 afbe 4c23 ca3e 2abf 33be 6d84 fdbd
00000140: 0c39 933e bbf8 0fbe c548 febd 4fb1 93be
00000150: 3d44 cf3d 5255 abbd 30e2 523e e635 8c3d
00000160: 5028 25be d86a 0a3f 223b b23d d92b 523e
00000170: ee1f 7cbd d3bf 073e ef5d 89bb 2add 883e
00000180: d8fa 0c3e 5d93 81be 73a5 a43d 224e 6ebd
00000190: 6056 043e 0a75 e53d 74f2 6b3e c433 0b3e
000001a0: eca5 993d b7a8 d4bc af3f 8abe c344 89bd
000001b0: 04e9 56bd 718c 6abd 1c06 57be 5520 1c3c
000001c0: f402 abbe 6ef5 cfbd d71a fabd f6cf 16be
000001d0: d9c8 ae3e f9b5 24bd 8410 263e 4587 d63d
000001e0: 754e e83d b016 663d 073f 9bbe e288 65bf
000001f0: 49d3 383e 3ec4 a63e a3e3 53bd 49f7 373e
00000200: 277e 6f3e ef6f a33e 0e13 80bd 81de 78bb
00000210: 3ab2 05be a06c 75be 4941 113f c221 01be
00000220: e02d a8be 55d6 45bf 6101 5bbc 1345 3f3d
00000230: ebd0 d2bc b504 343e 5ecc 043e 5c88 0fbe
00000240: b2ce b63e 2234 e83d 41a7 1bbe b25c b2be
00000250: 4f9a 64be dec6 6fbe a6d0 6dbe c795 56be
00000260: e633 a5be 0af2 003e 7c03 983e 4af9 a03d
00000270: 6516 943e c9ee b2bc 10ec 62bc 9f66 94be
00000280: defb f5bd 7316 913e ecd3 ebbd cfe6 70bd
00000290: c4e0 26bf 98d9 7ebd 308b 0d3e 8a9b 26be
000002a0: 0352 9f3e 9122 32be c720 a23d bbc4 543e
000002b0: efd4 bfbe e283 12be ae80 07be 2ff0 36be
000002c0: 5ee9 403d c418 4fbe 1189 993e dd6b 923d
000002d0: e9a7 fe3d 76d6 863e d6d2 89be 8a48 d03d
000002e0: 3769 b6be 5ff8 a53e c98c 263e 699f 943e
000002f0: 6b10 8a3e b059 b4bd 0c0a 0f3c b498 d73c
00000300: c895 823e cea0 9fbd b113 6d39 cef4 5ebe
00000310: f7c6 24be 8f33 153b cea6 10be 1fa0 92be
00000320: 79f3 623e a822 0d3f 6536 1a3e 46d7 66be
00000330: f54f 70be 7a3d 8b3e 94ad 6ebe e7ca 8dbc
00000340: 8983 e23d fd94 963e ca2a 1fbb db13 913e
00000350: b3c3 953e d6e7 35be e681 dbbe 7c68 8abe
00000360: ce36 213e 54cc 30bf d4ad 47bd 6832 153e
00000370: dcb9 5abd 7072 41be 6819 dd3d 4620 213e
00000380: fbc1 363e 6dd5 7d3e e771 1d3d 276b b1be
00000390: cb89 3a3e 1665 d1be e92f 063d 70ba b5ba
000003a0: d582 a03e dad2 2c3e 524f c53f 71af 83be
000003b0: a3f2 79bd 6f8f 26bd 1ce9 673e 7cc7 39be
000003c0: 5f2f febd f976 833e 812d 40be 1765 59be
000003d0: 0ea7 fbbd c795 933e 641a babe 0a2b 15be
000003e0: 57ce 943d 26f0 c23e abd4 b1bd 2de2 6bbd
000003f0: eaca 1ebe 40bf 863e a422 a5be 4191 2e3c
-0.27681506 -0.19226603 -0.13830356 0.10676253 0.14615653 -0.07216967 -0.156357 0.031972986
-0.13511653 -0.21162757 0.43975973 0.04980125 -0.13820583 -0.20469329 0.14089935 0.14975654
-0.048299212 0.13452296 0.15179835 -0.047371335 0.15381557 0.04226812 0.15159157 -0.2027996
0.03974743 0.148455 0.19115904 -0.15658323 0.05587519 -0.046525147 -0.28696305 0.0068174894
-0.20340566 -0.03228177 -0.20352173 0.24531597 0.16108902 -0.08757226 -0.016692042 0.059401345
-0.015950792 -0.013097614 -0.18136099 0.26718244 0.083686985 -0.16006026 0.27577466 0.22471815
0.2704305 -0.14904833 0.27597818 0.16427761 0.009460707 0.025103418 0.579438 0.23332152
-0.22522792 1.2152752 -0.23462842 -0.2928684 0.09070649 -0.08264965 -0.12868619 1.9733881
0.814283 -0.52904725 0.26583624 0.06417176 0.39496067 -0.28254932 -0.6399145 0.0062916884
0.24507312 0.14653333 -0.5413731 -0.40603918 -0.34185088 0.39480054 -0.17553392 -0.12378774
0.2875446 -0.14059727 -0.124162234 -0.28846213 0.10120437 -0.08365883 0.20594096 0.06846218
-0.16128659 0.5406928 0.08702685 0.20524539 -0.061553888 0.13256769 -0.004192106 0.26731235
0.13767564 -0.25307742 0.080393694 -0.058179982 0.12923574 0.11203964 0.23041707 0.13593966
0.0750235 -0.025959356 -0.27001712 -0.067025684 -0.052468315 -0.05726284 -0.20998424 0.009529193
-0.3340069 -0.10154234 -0.122121505 -0.14727768 0.3413761 -0.040212605 0.16217238 0.10475019
0.113430895 0.05617398 -0.30321524 -0.8966199 0.18049349 0.32571596 -0.051730763 0.17965426
0.23387967 0.31921336 -0.062536344 -0.003797442 -0.1305627 -0.23967218 0.5674024 -0.12610534
-0.328475 -0.7728017 -0.013367028 0.046696734 -0.025734385 0.1757992 0.12968585 -0.1401686
0.3570457 0.113380685 -0.15200521 -0.34836346 -0.22324489 -0.23415706 -0.23224124 -0.20955573
-0.32266158 0.1259233 0.29690158 0.07860048 0.28923336 -0.021842377 -0.013850227 -0.28984544
-0.120109305 0.2833744 -0.1151503 -0.058813866 -0.65186715 -0.062219232 0.13822627 -0.16270271
0.31117257 -0.17395999 0.07916408 0.20778172 -0.37467143 -0.14308122 -0.13232681 -0.1786506
0.047097556 -0.20224291 0.29987386 0.071494795 0.1243437 0.26335496 -0.26918668 0.10170086
-0.35627148 0.32416055 0.16264643 0.2902787 0.2696565 -0.08806169 0.008730423 0.026317932
0.255049 -0.07794343 0.00022609417 -0.21773073 -0.16091524 0.0022766327 -0.14126131 -0.28637788
0.2216319 0.55131006 0.15059812 -0.22543058 -0.23468001 0.2719534 -0.23308402 -0.017308665
0.110602446 0.29410544 -0.002428698 0.2833546 0.2925087 -0.1776422 -0.42872542 -0.2703284
0.15743563 -0.6906178 -0.04874976 0.1457001 -0.053399906 -0.1889131 0.107958615 0.15734968
0.17847435 0.24788447 0.038438704 -0.34652063 0.18216626 -0.40897435 0.032760534 -0.0013864767
0.31349817 0.16877308 1.5414832 -0.2571979 -0.061022412 -0.040664133 0.22647518 -0.18142503
-0.12411379 0.25676706 -0.18767358 -0.21229969 -0.122877225 0.2882521 -0.3634826 -0.145672
0.07265919 0.38073844 -0.08683141 -0.057588745 -0.15507093 0.26317787 -0.3225299 0.010654748

embedder.emb_rnn.weight_hh_l2 f4 [60, 20]
00000000: d5d7 cdbd ec7b 1a3e c370 10be 1bda 183e
00000010: 6af4 393e 57b7 573e c796 dcbd 42e0 d9bd
00000020: 40f6 c23d 3e84 45be ed9b 893e 4769 79bd
00000030: 4937 a83d 2f17 b5be 55ea 4dbe f896 093e
00000040: 2499 2a3e a320 363d 00dc 2ebd f56a b43e
00000050: f06d 893c dbbe fbbd 941d b5ba b388 393e
00000060: c651 5bbe a2e3 9cbd 9724 5ebe 2c0d cfbd
00000070: 4acf aabe aa0f 21bd ee89 453d 2a71 033e
00000080: f654 1dbe 3b35 0cbe 2b0a 283d 29c0 05be
00000090: f1a2 583d 409d 273e 10d4 68be b85d 27be
000000a0: bfce 94bd d075 8bbd fdfe 8abd 6b52 b73c
000000b0: 39dc 203d ad01 a3be 337c 333e 43fa 36be
000000c0: 880a f0bd 196d debc 6898 e3bd 9415 80bd
000000d0: 5202 b8bd 9079 223e 2374 6abe c80d 0cbe
000000e0: dac1 853e b6e6 aabd b48b 0ebe af8d 2bbe
000000f0: 8f2f 94be 64e8 70be a3a5 77bc a074 2e3d
00000100: 2ea8 cebc 27a2 b13d ac23 d5bd e0f8 253d
00000110: c7db cf3e ec19 d03d 7ff6 c5be b601 0cbe
00000120: 7cd2 31bd 19dd 6f3f f3b8 be3d 685d 713e
00000130: a94e 913e 4f76 2ebe 1718 a4be 0a77 bebe
00000140: 7de6 d33d 2bf0 f2be 06dd bd3d 89a4 203e
00000150: 084b dabe caea 96be b2b6 9d3e d346 8a3e
00000160: 4397 60bc 50ad 543e ba84 a73c fafa 2a3e
00000170: 2a92 493e d424 5fbc 58cf 5b3e 18ff 3fbe
00000180: 946a d53d 266a aabe e5b3 bb3e 08b8 47be
00000190: 42fa 13be 95b0 3abe 9c90 27be fcf5 213e
000001a0: 4b6f 5c3e cc3c d63d 87a0 5c3e 71d2 e3bd
000001b0: 54e3 dd3c 18d8 393e cea7 433e c678 ed3c
000001c0: c8de ccbe 9d6e d13a 15d7 c43d 4f04 1d3e
000001d0: 34b3 743d 269a 87be 421f 453e 3abf 5e3e
000001e0: f5d1 28bd a707 d53d c1f9 ea3d 98e7 4d3e
000001f0: baf1 bc3e e460 a23e eb2c b4bc a323 54be
00000200: 4c7b d23e 5ca8 073c 8b1d 6dbd a1f3 1abe
00000210: 2fc0 86be 3c59 9e3c 5f3c dcbd 5ce6 95bd
00000220: d6a0 8e3e b2c1 45be 0cbf 9f3d 428b 45be
00000230: aba9 f73d ee8a da3d 14e7 79be 337a 123e
00000240: 9e0c dcbd fac7 8ebd 8012 7ebe 78e1 68be
00000250: 216d 093e 0d84 89be 8e59 95be 700a b7be
00000260: 34f5 8cbd 8ed4 95bc adc6 163e 0953 a23d
00000270: 9c0d fe3d d3d8 4e3e f29b 2abe 1aca 0bbe
00000280: 0ff5 ffbd 319f c5bd 60e9 04bf a7da 8dbb
00000290: 91b5 733e 5327 303f ec9d c83d 5945 63be
000002a0: 056b e03e 3f36 27be 0856 46be 7057 bbbe
000002b0: fff2 a3be 5ae4 993e 8d11 293c 5efa 0ebc
000002c0: 240b 47bf 8261 733e 5512 cabe 23b4 c73d
000002d0: 3799 cc3e 7995 0bbf ddf2 dcbe 59ec 25be
000002e0: 2310 19be 3b2c c2bc 0a73 8e3d 85c7 6dbe
000002f0: b1d0 363d de13 bf3c b3bb 5cbe f4fa e9bd
00000300: 47e3 aebd dd95 8e3e faf0 98be 0198 b33e
00000310: 2c3f 67be dc19 903e 4dc9 1f3f 40b5 403d
00000320: 3adb 8fbe 5e24 433e 6750 a7be 87ad d83d
00000330: b7f1 19be 6be5 2b3d 2ea5 563e 629e 92be
00000340: 76c0 72be 578f e03e 0d46 2abe 3338 d03d
00000350: 06de b93d 0e96 373e 650c a53e 191d b4be
00000360: bbf3 533d d2cb 623e a30c 89be 7887 9b3e
00000370: 95eb a63e e820 84ba 101f 903b 1639 02be
00000380: 450d 803e 56b4 843e 0757 eabb 47cf 89be
00000390: cd55 2c3e 0615 8e3e 91d9 173e ffd8 52be
000003a0: 5b56 433e 19cb 2ebe 38e2 18be d4a6 243e
000003b0: 9f29 85be 451a 513f b295 4abe 4155 303e
000003c0: 65e1 9dbe faed dfbd 53fe 8d3e bb60 8c3d
000003d0: 9800 113e ac6b 39be dc7a 4fbe e5c1 f03d
000003e0: 8952 1dbe dc83 5fbe d296 0cbd 2f44 813d
000003f0: 8a74 d4bd 2d53 0a3e ba6a 603c 2c30 a3bd
-0.10050932 0.15086335 -0.14105515 0.1492695 0.18159643 0.21066032 -0.10770946 -0.10638477
0.09519625 -0.19288728 0.26876774 -0.060891416 0.0821367 -0.3536925 -0.20108922 0.13436496
0.16659981 0.04446472 -0.042690277 0.35237852 0.016776055 -0.12292262 -0.0013818019 0.18118553
-0.21417913 -0.07660605 -0.21693645 -0.10109934 -0.33361274 -0.03932158 0.048227243 0.12836137
-0.15364441 -0.13692181 0.041025322 -0.13061585 0.052889768 0.1636858 -0.22737145 -0.16344345
-0.07265996 -0.0680958 -0.067869164 0.022378167 0.03927252 -0.31837216 0.17527847 -0.17868905
-0.11720759 -0.027151631 -0.111130536 -0.06254116 -0.089848176 0.15866685 -0.22895865 -0.13677132
0.2612446 -0.08344786 -0.1392048 -0.16753267 -0.28942534 -0.2352615 -0.015115174 0.04259169
-0.025226679 0.08673506 -0.104071945 0.04052055 0.40597364 0.10161194 -0.38664624 -0.13672528
-0.043413624 0.93696743 0.0931262 0.23570788 0.28380325 -0.17037319 -0.3204963 -0.37200195
0.103466965 -0.4744886 0.092706725 0.15687765 -0.4263537 -0.29476005 0.30803448 0.2700716
-0.013707939 0.20769238 0.020449031 0.16697302 0.19684663 -0.01361962 0.21465814 -0.18749654
0.10420719 -0.3328411 0.36660686 -0.19503796 -0.14450935 -0.18231423 -0.16363758 0.15816492
0.2152683 0.10460815 0.21545611 -0.11124123 0.027085938 0.1814884 0.19106981 0.028988253
-0.4001372 0.00159784 0.09611336 0.15333675 0.059741214 -0.26484793 0.19250205 0.21752635
-0.041215856 0.1040185 0.11473418 0.20107877 0.36903173 0.31714547 -0.021994075 -0.2071672
0.41109693 0.008279886 -0.057889502 -0.15132 -0.263185 0.01932966 -0.10753702 -0.07319328
0.27857083 -0.1931217 0.07800111 -0.19291404 0.120929085 0.1067103 -0.24404556 0.14304428
-0.10744594 -0.06971736 -0.24811745 -0.2274226 0.13420536 -0.2685856 -0.29169887 -0.3575015
-0.06882706 -0.01828983 0.14724226 0.07925994 0.124049395 0.201999 -0.16661051 -0.13651314
-0.12497913 -0.09649504 -0.519186 -0.004329044 0.23799731 0.68810004 0.09795746 -0.22194423
0.4383165 -0.16329287 -0.19368756 -0.36590147 -0.3202133 0.3005703 0.010319126 -0.008726684
-0.77751374 0.23767665 -0.3946711 0.09751155 0.39960644 -0.5452495 -0.4315404 -0.1620344
-0.14947562 -0.023702731 0.06955536 -0.23220642 0.044632617 0.023324903 -0.21555977 -0.11424819
-0.085394435 0.27848712 -0.2987135 0.35076907 -0.22582692 0.2814473 0.62416536 0.047047853
-0.28096944 0.19056842 -0.3267853 0.10579973 -0.15033613 0.041966837 0.20961449 -0.28636461
-0.2370623 0.4385936 -0.16628285 0.10166969 0.09075551 0.17928335 0.3223602 -0.3517845
0.05174611 0.22148064 -0.26767454 0.30376792 0.3260161 -0.0010080608 0.004398234 -0.12717089
0.25010124 0.25918835 -0.0071514877 -0.26915953 0.16829605 0.27750415 0.14829089 -0.2059059
0.19075911 -0.17069663 -0.14930046 0.16079265 -0.26008317 0.8168071 -0.19783667 0.17220022
-0.30836025 -0.10934062 0.27733096 0.068543874 0.14160383 -0.1810748 -0.20261711 0.117557324
-0.15363516 -0.21827644 -0.03432352 0.06311833 -0.103737906 0.13508292 0.013697321 -0.079681724

embedder.emb_rnn.bias_ih_l2 f4 [60]
00000000: 887e 813f 9750 7f3f e18d 813f 69a5 613f
00000010: 343b 943f e3b9 6e3f a709 7b3f 26b2 703f
00000020: dd1a 5d3f e129 813f b2d1 763f 9534 803f
00000030: b10f 833f 73ee 9c3f 8e5a 813f 2b81 693f
00000040: 592b 833f 9e76 823f cb57 773f 7488 8b3f
00000050: 1c58 39be d586 153f 7c9c 523f 3cf4 6b3e
00000060: 1c47 a23f 028b 9a3e 59b9 023e 4507 2d3f
00000070: 055f bebd 981f 513f 7dab 063f 162c fb3e
00000080: 4471 8e3f a8f2 8c3f c285 3c3f bbe1 d83e
00000090: 3f6c 24bf b626 fd3e 1dda 96be eabd 2e3e
000000a0: 541a 683f fdab 6d3f c9c4 803f 09de 6b3f
000000b0: 4911 643f 93d9 623f 2165 853f e2db 843f
000000c0: 703e 693f 01b2 743f 39b2 7b3f 7a4b 833f
000000d0: 9c29 6a3f 4d69 6e3f 963a 703f dcb8 693f
000000e0: fbf8 703f de96 693f 0d33 743f fb37 7e3f
1.0116739 0.99732345 1.0121423 0.8814302 1.1580567 0.9325239 0.98061603 0.9402183
0.86369115 1.0090905 0.9641372 1.0016047 1.0239164 1.2260269 1.010576 0.9121272
1.0247604 1.0192449 0.96618336 1.0901017 -0.18100017 0.5840886 0.82270026 0.23042387
1.2677951 0.3018418 0.12766017 0.6758922 -0.09295467 0.81688833 0.5260542 0.49057072
1.1128316 1.1011553 0.736416 0.4235972 -0.6422767 0.49443597 -0.29463282 0.17064634
0.90665174 0.9284056 1.0060054 0.92135674 0.89088875 0.8861324 1.0421487 1.0379603
0.911109 0.9558411 0.9831882 1.0257409 0.9146974 0.93129426 0.93839395 0.912977
0.94129914 0.9124583 0.953904 0.9930417

embedder.emb_rnn.bias_hh_l2 f4 [60]
00000000: 6d40 3f3c 565f 2fbb 7ff7 463c 9dd3 f2bd
00000010: a9da 213e f22f 8abd 90d3 9ebc e4dd 74bd
00000020: 2393 0bbe cbf8 143c dce5 12bd 79f6 d23a
00000030: 09ee c33c 6a76 673e 035f 2d3c 05f9 b3bd
00000040: 88ea ca3c cba3 9d3c 027f 0abd 1886 b83d
00000050: f22a 97bf e3f2 d4be 5f8e 35be 0803 45bf
00000060: 381d 893e 7eba 32bf 5851 5fbf 69f1 a5be
00000070: f6e5 8bbf 0f81 3bbe f7a8 f2be e169 02bf
00000080: 5b14 e73d db27 cf3d 79f4 86be 608f 13bf
00000090: 2c36 d2bf c96c 01bf 72b6 a5bf f050 54bf
000000a0: a451 f3bd 40c8 66bd 06fb a03b 533b ccbe
000000b0: 9dea 09be 2153 c3bd 6466 8a3d e84a 673c
000000c0: 646f c5bd bc6d 9bbd b65a 08bd feee 063c
000000d0: cc59 c1bd 3c2b 91bd 335d a8bd 52ed 97bd
000000e0: e1ce 5fbd fe60 c9bd d441 81bd 8e57 34bc
0.011673075 -0.0026759706 0.012143969 -0.11856768 0.15806068 -0.06747426 -0.01938799 -0.059781924
-0.13630347 0.00909252 -0.035863742 0.0016095183 0.023917215 0.22603765 0.010581735 -0.08787731
0.024770036 0.019243142 -0.03381253 0.09009951 -1.1809981 -0.41591558 -0.17730092 -0.7695775
0.26780105 -0.69815814 -0.87233496 -0.32410744 -1.0929554 -0.1831095 -0.47394535 -0.5094281
0.112831794 0.10115024 -0.26358393 -0.5764065 -1.6422782 -0.5055662 -1.2946303 -0.82936
-0.11880806 -0.056343317 0.004912737 -0.3988901 -0.13468404 -0.0953734 0.06757811 0.01411698
-0.09640387 -0.075892895 -0.033289634 0.008235691 -0.094409555 -0.070883244 -0.08220901 -0.07418312
-0.054640654 -0.09832953 -0.06311384 -0.011007203
