output/FEM_GAN_30/model.pt (torch, 153208 bytes, 65 tensors)

embedder.emb_rnn.weight_ih_l0 f4 [60, 10]
-0.28188077 -0.030402647 0.23077637 -0.17197539 -0.024552274 -0.16790499 -0.23305115 -0.24558027
0.005201758 0.07439753 0.026781242 0.17627135 0.5663259 0.19098113 0.14317285 0.0008725175
-0.30258963 0.034143057 0.01831379 -0.23633331 -0.16191685 -0.20456082 -0.45132345 -0.28562674
-0.26474318 -0.33012745 0.20495996 -0.226796 0.09230049 -0.11779606 -0.017437512 -0.13005655
-0.4619426 -0.24072696 0.115777664 0.20022766 0.42128626 0.51795936 0.33550674 0.36913714
0.5561492 0.15041219 -0.59364593 -0.58275217 -0.48751432 -1.549798 0.6259649 0.41238213
0.13098781 0.5417386 0.47194427 -0.5063019 -0.359879 -0.2552616 -0.4277387 -0.70214
0.08853622 -0.30096355 -0.32341453 -0.14027971 -0.9489489 0.11763506 0.12971053 0.19661939
0.42578447 1.073208 -0.40102124 -0.28212214 0.0091187935 -0.116458654 0.61764157 0.18468471
-0.20166215 -0.29311106 0.24787323 -0.91479266 0.2887526 0.25185958 -0.07145141 0.12715933
0.47221276 -0.020190258 -0.0999585 0.17414868 0.13380668 0.052629754 0.11050331 0.34265348
0.27261573 0.18464021 -0.49022833 -0.15392174 0.19642271 0.09169443 -0.017798895 -0.3192627
-0.069081336 0.23868251 0.11066135 0.11383909 -0.17497008 -1.6737007 -1.4690648 -1.3783123
-1.535696 -1.4378868 -0.9824669 -0.85175115 -0.7379517 -0.84895545 -1.1659701 0.25081226
-0.2743342 0.28436962 -0.20632555 -0.046011556 0.36260238 0.32468966 0.32940167 0.14853637
0.37645078 0.008543626 0.25822803 0.2540956 0.37090626 -0.44717386 0.07018348 0.078286484
0.16850881 -0.01573289 -0.87716067 -0.14667036 0.4985775 0.44786 0.31248942 0.8045943
-0.13858062 -0.64771855 -0.47499806 -0.19504185 -0.07960017 0.052075684 0.09334984 0.07023145
-0.30636346 0.08530419 -0.14758459 0.008657243 0.040173754 -0.06345783 -0.13776265 0.1730294
0.27000687 0.21488413 0.3257512 0.34321722 0.023793831 0.20648102 0.022249812 0.064148
0.8568971 -0.5601415 -0.7809516 -0.7545016 -0.8213019 -0.51666486 0.16069345 -0.20367466
0.29679835 -0.028148374 -0.2225309 -0.31091928 -0.102798074 0.0023995524 0.10086857 -0.2554567
-0.11979103 -0.19559354 -0.4048971 -0.31623456 -0.15921642 -0.083319895 -0.21667531 -0.4275416
0.012570515 -0.14657678 0.16029693 -0.029374965 0.3834356 0.032106634 -0.47099704 0.120342866
-0.3112937 -0.31501365 0.13464198 -0.22165136 0.11549686 0.015804537 -0.102186024 -0.08809304
-0.2763908 -0.114492245 -0.12696363 -0.118313454 0.30825266 -0.03140044 -0.36654246 -0.40850434
-0.05992353 -0.0065066395 -0.29474753 0.15726982 -0.042314697 -0.25979868 0.21831878 0.18701646
-0.3307426 -0.3513348 -0.19610891 -0.6397967 -1.5051999 -0.66584617 -0.82177824 -0.32199138
-0.05423603 0.490588 -0.17201968 0.119753025 -0.08892019 0.34765857 -0.19116472 0.46049818
0.41020176 0.47448418 0.5071943 0.32463735 -0.65856737 -0.2540161 -0.5008635 -0.37116623
-0.52784014 0.39875633 0.27489203 0.12533587 -0.11385051 0.2575198 -0.42991063 -0.4404821
-0.24616477 -0.0629532 -0.2796269 -0.062883 -0.35055262 -0.19282655 -0.062428456 0.0017308863
00000000: ad52 90be f90e f9bc a450 6c3e 511a 30be
00000010: da21 c9bc 49ef 2bbe f6a4 6ebe 6579 7bbe
00000020: 8273 aa3b bb5d 983d 5664 db3c 7a80 343e
00000030: bcfa 103f 8f90 433e e79b 123e a9b9 643a
00000040: 07ed 9abe 97d9 0b3d cd06 963c 5c01 72be
00000050: 88cd 25be 6478 51be de13 e7be ab3d 92be
00000060: 6b8c 87be 7706 a9be 06e1 513e 363d 68be
00000070: 0a08 bd3d 103f f1bd 1dd9 8ebc 8b2d 05be
00000080: be83 ecbe 2181 76be d71c ed3d 7b08 4d3e
00000090: d5b2 d73e fc98 043f 8ac7 ab3e 8bff bc3e
000000a0: cb5f 0e3f a705 1a3e 2ef9 17bf 3f2f 15bf
000000b0: 7a9b f9be c85f c6bf 3c3f 203f c023 d33e
000000c0: ab21 063e 62af 0a3f aea2 f13e 009d 01bf
000000d0: 0f42 b8be a6b1 82be 9100 dbbe 72bf 33bf
000000e0: 7a52 b53d e517 9abe 9796 a5be 7ca5 0fbe
000000f0: 51ee 72bf a6ea f03d d6d2 043e 9856 493e
00000100: 6c00 da3e e15e 893f a852 cdbe 5072 90be
00000110: fe66 153c e081 eebd c21d 1e3f fd1d 3d3e
00000120: 8680 4ebe a712 96be 7bd2 7d3e da2f 6abf
00000130: 61d7 933e bdf3 803e 1e55 92bd 0e36 023e
00000140: dfc5 f13e 0a66 a5bc 0bb7 ccbd 0854 323e
00000150: 9e04 093e 4c92 573d 8f4f e23d 4770 af3e
00000160: 4a94 8b3e 5312 3d3e 35ff fabe a99d 1dbe
00000170: 0923 493e 4aca bb3d fdce 91bc 6776 a3be
00000180: 847a 8dbd 3069 743e 6ba2 e23d 7824 e93d
00000190: 5b2b 33be d33b d6bf 510a bcbf 8a6c b0bf
000001a0: b091 c4bf ad0c b8bf f382 7bbf 5d0c 5abf
000001b0: 67ea 3cbf 2555 59bf 823e 95bf 776a 803e
000001c0: 8875 8cbe e598 913e 0147 53be 9d76 3cbd
000001d0: 05a7 b93e b93d a63e 56a7 a83e eb19 183e
000001e0: 28be c03e 91fa 0b3c 7736 843e d218 823e
000001f0: 6de7 bd3e f9f3 e4be 5bbc 8f3d aa54 a03d
00000200: 938d 2c3e 43e2 80bc 9a8d 60bf c130 16be
00000210: 8d45 ff3e e84d e53e 9dfe 9f3e e4f9 4d3f
00000220: 14e8 0dbe e2d0 25bf f232 f3be 0db9 47be
00000230: 6a05 a3bd 504d 553d 332e bf3d 82d5 8f3d
00000240: acdb 9cbe f7b3 ae3d 6a20 17be 1cd7 0d3c
00000250: 3c8d 243d 2ef6 81bd a711 0dbe 9e2e 313e
00000260: 573e 8a3e 960a 5c3e dcc8 a63e 2bba af3e
00000270: 48eb c23c c36f 533e 3d45 b63c 0760 833d
00000280: 9c5d 5b3f 6f65 0fbf 72ec 47bf 0427 41bf
00000290: d740 52bf 2644 04bf d38c 243e 1790 50be
000002a0: f4f5 973e 6b97 e6bc 24df 63be d030 9fbe
000002b0: cc87 d2bd cf41 1d3b 2e94 ce3d 38cb 82be
000002c0: 0055 f5bd ac49 48be ac4e cfbe 7fe9 a1be
000002d0: a109 23be 9fa3 aabd 22e0 5dbe bce6 dabe
000002e0: 90f4 4d3c 3918 16be e124 243e c4a3 f0bc
000002f0: ac51 c43e 3f82 033d 8626 f1be 5276 f63d
00000300: e361 9fbe 7849 a1be 96df 093e 93f8 62be
00000310: 9e89 ec3d 8478 813c e846 d1bd 206a b4bd
00000320: 1883 8dbe e97a eabd c102 02be 534e f2bd
00000330: 4bd3 9d3e bf9d 00bd 74ab bbbe 7b27 d1be
00000340: 6072 75bd a635 d5bb 26e9 96be 570b 213e
00000350: 2d52 2dbd 5504 85be f58e 5f3e 3e81 3f3e
00000360: 1857 a9be 28e2 b3be c6d0 48be b7c9 23bf
00000370: 64aa c0bf e574 2abf 0f60 52bf 0edc a4be
00000380: 9926 5ebd 5a2e fb3e ed25 30be 1341 f53d
00000390: ca1b b6bd 4e00 b23e afc0 43be 6bc6 eb3e
000003a0: f705 d23e 97ef f23e 7cd7 013f de36 a63e
000003b0: df97 28bf 660e 82be 9738 00bf 8009 bebe
000003c0: 8820 07bf ca29 cc3e a6be 8c3e 0c58 003e
000003d0: 752a e9bd a3d9 833e 3f1d dcbe df86 e1be
000003e0: 9e12 7cbe 9bed 80bd 422b 8fbe cdc8 80bd
000003f0: a27b b3be 5374 45be fbb4 7fbd e8de e23a

embedder.emb_rnn.weight_hh_l0 f4 [60, 20]
-0.07880208 0.24452762 -0.08836689 -0.16233556 0.009650262 0.46294677 -0.06596976 0.21201958
-0.20677042 -0.19224313 -0.2303112 0.13033766 0.33844486 0.5183373 -0.06566825 -0.33141643
-0.12849094 0.03151537 0.3828826 -0.12550955 -0.062202107 0.3424006 -0.12716162 -0.40432185
0.09079672 0.07683317 0.02068826 0.1535627 -0.1953067 -0.27566713 0.10822326 -0.4052957
0.027956836 0.07205649 -0.10252566 -0.11416798 -0.08023026 -0.025402663 0.15837361 0.12089763
0.21328057 0.11928875 0.15653512 -0.21408258 0.15909596 0.05112256 0.16434637 -0.07297567
-0.0663014 -0.18413582 -0.10671593 0.073344685 0.033772074 0.17276259 -0.27553827 0.14981379
0.11720873 -0.04027717 -0.06987702 -0.17993973 0.44842544 0.028143942 0.029781953 0.044860184
-0.27133018 0.0299409 -0.03915665 0.12856334 -0.39324343 -0.11393201 -0.18035363 -0.36154664
0.014009193 0.21903975 -0.0049275854 -0.38552892 0.023475239 -0.021785537 0.09055071 -0.21975109
-0.09504262 -0.14982273 0.16350584 -0.014764733 -0.2889438 -0.21501967 0.037713815 -0.18848115
-0.20160635 -0.22461517 -0.19314882 -0.25431195 -0.55308515 -0.19976638 -0.29862207 -0.103834786
-0.1314391 -0.18331899 -0.35830098 0.10043768 0.3393324 -0.45858765 -0.003997144 -0.21113501
-0.3954177 -0.0011863058 0.07921694 0.030885579 0.031660315 0.049514506 0.045738228 -0.18658282
0.31633297 0.1245332 -0.10167638 0.27867275 -0.21459374 -0.12999012 0.3952684 -0.051219024
0.21132348 0.039916456 0.026124591 0.089087114 -0.11189933 -0.028398853 -0.4002938 -0.21418636
0.039590463 0.036986466 -0.2968299 -0.36206093 -0.42813572 0.17844954 0.05302688 -0.3775894
-0.15452789 0.32788375 -0.15302888 -0.0035573633 -0.03378806 0.36461884 -0.284775 -0.087955005
-0.17790245 0.050755724 0.14959829 -0.023973476 0.15292835 -0.078886405 -0.035655726 0.033302337
-0.17191958 0.2400454 -0.14004672 -0.34419006 0.00085325434 -0.19419494 -0.058478527 0.09909355
-0.05113812 -0.17985955 -0.034306888 -0.07981982 0.2981572 -0.3965679 -0.15935913 0.38046685
0.042605426 -0.4351074 -0.061306503 -0.13679284 -0.14283295 -0.26277426 0.25664452 -0.03568871
0.18573834 -0.089211494 0.3491473 0.25214648 -0.3087407 0.60401785 0.039149188 -0.2502508
-0.05080881 -0.02993912 -0.0026651085 0.2553333 -0.1363335 0.1257751 0.20380212 -0.054435648
0.09813047 -0.17145243 -0.22074191 -0.062668316 -0.20873329 -0.014187908 0.20607425 -0.08947281
0.21792905 0.15154503 -0.072047085 -0.009513112 -0.03923213 -0.42860374 0.12997319 0.11298294
0.040284097 0.14723572 0.3144974 0.4157699 0.01289029 0.06940627 -0.19029671 0.09672455
0.1102579 0.30335864 0.24251044 0.091941155 -0.023251956 0.044608895 -0.02464795 -0.42464712
-0.06562446 -0.090550326 0.062073186 -0.17406365 -0.19792193 0.010368854 -0.14301234 -0.047399588
-0.18458033 0.15508875 0.015037432 -0.15632923 0.32629657 0.117462754 0.59202886 -0.13665089
0.18764721 -0.10502616 -0.014108456 0.088934794 0.07602941 0.4003519 -0.13714097 -0.29727313
-0.38671577 0.20105442 -0.04034382 -0.0056064664 -0.051808335 0.2656649 -0.0070138206 -0.38401175
00000000: fc62 a1bd 7365 7a3e b3f9 b4bd 4b3b 26be
00000010: 221c 1e3c 5c07 ed3e 271b 87bd a91b 593e
00000020: a0bb 53be 62db 44be b3d6 6bbe 3c77 053e
00000030: a548 ad3e c1b1 043f 137d 86bd 6aaf a9be
00000040: 2193 03be 4316 013d 3009 c43e 9385 00be
00000050: a3c7 7ebd 224f af3e a836 02be 4603 cfbe
00000060: a1f3 b93d b65a 9d3d 6d7a a93c 8a3f 1d3e
00000070: 7bfe 47be 3e24 8dbe 28a4 dd3d eb82 cfbe
00000080: bc05 e53c 5a92 933d f9f8 d1bd e7d0 e9bd
00000090: c34f a4bd 3f19 d0bc b12c 223e 2d99 f73d
000000a0: 3966 5a3e a94d f43d be4a 203e 7738 5bbe
000000b0: 0dea 223e e465 513d 6a4a 283e 4574 95bd
000000c0: 07c9 87bd 1a8e 3cbe e28d dabd bd35 963d
000000d0: 9654 0a3d ade8 303e 5a13 8dbe c968 193e
000000e0: 210b f03d acf9 24bd af1b 8fbd 1f42 38be
000000f0: 0598 e53e 208e e63c 48f9 f33c 50bf 373d
00000100: caeb 8abe 9e46 f53c b962 20bd 1ca6 033e
00000110: 3457 c9be 3055 e9bd 9fae 38be a41c b9be
00000120: d086 653c f54b 603e 9577 a1bb 0c64 c5be
00000130: 254f c03c 9577 b2bc a772 b93d 6e06 61be
00000140: b5a5 c2bd 216b 19be 136e 273e c7e7 71bc
00000150: 71f0 93be 1e2e 5cbe cd79 1a3d 3401 41be
00000160: e571 4ebe 8501 66be cec8 45be 2d35 82be
00000170: fd96 0dbf 8f8f 4cbe fee4 98be 55a7 d4bd
00000180: f997 06be f9b7 3bbe 3a73 b7be 45b2 cd3d
00000190: fabc ad3e 00cc eabe 79fa 82bb c733 58be
000001a0: 3074 cabe d17d 9bba 7e3c a23d c103 fd3c
000001b0: 3fae 013d b9cf 4a3d 0258 3b3d 910f 3fbe
000001c0: 65f6 a13e 430b ff3d b53b d0bd 32ae 8e3e
000001d0: 76be 5bbe 211c 05be 9f60 ca3e 0acb 51bd
000001e0: 2f65 583e 707f 233d 3d03 d63c 4e73 b63d
000001f0: 7a2b e5bd b6a4 e8bc 4ff3 ccbe ab53 5bbe
00000200: 9c29 223d 1f7f 173d 17fa 97be 0d60 b9be
00000210: 9b34 dbbe 7abb 363e b732 593d 6653 c1be
00000220: 8f3c 1ebe 61e0 a73e 9ab3 1cbe a722 69bb
00000230: 5965 0abd 52af ba3e 07ce 91be c121 b4bd
00000240: 0f2c 36be 3ce5 4f3d 4b30 193e 0664 c4bc
00000250: 4099 1c3e 328f a1bd bd0b 12bd 0868 083d
00000260: b00b 30be 76ce 753e 6868 0fbe ae39 b0be
00000270: eeac 5f3a 0adb 46be 2e87 6fbd 8ff1 ca3d
00000280: 3576 51bd 1a2d 38be 6185 0cbd 9378 a3bd
00000290: 0fa8 983e f30a cbbe 0a2f 23be 8dcc c23e
000002a0: 0783 2e3d 66c6 debe 871c 7bbd 6c13 0cbe
000002b0: cd42 12be 598a 86be e966 833e 532e 12bd
000002c0: 3132 3e3e 84b4 b6bd 6fc3 b23e 5819 813e
000002d0: 4313 9ebe eaa0 1a3f e65a 203d df20 80be
000002e0: e61c 50bd e342 f5bc 1aa9 2ebb 0cbb 823e
000002f0: 029b 0bbe 30cb 003e 81b1 503e eaf7 5ebd
00000300: a1f8 c83d 3a91 2fbe 2b0a 62be 3f58 80bd
00000310: 2ebe 55be 6674 68bc 2105 533e 853d b7bd
00000320: cb28 5f3e 9f2e 1b3e 6c8d 93bd e2dc 1bbc
00000330: dfb1 20bd f371 dbbe b117 053e 9a63 e73d
00000340: f000 253d f6c4 163e ce05 a13e cbdf d43e
00000350: cb31 533c e024 8e3d 24dd 42be 8517 c63d
00000360: e5ce e13d d351 9b3e a854 783e a54b bc3d
00000370: e37a bebc d1b7 363d 7fea c9bc 596b d9be
00000380: 1e66 86bd 7372 b9bd 7440 7e3d be3d 32be
00000390: 0cac 4abe 20e2 293c d471 12be 1226 42bd
000003a0: a002 3dbe 96cf 1e3e 905f 763c c514 20be
000003b0: 5810 a73e 5090 f03d 348f 173f 36ee 0bbe
000003c0: 9726 403e f517 d7bd 2727 67bc 7223 b63d
000003d0: 4fb5 9b3d edfa cc3e af6e 0cbe 2f34 98be
000003e0: 9cff c5be 36e1 4d3e 903f 25bd 73b6 b7bb
000003f0: fa34 54bd 3b05 883e 31d4 e5bb 309d c4be

embedder.emb_rnn.bias_ih_l0 f4 [60]
0.83688974 0.96597135 0.9467374 0.84339786 0.8701182 0.8571711 0.97233015 0.9909158
1.0816721 1.0235796 1.1618302 0.98532546 0.8357025 0.85025674 1.0088124 1.1774907
0.9775734 1.0472625 0.88974005 1.1694119 0.49057588 0.6821222 0.3226942 0.9743429
0.8223538 0.45004225 0.5771259 0.7662801 0.84255993 0.73684055 0.34040108 0.45593202
0.7075158 0.654436 0.92567694 0.5782873 1.288872 0.84015393 0.5842189 0.23574263
1.0125022 0.98887974 1.0091064 0.9634225 0.9915072 0.89888436 0.94561857 0.95771223
1.1404525 0.8971648 0.6570175 0.87212443 1.0023308 0.870725 1.0338192 1.0377388
1.1779664 0.90601635 0.9397689 1.1581465
00000000: 683e 563f e649 773f 625d 723f ece8 573f
00000010: 11c0 5e3f 916f 5b3f a1ea 783f a8ac 7d3f
00000020: 3b74 8a3f a804 833f dab6 943f 4a3e 7c3f
00000030: 99f0 553f 6daa 593f c420 813f 04b8 963f
00000040: 4042 7a3f b30c 863f 01c6 633f 4aaf 953f
00000050: c32c fb3e 8f9f 2e3f 2d38 a53e 896e 793f
00000060: c785 523f f06b e63e 86be 133f ef2a 443f
00000070: 02b2 573f 95a1 3c3f 0d49 ae3e ec6f e93e
00000080: c11f 353f 1e89 273f 2af9 6c3f a30a 143f
00000090: c2f9 a43f 5414 573f 5f8f 153f 8466 713e
000000a0: ac99 813f 3927 7d3f 662a 813f dba2 763f
000000b0: 6ad3 7d3f 491d 663f 0f14 723f a12c 753f
000000c0: 59fa 913f 98ac 653f 4d32 283f 8c43 5f3f
000000d0: 604c 803f d5e7 5e3f 3054 843f a0d4 843f
000000e0: 9ac7 963f b0f0 673f b294 703f 253e 943f

embedder.emb_rnn.bias_hh_l0 f4 [60]
-0.16310775 -0.034030896 -0.05326126 -0.15660098 -0.1298823 -0.14283405 -0.027674582 -0.009081058
0.081671834 0.02357374 0.1618241 -0.014674312 -0.16429381 -0.14974192 0.008812802 0.17748341
-0.022424737 0.047257334 -0.110257454 0.16940843 -0.5094242 -0.31787884 -0.6773017 -0.025659824
-0.17764884 -0.54995453 -0.42287368 -0.23372115 -0.15744285 -0.26316246 -0.65959847 -0.544065
-0.29248065 -0.34555975 -0.0743238 -0.4217096 0.2888623 -0.15984552 -0.41578037 -0.76425517
-0.0012163707 0.0015067692 0.044672217 -0.061710157 0.0594976 -0.15335846 -0.11112605 -0.10949644
0.14398557 -0.14777811 -0.3534873 -0.14648208 -0.0152030615 -0.055365358 0.048771963 0.02209309
0.48163998 -0.12437438 -0.072021134 0.18986994
00000000: b805 27be fb63 0bbd 7b28 5abd 025c 20be
00000010: deff 04be 1743 12be ceb5 e2bc b8c8 14bc
00000020: 9043 a73d b71d c13c 38b5 253e 876c 70bc
00000030: a33c 28be f255 19be 9263 103c 36be 353e
00000040: 15b4 b7bc e890 413d a9ce e1bd 6779 2d3e
00000050: a069 02bf 04c1 a2be a563 2dbf 8d34 d2bc
00000060: 94e9 35be d2c9 0cbf e682 d8be 9954 6fbe
00000070: b338 21be 3bbd 86be 72db 28bf d847 0bbf
00000080: 06c0 95be 35ed b0be 1437 98bd 52ea d7be
00000090: c2e5 933e 8bae 23be 2ae1 d4be 3aa6 43bf
000000a0: a16e 9fba c97e c53a 37fa 363d cac3 7cbd
000000b0: c1b3 733d 000a 1dbe 0e96 e3bd ab3f e0bd
000000c0: f470 133e 2553 17be 4afc b4be 66ff 15be
000000d0: 4316 79bc c9c6 62bd 1cc5 473d 91fc b43c
000000e0: 8499 f63e ffb7 febd d17f 93bd 446d 423e

embedder.emb_rnn.weight_ih_l1 f4 [60, 20]
0.33285907 -0.038360465 0.2750186 -0.07244586 -0.028694028 -0.12935123 0.11183435 -0.24012612
0.15095606 -0.05909239 -0.12446505 0.10880979 -0.22594443 -0.11746093 -0.037536785 -0.14049172
0.23643738 0.17468937 -0.1420675 0.21363966 -0.2673916 0.045188155 0.23678756 -0.15183386
0.12017074 0.45045513 -0.062401906 0.1198883 0.10408351 -0.053743634 0.068587646 0.21339522
0.05579474 0.2927682 -0.12043895 -0.03835391 -0.14495039 -0.1620102 -0.12453826 -0.066191554
0.23578486 0.105498515 -0.08411421 0.06235137 -0.30841318 0.32642052 -0.020138843 0.44969568
-0.270494 0.059025265 0.0051550507 0.17133953 -0.55538315 0.46556982 0.10678939 0.058698058
-0.26366827 -0.15886645 0.4464958 0.06377059 0.06206474 0.21142541 -0.26039425 0.4030039
-0.16182287 -0.32634756 0.1515136 0.062257364 -0.17268689 0.12845893 0.17840347 0.23095086
0.3826419 0.053787753 -0.20359708 0.20991328 0.03985842 0.009707519 0.1296125 0.059508275
-0.21108787 0.4492674 -0.03048236 -0.5000103 0.16339582 0.44913578 -0.32064533 0.12349154
0.1050529 -0.2630363 0.019066969 -0.26487195 -0.3830868 0.058889728 -0.19951338 0.04369129
-0.26438206 0.28808063 0.02202126 0.05465134 0.059901726 0.1314686 -0.19816832 0.096140705
-0.27021262 -0.70560855 0.09053713 -0.031318367 -0.39100072 0.8624917 0.14383467 -0.1883245
0.0034290445 0.38964438 0.13500024 0.019883458 -0.57632005 -0.08253516 0.5632217 -0.2662641
-0.19559832 -0.13141708 -0.2917414 -0.9387088 -0.18076995 -0.5339605 -0.41068622 -0.2658221
-0.1966452 -0.11897052 -0.16926414 -0.64398557 0.04739853 -0.032946855 -0.046996262 0.0976242
0.29611802 0.1946488 -0.010475592 -0.23977068 0.12474094 0.13803145 0.38860452 0.3264732
-0.1668532 0.24613349 0.12185521 0.18487209 0.049001765 -0.26240778 -0.22225061 0.14534295
0.57909703 0.12336688 -0.2701194 -0.17190221 0.5598466 -0.15616728 0.17923647 0.037902873
-0.06557757 0.5561125 -0.09361557 0.26401237 0.18772379 -0.4558123 -0.3130192 1.0487126
-0.17942065 -0.43056235 0.03549045 -0.15093265 -0.5157499 0.00981199 0.24647759 -0.08921241
-0.005810336 0.14432777 -0.11711939 0.006697494 -0.7466422 0.17286819 -0.2714221 -0.05432714
0.1568006 -0.19880538 -0.025823804 -0.09350398 -0.3383845 -0.02118714 -0.326732 0.003062917
0.06432651 -0.399265 -0.28268906 0.21585211 0.22961245 0.04071149 -0.08662074 -0.20277508
0.12479722 0.42978406 0.21990247 -0.055250905 0.23177864 2.9898913 0.036195964 0.332963
0.04594613 0.09195123 -0.24794403 -0.0416518 0.038881194 0.007714478 0.060359944 -0.06294993
0.6292157 0.28124803 0.34393713 0.022210274 -0.0846184 0.28257528 -0.16876732 -0.09178082
-0.14143932 0.16219978 -0.17757885 -0.44754884 0.13273758 -0.42158952 0.29355538 0.0143391015
-0.330262 -0.28936148 -0.20905745 0.10828192 0.1271678 0.2399652 0.33852005 0.18110895
-0.120616585 -0.20553732 0.18879639 0.10849345 -0.0014060102 -0.35467952 0.46251246 0.13277915
0.097838014 -0.14186727 0.30739096 0.4377519 -0.68124443 -0.53425926 -0.12512659 -0.12038084
00000000: 816c aa3e dd1f 1dbd 3dcf 8c3e 7f5e 94bd
00000010: bd0f ebbc a674 04be 6809 e53d 9fe3 75be
00000020: 3a94 1a3e dd0a 72bd 88e7 febd abd7 de3d
00000030: fa5d 67be 5b8f f0bd 2cc0 19bd 10dd 0fbe
00000040: a41c 723e c5e1 323e 257a 11be 5bc4 5a3e
00000050: 8de7 88be 3717 393d 7078 723e 567a 1bbe
00000060: 141c f63d 0ea2 e63e 2499 7fbd ff87 f53d
00000070: bc29 d53d 4922 5cbd ae77 8c3d 4784 5a3e
00000080: 0689 643d b7e5 953e b2a8 f6bd fd18 1dbd
00000090: e06d 14be 00e6 25be ea0d ffbd 708f 87bd
000000a0: 9671 713e 9b0f d83d 1244 acbd 2664 7f3d
000000b0: 55e8 9dbe 9720 a73e 37fa a4bc 833e e63e
000000c0: 317e 8abe 7ac4 713d b3eb a83b a173 2f3e
000000d0: 972d 0ebf 2b5f ee3e 65b4 da3d 606d 703d
000000e0: 87ff 86be e3ad 22be 199b e43e 289a 823d
000000f0: 9937 7e3d e77f 583e 6552 85be 8756 ce3e
00000100: e5b4 25be 0717 a7be 6226 1b3e 9401 7f3d
00000110: d5d4 30be bd8a 033e 66af 363e 627e 6c3e
00000120: a4e9 c33e 8c50 5c3d c17b 50be 82f3 563e
00000130: 9542 233d 490c 1f3c 24b9 043e f3be 733d
00000140: 6b27 58be 6006 e63e 24b6 f9bc ad00 00bf
00000150: 3c51 273e 20f5 e53e a02b a4be 22e9 fc3d
00000160: fa25 d73d b2ac 86be 5532 9c3c 4c9d 87be
00000170: f423 c4be 5b36 713d 3c4d 4cbe a3f5 323d
00000180: 165d 87be 4e7f 933e ee65 b43c 15da 5f3d
00000190: 835b 753d b49f 063e a3ec 4abe 6be5 c43d
000001a0: 4f59 8abe c3a2 34bf 886b b93d b047 00bd
000001b0: 3f31 c8be 42cc 5c3f 6549 133e 23d8 40be
000001c0: d2b9 603b 787f c73e 813d 0a3e a2e2 a23c
000001d0: b689 13bf 3208 a9bd 4c2f 103f c553 88be
000001e0: ed4a 48be 3392 06be 215f 95be 384f 70bf
000001f0: c21b 39be a3b1 08bf 7745 d2be d619 88be
00000200: 5c5d 49be d1a6 f3bd 9453 2dbe 3ddc 24bf
00000210: f624 423d 48f3 06bd 277f 40bd 32ef c73d
00000220: c89c 973e 0452 473e d1a1 2bbc 7286 75be
00000230: 2e78 ff3d 1e58 0d3e 2cf7 c63e 7f27 a73e
00000240: 91db 2abe 6b0a 7c3e 398f f93d 1c4f 3d3e
00000250: 13b6 483d 505a 86be aa95 63be c8d4 143e
00000260: b43f 143f c6a7 fc3d 174d 8abe 2207 30be
00000270: 1b52 0f3f 51ea 1fbe c489 373e 0b40 1b3d
00000280: 884d 86bd 645d 0e3f 85b9 bfbd a12c 873e
00000290: aa3a 403e 3b60 e9be 0d44 a0be 373c 863f
000002a0: 0cba 37be ab72 dcbe 6f5e 113d 178e 1abe
000002b0: 2f08 04bf 78c2 203c 9f64 7c3e ffb4 b6bd
000002c0: a264 bebb a9ca 133e 4adc efbd a776 db3b
000002d0: f123 3fbf 5c04 313e d6f7 8abe 2386 5ebd
000002e0: 5690 203e a393 4bbe 718c d3bc 047f bfbd
000002f0: bc40 adbe a790 adbc 6b49 a7be 38bb 483b
00000300: 9ebd 833d 766c ccbe 9fbc 90be 5608 5d3e
00000310: 871f 6b3e 17c1 263d 3766 b1bd 45a4 4fbe
00000320: af95 ff3d a80c dc3e 1d2e 613e c64e 62bd
00000330: 6157 6d3e 615a 3f40 3842 143d 207a aa3e
00000340: 0232 3c3d ed50 bc3d 0ae5 7dbe 149b 2abd
00000350: e341 1f3d bbc9 fc3b fd3b 773d e5eb 80bd
00000360: 4814 213f beff 8f3e 8718 b03e 52f2 b53c
00000370: 694c adbd b5ad 903e 57d1 2cbe 95f7 bbbd
00000380: 78d5 10be b317 263e 3bd7 35be 1f25 e5be
00000390: 5cec 073e 95da d7be e44c 963e 8dee 6a3c
000003a0: 1a18 a9be 3027 94be 2813 56be e9c2 dd3d
000003b0: 4738 023e 70b9 753e 8052 ad3e a074 393e
000003c0: d405 f7bd 6078 52be d753 413e d031 de3d
000003d0: e049 b8ba 8e98 b5be 6fce ec3e 42f7 073e
000003e0: 4c5f c83d a745 11be 5962 9d3e 0421 e03e
000003f0: 0966 2ebf 37c5 08bf 2f21 00be 3b8a f6bd

embedder.emb_rnn.weight_hh_l1 f4 [60, 20]
-0.06581167 -0.21061985 0.032654505 0.14628446 0.29240012 -0.065069176 -0.16869108 0.08491246
-0.033081185 -0.18717015 0.35725197 -0.011951751 0.023902832 -0.12078055 0.3747444 0.13866445
-0.2329904 0.291615 -0.0661478 0.17944828 0.3110149 -0.6089922 0.33496603 0.27531523
0.03967469 -0.025929498 -0.12808132 -0.0549547 -0.01877037 -0.2313998 0.36784762 0.06514359
0.027300442 0.1563246 0.09669461 -0.120267175 -0.083867945 0.01484152 0.012534884 0.17109366
0.12945355 0.1670854 -0.0069127968 -0.16264473 -0.20645483 0.11495876 -0.047819518 0.21589859
0.3233403 0.15584716 -0.2461365 0.13771467 0.032547113 0.21672583 -0.5670358 0.024435693
-0.18898995 0.2102836 -0.49168983 -0.1513865 0.10882617 -0.14189768 0.084303305 -0.027629685
-0.21681443 -0.17557056 0.09059701 0.07564002 0.23673604 -0.20442848 -0.040724788 -0.19846775
-0.16039293 -0.06224364 -0.42803684 -0.07946161 -0.116981514 0.056215756 0.28283772 -0.049391765
-0.16324843 0.15234552 -0.327895 -0.058717374 -0.26563644 -0.12525576 -0.1163299 0.10224897
-0.10023472 -0.21339257 -0.33677328 0.2644255 0.12000143 -0.23231854 0.17931882 0.16766319
-0.013098936 -0.021468287 -0.056076568 0.04645268 -0.34727067 0.28880677 0.022352012 0.022203889
-0.4230671 -0.032115858 0.33229187 0.052961964 0.1784121 0.012571022 -0.12786317 0.32510123
0.35100025 0.13476905 -0.7193226 -0.09132705 -0.4421993 0.09072494 -0.21342415 -0.36847255
0.16565819 0.267457 0.1655737 -0.38026866 -0.39847615 0.15342884 0.084434584 -0.19139995
0.3913767 0.17512536 0.015391894 -0.22462337 -0.04058318 0.24290508 -0.014133158 0.098176636
-0.24499632 0.009148932 -0.060279492 -0.4297716 -0.30822203 0.19551338 -0.31940752 -0.088186875
-0.15052858 0.06358879 0.3774561 0.08536309 -0.112891726 -0.18845676 -0.19085471 -0.030139122
0.31589556 -0.07932278 0.39563844 -0.21413642 -0.0960176 0.12014655 0.48768815 -0.25177097
-0.464143 -0.15010941 -0.46786016 -0.21750422 -0.44524178 -0.04780443 0.52125347 0.0128793325
0.048934955 -0.043889087 -0.022817623 0.10036803 0.26253527 -0.49855474 0.5417768 -0.29317632
-0.4363532 -0.35373926 0.33187032 0.16825865 -0.06680082 0.06632078 -0.1702985 0.16834737
0.17093167 -0.22682787 0.014192043 -0.18721275 0.2678214 -0.0840542 -0.08845771 0.0792662
0.22026454 -0.2502142 -0.16833273 -0.02661905 0.11252195 -0.07410262 0.4754805 -0.024718266
-0.1647987 0.0911185 -0.21457686 -0.015379857 0.072844654 0.15711151 0.24905324 -0.13814062
0.033235803 0.03692061 0.10271318 -0.34128064 0.22660501 -0.7819929 -0.06939267 -0.08605118
0.09650464 -0.115731955 0.04491298 -0.098932 -0.11947209 0.320685 -0.19000591 0.15525423
-0.10225568 -0.038568206 -0.0956333 0.088784106 0.29359648 -0.03358284 0.21317492 -0.006468466
0.4064438 0.06602666 -0.021866282 0.13542621 -0.29879627 -0.2180563 0.09163583 -0.044674564
-0.33850238 0.36042106 0.0012213212 0.12034327 0.19185701 0.15381296 -0.04451256 -0.2850692
-0.12610677 -0.2975347 -0.097625114 -0.116361715 0.33268774 -0.2341096 -0.5791367 0.23003055
00000000: 45c8 86bd bbac 57be bbc0 053d 98cb 153e
00000010: 78b5 953e fd42 85bd 5bbd 2cbe 95e6 ad3d
00000020: 2380 07bd 88a9 3fbe bbe9 b63e 47d1 43bc
00000030: dfcf c33c cb5b f7bd 7fde bf3e 0efe 0d3e
00000040: 0995 6ebe 904e 953e 7f78 87bd 4ac1 373e
00000050: 583d 9f3e eae6 1bbf ab80 ab3e 1ef6 8c3e
00000060: ee81 223d 196a d4bc c027 03be 2e18 61bd
00000070: 52c4 99bc 12f4 6cbe 8656 bc3e 016a 853d
00000080: 2da5 df3c 8e13 203e d307 c63d a34e f6bd
00000090: f5c2 abbd d929 733c 1d5f 4d3c 2d33 2f3e
000000a0: 798f 043e 6f18 2b3e be84 e2bb 578c 26be
000000b0: e568 53be 806f eb3d 66de 43bd 8514 5d3e
000000c0: dc8c a53e 6696 1f3e 350b 7cbe 1305 0d3e
000000d0: 1f50 053d 60ed 5d3e 4229 11bf 5d2d c83c
000000e0: 9586 41be 9654 573e c5be fbbe 1005 1bbe
000000f0: 41e0 de3d a04d 11be 36a7 ac3d a657 e2bc
00000100: 9a04 5ebe c5c8 33be ed8a b93d 28e9 9a3d
00000110: ef6a 723e b355 51be 09cf 26bd 213b 4bbe
00000120: 0b3e 24be 30f3 7ebd a527 dbbe c5bc a2bd
00000130: 0194 efbd 7e42 663d 1bd0 903e 054f 4abd
00000140: 992a 27be 7700 1c3e dae1 a7be a181 70bd
00000150: 8001 88be 0c43 00be 5f3e eebd e867 d13d
00000160: dc47 cdbd 9583 5abe 8c6d acbe c762 873e
00000170: 4fc3 f53d e9e4 6dbe 5a9f 373e e6af 2b3e
00000180: eb9c 56bc 43de afbc 8bb0 65bd 2a45 3e3d
00000190: 76cd b1be 7bde 933e 911b b73c eee4 b53c
000001a0: 409c d8be eb8b 03bd 2922 aa3e a5ee 583d
000001b0: a9b1 363e b0f6 4d3c 90ee 02be ab73 a63e
000001c0: 4eb6 b33e e600 0a3e 8725 38bf ad09 bbbd
000001d0: f267 e2be ffcd b93d dc8b 5abe 6fa8 bcbe
000001e0: 4da2 293e 20f0 883e 278c 293e 93b2 c2be
000001f0: 1105 ccbe 731c 1d3e 0aec ac3d 59fe 43be
00000200: 8762 c83e 1054 333e 482e 7c3c ab03 66be
00000210: 8c3a 26bd 1cbc 783e c38e 67bc d510 c93d
00000220: 51e0 7abe 67e5 153c a1e7 76bd 060b dcbe
00000230: 47cf 9dbe a934 483e 6289 a3be 529b b4bd
00000240: 2a24 1abe d73a 823d ed41 c13e d8d2 ae3d
00000250: c733 e7bd cffa 40be 6b6f 43be 52e6 f6bc
00000260: 10bd a13e fb73 a2bd 1f91 ca3e 9446 5bbe
00000270: e0a4 c4bd 650f f63d 43b2 f93e 20e8 80be
00000280: 27a4 edbe 48b6 19be 5e8b efbe 6db9 5ebe
00000290: bbf6 e3be 94ce 43bd de70 053f d603 533c
000002a0: 0570 483d 0bc5 33bd 06ec babc c18d cd3d
000002b0: 066b 863e 9142 ffbe e2b1 0a3f 351b 96be
000002c0: b069 dfbe 501d b5be e8ea a93e ff4b 2c3e
000002d0: dece 88bd 30d3 873d bb62 2ebe 4163 2c3e
000002e0: b608 2f3e 9145 68be be85 683c b3b4 3fbe
000002f0: e31f 893e 9c24 acbd 5129 b5bd 5156 a23d
00000300: 078d 613e 131c 80be 6a5f 2cbe 3210 dabc
00000310: e871 e63d 1dc3 97bd 2e72 f33e f67d cabc
00000320: fec0 28be 569c ba3d 09ba 5bbe ccfb 7bbc
00000330: 942f 953d d7e1 203e d007 7f3e bc74 0dbe
00000340: 4422 083d 113a 173d 4a5b d23d 56bc aebe
00000350: 250b 683e b030 48bf bf1d 8ebd 9a3b b0bd
00000360: 3aa4 c53d e004 edbd acf6 373d dc9c cabd
00000370: c8ad f4bd d330 a43e e990 42be f7fa 1e3e
00000380: 6d6b d1bd b2f9 1dbd 64db c3bd 71d4 b53d
00000390: 4752 963e 298e 09bd 874a 5a3e 6df5 d3bb
000003a0: 6719 d03e fc38 873d eb20 b3bc 2bad 0a3e
000003b0: d3fb 98be 274a 5fbe 91ab bb3d adfc 36bd
000003c0: 2f50 adbe 1c89 b83e bd14 a03a 8876 f63d
000003d0: 2a76 443e 2581 1d3e cd52 36bd 97f4 91be
000003e0: 2222 01be 7856 98be adef c7bd 0d4f eebd
000003f0: 0c56 aa3e 6dba 6fbe 4e42 14bf 218d 6b3e

embedder.emb_rnn.bias_ih_l1 f4 [60]
0.9961909 1.0684149 0.96969765 0.9744255 0.9470919 0.86400014 0.880176 0.9397215
0.95063317 0.92998105 1.0017066 1.0045072 1.0596648 1.056031 0.8672525 1.1859493
1.0438297 0.9118776 1.0329818 0.86024445 0.6013447 0.71969616 0.93039 0.4009812
0.69328177 0.43380013 0.5079505 0.59300095 0.25226846 0.52222204 0.7846511 0.014249342
0.37902334 0.82372123 0.76409477 0.543327 0.7832968 0.7297686 0.9243718 0.77082324
1.0686069 0.9075083 1.0752146 1.020836 0.9378489 0.9699213 0.8783303 0.92897123
0.8119699 0.98849046 0.9306046 0.90915585 0.84421444 1.0183202 0.9086479 1.2740387
1.0330092 0.96955043 0.9422046 1.0057629
00000000: 5e06 7f3f d2c1 883f 1b3e 783f f373 793f
00000010: 9d74 723f 1d2f 5d3f 3753 613f 9791 703f
00000020: b25c 733f 3d13 6e3f ec37 803f b193 803f
00000030: 19a3 873f 062c 873f 4304 5e3f 30cd 973f
00000040: 369c 853f cf70 693f bf38 843f fb38 5c3f
00000050: baf1 193f 023e 383f 0a2e 6e3f 684d cd3e
00000060: ea7a 313f 0d1b de3e 0b09 023f e9ce 173f
00000070: 5529 813e 58b0 053f e5de 483f 1276 693c
00000080: 590f c23e 65df 523f b79b 433f 7a17 0b3f
00000090: 2486 483f 1dd2 3a3f a1a3 6c3f ac54 453f
000000a0: 1cc8 883f 7752 683f a2a0 893f c1aa 823f
000000b0: de16 703f c34c 783f 41da 603f 0fd1 6d3f
000000c0: 42dd 4f3f b60d 7d3f 1a3c 6e3f 70be 683f
000000d0: 701e 583f 5158 823f 269d 683f b313 a33f
000000e0: a539 843f 7534 783f 5234 713f d7bc 803f

embedder.emb_rnn.bias_hh_l1 f4 [60]
-0.0038088465 0.068410486 -0.030306924 -0.025574604 -0.052909 -0.13600141 -0.11982514 -0.060277432
-0.049365174 -0.07001797 0.0017074599 0.004512784 0.059668332 0.056036953 -0.13274819 0.1859445
0.043832574 -0.08812183 0.0329802 -0.13975604 -0.39865786 -0.2803059 -0.069614805 -0.5990202
-0.30672067 -0.5662052 -0.4920485 -0.4070012 -0.74773 -0.4777815 -0.21534581 -0.98575157
-0.6209766 -0.17627816 -0.23590794 -0.45667577 -0.21670274 -0.27022767 -0.075631164 -0.22917707
0.06654576 -0.10381661 0.0639576 -0.0067170826 -0.089656875 -0.02997532 -0.022194544 -0.06724463
0.014662454 -0.11158174 -0.09188728 -0.100017026 -0.18413188 -0.024889179 -0.07475011 0.23194902
0.04030457 0.05656438 -0.08261424 -0.017602934
00000000: d79d 79bb cc1a 8c3d 3a46 f8bc d581 d1bc
00000010: 1cb7 58bd f443 0bbe e266 f5bd 78e5 76bd
00000020: 2333 4abd 9565 8fbd d9cc df3a fadf 933b
00000030: c866 743d 0187 653d 24ef 07be 3c68 3e3e
00000040: c989 333d 3879 b4bd 3f16 073d 351c 0fbe
00000050: e21c ccbe 4184 8fbe 3592 8ebd 6359 19bf
00000060: 7e0a 9dbe d3f2 10bf c8ed fbbe 7662 d0be
00000070: 3c6b 3fbf c79f f4be 9d83 5cbe 375a 7cbf
00000080: 53f8 1ebf 4382 34be da91 71be 68d1 e9be
00000090: 53e7 5dbe 485b 8abe 83e4 9abd 65ad 6abe
000000a0: 2549 883d ce9d d4bd 34fc 823d f91a dcbb
000000b0: 069e b7bd cd8e f5bc 55d1 b5bc 8db7 89bd
000000c0: ca3a 703c f884 e4bd 662f bcbd bad5 ccbd
000000d0: 118d 3cbe 64e4 cbbc 9616 99bd 0b84 6d3e
000000e0: 6816 253d 0db0 673d a831 a9bd 0734 90bc

embedder.emb_rnn.weight_ih_l2 f4 [60, 20]
-0.32521546 -0.31093982 -0.10828793 0.005144767 0.15718004 -0.13483667 -0.2681656 0.13257538
-0.1477974 -0.16879325 1.092221 -1.1289039 -0.057393 -0.20464718 0.19900283 0.113141775
-0.0502072 0.12300716 0.30600163 0.1467719 0.15697896 -0.04312425 0.17899384 -0.22018243
-0.058435366 0.20413172 0.18714827 -0.23776452 0.03346239 -0.023724675 -0.25094482 0.07187919
-0.2182149 0.045285504 -0.1011883 0.19014573 0.14056286 -0.046353307 0.3443192 0.09577123
0.061332375 -0.14562288 -0.058706973 -0.16804595 0.29396018 -0.16315855 -0.015072475 0.8131165
0.09904712 -0.18430288 0.3449091 0.48041192 -0.11123884 -0.20908837 0.024341516 0.07785715
-0.07118753 -0.07992687 -0.31593186 -0.2366576 -0.045145996 -0.18528646 -0.022857921 0.22466473
0.3546117 -0.20747109 0.21780954 0.24001138 0.28514245 -0.32756987 -0.17307338 -0.03444601
0.028634734 0.09835373 -0.19286007 -0.333518 -0.26217672 -0.13713527 -0.14524712 0.0013808014
0.11183531 -0.0288349 -0.35102078 -0.061629064 0.55364007 -0.2909571 0.3653254 -0.42619365
-0.049132496 0.124492675 0.0594296 0.17107977 0.08773613 -0.13913986 0.44913578 0.11174105
-0.05433935 -0.26328403 0.45385385 -0.2204885 0.0850219 0.35074046 0.08016977 -0.014556741
-0.18758264 -0.011240484 -0.067109376 0.10766881 0.103199944 0.12507123 -0.39248675 0.07261335
-0.25135013 -0.44405192 -0.39746472 -0.16829598 0.14227109 -0.23083335 -0.31373158 -0.036905885
0.22321 -0.10325648 -0.26825696 -0.2964622 -0.21913719 0.17476018 -0.20549896 0.05082097
0.121174276 0.23439777 0.16480616 0.4445012 -0.21669103 -0.3273928 0.9154976 0.07693658
-0.19158332 -0.19129322 0.2798569 0.13007502 -0.05471249 -0.10639872 0.13495894 -0.1426179
0.1409772 0.0793656 -0.01757059 -0.9874744 -0.254395 -0.38523692 -0.15033968 -0.47300783
-0.38079834 -0.281162 3.0705943 -0.13286535 0.33569682 0.09289617 0.25969574 -0.39063478
-0.081950866 -0.31655967 -0.105015956 -0.15871975 0.041805178 -0.12774272 -0.60311115 -0.12087201
0.012968435 -0.053811483 0.13495636 -0.053334806 -0.2225144 0.076242395 -0.29173374 0.095631935
0.16925341 0.0712169 0.23850851 0.12509759 0.055926956 0.7054179 -0.2844896 -0.03593894
0.093101084 0.08942509 0.10348867 0.28899935 0.29246342 -0.13056454 -0.06189377 0.17712672
0.3034618 0.02517482 0.043405224 -0.3045652 -0.26106778 -0.055919796 0.22572301 -0.19600153
0.24116386 -0.11109209 0.24648777 -0.57801265 0.29107255 0.35278344 -0.33783454 -0.49751905
-0.2659398 0.0056614946 0.19625477 2.2375875 0.13328645 -0.012351397 0.6857851 -0.088301875
0.37263525 -0.2856234 0.11030882 -0.047483645 -0.055563997 -0.32809463 0.13763726 0.16522641
0.3388165 0.21770845 -0.22747624 0.056536324 0.1950901 0.12587649 -0.009943295 0.018927386
0.33066934 0.22267802 -0.2889678 -0.0066919094 -0.039178155 0.2701001 -0.17449556 -0.17796011
-0.14866501 0.24349833 -0.17702259 -0.28567752 0.12595691 0.08462788 -0.30524892 -0.2247719
0.05522744 0.17691544 -0.027407562 -0.034912273 -0.15172185 0.19680166 -0.08002598 -0.09302121
00000000: a482 a6be 8133 9fbe 10c6 ddbd 6f95 a83b
00000010: cef3 203e a012 0abe 004d 89be d7c1 073e
00000020: 3458 17be 23d8 2cbe e6cd 8b3f ec7f 90bf
00000030: ec14 6bbd 088f 51be 66c7 4b3e e0b6 e73d
00000040: 11a6 4dbd 2eeb fb3d 3fac 9c3e 5f4b 163e
00000050: 18bf 203e 0ea3 30bd 294a 373e 8177 61be
00000060: ec59 6fbd e807 513e cca3 3f3e 8b78 73be
00000070: dc0f 093d 405a c2bc d77b 80be 6635 933d
00000080: ba73 5fbe 4b7d 393d d03b cfbd 90b5 423e
00000090: b6ef 0f3e f7dc 3dbd 9b4a b03e b523 c43d
000000a0: a837 7b3d 2a1e 15be b976 70bd 3d14 2cbe
000000b0: f381 963e 0913 27be 8bf2 76bc 6728 503f
000000c0: 37d9 ca3d e5b9 3cbe ed97 b03e 8df8 f53e
000000d0: 30d1 e3bd 431b 56be dc67 c73c 9273 9f3d
000000e0: c5ca 91bd b3b0 a3bd d2c1 a1be 5f56 72be
000000f0: 02eb 38bd bcbb 3dbe 8940 bbbc 830e 663e
00000100: aa8f b53e 4d73 54be 7709 5f3e 8bc5 753e
00000110: 31fe 913e 3db7 a7be 263a 31be 4217 0dbd
00000120: 6493 ea3c ae6d c93d 1c7d 45be dfc2 aabe
00000130: 073c 86be 306d 0cbe a9bb 14be 02fc b43a
00000140: e909 e53d 2b37 ecbc ffb8 b3be c26e 7cbd
00000150: 5bbb 0d3f 54f8 94be ee0b bb3e 0e36 dabe
00000160: 283f 49bd 04f6 fe3d 746c 733d 892f 2f3e
00000170: 00af b33d ae7a 0ebe 20f5 e53e 7ed8 e43d
00000180: f092 5ebd 2acd 86be 885f e83e bdc7 61be
00000190: f61f ae3d 4194 b33e 0c30 a43d 667f 6ebc
000001a0: aa15 40be 022a 38bc a470 89bd 7781 dc3d
000001b0: 7e5a d33d ac12 003e 06f4 c8be 4fb6 943d
000001c0: f7b0 80be c65a e3be 7f80 cbbe c855 2cbe
000001d0: 83af 113e 945f 6cbe 6da1 a0be a02a 17bd
000001e0: 2a91 643e 2278 d3bd fa58 89be e5c9 97be
000001f0: 8065 60be 55f4 323e 526e 52be a629 503d
00000200: 382a f83d f805 703e f2c2 283e a995 e33e
00000210: 41e4 5dbe 07a0 a7be 0d5e 6a3f ed90 9d3d
00000220: 6b2e 44be 5fe2 43be 6749 8f3e 6332 053e
00000230: 341a 60bd 92e7 d9bd ad32 0a3e 6d0a 12be
00000240: 545c 103e 6f8a a23d 33f0 8fbc 1fcb 7cbf
00000250: 1040 82be c63d c5be a5f2 19be 152e f2be
00000260: 00f8 c2be 77f4 8fbe 9e84 4440 db0d 08be
00000270: 74e0 ab3e 5940 be3d d7f6 843e 4801 c8be
00000280: dbd5 a7bd 1c14 a2be 9b12 d7bd 6e87 22be
00000290: e83b 2b3d fdce 02be 7e65 1abf bf8b f7bd
000002a0: 8f79 543c 6e69 5cbd 0032 0a3e 9975 5abd
000002b0: d1da 63be f924 9c3d 205e 95be adda c33d
000002c0: c450 2d3e 2bda 913d 933b 743e 9519 003e
000002d0: aa13 653d 4496 343f 9fa8 91be b634 13bd
000002e0: c8ab be3d 8024 b73d def1 d33d b9f7 933e
000002f0: c4bd 953e b6b2 05be 5284 7dbd b560 353e
00000300: 585f 9b3e 6d3b ce3c adc9 313d f8ef 9bbe
00000310: adaa 85be 280c 65bd ef23 673e a0b4 48be
00000320: a9f3 763e 4084 e3bd 4a67 7c3e a3f8 13bf
00000330: 7607 953e 08a0 b43e a6f8 acbe d1ba febe
00000340: 4329 88be 0f84 b93b 03f7 483e a234 0f40
00000350: 3e7c 083e 845d 4abc 9d8f 2f3f 9dd7 b4bd
00000360: 0cca be3e 3b3d 92be 97e9 e13d 367e 42bd
00000370: 1397 63bd 05fc a7be c8f0 0c3e 1d31 293e
00000380: 5b79 ad3e f7ee 5e3e 88ef 68be a292 673d
00000390: b3c5 473e c4e5 003e 34e9 22bc 9b0d 9b3c
000003a0: 7e4d a93e b505 643e 96f3 93be ce47 dbbb
000003b0: 4679 20bd 8f4a 8a3e f7ae 32be 2d3b 36be
000003c0: a43b 18be a057 793e 6945 35be 5344 92be
000003d0: d9fa 003e 6251 ad3d 9649 9cbe 9b2a 66be
000003e0: 2b36 623d 5229 353e d385 e0bc 2c00 0fbd
000003f0: f95c 1bbe 6086 493e a9e4 a3bd e781 bebd

embedder.emb_rnn.weight_hh_l2 f4 [60, 20]
-0.0064362423 0.035349116 -0.41354936 0.31444052 0.7302348 -0.48335394 0.1669921 -0.35439283
0.033106413 -0.1599446 0.3179665 -0.06306481 0.21580665 0.11528507 -0.12171533 0.061723538
0.0035685524 0.038935795 0.017366106 0.41371718 0.09992221 -0.07408952 0.46195304 -0.019354647
-0.19024143 0.29040834 0.17456967 0.029848838 -0.33907568 -0.08499342 0.12239367 0.16532308
-0.3434766 -0.16584513 -0.022889372 -0.11216976 0.21761589 0.2036149 -0.062500186 0.048708323
0.082543224 -0.0074798865 -0.66341716 -0.34108764 -0.23647003 -0.08902313 -0.052604355 0.6414164
0.045841884 -0.28221977 -0.19381492 -0.006558293 0.046051305 0.32106644 -0.2455841 -0.11617125
0.5588667 0.063641146 -0.07838686 -0.15991463 -0.14339723 -0.034254733 0.07661424 0.38971502
-0.13809942 0.07928767 -0.0733668 -0.123492256 0.2647304 0.1548657 -0.2593281 -0.01102065
0.24656174 -0.09736314 0.22735287 0.24350546 -0.18221425 -0.41047293 -0.24737108 0.092769
0.045552585 -0.079599366 0.07581761 0.13811246 -0.1421145 -0.26470992 0.36677024 0.1598224
-0.03652644 -0.021694457 -0.13868134 -0.13404039 0.060929608 -0.06041009 -0.011042584 0.05302522
-0.053614423 -0.0015839797 0.18598536 0.02410766 -0.08561363 -0.39605814 -0.39052904 0.06914918
0.18604556 0.15473086 -0.36948916 -0.10254747 -0.020474672 0.085421376 0.008990842 -0.042367443
-0.46602112 -0.097052515 0.007894084 0.26098174 -0.048453983 -0.37763935 0.20371124 0.14116141
0.19762641 0.19342865 0.27945688 -0.08045695 0.78727305 0.21727291 -0.9556629 -0.8094704
0.21006139 0.072047934 0.06892279 -0.11210882 0.024835784 -0.22861876 0.070511594 -0.25569922
-0.116996326 -0.14466688 0.21090904 -0.265159 0.47635207 0.7592161 -0.28727943 0.1706722
0.03977103 -0.38930628 0.6275607 -0.73789483 0.13674518 -0.2610069 -0.3404842 -0.32178664
-0.1102637 -0.6021844 0.06354163 0.068252884 0.96574396 0.070479155 -0.11751959 0.28688243
-0.23416492 -0.19383058 0.04879463 0.053883877 0.052051686 -0.18236004 0.2037376 -0.0020764729
0.19741593 0.0044431933 0.0073828413 -0.18545684 -0.43838745 -0.26703832 -0.019639226 0.02445307
-0.067805946 -0.22399533 -0.3082665 -0.20834357 -0.14069667 -0.016017238 -0.32111803 0.06518764
0.10987605 -0.2891371 0.36039513 -0.3913151 -0.3260935 0.26383874 -0.10308318 -0.11773192
0.19983338 0.13224335 -0.2204564 0.077538304 -0.40023226 0.17919956 -0.097473264 0.14519984
0.13900651 -0.24385245 0.31214148 0.31113988 -1.1545241 0.19461103 -0.19287577 0.059629504
-0.39855897 0.9912866 -0.3506453 0.084369995 -1.6748838 -0.81951773 -0.026724137 -0.6696008
0.38141012 0.08572233 -0.5148915 0.0012638046 0.3262072 -0.16681354 0.16356604 -0.5712394
0.0995161 -0.42391065 0.29002085 -0.013091313 0.1510063 0.14020082 0.14137608 -0.092143714
0.2607379 -0.36477903 -0.1609679 0.22963615 0.37160394 0.3237041 -0.024423908 -0.29143733
-0.34893996 0.18796632 0.031799495 0.14729857 0.1227631 -0.15798254 -0.4078045 -0.004524626
-0.098551735 -0.19077526 -0.052664958 0.01792435 -0.13558213 0.22042069 -0.004444823 -0.073551275
00000000: 1de7 d2bb 3cca 103d bebc d3be 59fe a03e
00000010: abf0 3a3f 2b7a f7be faff 2a3e fa72 b5be
00000020: 979a 073d 84c8 23be 81cc a23e 2028 81bd
00000030: 6bfc 5c3e 941a ec3d e345 f9bd d2d1 7c3d
00000040: 60de 693b 247b 1f3d 5d43 8e3c bdd2 d33e
00000050: 04a4 cc3d 3fbc 97bd 1c85 ec3e a38d 9ebc
00000060: a6ce 42be 67b0 943e 64c2 323e 8d85 f43c
00000070: 549b adbe 0811 aebd 88a9 fa3d 744a 293e
00000080: 2adc afbe 4ed3 29be 7e82 bbbc 42b9 e5bd
00000090: b3d6 5e3e 6d80 503e 1900 80bd 6182 473d
000000a0: 6c0c a93d d619 f5bb b5d5 29bf 0aa3 aebe
000000b0: 3325 72be c251 b6bd aa77 57bd dd33 243f
000000c0: b3c4 3b3d 1c7f 90be 6b77 46be f3e6 d6bb
000000d0: 4ba0 3c3d d262 a43e 667a 7bbe 31eb edbd
000000e0: e311 0f3f 4a56 823d 4a89 a0bd a9c0 23be
000000f0: b9d6 12be b14e 0cbd ede7 9c3d ba88 c73e
00000100: ef69 0dbe 9361 a23d 5541 96bd 82e9 fcbd
00000110: be8a 873e 1d95 1e3e a7c6 84be f58f 34bc
00000120: ae7a 7c3e 5366 c7bd 31cf 683e 7f59 793e
00000130: 5f96 3abe 8229 d2be d84e 7dbe acfd bd3d
00000140: 5995 3a3d fe04 a3bd 4346 9b3d 5a6d 0d3e
00000150: 7786 11be 0f88 87be 4fc9 bb3e 7ca8 233e
00000160: c09c 15bd 93b8 b1bc 7b02 0ebe e241 09be
00000170: 5391 793d 9270 77bd f4eb 34bc f930 593d
00000180: cc9a 5bbd 8a9d cfba f272 3e3e 6d7d c53c
00000190: 3356 afbd 22c8 cabe 6cf3 c7be 169e 8d3d
000001a0: ba82 3e3e c471 1e3e af2d bdbe 6804 d2bd
000001b0: 80ba a7bc 67f1 ae3d 534e 133c 7c89 2dbd
000001c0: 529a eebe 78c3 c6bd 3056 013c 669f 853e
000001d0: af77 46bd f259 c1be ae99 503e 9e8c 103e
000001e0: 945e 4a3e 2912 463e f914 8f3e 9dc6 a4bd
000001f0: ba8a 493f ca7c 5e3e 53a6 74bf 7439 4fbf
00000200: 551a 573e de8d 933d 6427 8d3d 4f99 e5bd
00000210: 6a74 cb3c 091b 6abe 6268 903d 02eb 82be
00000220: c59b efbd 8e23 14be 8af8 573e ecc2 87be
00000230: 6be4 f33e fd5b 423f 4a16 93be b1c4 2e3e
00000240: f3e6 223d 2753 c7be d1a7 203f ade6 3cbf
00000250: ee06 0c3e b2a2 85be f253 aebe 38c1 a4be
00000260: efd1 e1bd c228 1abf 1d22 823d 2bc8 8b3d
00000270: ff3a 773f 6057 903d 1cae f0bd 41e2 923e
00000280: eec8 6fbe 867b 46be e1dc 473d 57b5 5c3d
00000290: 2634 553d 97bc 3abe 97a0 503e 6f15 08bb
000002a0: 6727 4a3e 3598 913b c3eb f13b 66e8 3dbe
000002b0: 5274 e0be 3fb9 88be 71e2 a0bc ce51 c83c
000002c0: d8dd 8abd 085f 65be 1bd5 9dbe 0458 55be
000002d0: ca12 10be 9536 83bc 9569 a4be 1981 853d
000002e0: b206 e13d c709 94be b685 b83e 745a c8be
000002f0: baf5 a6be df15 873e 461d d3bd 6f1d f1bd
00000300: 1fa1 4c3e cd6a 073e 53bf 61be 67cc 9e3d
00000310: 3eeb ccbe 1780 373e 10a0 c7bd 44af 143e
00000320: b957 0e3e 75b4 79be 02d1 9f3e ba4d 9f3e
00000330: 72c7 93bf 1d48 473e 3a81 45be 113e 743d
00000340: ec0f ccbe f5c4 7d3f c887 b3be 2dca ac3d
00000350: 9862 d6bf eacb 51bf 94ec dabc f56a 2bbf
00000360: 3048 c33e 308f af3d eecf 03bf 3fa6 a53a
00000370: a104 a73e 2bd1 2abe db7d 273e bf3c 12bf
00000380: 19cf cb3d d10a d9be 9d7d 943e f27c 56bc
00000390: 65a1 1a3e ce90 0f3e e4c4 103e d8b5 bcbd
000003a0: 707f 853e 51c4 babe c5d4 24be bd25 6b3e
000003b0: df42 be3e 8bbc a53e a614 c8bc 4637 95be
000003c0: 42a8 b2be 3e7a 403e 3040 023d 70d5 163e
000003d0: 386b fb3d 2dc6 21be c0cb d0be 5043 94bb
000003e0: 7ed5 c9bd 975a 43be 36b7 57bd 16d6 923c
000003f0: 0bd6 0abe f6b5 613e e1a5 91bb 0da2 96bd

embedder.emb_rnn.bias_ih_l2 f4 [60]
1.0130202 0.9966104 1.1680473 0.92099255 0.98534125 0.83241594 1.0193588 0.9888937
0.96305645 0.9723425 0.9383734 1.0501426 0.9813986 0.95808494 0.93732756 0.9189672
0.9813384 1.0626353 0.94221044 0.9577984 0.55605865 0.53187835 0.38020298 0.6174211
0.967954 0.7335062 0.12843446 0.5367857 0.4177672 0.5249377 0.44053677 0.6442377
1.0364285 0.4846915 0.9022203 0.4210897 0.66693616 0.25501397 0.47105154 0.24225837
0.89250183 0.882632 0.9864722 0.8554054 0.91866374 0.9388385 1.0675061 1.039971
0.8582973 0.9402323 0.8901064 1.0031617 0.947325 1.096515 0.9799775 0.8902681
0.97339857 0.8746327 0.97268724 0.9367221
00000000: a5aa 813f dc21 7f3f 9382 953f 2bc6 6b3f
00000010: 533f 7c3f 3619 553f 597a 823f 2328 7d3f
00000020: de8a 763f 70eb 783f 3d39 703f 136b 863f
00000030: f03c 7b3f 0e45 753f b3f4 6f3f 6f41 6b3f
00000040: fe38 7b3f 6f04 883f b434 713f 4732 753f
00000050: dc59 0e3f 2e29 083f f7a9 c23e 4f0f 1e3f
00000060: d5cb 773f 10c7 3b3f 5384 033e ca6a 093f
00000070: 95e5 d53e 5162 063f 098e e13e c3ec 243f
00000080: b0a9 843f 7c29 f83e e9f7 663f 1299 d73e
00000090: 54bc 2a3f 3191 823e ab2d f13e 9412 783e
000000a0: 007b 643f 2cf4 613f 7189 7c3f d9fb 5a3f
000000b0: 8c2d 6b3f b857 703f 0aa4 883f c51d 853f
000000c0: 5fb9 5b3f 10b3 703f 03de 633f 9a67 803f
000000d0: e483 723f 9b5a 8c3f cedf 7a3f 9ce8 633f
000000e0: a630 793f eee7 5f3f 0802 793f 05cd 6f3f

embedder.emb_rnn.bias_hh_l2 f4 [60]
0.013025107 -0.0033891737 0.16804956 -0.07900855 -0.014656769 -0.16758248 0.019352907 -0.011107416
-0.036943346 -0.027659593 -0.06162614 0.050147142 -0.018600961 -0.04191679 -0.06267445 -0.08103269
-0.018665267 0.06264384 -0.05779092 -0.042204168 -0.44394124 -0.46811986 -0.61980313 -0.3825789
-0.03204469 -0.26649335 -0.87156737 -0.46321067 -0.58223075 -0.47506443 -0.55946124 -0.3557587
0.03643366 -0.51530904 -0.09777966 -0.57891107 -0.33305913 -0.74498326 -0.52894807 -0.75773895
-0.13069962 -0.12104452 -0.25180426 -0.13073161 -0.08197017 -0.06690987 -0.0043832716 -0.035399105
-0.13971795 -0.22139423 -0.14268954 -0.0003810582 -0.06330107 0.11107173 -0.03209747 -0.10600489
-0.020683397 -0.1631112 -0.03938354 -0.08316001
00000000: 4267 553c e61c 5ebb 2f15 2c3e 3ccf a1bd
00000010: f222 70bc be9a 2bbe fd89 9e3c e1fb 35bc
00000020: e851 17bd 5f96 e2bc b16b 7cbd 1767 4d3d
00000030: 0b61 98bc f1b0 2bbd 765b 80bd 78f4 a5bd
00000040: e7e7 98bc 6a4b 803d 2cb6 6cbd 47de 2cbd
00000050: 444c e3be 68ad efbe 6bab 1ebf 62e1 c3be
00000060: 4b41 03bd d171 88be 0a1f 5fbf f329 edbe
00000070: 130d 15bf a53b f3be da38 0fbf 0126 b6be
00000080: 763b 153d 4beb 03bf b440 c8bd 8433 14bf
00000090: ba86 aabe 39b7 3ebf 2469 07bf 2efb 41bf
000000a0: 1fd6 05be 30e6 f7bd 7dec 80be 82de 05be
000000b0: fadf a7bd 0b08 89bd 8ca1 8fbb a7fe 10bd
000000c0: 3912 0fbe 2bb5 62be 351d 12be c4c8 c7b9
000000d0: fea3 81bd 9379 e33d a378 03bd 1719 d9bd
000000e0: 3a70 a9bc 9f06 27be a350 21bd cc4f aabd
