output/FEM_GAN_70/model.pt (torch, 153208 bytes, 65 tensors)

embedder.emb_rnn.weight_ih_l0 f4 [60, 10]
00000000: bd57 c03d 3ebe a23e cb97 583e 1b5b c7bd
00000010: d41f e73d 6ead 203e 59b3 253e 28fa 623e
00000020: d315 a63e 184e d53e db7f d83c 26c7 c53e
00000030: 9d03 173f b61d 893e 635c 833e b682 40bd
00000040: 6aa3 53be e1de 483e fbd4 4cbd bf23 a7be
00000050: d6e4 6bbd 627e 8abe 9c2f 0dbf 4d57 b3be
00000060: 8396 a6be 4b31 cfbe f41a 493e efd7 58be
00000070: 8460 b33d 9ee0 dabd 416c 69bf 37ad 4fbc
00000080: dbf2 fdbd 9185 a13c e744 ca3e 0261 103f
00000090: e782 513e b835 8c3e 5c0d 1b3d 8948 343d
000000a0: c34c 7cbe 47c7 793e 58da 9d3e c552 ae3e
000000b0: 9eb9 b63e abd4 1b3f f4cb a33e dfc9 413e
000000c0: 1ecd a9be bc0c 083d 3b52 1e3f 8d80 d03f
000000d0: c10b ee3f 79b6 fb3f 11a5 de3f ce2b 973f
000000e0: 963d aa3f 1227 6e3f 8e24 743f 880e 923f
000000f0: 9b1e b3be 9d7f 2ebe d1e6 91be d9e5 74be
00000100: 81f9 abbc 32c2 90be 595f d3be 7263 a0be
00000110: 9f94 0ebc 3b06 11be c6ef a73d 98ad 7fbe
00000120: 8a1b a7be aaed bfbe 65f2 f43d a131 9abe
00000130: 4e41 41bd dc82 febc 6c1c 8ebe ca71 7dbd
00000140: 9bee d63e ab86 35bd 8364 b0bd e7aa 3b3e
00000150: ee4f 073e b9e0 59bd 3451 4ebc dc97 523e
00000160: ead9 413e 4153 e03d 273a 83be 9ccc 853d
00000170: 2066 8d3e 9df3 353e 491b 973d ebed 44be
00000180: 5366 2cbe d855 0c3e 8674 f3bc c453 06bd
00000190: 1673 bc3d 957c bbbd f984 7d3e 8a67 bb3e
000001a0: 58ca 2f3e 09a3 8b3e 3417 9ebe 5ae5 39be
000001b0: 6408 04be ade1 84be da6a 01be 64ea 753e
000001c0: f3d8 9abe 10ae 563e ff46 8cbe 5653 4dbe
000001d0: 9380 303e 3f93 cc3d 2b78 bd3d 4bf4 d5bd
000001e0: c085 423e 2672 9abd 8a51 a73e 0da9 9e3e
000001f0: c1e3 ca3e 28bd 94bd 2efd 4c3d bc77 553d
00000200: dbe9 893e 3bc9 df3d 7754 74be c61c 553e
00000210: e2bb 67bd 0af6 883d 0af7 7b3d abcf 463e
00000220: 5662 5e3e a99a 19be a875 6fbe 1641 903d
00000230: 3914 66bd fd2e a43e cae4 653e 47b5 833e
00000240: 22cb afbd 7e4a 8b3e bdf4 09be 01ac 203d
00000250: e988 db3b 044a c4bd e70b d7be 3d7e 033d
00000260: 88b1 a73e 696c 553e b54e 963e 33f1 ab3e
00000270: b65a 72be 99bb d9bd b4b3 7bbe 1ad5 65be
00000280: 574a f83c 4120 e3ba 6703 cbbd 500a f8bd
00000290: 7471 5cbe 4891 c3bd eb74 17be 7300 0dbf
000002a0: 5ac1 12be 51dc 00bf ffc5 a4be fc92 7abe
000002b0: b843 99bd 9437 7e3d 6543 2d3e 0df8 1abe
000002c0: 6ff4 0abe c310 45be c474 d4be a5a0 a3be
000002d0: ce76 6fbe f285 2a3e 9a00 c23d 4371 ddbd
000002e0: 3caa a13e fe21 073e 82d0 ba3d e719 e2bd
000002f0: b064 b33e 1d65 d43a 723c 123e f06a c9bd
00000300: ee35 41bf 6dcb 29bf 5bfd 0ebe ea7c f4bd
00000310: 25e1 cb3e f2bb c63e e167 103d 1cb0 4e3d
00000320: fc86 bd3e d86a cbbc 772a 4e3d 9e49 933d
00000330: 3f37 cb3e 3e7a e3bd 92e2 f2be 2a2d 01bf
00000340: 3678 33be 4b87 f5bd 7ef7 90bf ea2f 513e
00000350: 22ab adbe c697 04bf 3503 1e3e f01f 4a3f
00000360: 4466 b7bd c076 03bc d91b 4ebd 9859 fdbe
00000370: 5fc6 b8bf f6ce 9d3e 1401 bebd 5eda e23c
00000380: d0ad 843e 920c 8dbe 6570 87be 1199 09bd
00000390: 5401 74be 0f9e 2c3e 108a a13e e0bc 083f
000003a0: c179 9d3e 0c62 c73e e888 ee3e 34f0 8e3e
000003b0: c010 31bf 3db0 9dbe e301 15bf 7b8d efbe
000003c0: 7c92 09bf 754b a33e 6d57 b23c 9377 e9bd
000003d0: 4688 99be 4ebf 2d3e b61c 0fbf 3909 10bf
000003e0: 5013 e3be ff45 8bbe 6ec8 2a3f 9368 0c3f
000003f0: 5968 103d 44b6 5c3e a2e1 d23e b8e4 e53e
0.09391735 0.31785768 0.21151654 -0.09734174 0.112853676 0.15691158 0.16181697 0.2216574
0.32438526 0.41661143 0.026428154 0.386285 0.5898989 0.2678048 0.25656423 -0.046999656
-0.20667806 0.19616272 -0.0500078 -0.3264446 -0.05759128 -0.27049547 -0.5515077 -0.35027543
-0.32536706 -0.40467295 0.19639188 -0.21176122 0.08758643 -0.106873736 -0.9118081 -0.012675575
-0.12399837 0.01971701 0.39505693 0.5639802 0.20460092 0.27384734 0.037854537 0.044014487
-0.24638657 0.24392425 0.30830646 0.34047523 0.3568849 0.6087138 0.3199154 0.18924664
-0.33164304 0.03321527 0.61844224 1.628923 1.8597337 1.9665061 1.7394124 1.1810243
1.3300045 0.93028367 0.9536828 1.1410685 -0.34984288 -0.17040868 -0.2849641 -0.23915805
-0.020992996 -0.2827316 -0.41283682 -0.3132587 -0.008702426 -0.14162533 0.0820003 -0.24968565
-0.32638198 -0.3748601 0.119602956 -0.3011599 -0.04718142 -0.031068258 -0.2775606 -0.061876096
0.41978917 -0.044317883 -0.08612921 0.18326913 0.13214085 -0.053192828 -0.0125926025 0.20565742
0.18930784 0.109533794 -0.25630304 0.06533167 0.27616978 0.17768712 0.07378251 -0.19231384
-0.16835909 0.13704622 -0.029718649 -0.03279473 0.092016384 -0.091546215 0.24757756 0.36602432
0.17167032 0.27272823 -0.30877078 -0.18153897 -0.12893826 -0.25953427 -0.12638417 0.24015194
-0.30243644 0.20964837 -0.27397916 -0.20051321 0.17236547 0.099890225 0.09251436 -0.10446986
0.18996334 -0.07541303 0.32679397 0.3098835 0.39626887 -0.07262641 0.05004614 0.05211614
0.2693623 0.109270535 -0.23860346 0.20811757 -0.056575663 0.06687553 0.06151489 0.19415157
0.217172 -0.15000404 -0.23384726 0.07043664 -0.05617163 0.320671 0.22450557 0.2572424
-0.085836664 0.2720527 -0.13472266 0.039226536 0.0066996706 -0.0958443 -0.42001268 0.032102812
0.32752633 0.20842136 0.29356924 0.33582458 -0.23667416 -0.106314845 -0.2458027 -0.22444573
0.030308885 -0.0017328338 -0.09912758 -0.12111342 -0.21527654 -0.095491946 -0.14790694 -0.5507881
-0.1433157 -0.50336176 -0.3218231 -0.24470133 -0.074836195 0.062064722 0.1692024 -0.15133686
-0.13569807 -0.19244675 -0.41495335 -0.319585 -0.23385164 0.16652659 0.09472771 -0.108126186
0.3157519 0.1319656 0.09121801 -0.11040097 0.35037756 0.001620445 0.1428087 -0.0983485
-0.75472915 -0.6632603 -0.13963835 -0.11937888 0.3982021 0.38815266 0.035255317 0.05046092
0.37017047 -0.02483122 0.050333466 0.07191776 0.39690587 -0.111073 -0.47438484 -0.5045954
-0.17526326 -0.11988696 -1.1325529 0.20428434 -0.33919626 -0.5179409 0.15430911 0.7895498
-0.089550525 -0.008023918 -0.050319526 -0.49482417 -1.4435538 0.3082196 -0.092775494 0.027692016
0.25913858 -0.27548653 -0.26452938 -0.03359324 -0.23828632 0.1685717 0.31550646 0.534132
0.30756953 0.3894199 0.46588826 0.27917635 -0.69166183 -0.30798522 -0.58206004 -0.4678763
-0.5373914 0.31893507 0.021770203 -0.1139976 -0.2998678 0.16967508 -0.55903184 -0.5626407
-0.44350672 -0.2720184 0.6671208 0.5484707 0.035255764 0.21553904 0.4118777 0.4490106

embedder.emb_rnn.weight_hh_l0 f4 [60, 20]
00000000: a4bb 45be d659 513e 09cf a73d cd20 6d3d
00000010: 7ecb 783e cfba 1b3d cd69 123e 4136 5c3e
00000020: ed1b ab3c 5730 37be 98e2 f5bd 955b 723e
00000030: f9f4 41be e51d 223e 0403 2b3e 6d66 31bd
00000040: b65a 82bd 4dd8 7f3e 42f9 123e 77dc 543d
00000050: 4ee5 e13d 4c0d 06bd 4de6 31be 5124 adbe
00000060: 0802 503e 1414 e53d 4ce1 b33d d833 3f3e
00000070: 1a68 ccbd 331b 64be cdef 953e 49ea bbbe
00000080: 28bb 35be 85d8 043e f95d 833c 128a d4bd
00000090: b224 b7bd aaec 99be c081 9b3e 4d5d 373e
000000a0: 0324 9c3e 4fb9 06bc 4d96 713d e267 73be
000000b0: 9ffe 203e 16e4 813d 0e99 e43d adee f83b
000000c0: 78ea 06be d0b6 19be adc7 20be e7cb 973d
000000d0: 0832 c5bc 7b5b 6f3e cfd1 94be 81a5 c1bc
000000e0: 397a a93d 2a88 01be d88a 893d 9aeb 7abe
000000f0: 6452 22be 7b7d 923f 803c 09bf 0b0d 24bd
00000100: 7b70 98be 7391 363e 144d 88bd c718 b8bd
00000110: c311 edbe 5ed5 2dbe 3a07 31bf 9f73 c8be
00000120: 7960 4a3f 6519 8b3c c957 223d 5477 a9be
00000130: 5fe6 96be c4a0 e6bd afa8 e73e 6d24 a8be
00000140: e6ee 62be 9311 22be 93a6 c63d ba93 74bd
00000150: af50 acbe bbd8 93be ba8d 953d 9b96 84be
00000160: 9807 6bbe ad51 75be c8ae 83be 7678 53be
00000170: d84c 56be 5994 68be ed66 aebe 41c1 69bd
00000180: f424 1cbe 042a 40bd d6aa b1bd 3e7d 963d
00000190: 3bd7 8a3e 69cd 92be dbb5 273d 02b8 e3bd
000001a0: e964 e5be e270 b43e 6c47 aabd f019 6b3d
000001b0: 94b1 6e3d ae93 3cbe f750 f0bc 3c74 53be
000001c0: 8f37 193e f8d6 323c 2d8a 8abe 7a67 83bc
000001d0: 4790 9bbe d849 a8be c3ae 3c3e 59e0 3bbd
000001e0: b9bf 563e e98e 17bd 2fe9 8bbd 2fd4 0e3e
000001f0: d6a4 b3bd 8d9d ef3d e1f1 40be 05ee 87be
00000200: add2 143c a22d 8d3d 4501 b33e fad4 68be
00000210: 5688 05be bbc7 1b3e f485 c83d 30ea 62be
00000220: 8e18 06be 616c 953e 5de7 a93e e425 193d
00000230: 74de 2dbe 9a76 453f 7b71 8bbe 018d 58be
00000240: fbed 6ebe abc5 7d3d a7fb ed3d ed26 20bd
00000250: 923c 7b3d e105 dd3c 9d6a 1b3d 97b3 eebb
00000260: 9ad0 a63d a979 483e 7277 6fbe 7143 4fbe
00000270: 19e8 523e 6a3a b9bd 7de6 e03e 5933 803d
00000280: 355c 283d e8a8 4cbe 0eef b83c 5400 c9bd
00000290: 3b7e 963e 0c71 acbe 0f3c 16be cf76 593e
000002a0: 2728 3d3d c22b 31be aac9 f6bd f770 b0bd
000002b0: 7031 453b ee07 53be 13c0 7d3e 90e6 bbba
000002c0: dcc4 3a3e ae09 58be acea 9d3d 81b8 893e
000002d0: 3e77 08be 1cdb 863e 82be 313d fb8e 3ebe
000002e0: 14c0 e5bc 9066 94be 0236 16bc b711 783e
000002f0: ef23 debc add1 0d3e 0958 423e fff5 f03d
00000300: 9f92 78be 94d3 e4bc cd7a 50be fef7 c8bd
00000310: 45dc 86be f94e 13be f04c bb3d f797 05be
00000320: af1b 263e 09a7 cc3d cd42 0dbe 55d7 f1bd
00000330: c025 13be 91a9 ecbd 545b aebc b886 853d
00000340: 485e 83bd acca 503d 46e3 0b3e d78d 0c3e
00000350: 9b7e e5be 3ab7 2abe 73a6 8abe c273 2f3e
00000360: 46af bbbd b710 a93e e975 6b3c bcad ff3c
00000370: 0ece 223d 56cc 5cbe 7a47 e33c 386b a6be
00000380: fcd4 223d 9f30 27be bdaa d73d 1de1 c0bd
00000390: 6c8b 253e 1c97 a6be 1724 c0bc 5a93 9639
000003a0: 6c05 a9bd 2ac3 34bc e989 4f3e 7a80 56be
000003b0: c992 833e b865 893d 1f5d 883e 722c 91bb
000003c0: 09ec 403e 27eb 9b3c 035f 673d d339 243e
000003d0: e701 fd3d 3102 303e f980 edbd f8b3 43be
000003e0: a1f0 83be 19cc 8c3e 8b7e c7bc ec50 543d
000003f0: 291b e9bd 7ae6 533d 5061 c53d 8fea 9dbe
-0.1930986 0.20444426 0.08193786 0.05789261 0.24296376 0.03801995 0.14298172 0.21505071
0.02088734 -0.17889534 -0.1200611 0.23667748 -0.18941106 0.15831716 0.16700369 -0.04331057
-0.06364958 0.24984856 0.14352897 0.051968064 0.110300645 -0.032727525 -0.17373009 -0.3381677
0.20313275 0.1118547 0.08783206 0.1867212 -0.09980793 -0.22276 0.29284516 -0.36702183
-0.17747176 0.1297322 0.01603602 -0.10377897 -0.08942546 -0.30063373 0.3037243 0.17906685
0.30496225 -0.008222892 0.05898123 -0.23770097 0.1572213 0.06342332 0.11162005 0.0075968117
-0.1317538 -0.15011144 -0.1570117 0.07411938 -0.024071708 0.23374741 -0.2906632 -0.023638489
0.08275265 -0.12649599 0.067159355 -0.24503937 -0.15851742 1.1444544 -0.5360794 -0.0400515
-0.29773316 0.17828922 -0.066553265 -0.08989101 -0.46302614 -0.16975924 -0.6915165 -0.39150712
0.79053456 0.016979882 0.0396345 -0.33098853 -0.29472634 -0.11261132 0.45245883 -0.3284029
-0.22161445 -0.15827017 0.0969974 -0.059711196 -0.33655307 -0.2887629 0.07302423 -0.25896153
-0.22952116 -0.23956938 -0.25719285 -0.20651421 -0.20927751 -0.2271284 -0.340629 -0.057069067
-0.15248471 -0.04691507 -0.086751625 0.07348107 0.27117333 -0.2867234 0.040944915 -0.11119081
-0.4480355 0.35242373 -0.08314404 0.057397783 0.05827482 -0.1841571 -0.029335482 -0.20649809
0.149626 0.01091551 -0.27058545 -0.016040552 -0.30383512 -0.32868838 0.18426041 -0.04586825
0.20971574 -0.037001524 -0.068315856 0.13948129 -0.08771674 0.11699972 -0.1884227 -0.26548782
0.009083432 0.068934694 0.34961906 -0.22737494 -0.1304029 0.1521291 0.097911745 -0.22159648
-0.13095304 0.2918425 0.3318433 0.03738965 -0.1697939 0.77134097 -0.27235016 -0.21147539
-0.2333297 0.06195609 0.116202645 -0.039099623 0.06133706 0.026980342 0.03794347 -0.0072845924
0.08145256 0.1957766 -0.23385409 -0.2024057 0.2059635 -0.09044345 0.4392585 0.06259794
0.04110356 -0.19986308 0.022574928 -0.09814516 0.2939318 -0.33679998 -0.14671348 0.21236728
0.04618087 -0.17301849 -0.12050183 -0.08615296 0.0030089281 -0.20608494 0.24780302 -0.0014335681
0.18239158 -0.21097443 0.07710776 0.26898578 -0.13326737 0.26339042 0.043394573 -0.1860923
-0.028045692 -0.289845 -0.00916815 0.24225508 -0.027116744 0.13849516 0.18978895 0.1176567
-0.24274682 -0.02793292 -0.20359345 -0.09812926 -0.26339927 -0.14385594 0.09145534 -0.13046251
0.16221498 0.09992797 -0.13795014 -0.118086495 -0.14369869 -0.1155578 -0.021283783 0.06519836
-0.06414467 0.050974533 0.13660917 0.13725983 -0.44823155 -0.16671458 -0.27080116 0.17134002
-0.0916429 0.33020565 0.014371374 0.031210773 0.03974729 -0.21562323 0.027744044 -0.32503676
0.0397539 -0.16327141 0.105306126 -0.09417937 0.16166466 -0.32537162 -0.023454709 0.00028720015
-0.08252987 -0.011032859 0.20267452 -0.20947447 0.25697926 0.067088544 0.26633546 -0.004430347
0.1884004 0.019033028 0.056487095 0.16037683 0.123538785 0.17188336 -0.11596865 -0.19111621
-0.25769523 0.27499464 -0.024352333 0.051834986 -0.113821335 0.05173347 0.096377015 -0.30843017

embedder.emb_rnn.bias_ih_l0 f4 [60]
00000000: 7910 853f 8518 713f 4022 653f 6f85 563f
00000010: 9322 6e3f 2109 643f 0951 823f 387d 783f
00000020: d2c5 863f 3e82 813f 7b65 823f 529b 743f
00000030: eb19 6e3f 39fe 7f3f 5862 8a3f 9d05 713f
00000040: afc0 893f 088f 813f fbae 903f de4f 7d3f
00000050: 34ba 273f dece bc3e 4f0a e23e eacb 6c3f
00000060: 75af 1b3f 303e 6d3e 3b83 813e 1110 5a3f
00000070: f432 6f3f c633 783f 40f5 6b3f 199c 7b3f
00000080: 069c 413f b8f2 293f 6645 d83e 1132 d53e
00000090: 595b 953f be73 7c3f 2724 393f 9755 4b3e
000000a0: b9e9 863f 24f1 4f3f 3ffa 813f a6c5 743f
000000b0: 5ca1 673f 0211 703f 937e 8a3f b3c4 803f
000000c0: 6706 7d3f 957c 753f 3392 4b3f 09e3 853f
000000d0: 9c33 7f3f 6101 823f 80e6 8a3f 0cb2 853f
000000e0: 3a5b 803f 7feb 633f 54a3 603f cf9e 893f
1.0395652 0.9417804 0.89505386 0.83797354 0.93021506 0.8907643 1.018098 0.9706607
1.052912 1.0117872 1.0187219 0.955495 0.930083 0.9999729 1.0811262 0.9414919
1.0761927 1.0121775 1.13034 0.9894999 0.655185 0.36876577 0.4414849 0.9249865
0.608146 0.23168254 0.25295433 0.85180765 0.93437123 0.96954 0.92171097 0.9828506
0.756287 0.66385984 0.42240447 0.4163976 1.1668502 0.9861411 0.7232079 0.19856869
1.0540076 0.81227326 1.0154494 0.9561409 0.9048059 0.9377595 1.0819877 1.0060028
0.98837894 0.9589322 0.7951996 1.0459911 0.99688125 1.0156671 1.0851593 1.044496
1.002784 0.89031214 0.8774922 1.075159

embedder.emb_rnn.bias_hh_l0 f4 [60]
00000000: 790c 223d a579 6ebd 9eef d6bd 22ea 25be
00000010: 42ec 8ebd 55b6 dfbd 473a 943c a758 f0bc
00000020: abb1 583d 3f12 413c 4f5f 993c e244 36bd
00000030: a730 8fbd aad8 d3b7 4024 a63d 1fa5 6fbd
00000040: 8d0c 9c3d c271 473c 8277 053e 2f16 2cbc
00000050: 578b b0be 8198 21bf f0fa 0ebf 7ea1 99bd
00000060: 76a1 c8be a1b0 44bf 703e 3fbf 1ac0 17be
00000070: e467 86bd e882 f9bc f957 a0bd 117d 8cbc
00000080: 978f 79be 351a acbe aedd 13bf eb66 15bf
00000090: 57db 2a3e c60f 63bc e9b7 8dbe 882a 4dbf
000000a0: e1ae 4d3d 4beb 4bbe 5ade ad3c 1815 b3bc
000000b0: 28c4 cbbd 469c a43d 5b37 dd3d f8ff 603c
000000c0: 2390 143b 4511 25bd 78c0 78be 0102 463d
000000d0: ae00 9abc e53c 6a3c 437a b03d 3a8e 843c
000000e0: a382 cf3b 08ea 15be e35c febd c726 343e
0.039562676 -0.058221478 -0.10494922 -0.16202596 -0.06978656 -0.10923449 0.018094195 -0.029339148
0.052903812 0.011784135 0.018722204 -0.044499286 -0.069917016 -2.5254052e-05 0.08112383 -0.05850708
0.07619581 0.012173118 0.1303387 -0.010503336 -0.34481308 -0.6312333 -0.5585165 -0.07501505
-0.39185685 -0.76832014 -0.7470465 -0.14819375 -0.06562784 -0.030457929 -0.078292795 -0.01714948
-0.24371181 -0.33613744 -0.5776013 -0.58360165 0.16685234 -0.013858741 -0.27679375 -0.8014302
0.050215606 -0.19913976 0.02122419 -0.021860644 -0.09949523 0.08037619 0.10801574 0.013732903
0.002266892 -0.040299673 -0.24292171 0.048341755 -0.018799152 0.014296745 0.086170696 0.0161811
0.006332712 -0.14640057 -0.124200605 0.17592917

embedder.emb_rnn.weight_ih_l1 f4 [60, 20]
00000000: e396 1a3d b04c 653d d7d1 563d 0857 4e3d
00000010: 95ce 483d 7d01 e7bd 47ba 263e a973 debd
00000020: 004d 603e d580 543d 73bd 05be 3432 5a3e
00000030: 98f3 3abe 8f94 8b3e 2cf7 8dbd 6560 e8bd
00000040: 0764 753e 2830 863d 0b8d 79bd a5ab 843e
00000050: faf9 c6be 5dee 64be 9ad6 dd3d 28b2 52be
00000060: 8a3c 8a3d aaab 943d c1b4 69be eb9e b93c
00000070: 2877 0f3d 14b8 86bd 295e 42bd f484 2f3d
00000080: 33bb 9abd 613f 9e3d 6b7a 86be 24e8 d3be
00000090: 9f57 4abe c6d6 d4be 436a 98bc bdd5 53be
000000a0: e837 09bb cb36 463d 1a39 d5bd f542 42be
000000b0: 2125 99be 64b5 6abd 7fec 72bd 7ea7 213e
000000c0: 9147 8bbe b62a 73be c2ff a23d a594 023e
000000d0: 231c 4ebf d700 21bd 92e5 b53d f46b 6b3e
000000e0: ac9b e5be ba6c 633d 99fd 093e ab88 673d
000000f0: 83d5 4bbe 9c38 76bd ec34 f3be ae17 c63c
00000100: 432e 49be f925 733e 3155 063e dfde 3ebc
00000110: 44c4 84be e988 b7be 83f5 823e 6b0e 7c3d
00000120: 4e53 293f 1b88 21bf 45f3 71be 5933 f6bc
00000130: 26b8 bebe 82a6 353e 349c 2ebd 0218 db3c
00000140: 441f 84bd eb08 033e 239c 07be f905 fdbd
00000150: 0fab 413e 7ed1 393e cd4a aabe df9d aebd
00000160: d507 193d 097e 2ebe dd72 173e 2e95 223d
00000170: e487 2fbe a300 8e3e ba2f 93be dfd1 ca3d
00000180: de61 1abe 60a4 07bd 6643 363f 6e26 043d
00000190: 156d 353e 2535 183e d132 db3d d6a9 c53d
000001a0: ada7 18be 9e71 85be 3cfd 703e 583d a5bd
000001b0: 2286 8cbe bd27 6f3e f13b 2a3e dfde 92be
000001c0: f824 57be 72de 6b3e 2af2 b73e dd56 073e
000001d0: 1aac 88bd b33a 0b3e a176 753e 94e9 e7bd
000001e0: 3a89 d03c 2f22 adbe f504 f9be 0216 6dbe
000001f0: 872b 11be c43b 09be 70bc 27be 8659 7cbd
00000200: 9670 2abe 9332 09bc af3b 773e 3790 afbe
00000210: 6155 ebbc 6a4e e7be 34d7 233e b7af 55be
00000220: ea4a d7ba 7a9b 473e 87bf 153d 498a fbbd
00000230: 1dbc 02be bc3d 2c3e 3342 a83e 992e d73d
00000240: 995d 54bd 9884 3abe 4a5f 813e c51d ca3d
00000250: 415e 3c3e 41c7 8abe 1bd7 23be 1780 f73d
00000260: c3b2 9d3e e9ec 283d 9217 82be 3d29 9cbd
00000270: 58e7 883e 9c7b 8bbd a157 5c3e 680d 013e
00000280: 7d4f 393d 9c3b 063e b202 19be 2015 683d
00000290: 123c 9e3e e880 2abf a9d2 a7bc a78a e23a
000002a0: 5fac 85be 99cd 50be 21d9 12bd de6f 9c3d
000002b0: 56b3 1cbf bfdf cbbd 0b37 593d 8144 1b3f
000002c0: 9bfe 03bd b20f f2bd de81 d6bd 5b13 28bd
000002d0: 9761 05bf 02fc 673e a320 3fbe c307 18be
000002e0: d2f4 013e b543 59be 3dd5 cdbd 624a 073d
000002f0: 6b94 a4be 171e 873d 91fb 9fbe 8402 f7bc
00000300: 8ca6 7ebd e315 24bf 5547 b3be 30ff 7b3e
00000310: ed9e 18be acf4 3b3d fc63 c7bd b7ba 72be
00000320: 303c 563e c4d5 c8bc dfcf c3bd 10c0 ccbd
00000330: 5d0a 283e 5dd9 2ebd f850 c2bc 1895 4fbe
00000340: 7795 96bd 0f22 ccbd 623a 94be 9f58 123e
00000350: e27e bcbe 84f0 9e3c 5f87 59bd cc0a 523e
00000360: 66e2 febd f22a 48bd dd64 18bc 094f 02be
00000370: 8da4 13bd c7cc 083e 1512 70be 3a39 ff3c
00000380: 77af 1bbe 2a43 c2bd 1fca 5bbe 166a 063e
00000390: 13db 293e d0d7 a2be 1ec9 803e 0163 843d
000003a0: ef50 cdbe 1801 9d3d b9d6 96be 57dd 373e
000003b0: 1f06 85be 664a 8c3e db7c b43e be9c 193e
000003c0: ff91 94bd c06c 53bf c5c7 483e 23ff 26be
000003d0: 2426 24be eca3 95be 5fc8 233e 39f5 f33d
000003e0: e6da 8b3d ec4c 533c 923e e93e 3630 533e
000003f0: 3d30 5abf 1673 bdbe c8cd 7ebe dc0a 86be
0.037741553 0.055981338 0.052446213 0.05037597 0.049025137 -0.11279581 0.16281997 -0.10861904
0.21904373 0.051880676 -0.1306055 0.21308213 -0.18256986 0.2726178 -0.0693191 -0.11346511
0.23963939 0.06552154 -0.060925525 0.25912204 -0.38862592 -0.22356553 0.108319476 -0.20575774
0.06749828 0.07259305 -0.22822858 0.022658786 0.035025746 -0.06578079 -0.04745308 0.042851403
-0.07555237 0.07726932 -0.26265272 -0.41388047 -0.19759987 -0.4157011 -0.018605357 -0.20687003
-0.0020937864 0.0483921 -0.10411282 -0.18970855 -0.2991114 -0.057301894 -0.05930757 0.1578655
-0.27203038 -0.23746762 0.07958938 0.12752016 -0.80511683 -0.03930744 0.08881678 0.229904
-0.4484533 0.05552361 0.13475646 0.05652682 -0.19905667 -0.06011258 -0.47501314 0.024181213
-0.19646554 0.23744954 0.13118435 -0.011649816 -0.2593099 -0.35846642 0.25577936 0.061537188
0.6614274 -0.63098305 -0.23627956 -0.030053781 -0.3724987 0.17739299 -0.042629436 0.026744846
-0.06451276 0.1279637 -0.13243155 -0.12354655 0.1891291 0.18146321 -0.33260193 -0.08526205
0.037360985 -0.17040266 0.1478991 0.03969305 -0.17141682 0.2773486 -0.2874735 0.09903311
-0.15076396 -0.033115745 0.7119659 0.032263212 0.17717393 0.14864023 0.10703052 0.09651534
-0.14907713 -0.26063246 0.23534101 -0.08068341 -0.27446085 0.23355003 0.16624428 -0.28685662
-0.21010196 0.23034075 0.35926944 0.1321673 -0.06673451 0.1359661 0.23971035 -0.11323848
0.02545606 -0.33815143 -0.48636594 -0.23152927 -0.1417676 -0.13401705 -0.16380477 -0.061608814
-0.1664451 -0.008373874 0.24143861 -0.34289715 -0.028727235 -0.45177013 0.16000062 -0.20867811
-0.0016425524 0.19492903 0.036559608 -0.12282235 -0.12767072 0.16820425 0.32863006 0.10506935
-0.051847074 -0.18214643 0.25268012 0.09868959 0.1839533 -0.27105144 -0.16000025 0.12084978
0.30800447 0.04124156 -0.25408608 -0.07625053 0.26739 -0.06810686 0.21517803 0.1260277
0.04524182 0.13108677 -0.14942434 0.05666077 0.30905205 -0.66602945 -0.020486193 0.0017283753
-0.2610807 -0.2039093 -0.0358516 0.076385245 -0.61211145 -0.099547856 0.05303101 0.60651404
-0.032225233 -0.118194 -0.10473989 -0.041034084 -0.52102035 0.22654727 -0.18664794 -0.14846711
0.12691048 -0.21217234 -0.100504376 0.03302992 -0.32144484 0.06597536 -0.31246617 -0.030152567
-0.06217055 -0.64095896 -0.3501536 0.24609065 -0.14904375 0.045887634 -0.097358674 -0.23704039
0.20921397 -0.024515994 -0.09561133 -0.099975705 0.16410203 -0.042687763 -0.02372025 -0.20271719
-0.07352727 -0.09967434 -0.28950793 0.14291619 -0.36815554 0.019401796 -0.053107616 0.20511931
-0.12445526 -0.04886908 -0.009301391 -0.12725462 -0.0360456 0.13359366 -0.23444398 0.031155217
-0.15203653 -0.09485467 -0.21463822 0.13126406 0.16587476 -0.31805277 0.2515344 0.06464196
-0.4010081 0.07666224 -0.29460695 0.17955528 -0.25981233 0.27400512 0.35251507 0.15001199
-0.07254409 -0.82587814 0.19607456 -0.16308264 -0.16030174 -0.29226625 0.15994404 0.11912007
0.06828861 0.012896758 0.4555555 0.2062386 -0.85229856 -0.37001866 -0.24883187 -0.2618016

embedder.emb_rnn.weight_hh_l1 f4 [60, 20]
00000000: 3e94 e5bc ccf2 8bbe 6a38 443d ace2 e73d
00000010: 0b76 cc3e 707f 04bb 29dc 1dbe 9021 013e
00000020: 8c3c 22bd 4525 17be b8f3 b63e 2088 5e3e
00000030: ccdf d03d 36ce 623e 8a16 623e 9d7e 9a3e
00000040: a37c 26be 2c92 6d3e f531 2c3d 5974 383e
00000050: 286e c93d 115e 0c3d 1378 083e 54b4 5e3e
00000060: f518 8cbb 77af 1bbe 12dc 5fbe 6c8a d4bd
00000070: 2597 8c3e 9eee a1be 48f8 cb3e 71bb d3be
00000080: 1438 663e 7e6f 2d3e df65 323e 864f 39be
00000090: 42e8 e0be b2e1 febd 70f0 9bbd 9a95 73be
000000a0: 7ddb 103e 0cc5 ee3c e9c8 0e3d 7850 8ebe
000000b0: a465 143d 29d1 3f3d 1dad 58bd 57e5 cbbb
000000c0: b9f9 8f3e ebf8 aa3c 05fa 55be e7a0 33be
000000d0: b30f a7bd 10d6 81bd 3339 32bd f4d8 24be
000000e0: 614c 16bd c1c9 4d3e b00d fd3e 6967 cabd
000000f0: f77a 293d 782d 30be a8f1 5b3d c5b5 01be
00000100: 2150 eb3d eda1 07be 98f1 7b3e afd8 e43d
00000110: 8979 a83e 7245 3bbe ba3a a93e 8b63 31bd
00000120: 7dc5 25be d68e 0abf 8e0f e43d d25e 65bd
00000130: 8f23 92bd 4947 7fbb 9953 863f 9391 d9bd
00000140: 32db 97be 3f7d 453e 0e23 cfbe 119b 43bd
00000150: b0cc 6dbd 49b5 37be 2b70 0ebd 6c73 d2bd
00000160: 9c82 093d 494e 48be d0fa c0be c58d 243e
00000170: 42d3 913e ebc1 a3be c6ca 093d 0090 123e
00000180: 61df 82bd f707 2cbe 7710 f1be 8d87 08bc
00000190: 2a7d 46be 2584 473e fc4c 493e 3b9c 083d
000001a0: 8d04 453d 58c3 113e bcc2 033e 4e14 d1bc
000001b0: b29b a73d 4b56 963c d531 7b3d 188b 6b3c
000001c0: a98b 463e 70e3 a7bd 7849 8cbe bd48 f73d
000001d0: f5a9 45be 88e6 5e3e a906 043c 0b03 25be
000001e0: 3660 8b3e e03d d53d aabd 463e 326f 8cbe
000001f0: f557 c5bd a489 323e 45dd e9bd 37d1 ed3d
00000200: e040 653e eaa1 893e beea d03e 47a6 98be
00000210: a8f1 29bc f3c5 9f3d 9415 f8bd 57c9 893e
00000220: ecec 22be 9b2f d53d 5528 91be 72b9 a7be
00000230: 0275 50be f6aa cf3d ba5b 83be 8267 023d
00000240: b78f 7bbd dcc8 4f3e 4b51 a53e 81ba 283e
00000250: cb46 65be ba8f 78bd 4fe3 12be 4fea 70bd
00000260: a6a6 5f3e 4749 823e 2092 ca3e 2ff5 60bd
00000270: a238 313d 4061 1c3e 0b25 ec3e be1e 0bbe
00000280: 9b97 fdbe 37de 103e 822a c8be d430 90be
00000290: 9963 683d 1475 46be 44ab d03e aef3 c63b
000002a0: 2c3f edbc 760a cfbd a935 0b3e 3432 833e
000002b0: e80b db3d c046 0b3e a9db 513e d90a 17be
000002c0: d994 c3bd 6662 8dbe c303 563e 1bc0 883e
000002d0: d359 0fbd 1a49 b13c f215 5fbe 6113 e13d
000002e0: 2a11 ee3d 8a86 82be 5ddd 953d 306e adbe
000002f0: 574c 873e 59bd 40be 4be9 5cbe d66b fcbd
00000300: b55c 923e 063d 73be 71f8 d8be 72b2 4cbd
00000310: cef9 3f3d 8da5 a6bd 1d4f 82bd b624 0c3b
00000320: 9f75 95be ccc2 5b3d 3621 c7be e896 2cbe
00000330: 0099 e13d c148 a23d 9e44 a03e a360 53be
00000340: 5d2c 3e3e 50e2 1cbe 7bfa 40be ff7e 00bd
00000350: f906 b03e 83a2 bebe 2d9a 83be 0701 4dbe
00000360: 1fc3 e3bd a68f 81be 1684 023f c2a6 82be
00000370: 51a7 f5bd 5120 a93e de68 5fbe 7c3b f03d
00000380: ca50 33be 9ac3 8fbd 9cbd 63bd 2bb1 113d
00000390: 91fc cd3e 414b a3bd 5afe da3d 18df 493e
000003a0: dbb7 be3e 8dbd 503e 0463 b7bd 58ff 023e
000003b0: ba3c b7be 3ef2 6fbe c713 00be 2045 a6bd
000003c0: 324a 0bbf e7c7 c53d 6f07 2ebd 9b54 873d
000003d0: ef7f 403f 75c8 443e 393a 853d f552 87be
000003e0: a9bb b4bd 18c5 94be 2f37 8ebd a1ae 99bd
000003f0: 3ed6 b13e a17f 0abe 70bd 8dba dfcc 223e
-0.028024789 -0.27333677 0.047905363 0.11322531 0.3993381 -0.002021756 -0.15416016 0.1261046
-0.039608523 -0.14760311 0.35732818 0.21731615 0.10198936 0.22148976 0.2207891 0.30174723
-0.16258483 0.23200291 0.04203983 0.18013133 0.09835464 0.034269396 0.13327055 0.21748477
-0.004275436 -0.15203653 -0.21861294 -0.103779644 0.27459064 -0.31627363 0.3983786 -0.41353944
0.2248233 0.16937062 0.17421673 -0.18096742 -0.439272 -0.12445392 -0.07614219 -0.23787537
0.14146228 0.029146694 0.03485957 -0.27795768 0.036229745 0.04683033 -0.05289947 -0.006222408
0.2812021 0.020870646 -0.20896156 -0.17541848 -0.08157291 -0.06339657 -0.04351158 -0.16098386
-0.036693934 0.20096494 0.49424505 -0.09883005 0.041377034 -0.17204845 0.05369726 -0.12666996
0.11489893 -0.13245364 0.2460388 0.111741416 0.32905224 -0.1828821 0.33052617 -0.043307822
-0.16188617 -0.541242 0.11135779 -0.05599863 -0.071356885 -0.0038952401 1.0494262 -0.10623469
-0.2965942 0.19286059 -0.40456432 -0.047755305 -0.058056533 -0.17940249 -0.03477494 -0.10275921
0.033571824 -0.19561113 -0.37691355 0.16069706 0.2848149 -0.31983885 0.033640645 0.14312744
-0.063902624 -0.16799913 -0.47082874 -0.008333099 -0.19383684 0.19484003 0.19658273 0.033352118
0.048100043 0.14234674 0.12867254 -0.025522377 0.081839934 0.018351695 0.06132682 0.014376424
0.19389214 -0.08197677 -0.27399802 0.120744206 -0.19303115 0.21767628 0.0080582285 -0.16114442
0.2722184 0.10412192 0.19408289 -0.27428585 -0.09635917 0.17435318 -0.11419157 0.1161217
0.22388029 0.26881343 0.40804094 -0.2981436 -0.010372557 0.07801428 -0.12113491 0.26911423
-0.15910691 0.10409471 -0.28351083 -0.3275867 -0.20357135 0.1014003 -0.2565592 0.031836994
-0.061416354 0.20291466 0.32288584 0.16477396 -0.22390287 -0.060683943 -0.14344524 -0.058817204
0.21840915 0.2544653 0.3956461 -0.054921325 0.0432669 0.15271473 0.46122012 -0.13585946
-0.49529728 0.14147268 -0.3909493 -0.28162253 0.05673561 -0.193806 0.40755665 0.0060715294
-0.028960787 -0.10109417 0.13594688 0.2562424 0.1069563 0.13601208 0.2049395 -0.14750232
-0.09549875 -0.27614135 0.20899872 0.26709065 -0.034997772 0.021641303 -0.21785715 0.10990024
0.116243675 -0.2549327 0.07317612 -0.3387313 0.2642543 -0.1882223 -0.21573369 -0.123252556
0.28586355 -0.23753747 -0.42377046 -0.049974866 0.04686909 -0.08137045 -0.06362746 0.0021384186
-0.291913 0.05365257 -0.38892525 -0.16854441 0.110155106 0.07924033 0.3130235 -0.20642333
0.18571611 -0.15320706 -0.1884555 -0.031371113 0.3438032 -0.37233362 -0.25703564 -0.20019923
-0.11121201 -0.25304908 0.509828 -0.2551785 -0.11994804 0.33032468 -0.21817347 0.11730096
-0.17511287 -0.0701973 -0.055600747 0.03556935 0.40231755 -0.07973338 0.10693045 0.1971401
0.37249646 0.20384808 -0.089544326 0.12792718 -0.35788518 -0.23432252 -0.12507544 -0.08118653
-0.5441009 0.09657269 -0.042487558 0.06607934 0.7519521 0.19217093 0.06505246 -0.2643048
-0.08824856 -0.2905662 -0.06944119 -0.07504011 0.34733766 -0.13525249 -0.0010813903 0.15898465

embedder.emb_rnn.bias_ih_l1 f4 [60]
00000000: e869 873f 53a1 6f3f c1a7 773f b6dc 7b3f
00000010: aa67 623f 56d3 803f b2b8 7d3f 56bd 863f
00000020: de44 6f3f 19ea 643f cc6b 683f 14bb 7c3f
00000030: 6039 823f 7f12 8a3f 02f1 743f e6e8 7f3f
00000040: e456 803f bfa1 6c3f 1f1c 853f 6f62 733f
00000050: b8a5 0e3f f791 9c3e a5fd 953f 6850 343f
00000060: 3f51 3a3e ba9d 1a3f 5f9a 743e 4385 293f
00000070: 088c 86be 9220 283f 126e 4d3d 2073 cebe
00000080: 4f23 c7bd 4682 633f c7bf 4b3d 93c7 343f
00000090: b28b 443f 9d30 fc3e c009 5b3f 1b0c 523f
000000a0: 8bc4 8c3f 952e 6d3f 9f1d 853f bcf7 823f
000000b0: aed2 6f3f e5a2 793f f508 613f 64ca 753f
000000c0: 5c8e 783f d95e 773f 3d12 693f 049c 773f
000000d0: 2ebd 4d3f 1b10 813f 9d09 683f 9223 853f
000000e0: 4814 723f 05e9 883f 2cac 773f 044a 793f
1.0579195 0.93605536 0.9674035 0.98383653 0.8843943 1.0064495 0.9910995 1.0526531
0.9346446 0.89419705 0.90789485 0.9872296 1.017376 1.0786895 0.9568025 0.9996475
1.0026517 0.92434305 1.0399207 0.9507207 0.55721617 0.30580112 1.1718031 0.7043519
0.18195055 0.6039692 0.23887013 0.66218966 -0.2627871 0.656747 0.0501538 -0.40322208
-0.097235315 0.88870656 0.04974344 0.70617026 0.7677566 0.4925584 0.8556175 0.8204972
1.099748 0.92649204 1.0399665 1.0231853 0.93680847 0.9751418 0.8790429 0.9601195
0.97092223 0.966291 0.91043454 0.96722436 0.8036679 1.008304 0.9063967 1.040148
0.94562197 1.0696112 0.9674709 0.97378564

embedder.emb_rnn.bias_hh_l1 f4 [60]
00000000: d13e 6d3d 03f6 82bd bc86 05bd b169 84bc
00000010: adc2 ecbd d03e d33b 52d1 11bc ddae 573d
00000020: dbd8 85bd aaae d8bd 9fa1 bcbd a147 51bc
00000030: 1958 8e3c 7527 a13d b0f2 30bd a35c b9b9
00000040: 3dbc 2d3b 52ee 9abd 1785 233d ecd9 49bd
00000050: ceb4 e2be 12b7 31bf 8ded 2f3e a55f 97be
00000060: b56b 51bf dbc4 cabe 5fd9 42bf faf4 acbe
00000070: 2da3 a1bf 5ebe afbe 3429 73bf c79c b3bf
00000080: 7772 8cbf 67ef e3bd 1a44 73bf 1e71 96be
00000090: e3d1 6dbe b3e7 01bf 72d8 13be 39d0 37be
000000a0: b7b1 bd3d ade5 91bd b567 0f3d c292 d23c
000000b0: 28c7 69bd f11c 53bd c0d6 babd 3f55 35bd
000000c0: 2eec 0cbe a09c 1fbe 07ab 04be d8d2 e2bc
000000d0: 24b7 86be 111d 72bc 9c6c 79bd 978f 653d
000000e0: fe3d 9cbc 2306 8e3d 3030 2ebd 8399 26bd
0.057921235 -0.06394579 -0.032599196 -0.016163679 -0.11560569 0.006446697 -0.0089000035 0.052656997
-0.065355025 -0.105801895 -0.09210514 -0.012773425 0.017375993 0.07868854 -0.043200195 -0.0003535497
0.0026509904 -0.07564987 0.039921846 -0.049280092 -0.44278568 -0.6941997 0.17180462 -0.29565158
-0.8180497 -0.39603314 -0.7611293 -0.33780652 -1.2627922 -0.34324926 -0.94984746 -1.403222
-1.0972432 -0.11129647 -0.9502579 -0.29383177 -0.23224597 -0.5074417 -0.14438036 -0.17950524
0.09262412 -0.07123885 0.035011012 0.025704745 -0.057074696 -0.051541273 -0.091229916 -0.04427075
-0.1376197 -0.15587091 -0.12955867 -0.027688429 -0.263116 -0.014777438 -0.060894594 0.05604514
-0.019072529 0.06934764 -0.042526424 -0.040673744

embedder.emb_rnn.weight_ih_l2 f4 [60, 20]
00000000: 7533 8cbe fbfc 0cbd 29ab 06be 3b2c 4abc
00000010: f117 d33d 977e 1c3d 20f4 8abd d5bf d53c
00000020: 6f2d 95bd c8d4 65be 9681 2e3f d3f5 f13e
00000030: 18ea 26bd 0fbc 68be 74af bc3e 7a9a b93d
00000040: 8b16 15be 7630 c53d 67f6 093e d43b 13bd
00000050: 070a 0f3e aa57 e93d bce0 123e c9ff 33be
00000060: c568 953d 386d 623e 8d63 3d3e 9ac1 48be
00000070: a6f5 dc3d c3e8 c3bd eb27 60be e4db 013e
00000080: 2ec5 0fbe 91d3 0b3d ff29 b0bd bc17 883e
00000090: 936d 143e 3bf4 34bd b43e c9bd bbd4 713d
000000a0: 558a 8a3c ea5b 013f cd4e 8abe a4e2 60be
000000b0: 1c5a 47be fcc5 45be 8d68 1f3f 9e2c 833e
000000c0: ebc1 143f 9150 dfbd 3122 7a3f 90a5 223f
000000d0: f6be b33d 4621 c0bd c2a6 e13e 15dd 7b3e
000000e0: 2174 19bf 131a 32be 8ce5 13bf 815a c0be
000000f0: 340c febd 0949 97be cebb e5bd b6c1 0b3e
00000100: 649d eb3e e9d5 94be fd6b 883e e2f9 7dbc
00000110: de30 4d3e cc19 dabe c198 7cbe 7fae c2be
00000120: f56f 213e 31c6 323e e62d fcbd ac0d dcbe
00000130: 157d 82be 533a 90be 40f9 8f3d 7e7c 01be
00000140: fd6a 8f3d 3f79 3d3d b6d0 b1be 971a 2e3d
00000150: 9eb0 0e3f e101 44be c7df d43e aab9 4dbe
00000160: 176c 06bd 24c1 793e 0d3e 113f 0100 673f
00000170: 7e52 2f3d 809b 98bd 2a39 d33e d6e6 173e
00000180: 8615 b63a ed4c 87be fd5c 0b3f 112e 99be
00000190: 9d56 f53d 3a1c 343e 4009 563e 51e6 e3bd
000001a0: f9fd 70bd 41cc cb3c 459e 65be 3de8 2b3c
000001b0: 9b0d c1bc b40e 3d3c 61c0 7cbe 32eb 3f3e
000001c0: 4f87 a2be ae3d 21be 79a6 4dbe 8c18 2ebe
000001d0: 6005 923e 40a7 0ebe 2088 963e ad6b 973d
000001e0: eb4e a33e ce04 73bd b346 7fbe b752 34be
000001f0: 70da db3e 36c3 413e 0e4e c6bd f455 3c3e
00000200: 9487 043e 4420 913e 4416 353e be9f 45be
00000210: ea83 42be 2804 62be fcc4 7d3e 453f 1d3c
00000220: 2238 19be fcc5 11be 9a32 8c3e fd85 e93d
00000230: 48ae cdbd 7352 9d3d e5a4 2d3d 784b 643c
00000240: 9850 693e 26f6 29bd 2ea9 13bc e292 ccbe
00000250: f5d9 8bbe ca43 6cbe caf3 2cbd 072a bbbe
00000260: 722b abbe 370d 513d 55f0 9b3e 4fec 81be
00000270: 8089 4e3e 94bd 583a c821 2bbe c6bc bcbe
00000280: 371d 2bbe 40b1 603e 0957 51be 7151 3fbe
00000290: e9a4 2ebe 836d d6bd 71bf 7c3c fa9c 00be
000002a0: 2e7d 8b3e e248 36be 1841 843e 42fe 963e
000002b0: 6109 8bbd 95e0 edbc ebeb f03b b141 a33d
000002c0: 2f94 373e aa23 2dbc 7e73 5b3d 9da2 ea3c
000002d0: 1676 20be a8b0 0c3f b44d 0bbf f642 01be
000002e0: 319f 98be 5424 403d ed05 943e 47cc 323e
000002f0: 7d0b fc3e f81b 77be 8d02 c0bc d5c7 61be
00000300: 61c7 243f 9c96 2cbe 8eed 093e 14c3 a4be
00000310: 4985 b4be 6d5b 35be 01bd 54be 70ed f7be
00000320: dd1f 923e acad 653e e706 8e3e 109e 36be
00000330: 2630 13bd 592c 083e 8b92 a7be 9d91 5e3d
00000340: 8cdc 1bbe d094 8c3e 7dfd 0b3e f8b0 08bd
00000350: 3873 1a3e b2a7 a4bd bfed 6fbe 9797 b8bd
00000360: caed 8d3e 3808 13be 8eb1 cd3e 8f34 1d3e
00000370: 3a0c b1bd 2828 5fbe 8acf ca3d 421c 333e
00000380: a3d7 a53e 7099 203e 7601 0fbd f0a5 84be
00000390: fc06 4b3e 881c 91bd d38b 803c f43f 02bc
000003a0: e8e7 a63e b712 1f3e c282 353d fee2 00be
000003b0: 22e5 87bd d2cc ea3d 6283 143f 65f9 38be
000003c0: b013 48be af87 b03e 75fe 6bbe e6f8 81be
000003d0: 4556 863c d185 c33d a842 a1be 60f9 08be
000003e0: 588b c73c e838 a73e d7fd 43be 6429 873e
000003f0: b4e4 d2bd e574 7e3e 07d6 82be 49ae 36bc
-0.2738301 -0.03442095 -0.1315123 -0.012339647 0.10307301 0.038206663 -0.067848444 0.02609245
-0.072840564 -0.22444451 0.6816648 0.47257861 -0.040750593 -0.22727989 0.3685261 0.09062667
-0.1455938 0.09628384 0.13472901 -0.03594573 0.13968669 0.11393674 0.14343542 -0.17578043
0.07295374 0.22111976 0.18495007 -0.19605103 0.10789041 -0.0956588 -0.21890227 0.12681538
-0.14040062 0.034137312 -0.0860176 0.26580608 0.14494924 -0.04417823 -0.09826413 0.059040766
0.016911665 0.50530875 -0.27013245 -0.21961457 -0.19467968 -0.19313806 0.62268907 0.25619978
0.58108395 -0.10904039 0.9770842 0.6353388 0.08776657 -0.093813464 0.4407254 0.24596055
-0.59942824 -0.17392759 -0.57772136 -0.3756905 -0.12404671 -0.2954791 -0.112174615 0.13648114
0.46018517 -0.2906945 0.2664489 -0.015501471 0.20038173 -0.42597806 -0.24667646 -0.38023755
0.15765364 0.17458417 -0.12313442 -0.4297918 -0.25486055 -0.28169498 0.070299625 -0.12645146
0.07002828 0.046258207 -0.34729546 0.042505827 0.55738246 -0.19141342 0.4157698 -0.20090356
-0.032817926 0.24390084 0.56735307 0.9023438 0.04280328 -0.07451534 0.4125455 0.1483415
0.0013891913 -0.26425877 0.54438764 -0.29917958 0.11979411 0.17588893 0.20901966 -0.11127914
-0.058835957 0.02487767 -0.22423656 0.010492382 -0.023566058 0.01153915 -0.24682762 0.18742064
-0.31743857 -0.15746185 -0.20083036 -0.17001551 0.28519726 -0.13930988 0.2940073 0.073935844
0.31896147 -0.059330754 -0.24929313 -0.17609678 0.42940092 0.18922123 -0.096828565 0.18392164
0.12942344 0.2834493 0.17684275 -0.19299218 -0.18995634 -0.22071898 0.24782175 0.009597604
-0.14962819 -0.14235681 0.27382356 0.11402509 -0.10043007 0.076817416 0.042393584 0.013934009
0.2278465 -0.04149451 -0.009012504 -0.39955813 -0.27314726 -0.23072734 -0.042224683 -0.36555502
-0.33431584 0.051037993 0.30456796 -0.25375602 0.2016964 0.00082679954 -0.16712105 -0.36862773
-0.16710363 0.21942616 -0.20443358 -0.18683411 -0.17055096 -0.104701065 0.015426503 -0.12559882
0.27243942 -0.1780124 0.25830913 0.29490858 -0.06788898 -0.029037753 0.0073523424 0.07971514
0.17927621 -0.010567585 0.05357694 0.028641993 -0.15670046 0.54957056 -0.5441544 -0.126232
-0.29808953 0.046909645 0.2891077 0.17460738 0.49227515 -0.24131763 -0.023438716 -0.22048886
0.6436673 -0.16854328 0.13469526 -0.32180083 -0.35257939 -0.17710657 -0.20775224 -0.48423338
0.28539935 0.22429532 0.2773964 -0.17833734 -0.03593459 0.13298167 -0.3272899 0.054338086
-0.1522085 0.27457285 0.13670917 -0.033371896 0.15083015 -0.08039798 -0.23430537 -0.090132885
0.2772048 -0.14358604 0.40174526 0.15352081 -0.0864491 -0.21792662 0.09902866 0.17491248
0.3239108 0.15683532 -0.034913503 -0.2590785 0.19826883 -0.0708552 0.015691673 -0.007949818
0.32598805 0.15534483 0.044314153 -0.1258659 -0.066355005 0.114648476 0.58012974 -0.18063886
-0.1953876 0.34478518 -0.23046286 -0.25385207 0.016398558 0.09547008 -0.31496167 -0.13376379
0.024358436 0.32660604 -0.19139801 0.26398766 -0.10297528 0.24849279 -0.25553915 -0.011149951

embedder.emb_rnn.weight_hh_l2 f4 [60, 20]
00000000: 9eeb 51be 0b4f 0cbe 09c1 8dbd 4d5a cb3c
00000010: 0954 333d ee9a 683c fafa e6bd 7605 05be
00000020: efe1 3abe 7a19 68bd 9e82 8e3e 1e8e cdbd
00000030: 3d68 6cbc 8cc4 88be 9f3f 27be dfd6 8a3c
00000040: 2944 a03d f166 d13d 638d efbc 627a 3d3e
00000050: 03d0 fa3d eee9 c83c 821e a4bd cf03 4a3e
00000060: 849f 7bbc 7112 7d3c 2d61 52be 3b3b 05be
00000070: d073 93be db91 1abd 6ff0 7a3d 814a 143e
00000080: 537f 46be 6d4e 42be acf0 f63b f6b6 2ebe
00000090: 8cc8 253e 547a 2c3e 36a6 4dbe 2aa1 8a3d
000000a0: 1010 8dbe 4ee7 61bd b9cc afbd 0688 33be
000000b0: dd2b b93e 020d 14bc b34c 213e 7fa5 45be
000000c0: 01bd 88bd ff84 d6bd 9566 37be a8b0 82bd
000000d0: 61cb 94bd 1c4a 1d3e 32ef 8cbe 785f 46bc
000000e0: a3da cc3d f694 79bd 43a1 213e fea4 e13c
000000f0: e9d5 813d 29d8 92be 5b52 123d 309d b8be
00000100: 4310 c0bd 0709 6a3e c40d b6bd 9b7c 253e
00000110: 91ab 9f3e 89e7 4dbe 2e30 d0be 3309 b1bd
00000120: 370d 133e 436e 8fbe 9f80 a53d 7441 f03e
00000130: 175c 433e 4762 6dbe a731 f7bd 07bd 55be
00000140: 346b adbd a28c 1abe 7dbf 83be 059d 6a3d
00000150: ee76 513e 2a4e 0ebe df73 f33d d02b 1fbc
00000160: abfd 68be 341d 85ba 480d 51be 0472 f1bd
00000170: 95fa 523e 962b 84be ff1c 93bc aa09 bcbc
00000180: 45f2 97bd dd5e 863d 6c0b 073e 69d0 31bc
00000190: aab8 4ebe 40fa 69be ae17 0bbe 937e 073e
000001a0: 1e2e 683e db0e 2a3d 726b 363e c4a2 d2bd
000001b0: c9c1 4bbd 8c9a 0c3e 9f06 2d3e 76c9 213d
000001c0: 0dfa a8be ba61 e2ba 1281 c03d 9baf 3f3e
000001d0: 4d80 6ebc b7f0 97be a788 7c3e c367 413e
000001e0: 8c70 833d 6ac4 2a3e c3d9 e73d fae7 ca3e
000001f0: 362c 513e 99c1 343e 1c2f 223d 6ff6 89be
00000200: 5b6f 4c3e a249 283e f7c0 89bd 4476 1cbe
00000210: 78b4 89be 6fbd 8a3e c286 36bd 098d 19be
00000220: fb00 113e 2b89 dabd 6642 b83d e3c4 48be
00000230: 9ff1 0d3d 3d03 273e c4ff 05be 9fe3 003e
00000240: 8ef5 d1bd 018c f2bc dd9a 9dbe 0e7e 6abe
00000250: 79f0 0d3e 44ed 99be edcc a8be d419 cbbe
00000260: 0600 84bb 398e a8be 216c 7a3d cc9e ee3d
00000270: 19fb fd3d b2f4 533d 0d13 aebe c193 b23d
00000280: a8c5 aabe 8e68 163e eead a9be 33aa 87bd
00000290: b80a 2c3f a7f8 62be 914c 313e 0e53 633d
000002a0: 7b0f 86bd 0b59 0cbd 609a 64be 96c3 66be
000002b0: efc5 62be d1ac 53be 50fe 52bd d999 24be
000002c0: 1101 8ebe ef0c 0cbe 1f8d 9cbe b852 e23b
000002d0: 93d2 bd3c 0a66 91be e253 f3bd b566 03be
000002e0: 4d98 fbbd 6d4f 25be 1771 e8bb 3762 aebe
000002f0: fe1a 71be e880 d2bd 9c5a b2be fae6 3abe
00000300: d283 fe3d 343d 9f3c 8fd9 7dbe b028 023f
00000310: d8e6 c4be a798 3a3e 912f 2d3d 07e3 013e
00000320: c5ce 4c3d 2ff7 bbbe 24bf 253d d42a b5bd
00000330: 6785 78be df80 633e 1b72 973e c5bd ccbd
00000340: ec49 7dbc 0baa 213e 771f c2bd 0889 633e
00000350: face 003e d58f 11be c220 8c3d 93d2 26be
00000360: 6509 5b3e 3754 d2bd c8d9 043e 9a75 8d3e
00000370: 1038 923e 1ed5 66be 37fe 0e3d eb40 29be
00000380: 830f f03d 5c0d 553e b671 3c3c bb93 39be
00000390: 5569 1e3e 8ca4 763e 32d3 073e e948 d0bd
000003a0: a4c9 5b3e 962b 5ebe b15c 2fbe 7e92 6d3e
000003b0: 2598 3b3d 4ff6 993e 7364 313e 1211 e33d
000003c0: f777 f4bd 8350 f6be b645 4d3e 0f96 74bb
000003d0: 283e 193e aacc 193b 5cdc 0abe 5007 573e
000003e0: 9171 223e 1a61 a4be 7841 a9bd e1a9 f03d
000003f0: 0638 21be 1253 753e 9781 92bd 4222 d23d
-0.20500037 -0.13702027 -0.06921584 0.024823332 0.043781314 0.014197094 -0.11278339 -0.12990364
-0.1825025 -0.05666492 0.27834028 -0.10036872 -0.014429149 -0.26712453 -0.16332863 0.016948162
0.078255005 0.10224713 -0.029242223 0.18503717 0.12246706 0.024525609 -0.080136314 0.19728015
-0.015357856 0.015446291 -0.20544882 -0.13010876 -0.28799295 -0.037736755 0.06126445 0.14481546
-0.19384508 -0.1897523 0.0075360145 -0.17061982 0.16189784 0.1684354 -0.20082936 0.06769021
-0.27551317 -0.05515223 -0.085839696 -0.17532358 0.36166278 -0.009036304 0.15751915 -0.19301413
-0.06676675 -0.10474586 -0.17910226 -0.06381351 -0.07265354 0.15360302 -0.27526242 -0.012107722
0.10002639 -0.060933076 0.15784173 0.027544495 0.06339628 -0.28680542 0.03572307 -0.36057425
-0.09378102 0.22855006 -0.08889344 0.16160814 0.31185582 -0.20107855 -0.40661758 -0.08644333
0.1436051 -0.2801381 0.08081173 0.46924937 0.19078098 -0.23182021 -0.12070017 -0.2087289
-0.08467713 -0.1509271 -0.2573203 0.05727865 0.20455524 -0.13897005 0.11887335 -0.009715036
-0.22753017 -0.0010155798 -0.20415223 -0.11789325 0.20603402 -0.25814503 -0.017958162 -0.022953827
-0.07419256 0.065610625 0.13187951 -0.0108529115 -0.20187631 -0.22849369 -0.13583252 0.13231878
0.22673842 0.041518074 0.17814425 -0.10284951 -0.049745355 0.1373083 0.16897057 0.03949877
-0.33003274 -0.0017271556 0.09399618 0.18719332 -0.0145569565 -0.29675838 0.24661504 0.18887238
0.06417951 0.16676489 0.113208316 0.3963011 0.20427021 0.17651977 0.03959571 -0.26945826
0.19964354 0.16434339 -0.06726258 -0.1527949 -0.268955 0.2709765 -0.04456211 -0.14995207
0.1416053 -0.10670694 0.089970395 -0.19606356 0.034654256 0.16309829 -0.13085848 0.1258683
-0.10251914 -0.029607775 -0.30782214 -0.22899649 0.13861264 -0.30063832 -0.32968846 -0.39668143
-0.004028323 -0.32921007 0.061138276 0.11651382 0.12401409 0.05174703 -0.3399891 0.08719588
-0.33353925 0.14688322 -0.3314051 -0.0662426 0.67203856 -0.22165166 0.17314364 0.05549913
-0.065459214 -0.034264605 -0.22324514 -0.22535548 -0.22145818 -0.20671393 -0.051512063 -0.16074313
-0.2773519 -0.13676809 -0.30576417 0.0069068335 0.023171699 -0.28398162 -0.11881234 -0.12832148
-0.122849084 -0.1614358 -0.0070935595 -0.34059307 -0.23545453 -0.10278493 -0.34834754 -0.18252173
0.124274865 0.019438364 -0.24790023 0.50843334 -0.3845737 0.18222295 0.04228169 0.1268426
0.05000188 -0.36712024 0.04046549 -0.088460594 -0.24269639 0.22217129 0.29579243 -0.09997133
-0.015459519 0.15787522 -0.09478658 0.22220242 0.12578955 -0.14215024 0.068421856 -0.16291265
0.21390302 -0.10269969 0.12973702 0.27628785 0.28558397 -0.22542235 0.034910407 -0.1652867
0.117217086 0.20805877 0.01150172 -0.18122761 0.15469868 0.24086207 0.13264158 -0.101701565
0.21463639 -0.21696314 -0.17125203 0.23200414 0.045799393 0.3007073 0.17323475 0.1108724
-0.11936944 -0.481083 0.20046124 -0.0037320887 0.14965117 0.0023467937 -0.13560623 0.20998883
0.15863635 -0.32105333 -0.0826444 0.11751152 -0.15744027 0.2395747 -0.071536236 0.102604404

embedder.emb_rnn.bias_ih_l2 f4 [60]
00000000: 6677 803f d511 813f e017 743f 5f42 613f
00000010: fa6d 7d3f 401f 6b3f aad3 853f 57a5 5d3f
00000020: c35f 683f b3e0 613f c177 853f 4d4e 803f
00000030: 949b 813f 0941 7a3f 58e6 7b3f a101 663f
00000040: 55ae 7d3f cbb8 843f 8e93 783f 6ece 7f3f
00000050: fcc1 103e c397 bd3e 4d74 923e efd3 003f
00000060: c20c d23e 92b1 3e3f 6ff8 123f 1c49 333f
00000070: 9bbe 143f 1823 2e3f 31fe 3e3f 03b9 1b3f
00000080: 6025 953f 0f77 4c3f cfe9 553f 73f9 7c3e
00000090: 769f 1f3f 56fe dd3e d7a5 e83e f4e4 273f
000000a0: 7495 653f 7379 693f 3c3f 5b3f 04dc 5a3f
000000b0: 1bd7 6a3f bc81 693f 9c16 8d3f ce4d 823f
000000c0: 27aa 6d3f 1a56 7b3f 7528 803f b9ba 793f
000000d0: 05eb 7a3f 781c 883f fb32 6f3f ec06 683f
000000e0: 189d 773f e3d2 683f 4bd8 793f fd78 7f3f
1.0036438 1.0083567 0.9534893 0.879919 0.98995936 0.9184456 1.045522 0.86580414
0.9077112 0.8823349 1.0427171 1.0023896 1.0125604 0.97755486 0.9839835 0.89846236
0.99094135 1.0368894 0.9710015 0.9992436 0.14136499 0.37029848 0.28604355 0.50323385
0.41025358 0.744897 0.5741033 0.7003343 0.5810334 0.680223 0.74606615 0.6082918
1.1652031 0.7986917 0.8355989 0.24704532 0.62352693 0.43358105 0.45439026 0.6558373
0.8968117 0.9120094 0.85643363 0.8549197 0.91734475 0.91213584 1.1022525 1.0179994
0.92837757 0.98178256 1.0012347 0.9755054 0.9801486 1.0633688 0.93437165 0.9063556
0.9672408 0.9094679 0.9759566 0.9979399

embedder.emb_rnn.bias_hh_l2 f4 [60]
00000000: be0e 6f3b c8e8 083c a281 3ebd 88ec f5bd
00000010: 7e7a 24bc d205 a7bd cb71 3a3d 166b 09be
00000020: 2d03 bdbd 38fc f0bd 0ffe 2e3d 4c9f 1c3b
00000030: 2ed4 4d3c 26e1 b7bc f72a 83bc 5bf4 cfbd
00000040: 0e69 14bc 061e 173d 058f edbc 53a8 47ba
00000050: a8cf 5bbf 1534 21bf 4cc6 36bf ba57 febe
00000060: 8df9 16bf 1a9d 82be d80e dabe 6c6d 99be
00000070: c482 d6be 4cb9 a3be 3703 82be 478e c8be
00000080: 332b 293e 4224 4ebe f957 28be b8c1 40bf
00000090: 54c1 c0be c100 11bf 24ad 0bbf 1836 b0be
000000a0: ad2c 1ebe f8a0 9ebd 0d8d 393d f842 25be
000000b0: 3831 31be cb71 8ebd 2a8c d13d e629 64bc
000000c0: 7c64 9bbd a5ed 3bbe 36c7 e53a 04c5 08bd
000000d0: ee9b 873b 1e80 833d 6021 95bd 7b93 9dbd
000000e0: 7302 eabc 6031 c6bd c803 f6bc 9a61 f1ba
0.0036477293 0.008356281 -0.046510346 -0.120080054 -0.01003897 -0.08155407 0.045518678 -0.13419756
-0.09229121 -0.11766857 0.042722758 0.002389866 0.012562795 -0.022446226 -0.016011698 -0.10154029
-0.00905825 0.036893867 -0.028998861 -0.000761633 -0.85863733 -0.62970096 -0.71396327 -0.49676305
-0.58974534 -0.25510484 -0.4258945 -0.29966295 -0.4189664 -0.31977308 -0.25393078 -0.3917105
0.16520385 -0.20131019 -0.16439809 -0.7529559 -0.37647498 -0.56641775 -0.54561067 -0.3441627
-0.1544673 -0.07745546 0.045300532 -0.16138828 -0.17303932 -0.06955298 0.10231812 -0.013926005
-0.07587525 -0.18352373 0.0017530683 -0.033391014 0.0041384613 0.06420921 -0.072817564 -0.07694145
-0.028565621 -0.09677386 -0.0300311 -0.0018415928
