output/Tennessee_Eastman/model.pt (torch, 153208 bytes, 65 tensors)

embedder.emb_rnn.weight_ih_l0 f4 [60, 10]
0	0xbddd59ee	-0.10808168
1	0x3e660e91	0.22466494
2	0x3e3040d3	0.17212228
3	0xbe2b8d44	-0.16753107
4	0x3d2c82cb	0.04211692
5	0x3d2723eb	0.04080574
6	0xbdbb7698	-0.09153479
7	0xbd3f6504	-0.046727195
8	0x3dad67bf	0.084670536
9	0x3e2fe690	0.17177796
10	0x3db3cb98	0.08779067
11	0x3e420fa2	0.18951276
12	0x3e8d2110	0.27564287
13	0xbcf13baf	-0.029447405
14	0xbbb064e5	-0.0053831213
15	0xbe35fca6	-0.17772159
16	0xbe0feb53	-0.14054613
17	0x3e8c46bc	0.27397716
18	0x3daa1d60	0.08306384
19	0xbe29dd3e	-0.16588303
20	0xbe627b97	-0.22117458
21	0xbd446d4a	-0.04795579
22	0xbe5b05cd	-0.21388932
23	0xbd6c19ae	-0.057641678
24	0xbd38ddd6	-0.045133434
25	0xbe45f9ba	-0.19333544
26	0x3e8f8c27	0.28036615
27	0xbe21614d	-0.15759774
28	0x3e30f0dd	0.17279382
29	0xbd10c12a	-0.035340466
30	0xbdd5130e	-0.10404025
31	0x3c3bb6d7	0.011457167
32	0xbe83fa34	-0.25776827
33	0xbd89404a	-0.06701715
34	0x3e949658	0.29020953
35	0x3e45291a	0.1925396
36	0x3df7181e	0.12065147
37	0x3e4c7d77	0.19969736
38	0xbdb8f874	-0.09031764
39	0xbdb05b8b	-0.086112104
40	0x3e21cbdf	0.15800427
41	0x3e92a197	0.28638908
42	0x3e1b6ca9	0.1517817
43	0x3e0ceb65	0.13761671
44	0x3e2f34e8	0.17110026
45	0x3cfe7473	0.031061387
46	0x3e3a8648	0.18215287
47	0x3d2b537c	0.041827664
48	0xbe8c3109	-0.2738116
49	0x3e1924e4	0.14955479
50	0xbd346a28	-0.04404655
51	0xbe03591b	-0.1282696
52	0xbdb27d98	-0.08715361
53	0x3d722267	0.05911484
54	0xbdedaa61	-0.11604763
55	0xbe95459e	-0.29154676
56	0x3e5776f9	0.21041478
57	0xbe308980	-0.17239952
58	0xbe407bfd	-0.18797298
59	0x3baa45dd	0.0051963166
60	0x3da9c255	0.08289019
61	0xbc89dccb	-0.016828915
62	0xbe182c82	-0.14860728
63	0xbdda2345	-0.106512584
64	0x3df6c59b	0.12049409
65	0xbe363bda	-0.17796269
66	0xbe757dc6	-0.2397376
67	0xbe108974	-0.14114934
68	0x3e30aa89	0.17252554
69	0x3d28321f	0.041063424
70	0x3e8d5a33	0.2760788
71	0xbd1ed831	-0.038780395
72	0xbddba592	-0.107249394
73	0xbe452170	-0.19251037
74	0x3e9b9d45	0.30393425
75	0xbe1205e2	-0.14260057
76	0x3d7543f3	0.059879255
77	0x3d4596bd	0.04823946
78	0xbe1be211	-0.15222956
79	0x3d814086	0.06311135
80	0x3e536f1c	0.20647854
81	0xbdf8f485	-0.121560134
82	0xbd9b5613	-0.07584777
83	0x3e2a2763	0.16616587
84	0x3ddab12b	0.10678323
85	0xbe050d62	-0.12993386
86	0xbdb89a00	-0.09013748
87	0x3ded6169	0.11590845
88	0x3ddfc260	0.10925746
89	0x3ca097d2	0.019603644
90	0xbe6a158a	-0.22859779
91	0x3cf00272	0.029298041
92	0x3e7f958b	0.2495939
93	0x3e1b142f	0.15144418
94	0x3d4df011	0.050277773
95	0xbe5d5780	-0.2161541
96	0xbe5c29bc	-0.21500295
97	0x3db804e4	0.08985308
98	0xbd8ea579	-0.06965155
99	0xbd92807c	-0.07153413
100	0xbdcd5895	-0.10026661
101	0xbe944123	-0.28955945
102	0x3c35a41b	0.011086489
103	0x3ddfdf64	0.1093128
104	0xbd6a7a8c	-0.057245776
105	0x3ca75f7c	0.020431273
106	0xbdfdadca	-0.12386663
107	0x3b8e6beb	0.004346361
108	0x3dff2e63	0.124600194
109	0x3c4e00e1	0.012573452
110	0x3e44f17c	0.19232744
111	0x3e954728	0.2915585
112	0xbe83154e	-0.25602192
113	0x3e826704	0.2546922
114	0xbe6ac93e	-0.2292833
115	0xbe17690d	-0.14786167
116	0x3e212f18	0.15740621
117	0x3dafd475	0.08585445
118	0x3da34343	0.079718135
119	0xbdeb076f	-0.11476027
120	0x3df9b23b	0.12192198
121	0xbe42923e	-0.190011
122	0x3e0225f7	0.12709795
123	0x3e21cc57	0.15800606
124	0x3e7aa326	0.24476299
125	0xbddd89e4	-0.10817316
126	0xbd922fc3	-0.07138016
127	0xbd4b7d87	-0.04968026
128	0x3de4840b	0.11157998
129	0xbd3a8348	-0.045535356
130	0xbe673d0a	-0.22581878
131	0x3e66bac7	0.22532187
132	0x3d34326e	0.043993406
133	0x3dfed478	0.12442869
134	0x3dee9859	0.11650152
135	0x3e49a1ea	0.19690672
136	0x3e594d7f	0.21220969
137	0xbe33c1a9	-0.17554344
138	0xbe516304	-0.20447928
139	0x3dc8bfc0	0.098021984
140	0xbe4cf1c2	-0.20014098
141	0x3e2963b4	0.1654194
142	0x3dcd73f3	0.10031881
143	0x3df8eca0	0.12154508
144	0xbe61699f	-0.22012947
145	0x3e1932d0	0.1496079
146	0xbe53cccc	-0.20683593
147	0xbd12e65f	-0.03586423
148	0xbd021892	-0.031761713
149	0xbe019d59	-0.1265768
150	0xbe5ce06b	-0.21569984
151	0x3dfcf546	0.1235147
152	0x3dabaf9f	0.083831064
153	0x3d02715f	0.0318464
154	0x3e2fb28d	0.17157955
155	0x3e633eca	0.22191921
156	0x3d485935	0.0489132
157	0x3e731655	0.23738988
158	0x3d1dc0f4	0.038514093
159	0x3daabef6	0.08337204
160	0xbe6105bd	-0.21974845
161	0xbe08fc00	-0.1337738
162	0xbdf86385	-0.12128357
163	0xbe1dcb80	-0.1540966
164	0xbe888f81	-0.26671985
165	0xbe11e392	-0.14246967
166	0x3e1a95b8	0.15096176
167	0xbe82eb66	-0.2557022
168	0x3e2e4ed4	0.17022258
169	0xbe418c7d	-0.18901248
170	0xbe86a1b0	-0.26295233
171	0xbe7eb0b6	-0.24872097
172	0xbd0ab8cc	-0.033867642
173	0x3dc4d7c3	0.09611466
174	0x3e4a6c4e	0.19767877
175	0xbe09ea99	-0.13468398
176	0xbd0f79d5	-0.035028297
177	0xbdc12186	-0.09430222
178	0xbe926a17	-0.28596565
179	0xbe3d48ee	-0.18484852
180	0xbe8c3f6f	-0.27392146
181	0xbc8e680a	-0.017383594
182	0xbd5e508f	-0.054276045
183	0xbe86a4f2	-0.26297718
184	0x3e240a68	0.16019595
185	0xbc136898	-0.008997105
186	0xbdad596d	-0.08464322
187	0xbe911c3b	-0.2834185
188	0x3e427b2c	0.18992299
189	0xbe1c6771	-0.15273835
190	0x3e2ff6ee	0.1718404
191	0x3ddec02c	0.108764976
192	0xbe87ba99	-0.2650955
193	0xbe8e36a8	-0.27776074
194	0x3e3b6f01	0.18304063
195	0xbd413175	-0.047166307
196	0x3e5eba5b	0.21750776
197	0x3e052118	0.13000906
198	0xbdddbf37	-0.10827487
199	0xbdf21589	-0.11820514
200	0x3cc8d857	0.024517221
201	0xbe1f41d9	-0.15552463
202	0xbe2b23e5	-0.16712911
203	0xbe047fc7	-0.12939368
204	0x3e7d0531	0.24709012
205	0xbe8ce330	-0.2751708
206	0xbe49c4ba	-0.19703951
207	0xbe85acb4	-0.26108325
208	0x3dd2a41c	0.10285208
209	0x3e19958b	0.14998452
210	0x3c6726dc	0.014108386
211	0xbdb459e8	-0.08806211
212	0xbd2fc93a	-0.042916514
213	0xbe8fcfe4	-0.28088295
214	0x3e397f52	0.18114975
215	0x3e8f3154	0.27967322
216	0x3d19c66a	0.037542738
217	0x3d2b9915	0.041894037
218	0x3e198424	0.14991814
219	0xbe98ab32	-0.29818112
220	0xbdbfc785	-0.09364227
221	0x3e6b2be7	0.22965966
222	0xbe5643bf	-0.2092428
223	0xbda2d4c6	-0.079507396
224	0x3e2ba135	0.16760714
225	0xbe99e8d1	-0.30060437
226	0xbe58b549	-0.21162905
227	0x3b49021d	0.0030671426
228	0xbe4ca44c	-0.1998455
229	0x3e4e8415	0.20167573
230	0x3e011be6	0.12608299
231	0xbdad50cc	-0.084626764
232	0x3e2efc13	0.17088346
233	0x3e71eb60	0.23624945
234	0x3e500417	0.2031406
235	0x3d5e504f	0.054275807
236	0xbe97b9ac	-0.29633844
237	0x3df8880d	0.121353246
238	0xbe18298c	-0.14859599
239	0xbcd13526	-0.025538038
240	0x3e2df6ac	0.16988629
241	0x3e150c57	0.14555489
242	0x3e367eb3	0.1782177
243	0x3c9c5996	0.019085687
244	0xbe7b1293	-0.24518804
245	0x3e547eea	0.20751539
246	0xbe71224e	-0.23548242
247	0xbe69922f	-0.22809671
248	0xbd8c18b2	-0.06840648
249	0x3ddf9e17	0.10918825
250	0xbe01b387	-0.1266614
251	0xbd369bb7	-0.044582095
252	0xbe7684b0	-0.24074054
253	0xbdabceb9	-0.083890386
254	0x3cff4301	0.03115988
255	0x3dcbfb19	0.099600025

embedder.emb_rnn.weight_hh_l0 f4 [60, 20]
0	0xbe2e0807	-0.1699525
1	0x3e39dbdf	0.1815028
2	0x3ce42775	0.027850846
3	0xbc0d55cd	-0.0086264135
4	0x3e253a46	0.16135511
5	0x3d52f7d5	0.051505882
6	0x3d72e3a7	0.059299137
7	0x3e048a9c	0.129435
8	0xbc819121	-0.015816273
9	0xbe616c53	-0.22013979
10	0xbe33f210	-0.17572808
11	0x3e2c968d	0.16854306
12	0xbdc1baf9	-0.0945949
13	0x3db265cf	0.08710825
14	0x3e0041fb	0.1252517
15	0xbdfa93e1	-0.12235237
16	0xbd9729c7	-0.07381015
17	0x3e14458e	0.14479658
18	0x3dfaf2f1	0.12253369
19	0x3c529d26	0.01285485
20	0x3e2e5af4	0.17026883
21	0x3e1fe0b5	0.15613063
22	0xbd5002e5	-0.05078401
23	0xbe850cfb	-0.25986466
24	0x3e864fb6	0.2623269
25	0xbd94a7fc	-0.07258603
26	0x3e386d07	0.1801034
27	0x3e87f819	0.2655647
28	0xbc950c58	-0.018194363
29	0xbdf1387c	-0.11778352
30	0x3e80348f	0.250401
31	0xbe857f9e	-0.26073927
32	0xbe418514	-0.18898422
33	0x3d97972a	0.07401879
34	0x3d876e37	0.06612819
35	0xbcd35393	-0.025796687
36	0xbc0d2c68	-0.008616544
37	0xbd9aa3d3	-0.07550778
38	0x3d6157a3	0.055015218
39	0x3e8b8bcd	0.27255097
40	0x3e80ba70	0.2514224
41	0x3deee214	0.11664215
42	0x3e3d7271	0.18500687
43	0xbe1225bf	-0.14272211
44	0x3e636bbd	0.22209068
45	0x3c35e2da	0.011101449
46	0x3e50be44	0.2038508
47	0x3ddbedeb	0.107387386
48	0xbcf3abcd	-0.029745007
49	0xbe612323	-0.2198606
50	0xbd6081fa	-0.054811455
51	0x3e0afa8a	0.13572136
52	0x3c6f80a6	0.0146180745
53	0x3e70bf64	0.2351051
54	0xbe82d63a	-0.25554067
55	0x3e3baac9	0.18326868
56	0x3e6e4937	0.23270117
57	0x3a9a67d2	0.0011780208
58	0x3d9aaa91	0.07552064
59	0xbe03874d	-0.12844582
60	0x3e849700	0.25896454
61	0x3e07b858	0.13253915
62	0xbd999313	-0.07498755
63	0x3e8027e6	0.2503044
64	0xbdb5c85f	-0.088761084
65	0xbd9b6af1	-0.07588757
66	0x3ded8774	0.11598101
67	0x3d62eabf	0.055399653
68	0xbe6323e9	-0.22181667
69	0x3d3beb97	0.045878973
70	0xbc97c076	-0.01852439
71	0xbe01a6c4	-0.12661272
72	0x3df5d99f	0.120043986
73	0x3e8a0132	0.26954037
74	0x3e27db3a	0.16392222
75	0xbe684dd3	-0.22685938
76	0xbdc99aa9	-0.09843952
77	0x3dcbc6ed	0.099500515
78	0x3ddcb3a9	0.10776455
79	0xbd15443f	-0.036442038
80	0x3c979574	0.018503882
81	0xbdf5ab90	-0.119956136
82	0x3e7a3150	0.24432874
83	0x3d9caa57	0.07649677
84	0xbe529c8f	-0.20567535
85	0xbe4233aa	-0.18965021
86	0x3e036627	0.12831937
87	0xbdcdb20a	-0.10043724
88	0xbcfa4297	-0.03054933
89	0x3ce7d1ef	0.028298346
90	0xbe599e27	-0.21251737
91	0xbe1cd467	-0.153154
92	0xbe806925	-0.2508022
93	0x3d89eb60	0.06734347
94	0xbe32da1b	-0.17466013
95	0x3d86a4ef	0.06574427
96	0xbd6d9d04	-0.05801107
97	0x3cc154c2	0.023599986
98	0xbd53a340	-0.05166936
99	0x3e897d77	0.26853535
100	0x3cd02f5e	0.025413211
101	0xbdeda4f7	-0.1160373
102	0x3e1cc87d	0.15310855
103	0x3db12e7d	0.08651445
104	0xbe8c39e7	-0.27387926
105	0xbd52ecd0	-0.051495373
106	0x3d1d0c95	0.038342077
107	0x3e5eb399	0.21748199
108	0x3e7a3252	0.24433258
109	0xbc365cc5	-0.011130516
110	0xbdb0732c	-0.08615717
111	0xbdc89992	-0.09794916
112	0x3deea061	0.116516836
113	0xbd8032eb	-0.06259712
114	0x3b89de0d	0.0042073787
115	0x3e842b83	0.25814447
116	0xbe13ef84	-0.14446837
117	0x3e356a25	0.17716272
118	0x3c01b057	0.007915578
119	0x3d358774	0.04431863
120	0x3e5660ac	0.20935315
121	0xbe1b6f7c	-0.15179247
122	0xbc9d00fc	-0.019165508
123	0x3e1b0e70	0.15142226
124	0xbd799f40	-0.06094289
125	0x3e2daa4e	0.16959497
126	0xbe3e8853	-0.18606691
127	0xbe8313f1	-0.25601152
128	0x3bce873a	0.0063027414
129	0x3dad567e	0.08463763
130	0x3e61e424	0.22059685
131	0xbe04d75c	-0.12972778
132	0xbe4727e1	-0.19448806
133	0x3e55b2ee	0.20869038
134	0x3df4903c	0.11941573
135	0xbe50e7a3	-0.20400862
136	0xbe2382cc	-0.15967864
137	0x3e0a23fc	0.1349029
138	0xbe2be7a6	-0.16787586
139	0x3d47c4f7	0.048771825
140	0xbd0b537a	-0.034015156
141	0x3e5ed699	0.2176155
142	0xbe27dd9c	-0.16393131
143	0xbd0a182f	-0.03371447
144	0xbe18f567	-0.14937364
145	0xbe23433e	-0.1594362
146	0x3e1bc15e	0.15210482
147	0x3d10e70f	0.035376605
148	0x3e547ef2	0.20751551
149	0x3dcf50c9	0.101228304
150	0x3bc2ff1c	0.0059508216
151	0x3e19829e	0.14991233
152	0xbe3c3e2c	-0.18383092
153	0x3e272b2b	0.16325061
154	0xbcfd1883	-0.030895477
155	0xbe65e119	-0.22449149
156	0x3e035bfd	0.1282806
157	0xbe7d6abf	-0.24747752
158	0xbd2d740d	-0.042347003
159	0x3de76d6f	0.1130017
160	0xbd962654	-0.07331529
161	0xbe70d715	-0.23519547
162	0xbda15d1b	-0.078790866
163	0xbe447875	-0.19186576
164	0x3e522ec1	0.20525648
165	0xbe5f8039	-0.21826257
166	0xbe661a38	-0.22470939
167	0x3e1b580b	0.15170304
168	0xbd3499c0	-0.04409194
169	0xbe6f02e2	-0.23340943
170	0xbe34c851	-0.1765454
171	0xbe24bbb9	-0.16087236
172	0x3e2fee0a	0.17180648
173	0xbe2ca822	-0.16861013
174	0x3e467aa9	0.19382729
175	0xbdafae45	-0.08578161
176	0x3e450bdc	0.19242805
177	0xbe8b36c7	-0.2719023
178	0x3e7c6f74	0.24651891
179	0x3e3ec0c6	0.18628225
180	0xbdac909e	-0.08426021
181	0x3e7fc06f	0.24975751
182	0x3d5e35f4	0.054250672
183	0xbe5e0d0c	-0.21684664
184	0xbdc6efe0	-0.09713721
185	0xbe8945f6	-0.26811188
186	0xbdadcf7c	-0.0848684
187	0x3e6108ac	0.21975964
188	0xbbfbad09	-0.0076805395
189	0x3e194239	0.14966668
190	0x3e1d6853	0.15371828
191	0x3d44e428	0.04806915
192	0xbe56b7b1	-0.2096851
193	0xbdf1c29b	-0.11804696
194	0xbe486632	-0.19570234
195	0xbe0bb3a7	-0.1364275
196	0xbe838bc4	-0.2569257
197	0xbe63df55	-0.22253163
198	0x3d3da9aa	0.046304382
199	0xbde9e2d9	-0.11420221
200	0x3e708cc1	0.23491193
201	0xbd02c843	-0.031929266
202	0xbe2b3737	-0.16720282
203	0xbe193bba	-0.1496419
204	0xbe2fd42b	-0.1717078
205	0x3df5d5ef	0.12003695
206	0xbda84fc8	-0.08218342
207	0x3b2ca9c3	0.0026346303
208	0xbde7c386	-0.1131659
209	0x3d8883d6	0.06665771
210	0x3e0bb327	0.1364256
211	0x3e482a2c	0.19547337
212	0xbe2520b3	-0.16125755
213	0x3dc8e4b2	0.09809245
214	0xbe89341c	-0.2679757
215	0x3c3b25e2	0.011422606
216	0x3d8d5c3a	0.069023564
217	0x3d3844f7	0.044987645
218	0x3e3141ce	0.17310259
219	0x3b89b0c6	0.0042019812
220	0x3e70aca1	0.23503353
221	0xbe3bab49	-0.18327059
222	0x3df212d5	0.11819998
223	0xbe82c334	-0.25539553
224	0x3dcb7ce6	0.09935932
225	0xbe6f4652	-0.23366669
226	0x3e41f6a2	0.18941739
227	0xbcc1356b	-0.023585042
228	0x3e737cc6	0.23778066
229	0xbe55cd52	-0.20879105
230	0x3b69d352	0.0035678935
231	0x3db46e36	0.088100836
232	0xbe18836c	-0.14893883
233	0x3dea0ba6	0.11428003
234	0x3e7c54aa	0.24641672
235	0xbe1f93d7	-0.1558374
236	0x3e6625d3	0.22475366
237	0x3db6b3a0	0.089209795
238	0x3e105591	0.14095141
239	0x3d80a060	0.06280589
240	0x3e87eb9c	0.26546943
241	0xbd2dc7a5	-0.042426724
242	0x3e57e892	0.21084812
243	0x3e858e61	0.2608519
244	0x3e5d0f1d	0.21587797
245	0x3e297d60	0.16551733
246	0xbda27e2f	-0.07934224
247	0xbe224388	-0.15846074
248	0xbe2616d5	-0.16219647
249	0x3e91d1dc	0.28480422
250	0x3d246f25	0.04014506
251	0x3ddd0d9b	0.10793611
252	0xbcadc005	-0.021209726
253	0x3dd80654	0.10548082
254	0x3e0d7304	0.13813406
255	0xbe7a8dd7	-0.2446817

embedder.emb_rnn.bias_ih_l0 f4 [60]
0	0x3f7c8e5e	0.98654735
1	0x3f817b79	1.0115806
2	0x3f7d6527	0.9898247
3	0x3f81bb78	1.0135336
4	0x3f816d31	1.0111448
5	0x3f7f3cee	0.99702346
6	0x3f80ef73	1.0073074
7	0x3f81c835	1.0139223
8	0x3f7cd88e	0.98767936
9	0x3f7d142b	0.988589
10	0x3f7d2c5a	0.988958
11	0x3f81bdb6	1.013602
12	0x3f81ebd7	1.0150098
13	0x3f7d4cf5	0.9894555
14	0x3f7d01c3	0.98830813
15	0x3f7cbcdd	0.9872568
16	0x3f81d8cd	1.0144287
17	0x3f7fca07	0.99917644
18	0x3f7caae0	0.98698235
19	0x3f81ca4a	1.0139859
20	0x3f805429	1.0025684
21	0x3f7cd136	0.9875673
22	0x3f7c5ca2	0.98578846
23	0x3f7c73ad	0.9861401
24	0x3f818da1	1.0121347
25	0x3f81aae1	1.0130273
26	0x3f813844	1.0095296
27	0x3f7c7233	0.98611754
28	0x3f7f9eaa	0.9985148
29	0x3f81cb55	1.0140177
30	0x3f7d6027	0.9897484
31	0x3f8199e8	1.0125093
32	0x3f818a96	1.0120418
33	0x3f809872	1.0046523
34	0x3f7fdbc6	0.9994472
35	0x3f7c550c	0.9856727
36	0x3f7c9630	0.9866667
37	0x3f81cc56	1.0140483
38	0x3f8169ef	1.0110453
39	0x3f7c634a	0.98589003
40	0x3f81c29f	1.0137519
41	0x3f818ad6	1.0120494
42	0x3f81c6fe	1.0138853
43	0x3f81b317	1.0132779
44	0x3f7ca83a	0.98694193
45	0x3f7f08d5	0.9962285
46	0x3f7dec3c	0.9918859
47	0x3f81b75d	1.0134083
48	0x3f81ad8c	1.0131087
49	0x3f7c593c	0.9857366
50	0x3f7ce720	0.9879017
51	0x3f7c8eb3	0.9865524
52	0x3f7c24ac	0.98493457
53	0x3f7d2729	0.9888788
54	0x3f7c8173	0.98635024
55	0x3f81be13	1.0136131
56	0x3f81e249	1.0147182
57	0x3f805cc8	1.0028315
58	0x3f7c820e	0.9863595
59	0x3f81d886	1.0144203

embedder.emb_rnn.bias_hh_l0 f4 [60]
0	0xbc5c6880	-0.013452649
1	0x3c3dbcd6	0.0115806665
2	0xbc26b67c	-0.010175344
3	0x3c5dbaac	0.013533276
4	0x3c3698b8	0.011144809
5	0xbb431355	-0.0029766161
6	0x3bef7288	0.0073073544
7	0x3c641ab5	0.013922383
8	0xbc49dc9e	-0.012320666
9	0xbc3af574	-0.01141106
10	0xbc34e9da	-0.011042083
11	0x3c5edae6	0.013601994
12	0x3c75ebf0	0.015009865
13	0xbc2cc2df	-0.010544508
14	0xbc3f8f72	-0.011691915
15	0xbc50c90f	-0.012743249
16	0x3c6c6668	0.014428712
17	0xba57dfbe	-0.00082349393
18	0xbc5547d7	-0.013017616
19	0x3c6524e9	0.013985851
20	0x3b285439	0.0025684966
21	0xbc4bb2a6	-0.01243273
22	0xbc68d7c0	-0.014211595
23	0xbc63142e	-0.013859792
24	0x3c46d056	0.012134632
25	0x3c55705c	0.013027277
26	0x3c1c21bd	0.009529528
27	0xbc637376	-0.0138825085
28	0xbac2acd2	-0.001485253
29	0x3c65aa2c	0.014017623
30	0xbc27f5e1	-0.010251493
31	0x3c4cf301	0.0125091085
32	0x3c454a5f	0.012041657
33	0x3b98704f	0.00465206
34	0xba10e7da	-0.00055277126
35	0xbc6abcd5	-0.014327248
36	0xbc5a7450	-0.013333395
37	0x3c662ae6	0.014048314
38	0x3c34f898	0.0110455975
39	0xbc672dbf	-0.014110028
40	0x3c60b747	0.013715572
41	0x3c45f181	0.012081505
42	0x3c63007a	0.013855094
43	0x3c5a343b	0.013318117
44	0xbc577e34	-0.013152648
45	0xbb6da46b	-0.003626133
46	0xbc08e1bd	-0.008354601
47	0x3c5cdf82	0.013481023
48	0x3c554e95	0.013019224
49	0xbc68637d	-0.014183876
50	0xbc45aa98	-0.0120645985
51	0xbc5dcb85	-0.013537292
52	0xbc773b50	-0.015089825
53	0xbc36f8f7	-0.011167756
54	0xbc5e84dc	-0.013581481
55	0x3c5de3ef	0.013543113
56	0x3c71be6c	0.014754873
57	0x3aa64daa	0.0012687941
58	0xbc5e4e3f	-0.01356846
59	0x3c6ce96f	0.014459952

embedder.emb_rnn.weight_ih_l1 f4 [60, 20]
0	0x3e1dae6b	0.15398566
1	0x3db74a15	0.08949677
2	0x3b787092	0.0037908894
3	0x3c803eb1	0.015654894
4	0xbc96f63c	-0.01842796
5	0xbccebd7b	-0.025236836
6	0x3dd47f76	0.10375874
7	0xbd9cfa40	-0.07664919
8	0x3e5d7f69	0.21630634
9	0x3e00189e	0.1250939
10	0xbdd7cb96	-0.10536878
11	0x3e10eb32	0.1415222
12	0xbddc816b	-0.10766872
13	0x3d8107da	0.06300326
14	0xbcc9ed1f	-0.024649201
15	0xbe024394	-0.12721092
16	0x3d951771	0.07279862
17	0x3e0bc365	0.13648756
18	0xbcb926e9	-0.022601562
19	0x3e65c39f	0.22437905
20	0xbe1e6b1f	-0.15470551
21	0xbdde1b48	-0.10845047
22	0x3e5bc5d3	0.21462183
23	0xbe306f12	-0.1722987
24	0x3d52abc7	0.05143335
25	0x3d561f0f	0.052275714
26	0xbe2de368	-0.1698128
27	0x3db7f06b	0.08981403
28	0x3e0cea48	0.13761246
29	0x3d4b76dc	0.0496739
30	0xbc3111ef	-0.010807498
31	0x3e896d1a	0.2684105
32	0x3d39b1fc	0.045335755
33	0x3e90f4af	0.2831168
34	0xbe2ff91f	-0.17184876
35	0xbe2f3568	-0.17110217
36	0xbe32c495	-0.17457803
37	0xbe59175d	-0.21200319
38	0xbd3a2580	-0.04544592
39	0xbdfa6c3b	-0.122276746
40	0x3d7cebf4	0.06174846
41	0x3e62f890	0.22165132
42	0xbd03880a	-0.03211216
43	0xbe1939bf	-0.14963435
44	0xbe84b6ee	-0.25920814
45	0x3e7b6f58	0.24554193
46	0xbcd4b850	-0.025966793
47	0x3e6b462c	0.22975987
48	0xbe4cf19e	-0.20014045
49	0xbdb87b8c	-0.0900794
50	0xbdcba201	-0.09943009
51	0x3df44ab0	0.11928308
52	0xbe79b6aa	-0.24386087
53	0x3e52aae1	0.20572998
54	0x3e205c81	0.15660287
55	0x3e42b41f	0.19014023
56	0xbe44ae1d	-0.19207044
57	0xbc4b2510	-0.012398973
58	0x3e933269	0.28749397
59	0x3de0ddb7	0.10979789
60	0xbe10283c	-0.14077848
61	0x3e76ee57	0.24114357
62	0xbdb13e72	-0.086544886
63	0x3ddb4e5e	0.10708307
64	0xbdecf15e	-0.11569475
65	0x3d77297f	0.060342308
66	0x3e4cd936	0.20004734
67	0x3e18bc7a	0.14915648
68	0xbde9958a	-0.114054754
69	0xbd990385	-0.074713744
70	0x3e4ba8ca	0.19888607
71	0x3ddccc30	0.10781133
72	0x3e8f6fda	0.28015023
73	0xbd27f506	-0.041005157
74	0xbe06b14f	-0.13153575
75	0x3e4dae09	0.2008592
76	0xbddf4fb3	-0.10903873
77	0x3e1cc3a1	0.15309002
78	0x3aba9296	0.001423436
79	0x3db17b17	0.08666056
80	0xbe11de12	-0.1424487
81	0x3da8b2eb	0.08237251
82	0xbe1eaad9	-0.1549486
83	0xbca3572d	-0.01993903
84	0x3e74adc0	0.23894405
85	0x3cb54a40	0.022130132
86	0xbe4b6b5a	-0.1986517
87	0xbc8ca037	-0.01716624
88	0x3df14d83	0.11782362
89	0xbe20a59c	-0.15688175
90	0x3e2655d4	0.16243678
91	0x3e16321f	0.14667557
92	0xbe538a85	-0.2065831
93	0x3e6cba92	0.23118046
94	0xbe2cfecd	-0.16894074
95	0xbcf719d7	-0.030163689
96	0xbe224b04	-0.15848929
97	0x3e3e2e34	0.18572313
98	0x3dbfa465	0.09357528
99	0x3dbcd065	0.092194356
100	0x3e0dde04	0.13854223
101	0x3e1428a4	0.14468628
102	0x3dbc750e	0.09202014
103	0x3dd4726d	0.103733875
104	0xbde34b55	-0.11098353
105	0xbe7577be	-0.2397146
106	0x3e81c218	0.25343394
107	0xbdf7c715	-0.12098519
108	0xbe756b58	-0.2396673
109	0x3e5ae7cc	0.21377486
110	0x3e89c3ba	0.2690714
111	0xbe6941ee	-0.22779056
112	0xbe4f2947	-0.2023059
113	0x3d220e2c	0.039564297
114	0x3e8809fc	0.26570117
115	0x3e3827f0	0.17983985
116	0x3d4afce3	0.049557578
117	0x3e261311	0.16218211
118	0x3e6c2720	0.230618
119	0xbdc4b4de	-0.0960481
120	0x3d538dfe	0.051649086
121	0xbe6e7f16	-0.23290667
122	0xbe2dcf3c	-0.16973585
123	0xbe42376d	-0.18966456
124	0xbd46abde	-0.04850375
125	0x3d243e29	0.040098343
126	0xbe0be775	-0.13662513
127	0x3b1070c0	0.002203986
128	0xbd6aea23	-0.057352196
129	0x3c9e6330	0.019334406
130	0x3e16d6e8	0.14730418
131	0xbe84c239	-0.2592943
132	0xbdc58f70	-0.09646499
133	0x3e5527b0	0.20815921
134	0x3d9aba43	0.07555058
135	0x3e27498d	0.16336651
136	0x3e346bab	0.17619197
137	0x3e27bcf5	0.16380675
138	0x3e14d21f	0.1453328
139	0xbd8bfc83	-0.06835272
140	0xbe7b8f55	-0.24566396
141	0x3e4b4c0b	0.19853227
142	0x3e7986b7	0.24367796
143	0x3d9209a6	0.071307465
144	0xbda35904	-0.07975963
145	0xbe6b67d0	-0.2298882
146	0x3e5b5c6a	0.21421972
147	0x3db94f59	0.090483375
148	0x3e217811	0.15768458
149	0xbe37765d	-0.17916246
150	0xbe158063	-0.14599757
151	0x3da41103	0.08011057
152	0x3e9098dc	0.28241622
153	0xbdd399e8	-0.1033209
154	0xbe205e7a	-0.1566104
155	0xbdcbeaa5	-0.09956864
156	0x3e60b3ab	0.21943538
157	0xbd1c6864	-0.038185492
158	0x3dd27c63	0.10277631
159	0x3dad95b1	0.08475817
160	0x3e8118dc	0.2521428
161	0x3e315ec9	0.17321314
162	0xbe1c131a	-0.15241662
163	0x3d0acb44	0.033885255
164	0x3dd26f68	0.10275155
165	0xbd6bda24	-0.057581082
166	0xbe26da68	-0.16294253
167	0x3d3df608	0.04637721
168	0xbe416ca4	-0.188891
169	0xbe1bdada	-0.15220204
170	0xbe8fe196	-0.28101796
171	0xbc5c70c9	-0.013454624
172	0xbe0cb884	-0.13742262
173	0x3dd3eb29	0.103475876
174	0x3e6c21c8	0.23059762
175	0xbdf0ebc0	-0.11763716
176	0x3ddf6f00	0.109098434
177	0xbce971b9	-0.02849661
178	0xbd42bdf7	-0.047544446
179	0xbbefc7b4	-0.0073175076
180	0xbe5adaf7	-0.21372591
181	0x3e647663	0.22310786
182	0xbda092ee	-0.078405246
183	0xbd93a749	-0.072096415
184	0x3e2bc0fb	0.16772835
185	0xbe146688	-0.14492238
186	0xbd9bd2ee	-0.07608591
187	0x3ddce0a3	0.107850336
188	0xbe4b5bd1	-0.19859244
189	0x3e4269cb	0.1898567
190	0xbe8ef006	-0.27917498
191	0xbbd8996c	-0.006610086
192	0x3e561ec3	0.20910172
193	0xbe922c31	-0.2854934
194	0xbe3f072f	-0.18655084
195	0x3e848071	0.25879243
196	0xbc1ad108	-0.009449251
197	0x3b4a818c	0.003089997
198	0xbd76d64c	-0.060262963
199	0xbddfc9ad	-0.109271385
200	0x3e197909	0.14987577
201	0xbd598f03	-0.053114902
202	0xbe442e20	-0.1915822
203	0xbc8aac9c	-0.01692801
204	0x3e6a7ef4	0.22899991
205	0x3ca35983	0.019940143
206	0x3d450148	0.048096925
207	0xbe1d64c8	-0.15370476
208	0xbd21c17e	-0.03949117
209	0xbc49b2be	-0.012310682
210	0xbe805e9f	-0.2507219
211	0x3e2e9bb9	0.17051591
212	0xbe131247	-0.14362441
213	0xbcbbea60	-0.022938907
214	0x3dbb2bbc	0.09139201
215	0x3d1ebbd7	0.038753357
216	0x3c3f9ebe	0.011695562
217	0xbe0e256d	-0.13881464
218	0x3e22e310	0.1590693
219	0xbdbfb2be	-0.09360264
220	0x3d9aef04	0.0756512
221	0x3d60ad8b	0.054853003
222	0xbe6e3a61	-0.23264457
223	0x3d2c9a44	0.042139307
224	0xbe0c5d14	-0.13707381
225	0x3d1b5a4c	0.03792791
226	0xbe3fbb81	-0.18723871
227	0x3e05b1f6	0.13056168
228	0x3e4226a7	0.18960057
229	0xbe7bf165	-0.24603803
230	0x3e8124d6	0.25223416
231	0x3ddd47dc	0.10804722
232	0xbe1b1ae1	-0.15146972
233	0x3e8544a9	0.26028946
234	0xbe3188bf	-0.1733732
235	0x3e03cb1f	0.12870453
236	0xbe7f4577	-0.24928842
237	0x3e75d0a0	0.24005365
238	0x3e513744	0.20431238
239	0x3e307e30	0.17235637
240	0x3d3191d1	0.043351952
241	0xbe033847	-0.12814437
242	0x3e4cda91	0.20005251
243	0xbe03ebc6	-0.12882909
244	0xbe02b1a3	-0.12763076
245	0x3e02401c	0.12719768
246	0x3d85966a	0.0652283
247	0x3d0e6955	0.03476842
248	0x3caf8062	0.021423522
249	0xbcc10fdb	-0.02356713
250	0xbdf38dcf	-0.11892282
251	0x3e4303db	0.1904444
252	0xbd3f2237	-0.04666349
253	0xbe2587b4	-0.16165048
254	0xbdee7e4d	-0.11645184
255	0xbe64c65e	-0.22341296

embedder.emb_rnn.weight_hh_l1 f4 [60, 20]
0	0xbd9b347e	-0.075783715
1	0xbe4bc7aa	-0.19900385
2	0xbd8282ee	-0.06372629
3	0x3dd3a09d	0.10333369
4	0x3e594846	0.21218976
5	0x3c7e1b72	0.015509473
6	0xbde39fb9	-0.11114449
7	0x3e3dc273	0.18531208
8	0x3ba0511d	0.004892482
9	0xbd9a293f	-0.07527398
10	0x3e7758aa	0.24154916
11	0x3e849dab	0.2590154
12	0x3e470251	0.19434477
13	0x3e5b040b	0.21388261
14	0x3e01559e	0.12630317
15	0x3e6593e3	0.22419696
16	0xbe7e5879	-0.24838437
17	0x3e54b4a8	0.2077204
18	0xbd9a1552	-0.07523598
19	0x3ddddf3c	0.10833594
20	0x3e313123	0.173039
21	0xbe0887a3	-0.13332991
22	0x3e55fea2	0.20897916
23	0x3e8aa49a	0.27078706
24	0x3df5e8bc	0.12007281
25	0xbd1fef78	-0.039046735
26	0xbe556e39	-0.20842828
27	0xbcc93899	-0.02456312
28	0xbce341ee	-0.027741399
29	0xbe6bdb3a	-0.23032847
30	0x3e1e81b2	0.15479162
31	0x3d33bded	0.0438823
32	0x3d6daa80	0.05802393
33	0x3e4f48e9	0.20242657
34	0x3e22b5ca	0.1588966
35	0xbe39e6ff	-0.18154524
36	0xbe78b734	-0.24288636
37	0xbd8d9bb2	-0.06914462
38	0x3c87db58	0.016584083
39	0x3e65aba1	0.22428752
40	0x3e206eac	0.15667218
41	0x3c2fdc09	0.010733613
42	0x3d92e739	0.071730085
43	0xbe61171f	-0.21981476
44	0x3806e57b	3.216181e-05
45	0x3db8c4ba	0.090218976
46	0xbe0df1a0	-0.13861704
47	0x3ccdef95	0.025138656
48	0x3e6f15f3	0.23348217
49	0x3d753478	0.05986449
50	0xbd9af82a	-0.07566865
51	0xbdf1ad50	-0.11800635
52	0xbe2633db	-0.16230719
53	0x3dcb159a	0.099162295
54	0xbe597223	-0.21234946
55	0xbd80b293	-0.0628406
56	0xbe191ce6	-0.1495243
57	0x3e937f65	0.28808132
58	0xbd8a44c3	-0.067513965
59	0xbd37160d	-0.044698764
60	0x3e0f4b68	0.13993609
61	0xbe73c645	-0.23806103
62	0x3e394587	0.18092929
63	0x3d03666e	0.032080106
64	0xbd94dba3	-0.07268455
65	0xbdcb61d3	-0.09930768
66	0x3d647e9f	0.055784818
67	0x3e2115d1	0.15730979
68	0x3e4795ab	0.19490688
69	0xbc7a24ea	-0.01526759
70	0x3cca8f7e	0.024726626
71	0xbe813ac8	-0.2524016
72	0xbe75c704	-0.240017
73	0xbe7e1576	-0.24812874
74	0x3c6f4dd6	0.01460596
75	0xbbec0bb2	-0.0072035426
76	0xbc93c743	-0.018039351
77	0x3dc714c9	0.09720761
78	0x3cb02b6d	0.021505082
79	0xbce174fe	-0.027521607
80	0xbddf93b1	-0.10916842
81	0xbdb92e89	-0.09042079
82	0xbe4cbb23	-0.19993262
83	0x3d4c03d9	0.049808357
84	0xbe6f775b	-0.23385374
85	0xbe075f30	-0.13219905
86	0xbdbda0dd	-0.09259198
87	0xbd5700b9	-0.052490924
88	0xbd8d9add	-0.069143035
89	0xbe51b22b	-0.20478122
90	0xbe43eed9	-0.19134082
91	0x3d5449d8	0.051828235
92	0x3e136747	0.14394866
93	0xbe521e29	-0.20519318
94	0x3dcfadaf	0.101405494
95	0x3e76f149	0.2411548
96	0x3dc2a71f	0.09504532
97	0xbd79d83e	-0.06099724
98	0xbe8d8efa	-0.27648145
99	0x3d74b8c6	0.059746526
100	0xbe6a6bb9	-0.22892655
101	0x3dd11e25	0.10210828
102	0x3e4e9804	0.20175177
103	0x3cf46557	0.029833479
104	0x3d424ff5	0.047439534
105	0x3dc31316	0.09525125
106	0x3decc7d9	0.115615554
107	0xbe0d3fdb	-0.1379389
108	0xbd38e38e	-0.045138888
109	0xbe07eb72	-0.13273409
110	0x3dbce493	0.092232846
111	0xbc6d92c7	-0.0145003265
112	0x3e145c30	0.14488292
113	0xbc4def90	-0.012569323
114	0xbe617e00	-0.22020721
115	0x3d6a19b4	0.05715342
116	0xbe4d294d	-0.20035286
117	0x3e71ce8b	0.23613946
118	0xbe105d8d	-0.14098187
119	0xbda04cfb	-0.07827183
120	0x3db9e8b7	0.0907759
121	0x3d60e9d1	0.054910485
122	0x3d3fd76d	0.046836305
123	0xbe5d5c26	-0.21617183
124	0x3cdf789e	0.027279194
125	0x3e7957f0	0.24349952
126	0xbd3d2690	-0.046179354
127	0x3d837545	0.06418852
128	0x3e1cd0b0	0.15313983
129	0x3e513606	0.20430765
130	0x3e908c71	0.28232148
131	0xbe5274ba	-0.2055234
132	0x3df93743	0.121687435
133	0x3e7649d8	0.24051607
134	0xbe120cc6	-0.14262685
135	0x3e8a448a	0.27005416
136	0xbe6bd65f	-0.23030995
137	0x3e3750d3	0.17901926
138	0xbd161aea	-0.03664676
139	0xbe8e3655	-0.27775827
140	0xbda0eb60	-0.07857394
141	0x3e30796a	0.17233816
142	0xbe0c9815	-0.1372989
143	0x3b92efe8	0.0044841655
144	0xbe80ff22	-0.2519465
145	0x3e470e54	0.1943906
146	0x3e7bab75	0.24577124
147	0x3e4ebd56	0.20189413
148	0xbe3857d2	-0.18002251
149	0x3c8fe0e7	0.017563296
150	0xbe25d0d8	-0.16192949
151	0xbdb83deb	-0.08996185
152	0x3e13dafa	0.14439002
153	0x3e46e83d	0.1942453
154	0x3e7ef2e0	0.24897337
155	0xbdf82251	-0.1211592
156	0x3e084569	0.13307728
157	0x3de93a49	0.1138807
158	0x3e6e2a49	0.23258318
159	0xbe2a5af5	-0.1663626
160	0xbe73f2bd	-0.23823066
161	0xbd47b6aa	-0.048758186
162	0xbe855f0f	-0.26049086
163	0xbe5428db	-0.2071871
164	0xbe134573	-0.14381962
165	0xbe2734f1	-0.1632879
166	0x3d298069	0.041382227
167	0x3dacd745	0.08439497
168	0xbd68f980	-0.056878567
169	0x3c5bc643	0.0134139685
170	0xbdee5578	-0.116373956
171	0x3e502683	0.20327191
172	0x3a32672e	0.0006805536
173	0x3e60439e	0.21900794
174	0x3e31b2f3	0.1735342
175	0xbd6d2f66	-0.05790653
176	0xbe7ea0cf	-0.24866031
177	0xbe6486b3	-0.22317009
178	0x3e5c8ef2	0.21538904
179	0x3e4511a2	0.19245008
180	0x3c89111f	0.016731797
181	0x3d8f6103	0.070009254
182	0xbe4155c4	-0.18880373
183	0x3e5c374e	0.21505472
184	0x3e5fc023	0.21850638
185	0xbe276aac	-0.16349286
186	0xbdb19961	-0.08671833
187	0xbe87a7a3	-0.26495084
188	0x3e38abdd	0.1803431
189	0xbdc9a550	-0.09845984
190	0xbe31f0b4	-0.17376977
191	0xbd539f28	-0.051665455
192	0x3e81281d	0.25225917
193	0xbe3cde11	-0.18444087
194	0xbe8ea6b8	-0.2786157
195	0x3d3fd274	0.046831563
196	0x3da24647	0.079235606
197	0xba1cbe3c	-0.0005979275
198	0x3e4a2ac0	0.1974287
199	0xbd19b47b	-0.037525635
200	0xbdd5633a	-0.104193166
201	0xbd240177	-0.04004046
202	0xbe6df7f2	-0.23239115
203	0xbd98fb2d	-0.07469783
204	0x3e3c358d	0.18379803
205	0x3dbc556e	0.09195982
206	0x3e826fc4	0.25475895
207	0xbdf1c455	-0.118050255
208	0x3de7f99d	0.11326907
209	0xbde97ac7	-0.11400371
210	0xbdce129b	-0.100621425
211	0xbdfcf9a5	-0.123523034
212	0x3e4cc856	0.19998297
213	0xbe2c64fa	-0.16835395
214	0xbe1819a4	-0.14853531
215	0xbdd9fcac	-0.106438965
216	0x3cd98b2c	0.02655562
217	0xbe28d857	-0.16488777
218	0xbcf78686	-0.030215513
219	0xbe29c153	-0.16577654
220	0xbc9f7aa7	-0.019467665
221	0x3e773ef7	0.24145113
222	0xbe01876a	-0.12649313
223	0x3e094788	0.13406193
224	0xbd66af11	-0.0563193
225	0xbd935441	-0.071938045
226	0xbde0020b	-0.1093789
227	0x3debd980	0.11516094
228	0x3e8ff60d	0.2811741
229	0xbd841dcb	-0.06450995
230	0x3e3c755e	0.18404147
231	0x3e2fe410	0.17176843
232	0x3e3e0f6e	0.18560573
233	0x3e74d38b	0.23908822
234	0xbc8afe97	-0.016967101
235	0x3e0c9bfa	0.13731375
236	0xbe82276b	-0.254207
237	0xbe5a68d3	-0.2132905
238	0x3e8167b2	0.25274426
239	0x3a1270bb	0.0005586256
240	0xbe891056	-0.26770276
241	0x3e29ef24	0.16595131
242	0x3b6b7ff7	0.0035934427
243	0x3e347ea5	0.17626436
244	0x3e8d75ce	0.2762894
245	0x3d8bf48c	0.06833753
246	0xbe01204f	-0.12609981
247	0xbe4b84f5	-0.19874938
248	0xbe0856cd	-0.13314362
249	0xbe81a72d	-0.25322857
250	0xbdcab414	-0.098976284
251	0xbe47dd0e	-0.1951792
252	0x3e03888a	0.12845054
253	0xbe23d8d7	-0.16000687
254	0xbde56aed	-0.11202035
255	0x3e793ef4	0.24340421

embedder.emb_rnn.bias_ih_l1 f4 [60]
0	0x3f81a384	1.0128026
1	0x3f81e74c	1.0148711
2	0x3f81d2a8	1.0142412
3	0x3f81bc78	1.0135641
4	0x3f7d6f77	0.98998207
5	0x3f81a90e	1.0129716
6	0x3f813521	1.0094339
7	0x3f81bd93	1.0135978
8	0x3f7d662d	0.9898403
9	0x3f7c2a56	0.985021
10	0x3f7cc142	0.9873239
11	0x3f81d74d	1.014383
12	0x3f81e06d	1.0146614
13	0x3f8157b5	1.0104891
14	0x3f7c420a	0.9853827
15	0x3f81d1d0	1.0142155
16	0x3f81e180	1.0146942
17	0x3f7c519c	0.98562026
18	0x3f81cdaf	1.0140895
19	0x3f80d128	1.006383
20	0x3f80942d	1.004522
21	0x3f81be89	1.0136272
22	0x3f7fa578	0.9986186
23	0x3f81cd86	1.0140846
24	0x3f81276a	1.0090153
25	0x3f7c6ca7	0.9860329
26	0x3f80785f	1.0036734
27	0x3f7c599f	0.9857425
28	0x3f819ccd	1.0125977
29	0x3f81f222	1.0152018
30	0x3f81a46f	1.0128306
31	0x3f7c492f	0.9854917
32	0x3f7c4658	0.98544836
33	0x3f81c27e	1.0137479
34	0x3f81c635	1.0138613
35	0x3f7c5c80	0.98578644
36	0x3f7c4b6d	0.9855259
37	0x3f81e183	1.0146946
38	0x3f81af63	1.0131649
39	0x3f7d80c0	0.9902458
40	0x3f7cbd4f	0.9872636
41	0x3f7c4ce3	0.9855482
42	0x3f7c8896	0.98645914
43	0x3f81aafe	1.0130308
44	0x3f7c816e	0.98634994
45	0x3f81b6f9	1.0133964
46	0x3f8138f3	1.0095505
47	0x3f81dddd	1.0145832
48	0x3f7d4b81	0.98943335
49	0x3f7c0e29	0.98459107
50	0x3f7c5ed3	0.9858219
51	0x3f81b6a8	1.0133867
52	0x3f81c573	1.0138382
53	0x3f7c7b07	0.98625225
54	0x3f7c68de	0.98597515
55	0x3f81b894	1.0134454
56	0x3f7c78a2	0.9862157
57	0x3f7c7982	0.98622906
58	0x3f7c62b9	0.9858814
59	0x3f7e46e7	0.9932694

embedder.emb_rnn.bias_hh_l1 f4 [60]
0	0x3c51c2de	0.012802808
1	0x3c73a5ba	0.014871055
2	0x3c6952c1	0.0142409215
3	0x3c5e3bac	0.013564032
4	0xbc2421ed	-0.010017854
5	0x3c54864d	0.012971473
6	0x3c1a9154	0.009434063
7	0x3c5ec9bd	0.013597903
8	0xbc2674f6	-0.010159722
9	0xbc756a4b	-0.0149789555
10	0xbc4fafa3	-0.012676152
11	0x3c6ba6e2	0.01438305
12	0x3c7035ce	0.014661266
13	0x3c2bdaae	0.010489149
14	0xbc6f7dbb	-0.014617379
15	0x3c68e726	0.014215266
16	0x3c70c06f	0.014694317
17	0xbc6b98c0	-0.01437968
18	0x3c66d739	0.014089399
19	0x3bd12888	0.0063830055
20	0x3b942d07	0.0045219692
21	0x3c5f452b	0.013627331
22	0xbab50e42	-0.0013813453
23	0x3c66c269	0.014084437
24	0x3c13b4ab	0.009015243
25	0xbc64d6d8	-0.013967238
26	0x3b70bd98	0.00367341
27	0xbc699861	-0.014257521
28	0x3c4e666f	0.012597664
29	0x3c79115b	0.015201892
30	0x3c523824	0.012830768
31	0xbc6db44c	-0.014508318
32	0xbc6e6a49	-0.014551708
33	0x3c613f3b	0.0137479855
34	0x3c631b64	0.013861511
35	0xbc68dfc2	-0.014213504
36	0xbc6d2437	-0.014473966
37	0x3c70c20a	0.0146947
38	0x3c57b0d5	0.013164719
39	0xbc1fd030	-0.009754226
40	0xbc517db0	-0.012786314
41	0xbc6c19a8	-0.014410414
42	0xbc5ecfcf	-0.01359935
43	0x3c555465	0.0130206095
44	0xbc602890	-0.013681546
45	0x3c5d3b15	0.013502856
46	0x3c1c3ced	0.00953601
47	0x3c6f9244	0.014622275
48	0xbc2c7522	-0.0105259735
49	0xbc7b7968	-0.01534877
50	0xbc684293	-0.014176029
51	0x3c5c3acb	0.013441752
52	0x3c669dd5	0.014075716
53	0xbc62419b	-0.013809587
54	0xbc646ec3	-0.013942423
55	0x3c5d44ed	0.013505203
56	0xbc65d9d2	-0.014028983
57	0xbc611b77	-0.013739458
58	0xbc683ac1	-0.014174164
59	0xbbdc1fb5	-0.006717647

embedder.emb_rnn.weight_ih_l2 f4 [60, 20]
0	0xbe06faf5	-0.1318167
1	0xbd9221ad	-0.071353294
2	0xbd7a9397	-0.06117591
3	0x3cfe527c	0.031045191
4	0xbe4f6877	-0.20254694
5	0x3d517b58	0.05114302
6	0xbe75d96e	-0.24008724
7	0x3e2651a6	0.16242084
8	0xbdb8229d	-0.08990977
9	0xbcde22d1	-0.027116211
10	0x3e7db6f6	0.24776825
11	0x3e2803e7	0.16407739
12	0xbd64ac1e	-0.055828206
13	0xbe5e6c85	-0.21721084
14	0x3dfaeeb3	0.122525595
15	0x3dd7d9cb	0.105395876
16	0xbd121682	-0.035665996
17	0x3dc6c3cd	0.09705315
18	0xba082f9d	-0.0005195083
19	0xbd469fcb	-0.048492234
20	0x3d568e79	0.052381966
21	0xbbfb7f4a	-0.007675086
22	0x3e149052	0.14508179
23	0xbe4b5504	-0.1985665
24	0x3d913841	0.07090808
25	0x3e1dd795	0.1541427
26	0x3e6204aa	0.22072092
27	0xbe7dde64	-0.24791867
28	0x3d6ef8f1	0.058342878
29	0xbe334b91	-0.17509295
30	0xbe79722d	-0.24359961
31	0x3b7fa14f	0.003900606
32	0xbe27c0f6	-0.16382203
33	0xbd025903	-0.03182317
34	0xbd218fed	-0.0394439
35	0x3e829769	0.25506142
36	0x3e1a003b	0.1503915
37	0xbd88641a	-0.06659718
38	0x3d2c3f94	0.04205282
39	0x3d862702	0.06550409
40	0x3d235b7c	0.03988217
41	0xbb8e1463	-0.0043359264
42	0xbe61a54e	-0.22035715
43	0xbe1f7bd6	-0.15574583
44	0xbd9a5a46	-0.075367495
45	0xbe3cdb52	-0.18443039
46	0x3e86b940	0.2631321
47	0x3e49a483	0.19691662
48	0x3e668fae	0.22515747
49	0xbe065c46	-0.13121137
50	0x3e9037d5	0.28167596
51	0x3dff3d68	0.12462884
52	0x3d2cde4e	0.042204194
53	0x3ce9cde1	0.028540554
54	0x3e8cd971	0.27509645
55	0x3e871086	0.26379794
56	0xbe73fb80	-0.23826408
57	0xbde3ed14	-0.111292034
58	0xbe724c08	-0.23661816
59	0xbe8efccd	-0.27927247
60	0xba94af95	-0.0011343831
61	0xbe53a054	-0.20666629
62	0x3a36dfa7	0.0006976076
63	0x3e82c6f1	0.25542405
64	0x3e8494af	0.25894687
65	0xbdc665c3	-0.09687378
66	0x3e4aeb23	0.1981626
67	0x3e0d9e90	0.13830018
68	0x3e57574b	0.21029393
69	0xbe88a46c	-0.26687944
70	0xbe2bf9b2	-0.1679447
71	0x3daf03ff	0.08545684
72	0x3daf3399	0.08554763
73	0x3e5fc90a	0.21854034
74	0xbe7c8a18	-0.24662054
75	0xbe8e8d9a	-0.27842408
76	0xbe5de65e	-0.2166991
77	0xbe39d07f	-0.18145941
78	0xbe7c4879	-0.24637021
79	0xbbe6a009	-0.0070381206
80	0x3e251fae	0.16125366
81	0xbdf526a1	-0.119702585
82	0xbe70e1d3	-0.23523645
83	0x3dbc76dd	0.09202359
84	0x3e34b86a	0.17648473
85	0xbe65bfb5	-0.22436412
86	0x3e88e365	0.26735988
87	0xbe49330a	-0.19648376
88	0xbe03133c	-0.12800306
89	0x3e7630a5	0.24041994
90	0x3da3a07e	0.07989596
91	0x3e45e3d1	0.19325186
92	0xbc2ad088	-0.010425694
93	0xbd560797	-0.052253332
94	0x3e439f76	0.19103798
95	0x3e26e59e	0.1629853
96	0x3dfbc8fe	0.122941956
97	0xbe6434ab	-0.22285716
98	0x3e7ef0e5	0.24896581
99	0xbe294d19	-0.16533317
100	0x3dcd6236	0.10028498
101	0x3db39112	0.08767904
102	0x3e37a7a7	0.17935048
103	0xbcd8cfa0	-0.02646619
104	0x3d7bd4bb	0.061482172
105	0x3e1b3c0e	0.15159628
106	0xbe4553e9	-0.1927029
107	0xba2703f5	-0.0006371134
108	0xbd837b96	-0.064200565
109	0xbc885c85	-0.01664568
110	0xbe36ce04	-0.17852026
111	0x3e00b4c2	0.12568954
112	0xbe76de2b	-0.24108188
113	0xbd2da266	-0.042391203
114	0xbe2ed253	-0.1707242
115	0xbdb2ecdc	-0.087365836
116	0x3e69fd74	0.22850591
117	0xbd74c2f1	-0.059756223
118	0x3def8a02	0.11696245
119	0x3e1ed609	0.15511335
120	0x3e863b61	0.26217178
121	0xbd80ec34	-0.06295052
122	0xbe7253ed	-0.23664828
123	0xbe39c173	-0.18140201
124	0x3e5cbb44	0.21555811
125	0x3e3d915e	0.18512484
126	0xbe48eef8	-0.1962241
127	0x3e242f83	0.1603375
128	0x3dddf2d4	0.108373314
129	0x3e812c92	0.25229317
130	0x3a9d8220	0.001201693
131	0xbe3f46c3	-0.18679337
132	0xbe5ec5bb	-0.21755116
133	0xbe47237d	-0.19447131
134	0x3e34a6d6	0.17641768
135	0x3d2a3e0e	0.041563086
136	0xbe860e2e	-0.26182693
137	0xbe19318a	-0.14960304
138	0xbda3ee1d	-0.08004401
139	0x3dd1e0e9	0.10247976
140	0x3d33eaec	0.04392521
141	0x3e1dd734	0.15414125
142	0x3e094fdd	0.13409372
143	0x3e263dc3	0.16234498
144	0x3da2feb2	0.079587355
145	0x3e376e37	0.17913137
146	0xbe13334c	-0.14375037
147	0xbe4c42ca	-0.19947353
148	0xbe87d627	-0.26530573
149	0x3d646ff1	0.05577082
150	0xbe21f334	-0.15815431
151	0xbdef9761	-0.11698795
152	0xbe8bf1f6	-0.2733304
153	0x3e43870b	0.19094484
154	0x3d96e4d9	0.07367868
155	0xbe389c12	-0.18028286
156	0x3e913e08	0.2836764
157	0x3df623f8	0.12018579
158	0xbdbb8076	-0.09155361
159	0xbe84df07	-0.25951406
160	0xbd36e2dc	-0.044649944
161	0x3e3f1181	0.18659021
162	0xbe1b399a	-0.15158692
163	0xbd4adb33	-0.04952545
164	0xbe8c7f9d	-0.2744111
165	0x3d00ff5e	0.031493537
166	0xbdc70dca	-0.09719427
167	0xbd8bc3c4	-0.06824449
168	0x3e779ad4	0.24180156
169	0xbca076b5	-0.019587854
170	0xbc3079f6	-0.010771265
171	0x3d86bf52	0.0657946
172	0xbd9232a1	-0.07138563
173	0x3d6e8149	0.058228765
174	0xbe5e1dc2	-0.21691039
175	0x3d9d0faf	0.07669007
176	0x3e361ecb	0.17785184
177	0x3d896d13	0.067102574
178	0x3d9f4d46	0.077784106
179	0x3db2bd4b	0.08727511
180	0x3df6e900	0.1205616
181	0x3e729f7d	0.23693652
182	0xbdec6d4f	-0.115442865
183	0xbc4e40b6	-0.0125886705
184	0x3db05c01	0.08611298
185	0x3df08ebf	0.11745977
186	0x3dd54251	0.104130395
187	0x3e8aa6b0	0.27080297
188	0x3e64a55a	0.22328702
189	0xbe17d46b	-0.14827125
190	0x3d83176e	0.06400953
191	0xbe067a61	-0.13132621
192	0x3e660919	0.22464408
193	0xbd044f78	-0.03230235
194	0x3d9b1a5c	0.07573387
195	0xbe566203	-0.20935826
196	0xbdea60c3	-0.11444237
197	0xbd2599d1	-0.040429894
198	0xbe576031	-0.21032788
199	0xbdfafa30	-0.12254751
200	0x3e80cbf9	0.2515562
201	0x3e7b7fcb	0.24560468
202	0x3e68f7e9	0.2275082
203	0xbe6cd48b	-0.23127954
204	0x3c0bb4fb	0.008527036
205	0x3ddde257	0.108341865
206	0xbe45ae02	-0.1930466
207	0xbb2ef3b5	-0.0026695554
208	0xbd2f02d9	-0.042727325
209	0x3e816bb6	0.2527749
210	0x3e20a2ef	0.15687154
211	0xbdbfd606	-0.093669936
212	0x3e61ce80	0.2205143
213	0xbdac11ec	-0.08401856
214	0xbe841a09	-0.25801113
215	0xbe344a75	-0.17606528
216	0x3e8881af	0.2666144
217	0xbe439356	-0.19099173
218	0x3c3cd0fa	0.011524433
219	0x3e15dd47	0.14635192
220	0xbb0f00c2	-0.002182052
221	0xbe4ad6d3	-0.19808511
222	0x3e35c4c9	0.17750849
223	0x3e5ba9c0	0.21451473
224	0x3e81b94a	0.25336677
225	0x3e4d4b95	0.20048364
226	0xbd818ae6	-0.06325321
227	0xbddd6232	-0.10809745
228	0x3e54b650	0.20772672
229	0x3dbca0e0	0.09210372
230	0x3bfb5b09	0.0076707643
231	0x3ce25b0d	0.027631307
232	0x3e8119e2	0.2521506
233	0x3e1dbcfc	0.15404123
234	0xbbb4ad7d	-0.0055138455
235	0xbdc7d74b	-0.09757861
236	0xbcb7e0ae	-0.022446003
237	0x3e044c25	0.12919672
238	0xbbf3638d	-0.007427639
239	0xbe2df1e5	-0.16986807
240	0xbe4b6ac9	-0.19864954
241	0x3e81b7fe	0.25335687
242	0xbe5567dc	-0.208404
243	0xbe8e6f48	-0.27819276
244	0x3e18582b	0.14877383
245	0x3d62028e	0.055178218
246	0xbe93541b	-0.28775105
247	0xbe4a3bea	-0.19749418
248	0x3d8fbf1f	0.07018875
249	0x3e835a1e	0.2565469
250	0xbd009e10	-0.03140074
251	0x3ccb6a43	0.024830943
252	0xbdb5a86e	-0.08870016
253	0x3e44bd70	0.1921289
254	0xbe118bf2	-0.14213541
255	0xbd905e94	-0.07049289

embedder.emb_rnn.weight_hh_l2 f4 [60, 20]
0	0xbe1e84fe	-0.1548042
1	0xbe0aa9b7	-0.13541304
2	0xbe14755c	-0.14497894
3	0x3cf6b19a	0.030113984
4	0x3e04f54a	0.12984195
5	0xbccd3bfd	-0.025053019
6	0xbe13720c	-0.14398974
7	0xbe11e281	-0.1424656
8	0xbe439af0	-0.19102073
9	0xbe0fe966	-0.14053878
10	0x3e85c5da	0.2612751
11	0xbda2b598	-0.079447925
12	0xbd15400e	-0.03643804
13	0xbe8c3495	-0.27383867
14	0xbe4e922e	-0.2017295
15	0x3c57a88a	0.013162741
16	0x3e09a895	0.13443215
17	0xbdf63dc9	-0.12023503
18	0xbce88f2e	-0.028388586
19	0x3e1c0e98	0.15239942
20	0x3e28a6a8	0.16469824
21	0xbd9baf72	-0.07601823
22	0xbc2fc416	-0.010727903
23	0x3e2a52c3	0.16633134
24	0xbdbe8f49	-0.09304673
25	0x3d69cd40	0.057080507
26	0xbe54c016	-0.207764
27	0xbdc5f000	-0.09664917
28	0xbe43fb6a	-0.19138876
29	0xbd2ede95	-0.04269274
30	0x3d2bde99	0.041960333
31	0x3e114485	0.14186294
32	0xbe59cfa9	-0.21270622
33	0xbe5cecb3	-0.21574669
34	0xbbe67c13	-0.007033834
35	0xbd8278a7	-0.06370669
36	0x3e2020e8	0.15637553
37	0x3e3b25fd	0.1827621
38	0xbde1df7a	-0.11028953
39	0x3d81a0b3	0.06329479
40	0xbe3ef819	-0.18649329
41	0x3e728213	0.23682432
42	0xbd56516a	-0.052323736
43	0x3db6bdfa	0.08922954
44	0x3d85407e	0.065064415
45	0xbe4a1191	-0.19733264
46	0x3e6b7647	0.22994338
47	0xbe1656cc	-0.14681548
48	0xbc9c9b88	-0.019117132
49	0xbd47b5c8	-0.048757344
50	0xbdd8f4fc	-0.10593602
51	0xbd2b7ed4	-0.041869
52	0xbda87294	-0.08224979
53	0x3e7649c9	0.24051584
54	0xbe4ffca2	-0.20311216
55	0xbdd8a602	-0.105785385
56	0x3e1166d0	0.14199376
57	0xbd24f1bb	-0.040269595
58	0xbd4badc2	-0.049726255
59	0xbdcb2996	-0.09920041
60	0xbe0650eb	-0.13116805
61	0x3d844b93	0.06459727
62	0x3da00f64	0.078154355
63	0x3e33dd30	0.17564845
64	0xbe355c07	-0.17710887
65	0x3e0b8393	0.1362441
66	0x3d28d047	0.041214254
67	0x3e20c628	0.1570059
68	0x3e3b999e	0.18320319
69	0x3da821e0	0.08209586
70	0xbe8f68ee	-0.28009742
71	0x3bb7af52	0.0056056166
72	0x3e75ebfa	0.24015799
73	0xbe293247	-0.16523086
74	0x3e612d19	0.2198986
75	0x3e663c56	0.22483954
76	0x3e813479	0.25235346
77	0xbe8b820b	-0.27247652
78	0xbe824059	-0.25439718
79	0xbe3308bd	-0.17483802
80	0x3c8fb9f4	0.017544724
81	0xbe838c19	-0.25692824
82	0xbdb75e53	-0.08953538
83	0x3d7938c6	0.06084516
84	0xbd469bfd	-0.048488606
85	0xbe73b0bf	-0.23797892
86	0x3e1ff599	0.15621032
87	0x3d85cccd	0.06533203
88	0xbdccf9b0	-0.100085616
89	0x3e075ab1	0.1321819
90	0xbe1a835f	-0.15089177
91	0xbda47405	-0.080299415
92	0x3e6f3f76	0.23364052
93	0xbe793653	-0.2433713
94	0x3d9503f7	0.07276147
95	0xbdb534b9	-0.08847947
96	0x3d49c86f	0.049263414
97	0xbdcf6adf	-0.10127806
98	0x3de1b45a	0.110207275
99	0xbe17b7cd	-0.14816208
100	0xbe2d01ac	-0.16895169
101	0xbe234e7f	-0.15947913
102	0xbda03f45	-0.07824568
103	0x3e549e0a	0.20763412
104	0x3d84d1e8	0.06485349
105	0xbc514cd0	-0.012774661
106	0x3e7b5d92	0.24547413
107	0xbd47fb31	-0.04882354
108	0xbdba9ce6	-0.09111957
109	0x3e80d249	0.25160435
110	0x3e822fc0	0.25427055
111	0x3d82d4a9	0.06388218
112	0xbe839c6d	-0.2570528
113	0x3daf36d7	0.08555382
114	0x3e2a885a	0.16653576
115	0x3e1237ee	0.14279148
116	0x3d95200d	0.07281504
117	0xbe474f37	-0.19463812
118	0x3e039501	0.12849809
119	0x3e4a66e1	0.19765808
120	0x3e0ab77e	0.13546559
121	0xbdeb3ef8	-0.1148662
122	0x3e0b761e	0.13619277
123	0x3e44997a	0.19199172
124	0x3e4463b0	0.19178653
125	0x3e2548ef	0.16141103
126	0x3d112690	0.035437167
127	0xbe3a4a1b	-0.18192331
128	0x3e8b5597	0.27213737
129	0x3d95d3e3	0.07315805
130	0xbd50be23	-0.05096258
131	0xbe0b746d	-0.13618632
132	0xbe7bba8a	-0.24582878
133	0x3e8655c5	0.26237312
134	0xbd89f599	-0.06736297
135	0xbe12586f	-0.14291547
136	0x3e5cfbdd	0.21580453
137	0xbe617aab	-0.2201945
138	0x3e1bd94a	0.15219608
139	0xbe5ece86	-0.2175847
140	0x3dd3906e	0.10330282
141	0x3e25cc78	0.1619128
142	0xbe18eaee	-0.14933369
143	0x3e66795a	0.2250723
144	0xbe654d77	-0.22392832
145	0x3cdf9be1	0.027296009
146	0xbe3154ba	-0.17317477
147	0xbe013e76	-0.12621483
148	0x3e3cb498	0.18428266
149	0xbe72a054	-0.23693973
150	0xbe556525	-0.20839365
151	0xbe7cabd3	-0.2467492
152	0x3d9b074f	0.075697534
153	0xbe64cd84	-0.22344023
154	0x3e0467b9	0.12930192
155	0x3dfd2a7b	0.12361618
156	0x3e806631	0.25077966
157	0xbd2f732d	-0.04283445
158	0xbde7b1ac	-0.11313185
159	0x3df197e7	0.11796551
160	0xbe6df5ee	-0.23238346
161	0xbe0211d4	-0.12702113
162	0xbe6425b0	-0.22280002
163	0x3ce2b323	0.02767331
164	0x3dd0df5c	0.101988524
165	0xbe23e785	-0.16006286
166	0x3e7caba2	0.24674848
167	0x3b06087f	0.0020451841
168	0xbe3483df	-0.1762843
169	0x3d04e56f	0.032445367
170	0xbdd3b56f	-0.1033734
171	0xbe0f6382	-0.14002803
172	0xbe69dedc	-0.2283892
173	0xbda9fac0	-0.0829978
174	0x3d54d341	0.05195928
175	0xbe140600	-0.14455414
176	0xbe881ad7	-0.26582977
177	0xbe4c97f6	-0.19979843
178	0xbe86ec60	-0.26352215
179	0xbc7c7ff3	-0.015411365
180	0x3da6830a	0.081304625
181	0xbe593327	-0.2121092
182	0xbe73ceda	-0.23809376
183	0xbd377f11	-0.044798914
184	0x3a93ed01	0.0011285843
185	0xbe410e61	-0.18853141
186	0x3e11bab9	0.14231385
187	0xbe761900	-0.24032974
188	0xbe42edbe	-0.19036004
189	0x3e46ac91	0.19401766
190	0xbdc386da	-0.09547205
191	0xbd844451	-0.06458343
192	0x3e7799ab	0.24179713
193	0x3e1e28a6	0.15445194
194	0xbe74a40a	-0.23890701
195	0x3e49dcde	0.1971316
196	0xbe62c5da	-0.22145787
197	0x3d44b4ef	0.048024114
198	0x3d96cedc	0.07363674
199	0x3d817210	0.06320584
200	0xbc908fe2	-0.017646734
201	0xbdcda368	-0.10040933
202	0xbe15d29a	-0.1463112
203	0xbcc4e5be	-0.02403533
204	0xbe7e4e11	-0.24834467
205	0x3da64b9b	0.08119889
206	0x3e69755e	0.22798678
207	0xbe425187	-0.18976413
208	0xbe35c400	-0.1775055
209	0x3e711c10	0.23545861
210	0xbe1ba1bf	-0.1519842
211	0x3e18f6c6	0.14937887
212	0x3d1299e0	0.035791278
213	0xbe4786ad	-0.19484968
214	0x3de8ebd6	0.11373107
215	0xbe84e718	-0.2595756
216	0x3e3b5ad8	0.18296373
217	0x3d3d22a5	0.046175618
218	0xbdd221a5	-0.102603234
219	0x3e0047a0	0.12527323
220	0x3e00e41a	0.12587014
221	0xbdec3523	-0.115335725
222	0x3d267de1	0.04064739
223	0xbe0c116c	-0.13678521
224	0x3e52f80a	0.20602432
225	0xbc2b5c9f	-0.010459094
226	0xbbf372e4	-0.0074294675
227	0xbe6943e6	-0.22779807
228	0x3c07d96f	0.008291586
229	0x3e86a730	0.2629943
230	0x3e143394	0.144728
231	0xbe0e87f4	-0.1391905
232	0x3e62931d	0.22126432
233	0xbe48482f	-0.19558786
234	0xbe2ecf82	-0.17071345
235	0x3e110a44	0.14164072
236	0x3cc9e37e	0.02464461
237	0x3e85a055	0.26098886
238	0xbd2af338	-0.041735858
239	0x3b989ba8	0.0046572275
240	0xbe803e5b	-0.25047573
241	0x3dcdf83a	0.10057111
242	0x3e4d1baa	0.20030084
243	0x3e079002	0.13238528
244	0x3e113480	0.14180183
245	0xbd72da8d	-0.059290458
246	0xbe38e63a	-0.18056574
247	0x3dd20838	0.10255474
248	0x3cb92b62	0.022603694
249	0xbe818bcd	-0.25301972
250	0xbd64aaea	-0.05582706
251	0x3d155d1c	0.03646575
252	0xbe1ecc28	-0.15507567
253	0x3e5b0648	0.21389115
254	0xbc67ad77	-0.014140478
255	0xbc61a905	-0.013773208

embedder.emb_rnn.bias_ih_l2 f4 [60]
0	0x3f7ef625	0.99594337
1	0x3f7c31ee	0.98513687
2	0x3f81bcdb	1.0135759
3	0x3f7c4655	0.9854482
4	0x3f81f941	1.0154191
5	0x3f7d59f7	0.989654
6	0x3f81dac3	1.0144886
7	0x3f7c8f4d	0.9865616
8	0x3f7da451	0.9907885
9	0x3f81d926	1.0144393
10	0x3f7d31df	0.9890422
11	0x3f819388	1.0123148
12	0x3f7c7277	0.9861216
13	0x3f8038fe	1.0017393
14	0x3f7c6375	0.9858926
15	0x3f819045	1.0122153
16	0x3f7d252a	0.9888483
17	0x3f7f2dfd	0.9967955
18	0x3f7ce016	0.9877943
19	0x3f81a182	1.0127413
20	0x3f818bb7	1.0120763
21	0x3f81d7ad	1.0143944
22	0x3f7c81af	0.9863538
23	0x3f81d5ba	1.0143349
24	0x3f81eb60	1.0149956
25	0x3f7c2f11	0.9850932
26	0x3f7c2895	0.98499423
27	0x3f7d6711	0.9898539
28	0x3f81bce8	1.0135775
29	0x3f81a2de	1.0127828
30	0x3f819527	1.0123643
31	0x3f7d7fa7	0.99022907
32	0x3f81c459	1.0138046
33	0x3f7c6c5a	0.9860283
34	0x3f81a52c	1.0128531
35	0x3f7c92f3	0.98661727
36	0x3f7c8a42	0.98648465
37	0x3f8015d4	1.0006661
38	0x3f7c49fe	0.98550403
39	0x3f7cc843	0.98743075
40	0x3f7c495e	0.9854945
41	0x3f7c1680	0.9847183
42	0x3f81ce71	1.0141126
43	0x3f7c3369	0.98515946
44	0x3f7c1854	0.9847462
45	0x3f7dbbfd	0.9911497
46	0x3f81b799	1.0134155
47	0x3f81d5f9	1.0143424
48	0x3f7dd795	0.9915708
49	0x3f7c5df3	0.98580855
50	0x3f7c905e	0.98657787
51	0x3f816a02	1.0110476
52	0x3f7c3654	0.985204
53	0x3f81d85c	1.0144153
54	0x3f7c3e5d	0.9853266
55	0x3f817a4e	1.011545
56	0x3f8196ab	1.0124105
57	0x3f7ef21e	0.9958819
58	0x3f8198cb	1.0124754
59	0x3f81c41f	1.0137976

embedder.emb_rnn.bias_hh_l2 f4 [60]
0	0xbb84eda5	-0.0040566497
1	0xbc738469	-0.014863112
2	0x3c5e6e6c	0.013576131
3	0xbc6e6aa6	-0.014551794
4	0x3c7ca0be	0.015419183
5	0xbc298190	-0.0103458315
6	0x3c6d610f	0.014488473
7	0xbc5c2c38	-0.013438277
8	0xbc16eb73	-0.009211409
9	0x3c6c9368	0.014439441
10	0xbc338846	-0.010957783
11	0x3c49c398	0.0123147
12	0xbc63625b	-0.01387843
13	0x3ae3f537	0.0017391805
14	0xbc6722ea	-0.014107445
15	0x3c4821e5	0.012215112
16	0xbc36b599	-0.011151695
17	0xbb5203db	-0.0032045755
18	0xbc47fa17	-0.012205622
19	0x3c50c0d9	0.012741291
20	0x3c45da33	0.0120759485
21	0x3c6bd6cc	0.014394473
22	0xbc5f9435	-0.013646175
23	0x3c6adcdf	0.014334886
24	0x3c75b0bc	0.01499575
25	0xbc743bf9	-0.014906877
26	0xbc75db39	-0.01500588
27	0xbc263bb9	-0.010146075
28	0x3c5e7324	0.013577256
29	0x3c516f26	0.0127828475
30	0x3c4a92f9	0.012364143
31	0xbc2015d6	-0.009770831
32	0x3c622ca3	0.013804588
33	0xbc64e9c4	-0.01397175
34	0x3c52961f	0.0128531745
35	0xbc5b42df	-0.0133826425
36	0xbc5d6f86	-0.013515359
37	0x3a2ea27f	0.0006661787
38	0xbc6d80c0	-0.014496028
39	0xbc4def5e	-0.012569277
40	0xbc6d5826	-0.014486348
41	0xbc782d3a	-0.015147502
42	0x3c6bb345	0.014386003
43	0xbc72f0d0	-0.014827922
44	0xbc7babca	-0.015360782
45	0xbc13afac	-0.009014051
46	0x3c5d45cd	0.013505411
47	0x3c67276d	0.014108521
48	0xbc0e9d93	-0.008704561
49	0xbc6ab9e4	-0.014326546
50	0xbc55f102	-0.013057949
51	0x3c34afd6	0.011028251
52	0xbc729570	-0.0148061365
53	0x3c6c8af0	0.014437422
54	0xbc6eef26	-0.014583385
55	0x3c3d700c	0.011562359
56	0x3c49769a	0.012296343
57	0xbb87420f	-0.004127748
58	0x3c469640	0.012120783
59	0x3c62ad8c	0.013835322
