output/Tennessee_Eastman_20/model.pt (torch, 178616 bytes, 65 tensors)

embedder.emb_rnn.weight_ih_l0 f4 [60, 55]
00000000: cce0 1fc0 f1d3 3d3e 2c20 f4be 60c2 83bf
00000010: d6f1 f93e 24d7 c33d 8f12 1f3f e7fe af3e
00000020: afbb 3e3f 935a 233f 2d3a 37bf 0c50 29be
00000030: cd4d 383f dbfc 1fbf f66d e3be 69e1 ea3e
00000040: 9006 2fbf 7296 debe 3de4 0f3f 1ea0 93bd
00000050: 5016 51be 1368 fd3e 6d81 d93d 55fd b3bd
00000060: 9fea 043f 2d3d 883c 4b2f 1fbd 871d c2bd
00000070: b53b 65bf 1002 32be 07f4 eabe d67f e5bd
00000080: 47c5 153d bc5f dcbe 54cf eabe 40a5 d0bd
00000090: ae48 a5be 0bb2 08bf 26af 793d b63d 43be
000000a0: e920 d7bd 1f07 f73c 545e 00be 6cfb 683e
000000b0: 8d8e 2cbf 0740 acbe ec84 3540 4479 c33e
000000c0: 9c09 8ebf b9d0 213f e6b3 b6be f8a4 64be
000000d0: b310 83be 94b2 9a3f 33fd 333e 1d1b a93f
000000e0: 5a4f 0e3e 2ab1 2ebd bd65 163f 217f 9dbb
000000f0: 6514 6ebe a219 28bf 9ce4 8dbd a61e 1ebe
00000100: d5a8 84be 60f5 b23e 1644 31be 0bd1 34be
00000110: df51 36bf f8fc fb3e 79f9 27bf 4e44 1a3e
00000120: db28 043f c971 a23d 7ed0 2dbe 1578 c1be
00000130: f093 e43e 46a8 e2bd f48d 70be 03f7 a5bb
00000140: ac1d ecbe f2a1 fc3c f52e a8be d28d 973d
00000150: 9f65 14be 891d ccbd 7d88 cabe 7e2c 2c3e
00000160: 957c b4bd 968e 8dbc 41bd 66be 3a3b 5a3d
00000170: 23dc 81bf e2cc a1be f4a5 b63c aa4f 74be
00000180: bf14 13bf e913 a73e 0c46 8cbe e911 043f
00000190: c327 9bbf 1abb a63f 5676 053f 1df0 323f
000001a0: 84e6 ba3f 0268 173f 939e 5b3f 617d 1140
000001b0: 6088 12be af6c 0c3f cf89 153f 7334 2ec0
000001c0: 33ff 0f3e a171 3c3f 10bf 5bbe ca6b 45bf
000001d0: af9f 01be 1c90 74bd 144c d2bb 4de0 20be
000001e0: 80af bfbe f958 cdbe 8197 03bf 9da2 123e
000001f0: 25fc 8ebd c13c a53d 62a5 fb3d f019 a43e
00000200: 0d6f e1bb f045 4e3e 61c5 a8bd b7be 9f3e
00000210: dca3 13bf 8609 533e fd1b 7cbd 021c 5ebe
00000220: 6686 d7bc df99 1bbf 07f6 7d3d 9339 c9bd
00000230: 7349 953e ddb0 dcbd 8063 f3bd 5ce5 b4be
00000240: 1ae4 463d 7c75 8e3c e5c2 993d 4f3f 62be
00000250: cc9d 49be 2174 a53e 9613 6dbe dc66 4cbe
00000260: 536d e83c dea0 febd 9356 9abe 7bea 493e
00000270: ee03 733e f06e 37be 7950 353e f467 343e
00000280: fdf8 48bc 83e5 1e3e 75cc df3e ed01 8abf
00000290: 3811 d83d c463 063f 9f8e a4bd 72e3 06bf
000002a0: d223 d8bd 5c63 8bbd e014 503f 4c1a ba3e
000002b0: a8ab 193e 2c02 5ebe 5b18 70bc 5ee3 05bd
000002c0: 9eca 3d3f c5a0 ea3e c7a4 e73e 0882 91be
000002d0: c79f 8ebe 9813 21bf b967 5a3e 78e5 1abe
000002e0: b7fb d1bf ca14 9f3d 1a78 ebbe 3c40 5b3e
000002f0: 3354 47be 9280 ba3e bbf1 52be 8d02 1f3d
00000300: 1a1e fc3e a335 a33e c9bc f8bd 090b 2b3f
00000310: 06b9 0e3e b874 a43e b4b9 ca3d e026 ad3e
00000320: add4 fc3d bab9 6d3f 25c6 1a3f 9199 b03e
00000330: 171f af3f ad87 a7be ed3a 0dbf 4177 20bf
00000340: a970 883f e108 20bf 92c3 80bf d187 183f
00000350: 9cdc e8be 865e ae3e e6fe 3bbf 8bb3 91be
00000360: 5759 8e3e 420d 58bf 842a 933e 83b7 e53f
00000370: 8d91 29bf df39 263e a2e0 653e 28f0 893e
00000380: f669 243e 6170 333e 6ec7 2fbf 992e 54bd
00000390: c4ca 0fbf 086b 10bf 34c4 8b3e 6dcd eebd
000003a0: 9210 3abe ce91 373c e9ae 16bf 6d70 d6be
000003b0: fa79 b33e 0aa3 083e 1e0d 62bf 941a 7f3f
000003c0: e9ee 9abe 5494 b8be b421 083e 3563 403d
000003d0: 332c fa3e a38f 253f 1d5f e93e 901e 86bf
000003e0: 1d34 183e a9e4 4b3d 6db0 083f 806b 9b3e
000003f0: a36e f03e e8df 87bf 1b12 22be f0c8 713e
-2.4980955 0.1853788 -0.47680795 -1.0293694 0.4881732 0.09562519 0.62137693 0.34374163
0.7450513 0.6381008 -0.71573144 -0.16534442 0.71993715 -0.624952 -0.4441983 0.458751
-0.6836939 -0.43474156 0.5620764 -0.07208274 -0.20418668 0.49493465 0.10620389 -0.087885536
0.51920503 0.016630733 -0.03886346 -0.09478288 -0.8954423 -0.173836 -0.45889303 -0.112060234
0.03656509 -0.4304179 -0.45861304 -0.10187769 -0.32282013 -0.5339667 0.06095805 -0.1906651
-0.10504324 0.030154763 -0.12535983 0.2275216 -0.67405015 -0.336426 2.836238 0.38178456
-1.1096683 0.6320911 -0.35684127 -0.22328556 -0.25598678 1.2085748 0.17577057 1.3211399
0.13897458 -0.042649426 0.5874899 -0.0048064147 -0.23249967 -0.6566411 -0.069283694 -0.15441379
-0.2591006 0.3495283 -0.17311129 -0.17657869 -0.71218675 0.49216437 -0.6561504 0.15065119
0.5162484 0.07931859 -0.16974065 -0.37786928 0.44644117 -0.11067252 -0.23491651 -0.0050648465
-0.46116388 0.03083894 -0.32848325 0.07400097 -0.1449189 -0.09966571 -0.39557257 0.16813847
-0.08812825 -0.017279904 -0.22533132 0.05327914 -1.0145305 -0.31601626 0.02229593 -0.23858514
-0.5745353 0.32632378 -0.27397192 0.5158983 -1.2121509 1.3025849 0.5213369 0.69897634
1.4601598 0.5914308 0.8578884 2.2732775 -0.14309835 0.5485334 0.58413404 -2.7219512
0.14062195 0.73610884 -0.21459603 -0.771176 -0.1265857 -0.059707746 -0.0064177606 -0.15710564
-0.37438583 -0.40106943 -0.5140305 0.14319845 -0.069816865 0.080682285 0.12287404 0.3205104
-0.0068796934 0.20143867 -0.08240772 0.3120019 -0.57671905 0.20609102 -0.06155013 -0.21690372
-0.026309203 -0.60781664 0.062002208 -0.098254345 0.291576 -0.107759215 -0.118842125 -0.35331237
0.04855738 0.017390005 0.07507876 -0.22094463 -0.19689101 0.32315162 -0.23152003 -0.19961113
0.028372442 -0.12433027 -0.30144176 0.19718353 0.23731968 -0.17913413 0.17706479 0.1761778
-0.012266395 0.1551724 0.43710676 -1.0781838 0.10550159 0.5249598 -0.08035015 -0.52690804
-0.10553707 -0.06806061 0.8128185 0.36348188 0.15006888 -0.21680516 -0.014654244 -0.032687537
0.74137294 0.45825782 0.45242903 -0.28419518 -0.27856275 -0.6292052 0.2132863 -0.15126598
-1.6404942 0.07767637 -0.45990068 0.21411222 -0.19465713 0.36426216 -0.20600025 0.038820792
0.49241716 0.3187686 -0.12145383 0.66813713 0.13937768 0.321203 0.09898701 0.33818722
0.12345252 0.9286152 0.60458595 0.34492162 1.3681363 -0.327207 -0.5516804 -0.6268197
1.0659381 -0.6251355 -1.0059683 0.5958224 -0.45480812 0.3405649 -0.7343582 -0.28457293
0.27802536 -0.8439523 0.28743374 1.7946628 -0.6623772 0.16233014 0.22448972 0.26941037
0.16056046 0.17523338 -0.6866368 -0.05180225 -0.5616877 -0.56413317 0.2729813 -0.116602756
-0.18170384 0.011204196 -0.5886064 -0.4188265 0.35053998 0.13343444 -0.88301265 0.9964993
-0.302604 -0.36050665 0.13294107 0.04696961 0.48861846 0.646723 0.45580378 -1.0478077
0.1486363 0.049778614 0.53394204 0.30355453 0.4695941 -1.0615206 -0.15827219 0.23611808

embedder.emb_rnn.weight_hh_l0 f4 [60, 20]
00000000: 92bc 89bf c7a8 9d3f e62c 843e 3125 9d3f
00000010: 4585 1cbf affb c0be d730 8abf eccc 39be
00000020: 8aa2 8f3e 5da4 2ebf 2a03 773e 0af8 d7be
00000030: 75b8 86bf af58 d9be 286f a63e 8fc8 d53f
00000040: 573d 913e f81d 723f fd25 68bf aa2a 963f
00000050: 0444 86bf 4952 be3e 1240 cb3e e154 0abf
00000060: 47e1 3cbf 35b8 2ec0 51a7 a63e 6a77 b0be
00000070: ac1c ebbe b8f0 193f 4007 b2bd 3040 233e
00000080: 4915 5e3e 191a 843f 72c8 d3be 0549 0540
00000090: 90cf b2bf 592d 123d aa01 12bf f2e9 113f
000000a0: 049f f8be 5f78 50bf 1999 133f bc69 0ebf
000000b0: a8a0 acbe 4c65 0740 250c 08bf 420e 6a3e
000000c0: b3f8 f23e e599 b53f 645d fd3f e671 01c0
000000d0: a451 753f eb15 31bf 11f0 863f c50f 763f
000000e0: b3c1 8fbe 6249 0640 ae9d 903e 3feb 2940
000000f0: 6b37 213f 14fe b0bd dac0 aabf 4eac e83e
00000100: 1733 9ebe 210c a3bf b991 bcbe 35dd 10bf
00000110: 86c7 9ebe 96bb 6e3e c533 88bd 77e8 99be
00000120: fdd8 32bf e4ed 98be 63a0 5c3f 3ce3 4ebf
00000130: 465d 353f b600 4f3f ffd9 0ebf bd48 0d3e
00000140: dc12 a3be 94f1 3f3e 9348 09c0 96bd d5be
00000150: b664 883f c94e 3bc0 a4e3 333f ed80 03bf
00000160: 35c8 36be b609 9d3f 8e65 873f 7b8d 12c0
00000170: 3a3a c23f 07ab 0abf 3e34 6bbf 95ef 20bc
00000180: 379b 7abf c94d cebd 7bc9 c1be 67a1 67c0
00000190: 1c4d 7cc0 7d76 1c3f 0354 d23f 67a9 8fbf
000001a0: c71e ffbd 7d13 86c0 f82e 9c40 152b f93f
000001b0: 387a af40 b335 e23f a89d 6340 1f10 8640
000001c0: ccd0 113f 6d6a 0b41 294f c93f 778a 7340
000001d0: f7b4 fa3f 18d4 a9bf c405 553c dc8b 1f40
000001e0: f75f 0bbf 5a60 f23f c342 9b40 1872 793f
000001f0: c3eb 01c1 c1ee d6c0 e795 5cbf 94c8 93be
00000200: e366 5e40 539a eec0 6746 a33f f675 3440
00000210: e2c1 9d3e 6c91 2940 eda9 1fc0 4cd0 d83f
00000220: 9a52 0ebf a0be f4bf e4aa 5bbf a98a d4bf
00000230: e274 0cbe 59f8 8a3d 9703 dabe 5aa3 aabf
00000240: 7585 ba3e 70c6 16bf e7dc e33e d72f fa3a
00000250: 20c9 a13d c389 89bf 168c b5bc 4182 b53d
00000260: 8a2a c03e 8431 7d3e 6cbb 0ac0 8ba5 543f
00000270: a6f9 213e b95a 803e acd6 0a3f bc3e a5bf
00000280: 7808 eabf 1400 4ebf f0b2 a240 7ab2 8f3f
00000290: 33bf 273f 595a c1bf 7736 6040 e5d7 dc3f
000002a0: 1c9a 9640 58da 85c0 2edc c93e 1a5a 5640
000002b0: a924 4b3f 7d4c eb3f c2cb bbbd 6194 963f
000002c0: 6dd2 3ac0 0122 9fc0 7b03 073e a4a5 9c40
000002d0: 9ee8 143f ed9f a13b 5ad6 93bf b336 473f
000002e0: 03f8 103f 91e1 0ac0 8440 d2be 479c 17bf
000002f0: 9149 e33f af74 83c0 8b16 1b3f 3e33 b8bf
00000300: 3fa6 87bf 878e 40bf a6a6 8ebf 23a0 2040
00000310: 842e c7bf 94f7 08bf 702c c6bf e09d 8cbf
00000320: 1701 863e 321e 11bf 3432 25c0 0de5 1a40
00000330: d10e 893f 8d99 d8bf 39b1 57bf bbe1 cfbe
00000340: 5e4e b240 b70b 7cc0 ae3e e33f 7ce8 95c0
00000350: b223 fabf aea1 a2bf 2caa 66c0 fd74 4c40
00000360: cd8b 8dbf 9604 913f b842 40c0 4dc4 8b40
00000370: eb26 c3bd 4278 c1bd 4725 883f 29c7 06bf
00000380: 7e63 8bbf 9125 423f 2c32 34bf 8283 873e
00000390: 30ec e9bf c087 633f cd1f c5be 352d 5740
000003a0: 564b ec3e 94cf 3fbf 8019 ad3d 37d9 0cbe
000003b0: ef44 c4be bf1f e9be 6b8a 803f fd88 71bf
000003c0: 8897 0fbf 66cb fc3e 72ae 32be 1aef d43e
000003d0: eabf 00be 6ddc 963f c29d 5c3f 38c0 efbc
000003e0: 5723 913f 9de7 9fbf 3718 803e 843a 00bf
000003f0: 59c9 e93e cb71 453f a094 9dbd f41e 8d3f
-1.0760672 1.2317132 0.25815505 1.2276975 -0.61140853 -0.3769202 -1.0796155 -0.18144578
0.28053695 -0.6821955 0.241223 -0.42181426 -1.0525042 -0.42450473 0.3250668 1.6701831
0.2836711 0.9457698 -0.90682966 1.173177 -1.0489507 0.37172154 0.3969732 -0.54035765
-0.73781246 -2.729993 0.32549527 -0.34466106 -0.45920312 0.6013293 -0.08692789 0.15942454
0.21687807 1.0320464 -0.41363865 2.0825818 -1.3969593 0.03568778 -0.5703379 0.569976
-0.4855882 -0.8143367 0.57655483 -0.5563009 -0.3371632 2.1155577 -0.5314353 0.22857001
0.47455367 1.418759 1.9794126 -2.0225768 0.958277 -0.6917407 1.0542012 0.9611781
-0.28077468 2.098229 0.282453 2.6549833 0.62975186 -0.086422116 -1.3340104 0.45443958
-0.30898353 -1.2738076 -0.36829928 -0.56587535 -0.310116 0.23313746 -0.06650499 -0.3006017
-0.6986235 -0.29868996 0.8618223 -0.8081548 0.7084545 0.8086046 -0.55801386 0.13797279
-0.31850326 0.18744498 -2.1450546 -0.41746205 1.0655735 -2.9266837 0.7026923 -0.513686
-0.1784981 1.2268589 1.0577867 -2.2898853 1.5174019 -0.54167217 -0.9187659 -0.009822746
-0.9789309 -0.1007343 -0.3784903 -3.6192262 -3.9422064 0.611183 1.6431888 -1.1223572
-0.12457042 -4.189879 4.8807335 1.9466273 5.4836693 1.7672638 3.5564976 4.189468
0.56959224 8.713483 1.5727283 3.8053262 1.9586476 -1.3267851 0.013001863 2.4929113
-0.54443306 1.8935654 4.8518996 0.9743972 -8.120059 -6.716645 -0.8616623 -0.28863966
3.4750297 -7.4563384 1.275586 2.8196998 0.30811983 2.6495008 -2.4947464 1.6938567
-0.5559479 -1.9120674 -0.85807633 -1.6604816 -0.13716462 0.0678565 -0.42580864 -1.3331101
0.36429945 -0.5889654 0.44504473 0.0019087744 0.0789969 -1.0745167 -0.022161525 0.088627346
0.37532455 0.2472592 -2.1676893 0.830651 0.1581789 0.25069216 0.54233813 -1.290977
-1.8283834 -0.8046887 5.084343 1.1226342 0.6552612 -1.5105697 3.5033243 1.7253386
4.706312 -4.1829033 0.39425796 3.3492494 0.79352814 1.8382717 -0.09169723 1.1764032
-2.9190934 -4.972901 0.13184921 4.89522 0.58167446 0.0049323947 -1.154979 0.7781784
0.56628436 -2.1700175 -0.41064847 -0.59222835 1.7756826 -4.1079936 0.6058127 -1.4390638
-1.0597609 -0.7521748 -1.1144607 2.509774 -1.556107 -0.53502774 -1.5482311 -1.098568
0.26172706 -0.566867 -2.5811892 2.4202302 1.0707647 -1.692186 -0.84254795 -0.40601906
5.5720663 -3.938215 1.7753503 -4.6846294 -1.9542143 -1.2705591 -3.6041365 3.1946404
-1.1058289 1.1329525 -3.0040722 4.3677125 -0.095289074 -0.094467655 1.0636376 -0.52647644
-1.0889738 0.7583857 -0.70389056 0.2646752 -1.8275204 0.88879013 -0.38500825 3.3621342
0.46151227 -0.74926114 0.08452129 -0.13754736 -0.38333842 -0.45532033 1.0042242 -0.9434965
-0.56090593 0.4937393 -0.17449358 0.4158867 -0.1257321 1.1786019 0.8617822 -0.029266462
1.133891 -1.2492558 0.25018474 -0.5008929 0.4566143 0.7712676 -0.076943636 1.1025071

embedder.emb_rnn.bias_ih_l0 f4 [60]
00000000: bc8e d83f ba68 8b3f c03d 103f 48cc 8f3f
00000010: 234b 8f3f 3f46 973f 0c44 8abf ecb6 5d3f
00000020: 5150 f1bd c366 8f3f f369 3f3f 687e 383f
00000030: 651f 803f 7882 913f c099 4c3f 2d26 873f
00000040: afef e93f de3f a53f 9230 0740 5190 a03f
00000050: 366f 283f 7a9a a43f 91a8 963f 94c6 723f
00000060: d603 873f 81f6 833f a24a 923f a96e 4b3f
00000070: d9f1 463f 3fce 583f d25d 833f 94b8 933f
00000080: 2a6b 053f f835 ab3f f846 0e3f cc6c 5c3f
00000090: d679 023f fb86 833f cc2b 6a3f 3f5d ab3f
000000a0: d201 c5bd 5213 2e3e 560c 7a3f 3934 113f
000000b0: 2448 5b3f f575 023f 24aa ac3f e65b 8f3f
000000c0: 229e a33f 1ab7 8a3f 1906 9a3f 8295 763f
000000d0: f82e 8c3f 7b5c 703f b3ed 563f 0c29 943f
000000e0: 1280 0b3f bd15 cd3e 0c21 8d3f 87d6 a03f
1.6918559 1.0891335 0.56344223 1.1234217 1.1194805 1.1818312 -1.0802016 0.8660724
-0.11782897 1.1203235 0.7477104 0.7206788 1.0009581 1.1367941 0.79922104 1.0558525
1.8276271 1.2910116 2.1123395 1.2544042 0.65794694 1.2859643 1.1770192 0.94834256
1.0548046 1.0309602 1.1429026 0.7946573 0.7771278 0.84689707 1.0263007 1.1540704
0.52116644 1.3375845 0.5557704 0.8610351 0.50967157 1.0275568 0.9147308 1.3387831
-0.09619488 0.16999558 0.97675073 0.5672031 0.8565695 0.5096124 1.3489423 1.119992
1.2782633 1.0837128 1.2033111 0.9632188 1.0951834 0.93891114 0.8395645 1.1575027
0.54492295 0.40055647 1.102571 1.2565469

embedder.emb_rnn.bias_hh_l0 f4 [60]
00000000: a321 313f c69f b63d 6f7f dfbe 68ab fc3d
00000010: 12c2 f43d 3134 3a3e 8f21 05c0 1b21 09be
00000020: 8314 8fbf ad5b f63d b729 81be 4206 8fbe
00000030: d04d 7a3a ad1f 0c3e 539e 4dbe bb9e 643d
00000040: c2df 533f f1f9 943e ae62 8e3f 2346 823e
00000050: d923 afbe db6d 923e 634a 353e f085 53bd
00000060: bc65 603d deda fd3c bc54 123e 8447 52be
00000070: 883a 64be b2c8 1cbe 8552 d73c 84c7 1d3e
00000080: f82a f5be 14d4 ac3e b271 e3be c54c 0ebe
00000090: 1b0c fbbe 0f3d e13c 049f aebd 5b73 ad3e
000000a0: 9890 93bf 3bd8 a7bf f440 a2bf 427b 2ebf
000000b0: 47f1 19bf 7dcb 1ebf 09f2 02c0 22af 3340
000000c0: 7412 81bf ff0b ad3e 4e55 aabf 4579 f6be
000000d0: c15c 5e3f 9d03 0fbf 6381 ddbe 6cd2 31bf
000000e0: 5afd b7bf fea2 6ebf 09cb 2e3f 6408 d0bf
0.6919195 0.08917193 -0.43651912 0.12337381 0.119510785 0.18183972 -2.0801733 -0.13391535
-1.1178135 0.120292045 -0.25227138 -0.27934462 0.0009548338 0.13683958 -0.20079927 0.05581544
0.827633 0.2909694 1.1123865 0.25444135 -0.34207037 0.28599438 0.17704158 -0.051641405
0.05478452 0.030988153 0.14290136 -0.20535094 -0.22287953 -0.15310934 0.026284466 0.1540814
-0.47884345 0.33755553 -0.4442268 -0.13896473 -0.49032673 0.027494935 -0.085264236 0.33877072
-1.1528502 -1.3112863 -1.2676072 -0.68156826 -0.60133785 -0.6202925 -2.0460227 2.8075643
-1.0083756 0.33798215 -1.3307283 -0.48139396 0.8686028 -0.5586489 -0.43262777 -0.69461703
-1.4374192 -0.93217456 0.6827856 -1.6252561

embedder.emb_rnn.weight_ih_l1 f4 [60, 20]
00000000: 95b6 7ebe bf47 22bf c002 27bf 0457 95bf
00000010: b395 8f3e 748a bbbf 9992 87bf 6cfa d8be
00000020: fc2b 09bf a8b9 073f fa43 c03d f73c c0be
00000030: 05c0 983e 5cb5 4bbf 3b71 943f 54fc 4e3f
00000040: 299f d13f 5f19 26bf b31f 0abf c3fa c5bf
00000050: b09a 693e d0e2 bebe 31b7 343e bb06 6fbd
00000060: eece f5be 8bae 1bbf 3184 aebe 19be 08bf
00000070: 68eb b93c fd20 59be 82b3 fcbd 6b07 413e
00000080: 725e de3e 5d65 253f a617 dc3d e1cc edbd
00000090: b9d1 5a3e 1cc4 223f 8b05 623e dff0 3e3e
000000a0: 961c f8bd 96f9 433e db83 e03e 87ba b53e
000000b0: 5e7e 17bf 2f40 a93e 5939 de3e db52 1b3e
000000c0: 7952 023f 6f9d 74bf c9c4 443e 6098 be3f
000000d0: 4cd9 f2bd 7aa9 973f 2f2a 3b3f 9a8b 3d3e
000000e0: 5083 c3bd be3d 5d3f a496 093f 29b9 a7be
000000f0: 2ecb 853e 35ed ae3e 4cb1 2abd 94d4 883e
00000100: d683 d63d 5007 29bf f6bf 163e 78bf 4dbe
00000110: 59a3 2bbf 2a7f b2be d08f 03bf 610b 1fbf
00000120: c424 adbe c33b f73e 6c83 3ebf 0e76 063f
00000130: f7c6 073f 4689 3dbe 90ef 2fbf 7d29 5fbf
00000140: 5b66 6c3f 78bf 14be 1b57 b8bf 50ed 313f
00000150: fa7a d0bd 7395 923f 0470 8c3d e2e9 edbe
00000160: 80a0 d4be f56c 813f ceb7 a8bf de0f 18bf
00000170: 9f41 14be fae3 88bf 4440 e53f d794 6abe
00000180: 3ff6 983e 02ba d9bc d9f6 a9bf fd06 0fbf
00000190: d3fe fc3e 6661 af3e a1e6 11be 3ac4 86be
000001a0: 20ff edbe c4df e8be 7914 2e3c 5f11 9fbd
000001b0: 270e 9abc e8b4 f4bd e730 e63e 0f69 863e
000001c0: d3a0 acbe 62b5 923d 5cd6 d13e 6c6d d9bd
000001d0: 230b 2b3f 4c4a 6e3d 053a 20bf 7bce 02c0
000001e0: b6c2 6abf 02bf e43e e149 5f3f 55f8 6c3f
000001f0: e7cf c7be 21a6 853e 375d bebe 111f 7a3e
00000200: 545e 96bd fba2 6f3f 691f 2b3e bc11 0dbf
00000210: a5e6 8ebd d682 233c 7946 543f 0c40 c5bf
00000220: 2e8b 313f cfc8 d03d 405f 00c0 8912 3abf
00000230: b161 d3be 86e2 673f b74f c93f f5d5 9e3f
00000240: e8d2 fdbf 294f b8bf 824d 803f d472 323e
00000250: a3df 963f ac28 353e b93b b63f af38 1e3e
00000260: 5995 7f3d 5998 8ebe 8352 113f 89e6 5fbb
00000270: 0a8c 8cbf 38f8 90bf c2eb c4be 5aca d0bf
00000280: f0fe 44bf 0ca1 a73d 5fd3 4cbe 6dca 06be
00000290: 2180 9a3e 8a16 82be eadf ccbd 5f8c d9bd
000002a0: ac60 643e a6b8 903e 3ba7 95bd 4114 aabd
000002b0: f6e8 143d 28f7 00be 778a 8e3d d8c3 ee3d
000002c0: b212 13bd 2612 6f3b 50d5 bebe 4c58 99bf
000002d0: 9334 03bf fe50 15be f5b0 77be 1053 c33e
000002e0: c42a 0a3c 248d bcbe 5bd0 bf3e c515 d33d
000002f0: 548e 02bf 368d a53f 136a d6bd 2302 5d3e
00000300: e699 d1be 0a3f 1cbe ec52 63bf 57b6 0d3e
00000310: 502f 053d f5e4 c7bd 9512 afbf 57fc 86bf
00000320: 7692 dbbe 577f 21be 00e3 9ebd cee0 933d
00000330: f46c 73be ed56 80bf 1af1 d13e 1fe7 9bbd
00000340: 4fc9 babb a92a e5bd 4ab8 1b3e f285 1b3f
00000350: dc95 bd3e 1bbf 2f3f ae47 b1bf fcd3 ecbe
00000360: 3977 863d e2dc fabe 0a79 08be ac6a 65bf
00000370: d546 8ebe 4bd4 0a3f 0560 0c3e b0c3 5b3f
00000380: 4b58 35bf 7bb8 e1be 3b19 103e 92ef 42bf
00000390: 93a3 06bf 3ee1 5bbf 41b5 d5be 8305 14be
000003a0: 9d15 0ebf 8c7f 923d e647 23bf 4239 a73e
000003b0: 31fa 873f f9a7 cc3f a6ff bc3e 0cec 203f
000003c0: f51e 39c0 a7e0 6e3f e320 0dc0 d8fc a43f
000003d0: 1da7 cbbf faf8 853e 7acd febf e091 b6bd
000003e0: ca01 ad3d 7d2b 6abf 24fb 17bd 8e9a d13d
000003f0: 74dd bf3e 16ef ea3e 0f83 b73f dfc4 22bf
-0.24874337 -0.63390726 -0.6523857 -1.166718 0.280439 -1.4651628 -1.0591613 -0.42378557
-0.5358274 0.53017664 0.093879655 -0.37546512 0.29834 -0.7957361 1.1597055 0.8085377
1.6376697 -0.64882463 -0.5395462 -1.5467151 0.22812915 -0.3728242 0.17648007 -0.058356028
-0.48009437 -0.60813206 -0.3408523 -0.53415066 0.022695258 -0.2120399 -0.12338926 0.18850486
0.4343143 0.64607793 0.10746698 -0.11611343 0.21369065 0.6358049 0.22072427 0.18646573
-0.12114827 0.19138178 0.43850598 0.35493872 -0.59177196 0.3305678 0.43403128 0.15168326
0.50907093 -0.95552725 0.19215693 1.4890251 -0.11857852 1.1848595 0.7311124 0.18510285
-0.0954653 0.86422336 0.53745484 -0.32758453 0.26131576 0.3416535 -0.04167299 0.26724684
0.104743645 -0.66026783 0.14721665 -0.20092571 -0.67046124 -0.34862643 -0.51391315 -0.6212674
-0.33817112 0.48287782 -0.74419284 0.5252389 0.5303797 -0.18509397 -0.6872492 -0.8717268
0.9234368 -0.14526165 -1.4401582 0.69502735 -0.10179706 1.1451858 0.06857303 -0.464675
-0.41528702 1.0111376 -1.3181093 -0.5939921 -0.14478157 -1.0694573 1.7910237 -0.2290834
0.2987537 -0.026577953 -1.3278457 -0.5587004 0.49413165 0.34253997 -0.14248134 -0.26321584
-0.46483707 -0.4548322 0.010624998 -0.07766985 -0.018805576 -0.11948568 0.44959185 0.26252028
-0.3371645 0.07163502 0.40983856 -0.10616574 0.6681387 0.058176324 -0.6258853 -2.0438526
-0.91703355 0.44676977 0.87222105 0.92566425 -0.39025804 0.2610331 -0.37180492 0.24425913
-0.073422104 0.93608063 0.16711201 -0.55105186 -0.06977586 0.009979924 0.8292003 -1.541017
0.69352996 0.10194551 -2.0058136 -0.7268453 -0.4128547 0.9058002 1.5727452 1.2409045
-1.9829988 -1.4399158 1.0023654 0.17426616 1.1786999 0.17691296 1.4236976 0.1545131
0.06239829 -0.27850607 0.5676653 -0.003416451 -1.0980237 -1.132575 -0.3846112 -1.6311753
-0.76951504 0.08185014 -0.20002507 -0.13163157 0.3017588 -0.2540782 -0.10003646 -0.10622477
0.22302502 0.28265876 -0.07307287 -0.083046444 0.03635498 -0.12594283 0.06960004 0.11658448
-0.0359065 0.0036479323 -0.3727212 -1.1980071 -0.51252097 -0.14581677 -0.24188598 0.3814931
0.008433048 -0.36826432 0.3746365 0.103068866 -0.50998425 1.2933719 -0.10469451 0.21582846
-0.40937728 -0.15258422 -0.88798404 0.13839088 0.032515824 -0.09760467 -1.3677546 -1.0545758
-0.42885178 -0.15771233 -0.077581406 0.072206125 -0.23772031 -1.0026528 0.41004258 -0.07612442
-0.0057002674 -0.111897774 0.1520702 0.6075126 0.37028396 0.6865098 -1.385 -0.4625548
0.06565709 -0.48996645 -0.13327423 -0.89615893 -0.27788416 0.54230183 0.13708504 0.8584547
-0.7083785 -0.4408606 0.14072125 -0.76146805 -0.52593344 -0.8589057 -0.41739848 -0.14455228
-0.5550173 0.07153234 -0.63781583 0.32660872 1.0623227 1.5988761 0.36913794 0.6286018
-2.8925145 0.9331154 -2.2051322 1.2889662 -1.5910374 0.26166517 -1.9906456 -0.08914542
0.08447607 -0.9147261 -0.03710474 0.10234557 0.37473643 0.45885533 1.4336871 -0.6358165

embedder.emb_rnn.weight_hh_l1 f4 [60, 20]
00000000: 180b 10be d449 2e3f 4dae c73e 40b3 433c
00000010: c3f6 17bf 74a1 f3be 8504 50bf 5d74 f93d
00000020: f3a1 763f c2e9 08bf 5d40 67bf e806 9fbe
00000030: 5cd5 a13d 69a5 453f 2b2a 963f b239 d93f
00000040: e022 ae3f 0598 babe 7447 5d3c fd80 543e
00000050: e1b5 94be 5215 0640 384a 773f 60f4 89bf
00000060: d408 34be 81b4 8ebe aa8e f0be ca2f 523e
00000070: 7185 8a3f eb86 26c0 25c2 09c0 c5a8 21bf
00000080: ae97 69bf 6c08 30bf 678d 0540 dae1 4d40
00000090: 182f ba3f 0da8 3dbf 79d4 60c0 729d 92bf
000000a0: 8c2b 2c3e 5da6 de3e 94cc 33be eab9 2ebd
000000b0: c583 bebe ad00 a8be 65b9 dd3d c148 aebb
000000c0: 4540 683f 0fe5 7fbf 18e5 873f 292c 6bbe
000000d0: ae64 f5bd 4e70 643f 6f76 a8be ecef 2ec0
000000e0: 5833 c03f 7c5c cf3e 86e3 f23e bf1e 613f
000000f0: 87a8 f83e 3f3b 763d def0 a5bf a8fb a13f
00000100: 9a53 6dbf 5785 b13d f5b5 d73f d79e d4bf
00000110: 1043 36c0 674c ed3e b0a5 a1bf b690 b0be
00000120: 30f5 c23f c9b9 38bf 6a70 cebe 832c 923f
00000130: c72a c8bf 21d5 1b3f a6b0 d73f 995a fd3f
00000140: f92d babe 7fe6 a7bd f020 ac3e 5ad6 97be
00000150: 5c49 813d cded 07bf 2fab e33d ded1 2f3e
00000160: 5a38 a7bf 55c0 d5be 5834 023f e614 2e3e
00000170: 24cd bfbe a562 793e fdc6 18be 6669 513f
00000180: cd58 4a3f 07d2 60bd a9a5 cb3e 43c8 6dbf
00000190: 0c0b 88bf e08e b93d 5235 14bc 99b4 6d3f
000001a0: 0a53 093e 263b 213f d11b fc3d 8260 733e
000001b0: 26a4 1d3e 0b64 30bf e915 47bf 781e a3be
000001c0: 1b04 a0bf 7c36 0c3f d79a 1e3f 2a41 1240
000001d0: 9531 d23e 0119 f43e 7d14 b3be df86 12bd
000001e0: 6cfe e13d f9f1 adbc 1081 51be d24c c2bd
000001f0: 5f55 2fbd 8ec1 6f3e 93ec e8bd 343a 22bd
00000200: 6e32 efbe cf5b f2be b5de adbc 0802 d93e
00000210: deac f0bd 29a5 89bd 1d71 883e 8ba8 03bf
00000220: b916 8abf 8f8d 0b3f db80 a83e 6e15 a4bf
00000230: e61c 35bf 4704 37be 5d87 aabe 1dcc 90bf
00000240: 6148 09bf 9eeb d5be 8f19 393e e522 653d
00000250: bc26 c6bc cab4 96be 6438 8cbf 5ff3 99be
00000260: b850 09bf 175f 9b3e 2ff0 483e 7306 89bf
00000270: 7564 7b3f 856a 32bf 2813 943f d388 96be
00000280: 4815 57bf 114b 3b3e 6960 933e 93f6 5ebe
00000290: e56f 04bf 8f04 4ebc 34c1 46bf 1c9a cb3e
000002a0: 861c 6cbe e6de 37bf dc60 9b3e cf35 3cbf
000002b0: a3fc 67bf 016d 9a3f 49a3 343f 70b9 833d
000002c0: 47bb e43f aaac 85bf 74d0 803e e7a9 083f
000002d0: eb0f afbd b6d4 c93c 6850 11bc 2939 84be
000002e0: be4a cebc b420 b4be 7886 2e3e a082 03bd
000002f0: 267a 36be 02bb 693f ec19 b13e 59e4 2abe
00000300: e6e6 813e efa0 473e b956 ea3e 6c8a c73e
00000310: 4173 f3be 3f7c 21be 2879 a13e 8985 e73e
00000320: 05e6 353e a328 5fbe 4073 10be 9e1b 0abf
00000330: fc48 183f f35d cb3d 0f68 e13e a9a9 25bd
00000340: dbab 8abf 270a cebf c540 523f 3768 0c3c
00000350: e9ad 1a3e 508e 28bf 1c6a 21bc ef27 b7bf
00000360: 3023 b43f 9b04 cdbe c94b 81bf 08bf 8c3e
00000370: 6db5 3cbf 10e2 873e 9569 cd3e c07b adbe
00000380: ad38 c6be 5fb4 6fbe 823f 91be b279 053f
00000390: f145 20bf 7b0a 883e e861 7e3f 1001 11be
000003a0: 03a0 973b bf20 233f 60d3 3fbf ec78 f43e
000003b0: fcb1 483f 564c a7be 920b b5bd 3eda ecbe
000003c0: 7a92 0d3f 1248 8b3f 3260 903e 10a7 633e
000003d0: 78b2 69bf 84df dfbe e81c 873d 2465 943e
000003e0: ddba 643f a9b6 133f 8966 fb3f 885c b0bd
000003f0: 3bbd b6bd 5805 87bb b161 a73f 5e51 1a40
-0.14066732 0.680814 0.39000168 0.011944592 -0.59360904 -0.47584116 -0.81256896 0.12180398
0.96340865 -0.53481686 -0.90332586 -0.31059957 0.07902023 0.7720552 1.1731619 1.6970732
1.3604393 -0.36444107 0.013505805 0.2075233 -0.29045013 2.0950513 0.96597624 -1.0777702
-0.17581493 -0.2787209 -0.46983844 0.20526043 1.0821973 -2.6019847 -2.1524746 -0.63148147
-0.9124707 -0.6876285 2.0867555 3.21691 1.4545622 -0.7408455 -3.5129683 -1.1454298
0.16813487 0.434863 -0.17558509 -0.04265777 -0.37209907 -0.32813016 0.10826377 -0.0053187315
0.9072307 -0.9995889 1.0616789 -0.22966065 -0.11982094 0.89233863 -0.32902858 -2.7333937
1.5015669 0.40500247 0.47439212 0.8793754 0.48566076 0.060115095 -1.2964132 1.2654924
-0.9270569 0.08668011 1.6852404 -1.6610974 -2.8478432 0.46347353 -1.2628689 -0.34485406
1.5231075 -0.72158486 -0.4032014 1.1419834 -1.5638055 0.60872084 1.6850784 1.9793273
-0.363632 -0.081982605 0.3361888 -0.29655725 0.0631282 -0.5309723 0.11116635 0.17169902
-1.3064072 -0.417483 0.5086112 0.1700016 -0.37461197 0.24354036 -0.14919658 0.8180145
0.7904175 -0.054887798 0.39774826 -0.928837 -1.0628371 0.09060454 -0.009045916 0.92853695
0.13410583 0.6298088 0.12309993 0.23767284 0.15394649 -0.68902653 -0.7776781 -0.31859183
-1.2501253 0.54770637 0.61955017 2.2852273 0.41053453 0.47675326 -0.3497657 -0.035773154
0.11034855 -0.021233546 -0.2045939 -0.094873086 -0.042806026 0.23413679 -0.11373248 -0.039606288
-0.46718162 -0.4733567 -0.021224359 0.42384362 -0.11751722 -0.06720955 0.266488 -0.5142905
-1.0788184 0.54512876 0.3291081 -1.281904 -0.7074722 -0.17872725 -0.333064 -1.131229
-0.53626066 -0.41781324 0.18076156 0.05594148 -0.024188392 -0.29434806 -1.0954709 -0.3006849
-0.5363879 0.30345985 0.19622873 -1.0705093 0.9820016 -0.69693786 1.1568346 -0.29401264
-0.8401685 0.18290354 0.28784493 -0.21773748 -0.5173324 -0.012574329 -0.77638555 0.39766014
-0.23057756 -0.7182449 0.30347335 -0.73519605 -0.9061987 1.2064515 0.70561653 0.06431854
1.7869653 -1.0443318 0.25159037 0.5338425 -0.08547958 0.024637561 -0.008869268 -0.2582486
-0.025182124 -0.351812 0.17043483 -0.032106996 -0.17820033 0.91300976 0.3459009 -0.1668867
0.25371474 0.19494985 0.4576929 0.38972795 -0.4754887 -0.15770052 0.31537747 0.45219067
0.17763527 -0.21792845 -0.14106464 -0.5394839 0.59486365 0.09930029 0.44024703 -0.040445004
-1.0833696 -1.6096848 0.8213008 0.008569769 0.15105404 -0.6584215 -0.009851959 -1.4309062
1.4073238 -0.40042576 -1.0101253 0.27489495 -0.73714334 0.2653966 0.40119615 -0.33883476
-0.38715115 -0.2340865 -0.28368765 0.5213882 -0.6260672 0.26570496 0.99368143 -0.14160562
0.004627229 0.6372184 -0.7493191 0.47748506 0.7839658 -0.32675427 -0.088400975 -0.46260256
0.5530163 1.0881369 0.2819839 0.22231698 -0.91287947 -0.43725216 0.0659731 0.28983414
0.8934763 0.5770059 1.9640666 -0.08611399 -0.089228116 -0.00412051 1.3076688 2.4112163

embedder.emb_rnn.bias_ih_l1 f4 [60]
00000000: cba2 ee3e 4deb 983f 2193 923f b0fa 873f
00000010: 53f3 0e3f 4b4a 5d3f 1ccb 113f 0d1b 783f
00000020: 2ddc 9a3f a851 4b3f fbda 643f 2cc5 233f
00000030: 8f05 843f 6b3f 833f 3830 5a3f 9dc2 8e3f
00000040: 175f 843f 7971 823f 9c66 6b3f a9cc 843f
00000050: 4d1c 2e3f 3d4b e03e 971b 5d3f e881 453f
00000060: a348 1e3f 3060 3d3f d325 363f 7318 723f
00000070: 5107 2a3e 35a7 8d3e 3f06 333e 8cca 373f
00000080: 252b 633f fd27 043f 77e6 603f eea1 083f
00000090: 716c a13e 6887 243f 04c5 1f3f a92e 783d
000000a0: 72ff 813f d10b 1d3f 113d 313f d569 3a3f
000000b0: 4043 513f e546 613f 122e 7e3f b997 4d3f
000000c0: af40 283f 199b 693f 9adf 673f 7bf9 603f
000000d0: 233b af3f c101 523f 971a 6d3f 9fdf 563f
000000e0: 290f 4e3f 307c 3d3f 4786 5b3f 104a 873f
0.46608576 1.1946808 1.145115 1.0623379 0.55840033 0.8644149 0.56950545 0.96916276
1.2098442 0.7942147 0.8939664 0.63972735 1.0314196 1.0253729 0.85229826 1.1153141
1.0341519 1.0190879 0.91953444 1.0374957 0.68011934 0.43807402 0.86370224 0.77151346
0.61829585 0.73974895 0.71151465 0.94568557 0.16604353 0.2766663 0.17482851 0.71793437
0.8873771 0.5162352 0.8785166 0.53372085 0.31528047 0.64269114 0.62409997 0.060591374
1.0156081 0.61346155 0.69233805 0.72817737 0.8174324 0.879988 0.9928905 0.80309635
0.657237 0.91252285 0.90575564 0.87880677 1.3689922 0.82033926 0.926187 0.8393497
0.8049188 0.7401762 0.85751766 1.0569477

embedder.emb_rnn.bias_hh_l1 f4 [60]
00000000: 22ae 08bf 5152 473e 1993 143e 8759 7f3d
00000010: 7d16 e2be d3dd 0abe 8c6b dcbe 78a2 fcbc
00000020: 0fe4 563e 7ab7 52be 7e25 d9bd 6b75 b8be
00000030: 44ba 003d 5928 cf3c c93b 17be 8d19 ec3d
00000040: 78ea 0b3d 777b 9c3c f7da a4bd fc7a 193d
00000050: fdc9 a3be 6fdb 0fbf 9199 0bbe 3cf7 69be
00000060: 326e c3be a843 85be 07b8 93be 6887 5ebd
00000070: c27e 55bf c62d 39bf 223f 53bf a568 90be
00000080: 19b0 e6bd 69af f7be 87d2 f8bd b1bb eebe
00000090: 064a 2fbf 61f1 b6be 9375 c0be 297b 70bf
000000a0: 91d7 09bf 06a0 c4be 2a4d c4be 670f 2dbf
000000b0: 2d7a 7e3e 1a83 213e 82f3 96bd 7639 36bf
000000c0: df7b c0be 3246 75be 7985 01be edfe 8dbe
000000d0: c0ec c13f 4e12 eebd 9592 8dbd bae4 24be
000000e0: 34b4 54be 7681 efbe d7fc 1fbe cc4e 98be
-0.53390706 0.19464995 0.14509238 0.06234124 -0.44157782 -0.13561182 -0.43050802 -0.03083919
0.20985435 -0.20577803 -0.10602854 -0.36027083 0.031427637 0.025287794 -0.147689 0.11528311
0.034159154 0.019101841 -0.08049577 0.037470803 -0.31990042 -0.56194204 -0.136328 -0.22848219
-0.3817001 -0.2602818 -0.2885134 -0.054328352 -0.8339654 -0.7233547 -0.8251821 -0.28204837
-0.11264057 -0.48376015 -0.1214953 -0.46627572 -0.68472326 -0.35731032 -0.37589702 -0.9393793
-0.53844553 -0.38403338 -0.38340122 -0.6760163 0.24851294 0.15772668 -0.07370664 -0.7118143
-0.37594506 -0.23952559 -0.12648572 -0.27733555 1.5150375 -0.11624585 -0.06912724 -0.16102877
-0.20771867 -0.46778458 -0.15623794 -0.29747617

embedder.emb_rnn.weight_ih_l2 f4 [60, 20]
00000000: e8a1 ecbe db72 c83f 6076 2a3f 8d0a 3c3e
00000010: 9c1e 83be 0c9e 4dbf 2427 40bf efe0 663f
00000020: 184b 37bf 353a 3dbf 9660 0b3f 2c44 a6be
00000030: 90e1 8ebf b717 663f 82d8 5d3c e0aa b040
00000040: b2f5 ac40 36c5 8e3e 96e0 0ec0 a0ef 21c0
00000050: d913 c2bf b627 f73e 9421 32bf 56e3 353f
00000060: 4327 17bd 5b53 b63e 5483 b8bf 7159 983e
00000070: f243 4240 f92c bf3e 7769 bcbf 2408 a93e
00000080: e475 aa3f 25fd 6a3f 0604 833f f8f2 72bd
00000090: 0aa5 2dbe 7a70 eb3c e7fb 03bf 32b5 3ac0
000000a0: 8c3a 15bd bcc8 123c f206 82be 2f16 9e3e
000000b0: 25b6 debe 8e06 033e 9ad2 10bf 7b77 8bbd
000000c0: 6714 78bd 4de7 843f 42b0 2d3f 7144 ae3d
000000d0: 7b95 b23e b57f 25be bf5a d13e 043d 80bd
000000e0: b2c6 82bf 21bb e23e 582c a1be 7646 163e
000000f0: b547 123d 1341 07bd 4bc1 0f3e ab57 3a3e
00000100: 3db8 49bd e417 d2be 35ea f8be f60c 6ebd
00000110: 8b7e fbbf ee58 86bf c679 103f d9dd 73bd
00000120: 87ca 9e3e 9378 90be a1ca 863e 3c6a 8e3f
00000130: 252c cbbe 6aca 933e 192c 1f3d 3d85 d4bd
00000140: 35c8 363e 0f0f bebe fc72 0c3f 928d 4cba
00000150: 0888 573e 0551 903d c0c5 8cbf d1c6 7d3f
00000160: 3fdd 0640 575c 813e 475d 583e 8672 7bbc
00000170: f0a7 10bf 3ce6 5d3f 485c b93f 2d14 a33f
00000180: efdc 2dbf fb87 fdbe 72b4 8fbf 445d b5bf
00000190: 5cc6 05bd c0a9 0b40 5af6 f33f f0c8 8cbf
000001a0: ec5f d0be 2b88 65bf 2f7d 0ebe 1758 9a3f
000001b0: 82a4 a0bf ec6d 10c0 459e a53d b5e8 49bf
000001c0: 0600 a4bf b864 6f3f d0fd fabe 78c0 22bf
000001d0: 13cf 033f 29d9 a6bf a103 7940 ff6f 5e3e
000001e0: 5034 cfbf 418e e63f 63c8 23be dede cb3f
000001f0: 9c80 52bf c2c5 8dbe 142c a43d 966f 21c0
00000200: 7325 63be 4641 9b3f af01 9fbf 0db1 36bf
00000210: 5d8f 6740 1bba adbf 6a49 9abf 59a6 e940
00000220: f31f 0d40 d6d3 6240 17a0 f7bf 2d72 9fbe
00000230: affb e73f 7816 393e ed84 f43d 252f 04bf
00000240: a08a 16bf fbed ca3e 20d8 2abf 79dc 7cbe
00000250: 3812 903c 10ba 6abe 1dc0 d53f d963 96bf
00000260: aafe 53be eb5a 8e3e 6949 7bbe 1e72 31be
00000270: 306d 983f c981 3f40 fbb7 f53e b23b 8a40
00000280: fbff 20bd b02e a0be 1a31 16be 360b 84bd
00000290: 130e 58bd 56bb b2bd e9d9 853e 1264 ba3e
000002a0: 6862 ab3f 38c9 91bf 5516 603f d58d 493f
000002b0: 4aac 03bf da70 50be 6c0e b13d c021 363f
000002c0: 7b13 90bf eefb ec3d 1c74 c1be c655 a43c
000002d0: a283 ac3f a835 b63d 5c34 573e 1e5d 333f
000002e0: fed5 f0be ce9e 00be e4e2 473e e556 85be
000002f0: fc7a 9abf 8a82 df3f 5c82 09c0 e50f 8e3d
00000300: 502e 283f e63d aa3e 9125 aa3f 1c1b aabf
00000310: fa1d 1f40 0c03 333d e400 0940 37c2 a13f
00000320: 30d0 7f3e 1d40 7f3e c3c0 863e 5658 b2bd
00000330: 0838 353e 7a04 a6be 757d 2fbe 11e4 6c3e
00000340: 3e96 8f3f c8e1 953f 3eeb 953f 8a94 903c
00000350: 583c 9d3e c62b 9a3e a0ab 673f d7a0 c63e
00000360: d510 373e 1f5b 463f 1906 ed3d 4b61 c43e
00000370: f4bd 213d 7ef0 573d 6a87 ba3e 9bac ddbe
00000380: 11b7 cebd 2072 b63d 9657 303f 8fbf 0fbf
00000390: e224 953f 3610 243e 255b fabf 9d92 25be
000003a0: d6fe 133f 97e6 23be e50e 043f 56fc a93f
000003b0: e142 5240 e6bf b8be 8394 3740 fbe8 743e
000003c0: 3778 b2ba ae70 703f 9b16 b7be 4425 02be
000003d0: e6e7 a6be a540 04bf 1c2b 73be ff57 36bf
000003e0: aef0 bebf 7f86 a03d aa83 e9be a812 863e
000003f0: 78ad 5cbd 4a17 6d3e 9c00 cc3e 2ba7 083f
-0.46217275 1.5660051 0.66586876 0.183634 -0.2560929 -0.80319285 -0.75059724 0.9018697
-0.7159896 -0.7391694 0.54444253 -0.32473886 -1.1162586 0.89879936 0.013540389 5.520859
5.404992 0.27884835 -2.2324576 -2.5302505 -1.5162307 0.48272485 -0.69582486 0.7105001
-0.036902677 0.3561047 -1.4415078 0.29755738 3.035397 0.37339 -1.4719685 0.33014023
1.3317227 0.9179252 1.0235603 -0.059313744 -0.16957489 0.028740156 -0.5155625 -2.9173093
-0.036432788 0.008958992 -0.25395924 0.308763 -0.4349834 0.12795469 -0.5657135 -0.068098985
-0.060566332 1.0383087 0.67847073 0.08509148 0.3487967 -0.16161998 0.40889546 -0.06261638
-1.0216887 0.44283393 -0.31479144 0.14675316 0.035712916 -0.033021044 0.14038579 0.18197505
-0.04924797 -0.41033852 -0.48616186 -0.05811783 -1.9647993 -1.0495889 0.5643581 -0.059537742
0.3101389 -0.2821699 0.2632647 1.112617 -0.39682117 0.28865367 0.038860414 -0.10376976
0.1784981 -0.37120864 0.5486295 -0.0007803078 0.21047986 0.07046703 -1.0997849 0.99131495
2.1072538 0.25265762 0.21129332 -0.015347129 -0.5650625 0.86679435 1.4481287 1.2740532
-0.6791524 -0.49517807 -1.1226943 -1.4169087 -0.032659873 2.1822357 1.9059556 -1.0998821
-0.40698183 -0.896609 -0.13914941 1.2058133 -1.2550204 -2.256709 0.08086828 -0.7887071
-1.2812507 0.9351306 -0.4902177 -0.63574934 0.51487845 -1.3035022 3.8908465 0.2172241
-1.618784 1.8012162 -0.1599441 1.5927389 -0.8222749 -0.2768994 0.0801622 -2.5224357
-0.22182254 1.2129295 -1.2422389 -0.7136391 3.6181252 -1.357242 -1.2053654 7.301556
2.205075 3.5441794 -1.934573 -0.31141797 1.8123683 0.18074977 0.11939416 -0.51634437
-0.58805275 0.3963469 -0.6673603 -0.24693479 0.017586812 -0.2292254 1.6699253 -1.1749221
-0.20702615 0.2780374 -0.24539723 -0.17328689 1.1908321 2.9922965 0.47991928 4.319787
-0.039306622 -0.3128562 -0.14667168 -0.06447451 -0.052747797 -0.08727138 0.26142815 0.36404473
1.3389406 -1.1389532 0.87534076 0.78732044 -0.5143477 -0.2035555 0.08645329 0.7114525
-1.1255945 0.11571489 -0.37783897 0.020060431 1.3477671 0.08896953 0.21016067 0.7006396
-0.47038263 -0.12560579 0.19520146 -0.26042858 -1.2068782 1.7461712 -2.1485815 0.069366254
0.6569567 0.3325035 1.3292714 -1.3289523 2.4862046 0.043704078 2.1406794 1.2637395
0.24981761 0.24926801 0.2631894 -0.08708255 0.17697155 -0.3242529 -0.17137702 0.23133875
1.1217725 1.1709528 1.1712415 0.017648954 0.307101 0.3011152 0.90496254 0.38794586
0.17877515 0.7748279 0.11573429 0.3835548 0.039487794 0.052719586 0.36431438 -0.4329575
-0.10093511 0.08908486 0.68883646 -0.5615167 1.1651881 0.16021809 -1.9559065 -0.1616921
0.57810724 -0.16005932 0.5158523 1.3280132 3.285332 -0.36083907 2.8684394 0.23917
-0.0013616149 0.93921936 -0.35759434 -0.12709528 -0.325988 -0.5166114 -0.23746914 -0.7122802
-1.49172 0.07838153 -0.45608264 0.2618611 -0.05387637 0.23153415 0.39844215 0.5338008

embedder.emb_rnn.weight_hh_l2 f4 [60, 20]
00000000: 7338 793f 4a87 2e3e 6f91 063f 258e d13f
00000010: 4643 90bf 4610 18bf af82 c0be fcd8 c5bc
00000020: 1c03 b63f 086f 40bf 5107 aebe 66ff 2b3f
00000030: 04f9 643f 2f55 c0be c73f b0be e39e 02bf
00000040: 4527 70be e11f 0bbf 8f54 b93e 1c1e f9be
00000050: 7abc 183d a95e 4e3e ff99 323e 6cad 463f
00000060: 180c 0bbe 5ae2 9ebe 9267 c33c af8d 93be
00000070: 613c 553e 016c 91bf b453 89bb 8429 053e
00000080: 27dc 71be 0976 6dbd 4158 a2be 6de8 193f
00000090: 9ae7 32be 97e8 9abe cb8d 1abd fa30 0dbe
000000a0: 43c9 263f 22fc 2bc0 e2fc 933f 034a 123f
000000b0: abb0 9c3f 55bb 393f ee1a 163f 6574 cb3f
000000c0: 35d7 41bf 61d7 78bf 70d4 983e dbec 93bf
000000d0: 824e ffbf 2bab b2bf 367c 1e3f 52f1 a3be
000000e0: 2b41 0940 bd7d 75be 2dbf 6a3f 74f2 003f
000000f0: 6b50 ebbd cabc 1dbe 2bfa 39bf 6d66 043e
00000100: f3f5 38bf 44d5 31bf cd91 0dbd 650d 10be
00000110: 8ed2 193f 0e4b c03e daba cabe 7219 e4be
00000120: 4d8f 1fbe ebe9 d63d 03cc 47ba 6b29 2abf
00000130: 9f65 77be a1e8 f2bc c3d9 393e 984b e9be
00000140: bd30 73bf 434f a03e f4ad f8be d2dc 51bf
00000150: c007 7f3d 94f2 8ebd 49d1 a9be d144 4fbe
00000160: ba3a 0d3f 0912 61be cb74 0cbe e702 223f
00000170: d272 27bf 2679 b53e d20e b8be 4168 7f3e
00000180: c0a8 4fbf 2e62 4fbf 1281 adbe db68 16bd
00000190: 2f17 733d 3ab0 0b40 cb14 a4be 3009 1c40
000001a0: 4a21 f4bf 89d4 c4bf 9396 5ebf 5888 7abf
000001b0: a75d 803e 1da2 273f 2cb6 bbbf b906 13c0
000001c0: d579 50c0 5ece 7f3f 7217 6bbf e230 b1bf
000001d0: 7dfe 403f 95eb dfbe 9d3b 95bf f940 bdbf
000001e0: 3e83 693f 7fb1 aebb 6a59 a13f a546 42c1
000001f0: 3149 75c0 57dd 2940 1b9e 233f 8c81 5c3f
00000200: f619 1240 13bf cebf ac16 4740 512e 94c0
00000210: 10d6 0640 e3b2 80c0 097c d93f 4ede 7f3e
00000220: 42e9 d8bf de9e da3f 9e8b 83be 8289 afbe
00000230: 7336 943e d0d4 43bf 3c47 8bbd 5f7f 903f
00000240: 8252 bdbf 345e 33be e126 893e 2777 013f
00000250: 9cbc 723e d85b f43f 37f1 843d b328 863e
00000260: e9c9 9bc0 389e 5c3f c885 fa3e d281 30c0
00000270: d8e2 bebd e390 793f bf2d 34bc cfb1 673f
00000280: 8cae 28bc ba0d d23e 57b6 aebe f495 8abf
00000290: ba63 993e 036c 2c3d 467a fc3e d9a0 6a3e
000002a0: 8e8d ea3e 1a32 29bc f3c0 bd3e 641d 5dbf
000002b0: ca0a f13d 0493 85be faba 9d3e b5b6 b3be
000002c0: e55c ff3d dd37 563e 4340 19bf 8624 a13e
000002d0: 66f0 51be a9d4 0440 d156 a3be 7ec8 0840
000002e0: 4154 163f 319f 90bf a3ac 1ebf c3cf 73be
000002f0: 7c30 713f aafb 2c40 343b b0be fa63 6abf
00000300: 386f 35be 6de4 053e 1ad0 27bf 5263 993c
00000310: 3381 a43f fad0 52bf cb1f acbe d29c 62bf
00000320: 5519 89be 0dd6 4b3f 4b5a 34bc a921 57be
00000330: ca85 ea3e 8b17 7f3b b249 53be 6a6e 63be
00000340: 13e1 72be a786 30bf 3742 c5be db62 dc3d
00000350: fb63 3dc0 5e59 683f e1d1 9bbe 09bb 083f
00000360: 7b5a 2fbf 0809 eebd 6a23 0abf e095 dfbe
00000370: ae19 edbe d409 8bbf 317a 3b3d ead1 6dbf
00000380: ea86 5f3e 1c7e acbe 54a8 2abf 2ec4 3ebf
00000390: 6cfb 63bf 4580 10c0 9e98 69bf b933 0c3e
000003a0: 52cd 3a3f d306 0a3f fece 77bf 6e42 093f
000003b0: 177e a73f 1560 973e 823a acbf 6ec1 12bf
000003c0: 4bc0 fabe d5ed 253f 2cee acbe af84 48bc
000003d0: f84b e63e d454 26bf a9a5 0fbf bcb3 35bf
000003e0: f307 35be 0c1b 8abe 30f7 fdbe a84e 9ebe
000003f0: 19a8 0cbf 97d8 823f 440e 13bf bb91 16be
0.9735176 0.17043796 0.52565664 1.6371504 -1.127053 -0.5939983 -0.37599704 -0.024151318
1.4219699 -0.7516942 -0.33989957 0.6718658 0.8944247 -0.3756499 -0.34423658 -0.5102369
-0.2345248 -0.5434552 0.36197326 -0.48655784 0.03728912 0.20153297 0.17441557 0.7760837
-0.13578832 -0.31032068 0.023853097 -0.28819034 0.20823814 -1.1361085 -0.0041908864 0.13004118
-0.23619138 -0.057973895 -0.31707957 0.6012028 -0.17471161 -0.30255577 -0.03773288 -0.13788214
0.6515085 -2.687264 1.1561549 0.5714418 1.2241415 0.7255147 0.5863484 1.5894896
-0.75719005 -0.9720364 0.29849577 -1.1556658 -1.9945834 -1.3958486 0.6190828 -0.3202005
2.1446025 -0.23973747 0.9169796 0.50369954 -0.11489948 -0.15404049 -0.7264735 0.12929697
-0.7225029 -0.6946604 -0.034562875 -0.1406761 0.60086906 0.37557262 -0.3959568 -0.44550663
-0.15582009 0.10493835 -0.00076216477 -0.6646945 -0.24159859 -0.029651942 0.18149476 -0.45565486
-0.94996244 0.31310472 -0.48570216 -0.8197757 0.06226325 -0.06979862 -0.33167484 -0.20241095
0.55167735 -0.21979536 -0.13716428 0.6328568 -0.65409577 0.3544399 -0.35948807 0.24942113
-0.8111687 -0.81009185 -0.33887535 -0.03672109 0.05934828 2.182631 -0.32047114 2.4380608
-1.9072659 -1.537736 -0.8694851 -0.97864294 0.2507145 0.6548174 -1.466497 -2.2972853
-3.257436 0.99924266 -0.9183265 -1.3843043 0.7538832 -0.43734422 -1.1658818 -1.4785453
0.91215885 -0.005331218 1.2605412 -12.142247 -3.8325922 2.6541345 0.63913125 0.8613517
2.2828345 -1.6152061 3.1107588 -4.630654 2.1068153 -4.0218368 1.6990978 0.24987146
-1.6946185 1.7079732 -0.25692457 -0.34284598 0.2894779 -0.764966 -0.06800696 1.128887
-1.4790804 -0.17516404 0.26787475 0.5057244 0.23704761 1.9090528 0.064913206 0.26202926
-4.868397 0.8617892 0.48930192 -2.7579236 -0.09320611 0.97486705 -0.010997235 0.9050569
-0.0102955215 0.41026098 -0.3412349 -1.0827012 0.29958898 0.042095196 0.49312037 0.22912921
0.45811123 -0.010326887 0.3706127 -0.8637297 0.11769636 -0.26088727 0.30806714 -0.35100332
0.1246889 0.20919748 -0.5986368 0.31473178 -0.20501861 2.0754797 -0.31902173 2.137237
0.5872231 -1.1298581 -0.6198217 -0.23809724 0.94214606 2.7028604 -0.34420168 -0.915588
-0.17718208 0.13075419 -0.6555191 0.018724117 1.2851928 -0.8235012 -0.33618006 -0.8852054
-0.2677714 0.7962349 -0.011007856 -0.21008934 0.45805198 0.0038923945 -0.20633581 -0.22210088
-0.23718672 -0.68955463 -0.3852708 0.10761043 -2.9592273 0.90761364 -0.30433562 0.53410393
-0.6849744 -0.11622816 -0.5396029 -0.43669033 -0.46308655 -1.0862374 0.045770828 -0.9289843
0.2182881 -0.33689964 -0.666631 -0.74518096 -0.89055514 -2.257829 -0.912485 0.13691606
0.72969544 0.5391666 -0.9680022 0.5361699 1.3085355 0.29565492 -1.3455355 -0.573264
-0.48974833 0.6481603 -0.3377546 -0.0122386655 0.44979835 -0.6497319 -0.5611215 -0.7097738
-0.17678814 -0.2697376 -0.49602652 -0.30919385 -0.54943997 1.0222348 -0.5744364 -0.1470403

embedder.emb_rnn.bias_ih_l2 f4 [60]
00000000: 7a7e 393f a2b8 0c3f 31bd 853f 2bf8 773f
00000010: c938 193f 060e 133f 3077 a93f e105 fa3e
00000020: 33bf 8c3f f770 9e3f 8c4f 823f 0833 823f
00000030: 85b7 793f 086d 953f 063a e23f d437 b83f
00000040: c49f 7b3f 6956 743f ee72 cb3e d932 753f
00000050: 5738 333f eb4d 0d3f a0f2 143f 87de 003f
00000060: 4bf3 8f3e 45b1 033f 0c1d 5f3f 16d7 2a3f
00000070: 675f 363e 74a2 053f ca0a 0d3f 01b3 943e
00000080: 9015 983f 8892 153f 337b 123f 730a dc3e
00000090: a1c8 aa3e 12e5 c93e 47c5 2a3f 5c65 0f3f
000000a0: 953b 713f 9682 2d3f 14da 4c3f a0f5 513f
000000b0: 1aa0 683f a11f 703f d965 9c3f 0869 c73f
000000c0: d092 403f 7e8a 2e3f 7b87 4e3f 1235 443f
000000d0: 4dda 453f 359c 3d3f 4741 9a3f 1292 1a3f
000000e0: 14da 4e3f 7987 463f 763f 3d3f c3e6 653f
0.7245861 0.5496923 1.0448362 0.9686305 0.5985227 0.57443273 1.3239498 0.4883261
1.0995849 1.2378224 1.0180526 1.0171824 0.97545654 1.1673899 1.7673957 1.4392037
0.9829066 0.9544435 0.39736122 0.9578071 0.7000784 0.5519702 0.58182716 0.5033955
0.28115305 0.51442367 0.87153697 0.66734445 0.1780983 0.5220101 0.5509459 0.2904282
1.188158 0.58426714 0.5721924 0.42976722 0.33356193 0.3943258 0.6670727 0.5601404
0.9423154 0.67777383 0.8002026 0.8201542 0.90869296 0.9379826 1.2218581 1.5578928
0.7522402 0.6818007 0.80675477 0.7664348 0.77286226 0.7406648 1.2051171 0.60379136
0.8080151 0.77550465 0.7392496 0.8980524

embedder.emb_rnn.bias_hh_l2 f4 [60]
00000000: 9d00 8dbe 4c90 e6be b299 373d 8270 00bd
00000010: b28e cdbe 9be5 d9be 33dc a53e b9fc 02bf
00000020: c0e3 cb3d 2185 733e bd02 943c 44ab 8c3c
00000030: 420a c9bc 256b 2b3e 3574 443f c1dc e03e
00000040: 1d0b 8cbc 9bae 3abd f846 1abf 9fe4 2cbd
00000050: 388c 99be 4e66 e5be 371c d6be 8d41 febe
00000060: 5207 38bf 35a3 f8be fa88 03be f24f aabe
00000070: e166 52bf 5cba f4be 12ed e5be 34a6 35bf
00000080: 59b1 403e 98dc d4be c906 dbbe ddfa 11bf
00000090: d39c 2abf 5c0d 1bbf df73 aabe 353b e1be
000000a0: 6abe cebe 84a9 babe 0e7c 4bbe dd20 2fbe
000000b0: d17f 0fbe 31d2 debe e68e 653f fb5c 873e
000000c0: 8837 a2be a376 b9be 779b 53be 1ef8 8fbe
000000d0: a176 55be 604e b2be 4c19 1c3f 5d74 d3be
000000e0: 031c aebe 1a44 b6be 0e57 40bf e8ae d8bd
-0.2753953 -0.45031965 0.04482431 -0.031357296 -0.4014793 -0.42557988 0.3239456 -0.51166874
0.09955549 0.23781253 0.018067712 0.01717151 -0.024541024 0.16740091 0.7673982 0.43918422
-0.017095143 -0.045576673 -0.6026454 -0.042210218 -0.2998979 -0.44804615 -0.418184 -0.49659386
-0.7188617 -0.48562017 -0.12845221 -0.33264118 -0.8218823 -0.4779843 -0.44907433 -0.7095673
0.18817653 -0.4157455 -0.42778614 -0.5702341 -0.66645545 -0.6056726 -0.33291528 -0.43990484
-0.4037965 -0.36457455 -0.19871542 -0.1710238 -0.14013602 -0.43519738 0.8967117 0.26438126
-0.31682992 -0.36223325 -0.20664774 -0.28118986 -0.20846035 -0.3482542 0.609761 -0.41299716
-0.34005746 -0.35598832 -0.75132835 -0.10580236
