output/Tennessee_Eastman_20/model.pt (torch, 178616 bytes, 65 tensors)

embedder.emb_rnn.weight_ih_l0 f4 [60, 55]
0	0x3d2602ca	0.040530004
1	0xbe62e85b	-0.22158949
2	0x3e1d7836	0.15377888
3	0xc03e7735	-2.9760258
4	0x3eac4350	0.33645105
5	0x3ec06a21	0.3758097
6	0xbdd9240a	-0.10602577
7	0x3d72f448	0.059314996
8	0xbea07538	-0.3133943
9	0x3ecf9454	0.40542853
10	0x3d65238c	0.055942103
11	0xbeed9bf0	-0.46408033
12	0xbed9e0e9	-0.42554405
13	0xbeba803e	-0.36425966
14	0xbedffe78	-0.43748832
15	0x3e9c82ca	0.30568534
16	0x3e400b59	0.18754329
17	0xbef619c3	-0.4806653
18	0x3e0a09e3	0.13480334
19	0xbd0d3afb	-0.034480076
20	0xbdc46b02	-0.095907226
21	0x3df378e0	0.118882895
22	0xbe947661	-0.28996566
23	0xbe520b91	-0.20512225
24	0xbe5dfd41	-0.2167864
25	0xbf0687fd	-0.5255125
26	0xbc547489	-0.012967237
27	0x3e21ae1a	0.1578907
28	0x3cbf8f71	0.023383828
29	0xbdbb5149	-0.09146363
30	0xbd98c06a	-0.07458575
31	0xbf118411	-0.5684214
32	0x3d11741a	0.035511114
33	0x3d8bbfb7	0.06823676
34	0xbebb404c	-0.36572492
35	0xbe0eacda	-0.13933125
36	0x3d839867	0.06425553
37	0xbe9dfd1f	-0.3085718
38	0xbe04e0ef	-0.1297643
39	0xbc86f491	-0.01647404
40	0xbe1177e8	-0.14205897
41	0xbe0fc488	-0.14039814
42	0x3ea74442	0.32669264
43	0xbf489eca	-0.7836729
44	0xbf42ee45	-0.7614482
45	0xbf2ee324	-0.6831534
46	0xbe9f7f6e	-0.3115191
47	0xbf005767	-0.50133365
48	0x3f75e0fd	0.9604643
49	0x3e2fc29c	0.17164081
50	0xbeb38d76	-0.35068864
51	0xbe89cb3f	-0.26912877
52	0x3eb19afe	0.34688562
53	0x3f00f3bb	0.50371903
54	0xbf54ebb4	-0.83172154
55	0x3c91ceb2	0.017798755
56	0x3e09d30c	0.13459414
57	0x3f453e0e	0.7704781
58	0x3ff3117f	1.8989714
59	0xbe273b21	-0.1633115
60	0xbe0ddf5a	-0.13854733
61	0xbd0ccc86	-0.034374736
62	0xbe51589b	-0.20443957
63	0x3e6f5ecc	0.23376006
64	0x3db02904	0.08601573
65	0x3d355b6b	0.044276636
66	0xbc815ca7	-0.01579125
67	0xbe6f384a	-0.23361316
68	0xbe6e2046	-0.23254499
69	0xbec3364a	-0.38127357
70	0xbe3624ec	-0.17787522
71	0x3bc1a90a	0.0059100436
72	0x3d61f449	0.05516461
73	0x3e647918	0.22311819
74	0xbd20ce2f	-0.039259132
75	0x3e906a44	0.28206074
76	0x3f2c78ce	0.67371833
77	0xbe1379e0	-0.1440196
78	0x3df319fd	0.11870191
79	0xbd0ea9d7	-0.03482994
80	0xbe1f5dde	-0.15563151
81	0xbf075f17	-0.5287947
82	0x3f403c97	0.7509245
83	0xbe5fd54e	-0.21858713
84	0xbe81e75c	-0.25371826
85	0xbe2a9a73	-0.1666048
86	0xbdbfc001	-0.09362794
87	0xbebc8da8	-0.36826825
88	0x3f435c91	0.7631312
89	0xbd942ec8	-0.07235485
90	0x3e189a44	0.14902598
91	0xbdf66d2b	-0.12032541
92	0xbdfcc780	-0.12342739
93	0xbe9aa8f5	-0.3020703
94	0xbe42a1f4	-0.19007093
95	0x3dc4d16e	0.09610258
96	0xbe0fbf88	-0.14037907
97	0x3d5c94a4	0.053852692
98	0xbe1d2eb2	-0.15349844
99	0xbf789648	-0.9710431
100	0xbf8483f6	-1.0352771
101	0x3fe3008f	1.7734545
102	0xbe85a6df	-0.26103875
103	0xbe7b0860	-0.24514914
104	0x3ed1d960	0.40986156
105	0xbe8fffd5	-0.28124872
106	0x3eca8313	0.39553127
107	0x401157ad	2.2709763
108	0xbf59f1d2	-0.85134614
109	0xbe1a3a45	-0.1506129
110	0xbfa607ca	-1.2971127
111	0xbe20f8d2	-0.15719917
112	0xbf3e219f	-0.7427005
113	0xbc4d6ad6	-0.012537679
114	0xbe4b4cd8	-0.19853532
115	0xbec02296	-0.37526387
116	0xbdf5d7fa	-0.12004085
117	0xbe0a5b36	-0.13511357
118	0xbeb4aa75	-0.35286298
119	0xbecea71c	-0.4036187
120	0xbe5d73b3	-0.21626167
121	0xbe94622a	-0.28981143
122	0x3eff7e61	0.49901107
123	0x3eacf97c	0.3378409
124	0x3e4d9402	0.20075992
125	0xbf0252fa	-0.5090786
126	0x3dfd1312	0.12357153
127	0x3e24f56d	0.16109248
128	0xbe99c652	-0.3003412
129	0xbd7e3919	-0.06206617
130	0xbe87edee	-0.26548713
131	0xbe61b3a6	-0.22041187
132	0xbeccc1bb	-0.39991555
133	0x3bc4a859	0.006001514
134	0x3d2d0ca9	0.0422484
135	0xbe90bbf9	-0.28268412
136	0x3e840136	0.25782174
137	0xbea83f46	-0.32860774
138	0x3e44e6e5	0.19228704
139	0x3dc5a86e	0.09651266
140	0xbe80791f	-0.25092408
141	0xbea9e458	-0.33182025
142	0x3e362f5d	0.17791505
143	0xbe3d4699	-0.18483962
144	0x39be60f9	0.00036311874
145	0x3e8f113d	0.2794284
146	0xbec6dc46	-0.3883993
147	0xbe1e4c36	-0.1545876
148	0x3dd53779	0.10410971
149	0x3ef8a08d	0.4855999
150	0xbd8a9c53	-0.06768098
151	0x3e0cc759	0.1374792
152	0x3d978f23	0.07400348
153	0xbe5a3a56	-0.21311316
154	0xbe486666	-0.19570312
155	0x3d863b1f	0.06554245
156	0x3f418870	0.7559881
157	0xbdc9b0a9	-0.098481484
158	0xbeebcfb4	-0.46056902
159	0x3f423cc0	0.7587395
160	0x3e8439be	0.25825304
161	0xbb91a899	-0.0044451472
162	0xbb2251d6	-0.0024768016
163	0xbd9a3941	-0.075304516
164	0xbea9b33a	-0.33144552
165	0x3db3ac71	0.08773125
166	0xbd5d269f	-0.05399191
167	0xbcff7b58	-0.031186745
168	0x3d80bf78	0.0628652
169	0x3e45756a	0.19283071
170	0x3e027d7a	0.12743178
171	0x3e7b1e22	0.24523214
172	0x3d12f80b	0.035881083
173	0xbe51e301	-0.20496751
174	0x3eb67989	0.356396
175	0x3e64dd10	0.22349954
176	0xbe5d71b1	-0.21625401
177	0xbedd32a4	-0.43202698
178	0xbdb1e325	-0.086859025
179	0xbe2a0f6b	-0.16607444
180	0x3c25c1f7	0.010117046
181	0xbe73d294	-0.23810798
182	0x3ea504f1	0.32230332
183	0x3e8b3c5c	0.27194488
184	0xbec4d9ec	-0.3844751
185	0x3e9a2f5f	0.30114266
186	0x3ef321e5	0.47486797
187	0x3e1ae564	0.15126568
188	0x3dd39a0a	0.10332115
189	0xbd6565d5	-0.056005318
190	0x3e9dab2b	0.30794653
191	0xbf1cf8f7	-0.6131739
192	0x3d1b3347	0.0378907
193	0xbe8d1bd6	-0.275603
194	0xbe421eb6	-0.18957028
195	0xbca90e87	-0.02063681
196	0x3e9bf1f7	0.30458042
197	0xbe372047	-0.17883407
198	0xbcf65da7	-0.030073954
199	0xbf361786	-0.71129644
200	0x3ca4829f	0.020081816
201	0x3e57f484	0.21089369
202	0xbdf46f07	-0.11935239
203	0xbe9f1cc4	-0.31076634
204	0xbe0c3619	-0.13692512
205	0xbee131f3	-0.4398342
206	0xbeb8d04c	-0.36096418
207	0xbe613cd9	-0.21995868
208	0x3e053d72	0.13011721
209	0x3dd8e5ac	0.105906814
210	0x3e8dfdb1	0.27732614
211	0xbf6ee85a	-0.9332329
212	0x3ddbfabd	0.10741184
213	0x3e3f983a	0.18710414
214	0xbea83e07	-0.32859823
215	0xbe29cae0	-0.16581297
216	0x3ec65620	0.38737583
217	0x3eb22012	0.34790093
218	0xbf22e637	-0.6363253
219	0x3f2b9125	0.6701835
220	0x3f334a54	0.7003529
221	0x3f175237	0.59109825
222	0xbc8eeb1f	-0.017446099
223	0x3ec98c63	0.3936492
224	0xbdd2d60d	-0.10294733
225	0xbce60fac	-0.028083645
226	0xbe0d88f1	-0.1382177
227	0xbc9fe6f9	-0.019519316
228	0xbe39d5e9	-0.18148006
229	0xbe9b18bc	-0.30292308
230	0xbdc82c05	-0.09774021
231	0x3c03941f	0.00803092
232	0x3da29729	0.07938988
233	0xbd4e384f	-0.05034667
234	0xbdbf3177	-0.093356065
235	0xbe58547a	-0.21125975
236	0x3e850eaa	0.2598775
237	0xbe3c79c9	-0.18405832
238	0xbf1b263b	-0.6060521
239	0xbe52de4b	-0.2059261
240	0xbe369fdb	-0.17834418
241	0xbded2c81	-0.11580754
242	0x3e84b96c	0.25922716
243	0x3db9cf64	0.0907276
244	0x3eba669d	0.36406413
245	0x3eb68c12	0.3565374
246	0x3eaa1d15	0.33225313
247	0xbeb4b9e4	-0.35298073
248	0x3e3be647	0.18349563
249	0x3ba48953	0.005021253
250	0xbdca4bef	-0.098777644
251	0xbe223242	-0.15839484
252	0x3e2f12a3	0.17096953
253	0xbeb43c42	-0.35202223
254	0x3def8ae0	0.1169641
255	0x3e39daf5	0.18149932

embedder.emb_rnn.weight_hh_l0 f4 [60, 20]
0	0xbebbaaeb	-0.36653838
1	0x3e59f33d	0.21284194
2	0xbcf427ae	-0.029804077
3	0x3d9ca63c	0.07648894
4	0xbe8d88b3	-0.27643356
5	0xbde948e3	-0.11390855
6	0xbf252bff	-0.6452026
7	0x3e50adc2	0.20378783
8	0x3cd0f009	0.025505083
9	0x3f29fcb1	0.664012
10	0xbc8748b4	-0.01651416
11	0x3e234473	0.1594408
12	0x3d8de18e	0.06927787
13	0x3d33c67e	0.04389047
14	0xbd8ecf5a	-0.06973143
15	0xbf10248b	-0.5630576
16	0x3e4d44cd	0.20045777
17	0x3d67438a	0.056460895
18	0x3e75eda0	0.24016428
19	0xbe9314e6	-0.28726882
20	0xbe90afff	-0.28259274
21	0xbea77ef1	-0.32714036
22	0x3ee299e0	0.44258022
23	0xbe1ca99b	-0.15299074
24	0xbf224e51	-0.6340075
25	0x3f832940	1.0246964
26	0x3bd3ceb6	0.006463851
27	0x3d2effee	0.042724542
28	0x3e1471f8	0.144966
29	0xbf4d3cdf	-0.80171007
30	0xbf187023	-0.5954611
31	0x3f16fc42	0.58978665
32	0x3cad860c	0.021182083
33	0x3f3545d3	0.7080967
34	0x3eb1c714	0.34722197
35	0xbeb1c9b2	-0.34724194
36	0xbf05060c	-0.5196235
37	0xbf249bee	-0.6430043
38	0x3df1c834	0.11805764
39	0xbe9c63c6	-0.3054487
40	0x3f2466cf	0.64219373
41	0x3dda7034	0.10665932
42	0x3da1e26f	0.07904517
43	0x3e36b7b7	0.17843519
44	0x3f496bf6	0.7868036
45	0xbf3f159f	-0.74642366
46	0xbf5a2b6f	-0.85222524
47	0xbd990e32	-0.07473411
48	0x3e1d0586	0.15334138
49	0xbd79de0d	-0.06100278
50	0x3e55439a	0.20826569
51	0xbe9089e5	-0.28230205
52	0xbf6d09b6	-0.9259294
53	0xbcc12593	-0.023577487
54	0xbed4638b	-0.41482195
55	0x3f028567	0.50984806
56	0x3c12f827	0.008970297
57	0x3f50ec70	0.81610775
58	0xbefd29dc	-0.49446
59	0x3da1a306	0.078924224
60	0xbded0fc9	-0.115752764
61	0x3e78b8dc	0.24289268
62	0x3e4cd5f1	0.20003487
63	0x3ec53cae	0.38522857
64	0xbddeba26	-0.10875349
65	0xbd85fa16	-0.06541841
66	0x3ef549fd	0.4790801
67	0xb945a33d	-0.00018848195
68	0x3e274467	0.16334687
69	0x3e8b9842	0.272646
70	0x3d19f858	0.037590355
71	0x3e513375	0.20429786
72	0x3db3a24e	0.087711915
73	0xbe9b71a4	-0.30360138
74	0xbd626cbb	-0.055279475
75	0xbd88539a	-0.06656571
76	0x3e25610e	0.16150305
77	0xbe737d96	-0.23778376
78	0x3eb8776c	0.36028612
79	0xbd861e14	-0.06548706
80	0x3e05c524	0.13063484
81	0x3e336859	0.17520274
82	0xbdbe5647	-0.092938
83	0x3eafd60d	0.34342995
84	0xbf2cd774	-0.67516255
85	0x3f18f18d	0.5974358
86	0x3f6cbe74	0.9247811
87	0xbee33378	-0.44375205
88	0x3d891ae3	0.06694581
89	0x3e686800	0.22695923
90	0x3f1b22b7	0.60599846
91	0xbee8c8f4	-0.45465815
92	0xbdbdb9d4	-0.092639595
93	0xbeed501b	-0.46350178
94	0xbf08c0dc	-0.5341928
95	0x3e2768c1	0.16348554
96	0x3f17e60e	0.5933541
97	0x3de6e677	0.112744264
98	0xbf1f344c	-0.62189174
99	0xbf5667c9	-0.83752114
100	0x3da2f90f	0.079576604
101	0x3e0bfba2	0.13670209
102	0xbc76234d	-0.015023065
103	0xbd565efd	-0.05233668
104	0x3eba527a	0.3639105
105	0x3e506aba	0.20353213
106	0x3eb58125	0.35450092
107	0xbd589306	-0.052874587
108	0xbe043ded	-0.12914248
109	0xbe742d18	-0.23845327
110	0x3e45f1e0	0.19330549
111	0xbdd99bed	-0.106254436
112	0xbd215016	-0.039383017
113	0x3d2da3d9	0.042392585
114	0xbe37bac6	-0.17942342
115	0x3f27412b	0.65333813
116	0xbe744778	-0.23855388
117	0x3ef2a68f	0.473927
118	0xbcffa107	-0.031204714
119	0xbe90e615	-0.2830054
120	0x3e3e9e10	0.18614984
121	0x3f13a28b	0.57669896
122	0xbeda15ee	-0.42594856
123	0x3e17cc40	0.14824009
124	0x3e74f4e4	0.23921543
125	0x3d144af3	0.03620429
126	0xbf5dc392	-0.8662654
127	0xbeba8ad6	-0.36434048
128	0x3dc1385d	0.094345786
129	0x3e1b35fa	0.15157309
130	0xbd8059fe	-0.06267165
131	0xbece5de3	-0.40306005
132	0xbe367578	-0.17818248
133	0xbea1a302	-0.31569678
134	0xbf20fe76	-0.62888277
135	0x3ed5eb7c	0.41781223
136	0x3f0b4094	0.54395413
137	0x3e5e7a9b	0.21726458
138	0xbedc13e1	-0.42983916
139	0xbf1cdd99	-0.6127563
140	0x3ed5747a	0.41690427
141	0xbf703cf7	-0.93843025
142	0xbe9b7235	-0.3036057
143	0xbe0000e6	-0.12500343
144	0x3d6d93a6	0.058002137
145	0xbe972dee	-0.2952723
146	0x3d9bc0c0	0.076051235
147	0xbe165ebe	-0.14684579
148	0x3cd31881	0.02576852
149	0xbf39477d	-0.7237471
150	0x3e80e286	0.25172824
151	0x3dd2fc40	0.10302019
152	0x3eb8db53	0.3610483
153	0x3f1edd47	0.6205639
154	0xbe764b0f	-0.2405207
155	0x3f2be26f	0.67142385
156	0xbf1ff1a4	-0.6247809
157	0x3d06e2d6	0.03293117
158	0x3e0c7c3b	0.13719265
159	0x3eda2b8a	0.42611343
160	0xbf0d635e	-0.5522975
161	0xbf105ba3	-0.56389827
162	0x3c5e641f	0.013573675
163	0xbf35e939	-0.71058995
164	0x3f1b1c7c	0.6059034
165	0x3d3aff8a	0.045653857
166	0x3f419b95	0.75628024
167	0x3f478b56	0.77946985
168	0x3f0c8bf3	0.54901046
169	0x3ea39c91	0.31955388
170	0x3ef8c54a	0.4858802
171	0x3e8bd06b	0.27307448
172	0x3f1ab75a	0.6043602
173	0x3e0614ab	0.13093822
174	0x3ebda030	0.37036276
175	0x3f1631ff	0.5867004
176	0xbecc8d20	-0.3995142
177	0xbeedaa72	-0.46419102
178	0x3f016449	0.5054365
179	0x3eb04276	0.34425706
180	0x3ebe034b	0.37111887
181	0x3dc40dfe	0.09572981
182	0xbe1564b3	-0.14589195
183	0x3e1144a0	0.14186335
184	0xbe1077c3	-0.14108185
185	0x3ce41d39	0.027845966
186	0x3dacd8db	0.084397994
187	0xbde0f03f	-0.10983323
188	0xbe61b09f	-0.22040032
189	0xbe793fa5	-0.24340685
190	0xbe30dd69	-0.17271961
191	0x3e26d0e2	0.1629062
192	0xbd9a90d7	-0.07547157
193	0xbc70ef20	-0.014705449
194	0xbd109cfe	-0.03530597
195	0xbe3f6a72	-0.1869295
196	0x3e93d8e1	0.28876403
197	0x3c09949f	0.00839725
198	0xbc8eb2b7	-0.017419202
199	0xbf01219d	-0.50441915
200	0xbeb4036c	-0.3515886
201	0x3c71e99a	0.014765168
202	0xbc64f4db	-0.013974394
203	0xbe9f7fe2	-0.31152254
204	0x3e36c526	0.17848644
205	0xbf04eddb	-0.5192544
206	0x3d9d8f27	0.0769332
207	0x3d2b3e9d	0.04180776
208	0x3ef01db6	0.46897668
209	0xbeb40e46	-0.3516714
210	0x3f060fc0	0.5236778
211	0xbd921894	-0.07133594
212	0x3de79385	0.11307434
213	0xbdfd7c81	-0.12377263
214	0x3ecdf8b6	0.40228814
215	0x3f4349bd	0.7628439
216	0xbeb4674e	-0.35235065
217	0xbb8ffa04	-0.004393818
218	0x3ed8f504	0.42374432
219	0x3e71f0f4	0.23627073
220	0xbdea133c	-0.1142945
221	0x3e9b9746	0.3038885
222	0x3d03be31	0.032163803
223	0x3da88407	0.08228307
224	0xbe1ceeb2	-0.1532543
225	0x3e8428f0	0.25812483
226	0xbee6f4d7	-0.45108673
227	0xbe583789	-0.21114935
228	0x3e625448	0.22102463
229	0x3d6f2400	0.05838394
230	0xbb1674ba	-0.0022957758
231	0xbe61ce8b	-0.22051446
232	0x3c761fce	0.015022231
233	0xbe67e07c	-0.22644228
234	0x3e69fc57	0.22850166
235	0x3e224b7c	0.15849108
236	0x3e6e0321	0.23243381
237	0xbe4d3369	-0.20039143
238	0x3e441e70	0.19152236
239	0x3d306dc6	0.043073438
240	0xbed74806	-0.42047137
241	0x3cf93a14	0.030423202
242	0x3f513905	0.8172763
243	0xbf106546	-0.5640453
244	0xbf5a74a4	-0.8533423
245	0xbe49ad11	-0.19694926
246	0x3f254857	0.64563507
247	0x3e636212	0.2220538
248	0x3f0afe22	0.54294026
249	0xbe90182a	-0.28143436
250	0x3fb649e2	1.4241297
251	0x3e1bba96	0.15207896
252	0x3ea7111d	0.32630244
253	0x3c6bf2a7	0.014401115
254	0x3f9a1ff3	1.2041
255	0x3ff8e722	1.9445536

embedder.emb_rnn.bias_ih_l0 f4 [60]
0	0x3f7ebc1d	0.9950579
1	0x3f9133ad	1.1343895
2	0x3f6bbd18	0.9208541
3	0x3f91d516	1.1393154
4	0x3f9e38f9	1.2361137
5	0x3f8907f8	1.0705557
6	0x3f56d104	0.8391268
7	0x3f7447e9	0.95422226
8	0x3f3fe53f	0.74959177
9	0x3f7d2177	0.9887919
10	0x3f58b1c0	0.84646225
11	0x3f72e91b	0.9488694
12	0x3f84fdc5	1.0389944
13	0x3f85cb0d	1.0452591
14	0x3f71804f	0.9433641
15	0x3f8dfe0e	1.1093156
16	0x3f6331db	0.8874795
17	0x3f96e470	1.1788464
18	0x3fa17e6f	1.261671
19	0x3f60b17f	0.8777084
20	0x3f69f7b9	0.9139362
21	0x3f8b65d8	1.0890455
22	0x3f74d690	0.95639896
23	0x3f6e23ce	0.93023384
24	0x3f924271	1.1426526
25	0x3f6da7e4	0.92834306
26	0x3f75b82b	0.95984143
27	0x3f6e69ce	0.93130195
28	0x3f5ccd9e	0.86251247
29	0x3f86cbf2	1.0530989
30	0x3f704c39	0.93866307
31	0x3f7c35cc	0.9851959
32	0x3f4c4778	0.7979655
33	0x3f7f90e4	0.9983046
34	0x3f83291b	1.0246919
35	0x3f8be947	1.0930566
36	0x3f73a9a5	0.9518073
37	0x3f747f75	0.95506984
38	0x3f65d9ee	0.8978566
39	0x3f778313	0.9668438
40	0x3f42072a	0.7579218
41	0x3f4a6087	0.7905354
42	0x3f68b379	0.90898854
43	0x3f336d84	0.7008898
44	0x3f4985d8	0.78719854
45	0x3f486250	0.7827501
46	0x3f7be586	0.983971
47	0x3f7dd750	0.99156666
48	0x3f8dd04b	1.1079191
49	0x3f85d236	1.0454776
50	0x3f7960f0	0.9741354
51	0x3f71b084	0.94409966
52	0x3f9ac4f9	1.2091361
53	0x3f714409	0.9424444
54	0x3f661490	0.89875126
55	0x3f4ec007	0.8076176
56	0x3f6c4c5a	0.92304003
57	0x3f33ba22	0.7020589
58	0x3f9c856f	1.2228221
59	0x3f6533d7	0.89532226

embedder.emb_rnn.bias_hh_l0 f4 [60]
0	0xbba23d99	-0.0049511907
1	0x3e099e14	0.13439208
2	0xbda215a2	-0.079142824
3	0x3e0ea98e	0.13931867
4	0x3e71c818	0.23611486
5	0x3d907913	0.07054343
6	0xbe24bb43	-0.1608706
7	0xbd3b7e50	-0.045774758
8	0xbe8035d6	-0.25041074
9	0xbc37b644	-0.011212889
10	0xbe1d3792	-0.1535323
11	0xbd516d7a	-0.051129796
12	0x3d1fbe43	0.038999807
13	0x3d395d91	0.045255248
14	0xbd680356	-0.056643806
15	0x3ddfd4de	0.10929273
16	0xbde67106	-0.11252026
17	0x3e372618	0.17885625
18	0x3e85fafc	0.26168048
19	0xbdfa771e	-0.12229751
20	0xbdb0440c	-0.08606729
21	0x3db65b76	0.089041635
22	0xbd329b3e	-0.04360508
23	0xbd8ee4a0	-0.069772005
24	0x3e1219c6	0.14267644
25	0xbd92c33d	-0.07166145
26	0xbd247752	-0.040152855
27	0xbd8cb066	-0.06869583
28	0xbe0cc78a	-0.13747993
29	0x3d59840e	0.053104453
30	0xbd7b34cd	-0.06132965
31	0xbc7299f5	-0.014807214
32	0xbe4ee1c9	-0.20203318
33	0xbade0861	-0.0016939753
34	0x3cca589e	0.02470046
35	0x3dbe98c0	0.093064785
36	0xbd4561f6	-0.048189126
37	0xbd381084	-0.044937626
38	0xbdd134f3	-0.102151774
39	0xbd07d493	-0.03316171
40	0xbf1e006d	-0.617194
41	0xbf1806de	-0.5938548
42	0xbec610ba	-0.38684636
43	0xbed87497	-0.4227645
44	0xbed54998	-0.4165771
45	0xbf249cee	-0.64301956
46	0xbf949ee7	-1.1610993
47	0x3eeb775a	0.45989496
48	0xbf22f614	-0.63656735
49	0x3e77d0b4	0.24200708
50	0xbe5763b1	-0.21034123
51	0xbe050ee1	-0.12993957
52	0x3f1d560e	0.61459434
53	0xbe7c9464	-0.24665982
54	0xbbe19db9	-0.006885257
55	0xbed9bccc	-0.42526853
56	0xbe9c303f	-0.3050556
57	0xbf012b91	-0.504571
58	0x3efe85b5	0.49711385
59	0xbe61da49	-0.22055925

embedder.emb_rnn.weight_ih_l1 f4 [60, 20]
0	0x3e6efe95	0.23339303
1	0x3e37016b	0.17871635
2	0x3d8d357d	0.06894968
3	0x3e0a09db	0.13480322
4	0x3d753b81	0.0598712
5	0xbe640310	-0.22266793
6	0xbe1f0aee	-0.15531513
7	0xbe17a193	-0.1480773
8	0xbe9554a5	-0.2916614
9	0x3eddabe0	0.43295193
10	0xbf7f6177	-0.99758095
11	0xbec41eef	-0.3830485
12	0x3f03891c	0.5138109
13	0x3f00fdc6	0.5038723
14	0xbfb7c120	-1.4355812
15	0x3de29471	0.11063469
16	0xbe7dd2ac	-0.24787396
17	0x3f50f4bd	0.8162344
18	0xbd529ada	-0.05141721
19	0x3fb565ce	1.4171693
20	0xbe4d9f62	-0.20080331
21	0xbe463016	-0.19354281
22	0x3e0641cb	0.13111036
23	0xbd1c874c	-0.038214967
24	0xbe8cb3e0	-0.27480984
25	0xbe786dae	-0.2426059
26	0xbd02c287	-0.031923797
27	0xbdeb3b1f	-0.11485886
28	0x3e0d5781	0.13802911
29	0xbe9e8b85	-0.3096582
30	0x3ea54bc8	0.3228438
31	0x3eca7bdf	0.3954763
32	0x3e51bbbe	0.20481774
33	0x3efb6cba	0.4910639
34	0x3e898739	0.2686098
35	0xbe109618	-0.14119756
36	0x3ec23122	0.3792811
37	0x3effd321	0.49965766
38	0x3e5a7f07	0.2133752
39	0x3e902521	0.28153327
40	0xbd803a81	-0.06261159
41	0x3cc88b91	0.024480613
42	0xbdf28731	-0.11842192
43	0x3eb42266	0.35182494
44	0x3bc4b873	0.0060034334
45	0xbe45a64c	-0.19301718
46	0x3e9eb4cc	0.30997312
47	0x3d065776	0.032798253
48	0x3e5bc329	0.21461166
49	0xbf331667	-0.6995606
50	0x3e060580	0.13088036
51	0x3d2e2baf	0.04252213
52	0xbd3ae6e3	-0.045630347
53	0x3e65ab14	0.22428542
54	0x3df17e1f	0.11791634
55	0x3d682c27	0.056682732
56	0x3cdc3d51	0.026884707
57	0x3dc83ce0	0.09777236
58	0x3c0d3c9f	0.00862041
59	0x3e0e0983	0.13870816
60	0xbc851ee8	-0.016250089
61	0x3e9b2d99	0.30308226
62	0xbd8a17ac	-0.06742796
63	0xbdb819cd	-0.08989296
64	0xbd955485	-0.072915114
65	0x3e831034	0.255983
66	0x3e1e32ce	0.15449068
67	0xbe038bd0	-0.12846303
68	0xbea3923b	-0.31947502
69	0x3e81b0e2	0.25330263
70	0xbeec05db	-0.46098217
71	0xbe389e29	-0.18029083
72	0xbe3413e3	-0.17585711
73	0x3e32b62b	0.17452304
74	0xbe828d44	-0.25498402
75	0xbdd1ae13	-0.1023828
76	0x3e82b5f6	0.2552945
77	0xbeabfe20	-0.3359232
78	0x3d54293a	0.05179713
79	0xbe5c8d55	-0.21538289
80	0x3e608f5d	0.21929689
81	0xbef456fa	-0.47722608
82	0x3d5b7546	0.053578638
83	0x3e63d576	0.22249398
84	0xbed165d4	-0.40898
85	0x3e3133e4	0.17304951
86	0x3c6feb1a	0.014643455
87	0xbec6c76c	-0.38824022
88	0xbe2a9ebe	-0.16662118
89	0xbe84b4c1	-0.25919154
90	0x3ebaa422	0.36453348
91	0x3eef1dbd	0.46702376
92	0x3e7ea138	0.24866188
93	0x3fa2f2ed	1.2730385
94	0xbf9aba19	-1.2088042
95	0x3d95d4ab	0.07315954
96	0xbdb72695	-0.08942906
97	0x3d544fd6	0.05183395
98	0xbd98e1d4	-0.07464948
99	0xbef22949	-0.47297123
100	0x3e5ce4d1	0.21571662
101	0x3ee2a726	0.4426815
102	0xbe58adc9	-0.21160044
103	0xbeb0ff9f	-0.34570023
104	0x3e3c1741	0.18368246
105	0xbe3f75e3	-0.18697314
106	0x3db5fa00	0.08885574
107	0x3d42c4af	0.047550853
108	0x3e20d7bc	0.15707296
109	0x3eebdd43	0.46067247
110	0x3e3244b3	0.17409019
111	0x3d2bd167	0.04194775
112	0xbdfea72a	-0.12434228
113	0x3e40a6b4	0.18813592
114	0x3da3bc29	0.07994873
115	0x3e1ef8d0	0.15524602
116	0x3dfec5f4	0.124401
117	0xbe2cc6b6	-0.16872677
118	0xbe5f4bc2	-0.21806243
119	0xbe16614f	-0.14685558
120	0xbd2ec098	-0.04266414
121	0xbe89cf51	-0.26915982
122	0xbde0e59e	-0.10981296
123	0x3e919a48	0.2843802
124	0xbf283d41	-0.65718466
125	0xbe37c7a4	-0.1794725
126	0x3c3fd25a	0.011707867
127	0xbe7ddda1	-0.24791576
128	0xbc436adb	-0.011927332
129	0xbe1eaff2	-0.15496805
130	0x3dff813e	0.12475823
131	0xbeba101f	-0.36340424
132	0xbe87139b	-0.26382145
133	0x3e91f3d9	0.28506353
134	0xbeacb0af	-0.3372855
135	0xbbdcccad	-0.0067382664
136	0x3eb9d9a5	0.36298862
137	0x3ee19584	0.44059384
138	0xbee3c79d	-0.4448823
139	0x3f1966e4	0.59922624
140	0xbed79634	-0.42106783
141	0x3f67a5cf	0.9048738
142	0x3e71dcba	0.23619357
143	0x3f0ed7b0	0.55797863
144	0xbfc59128	-1.5434923
145	0xbf55486e	-0.83313644
146	0x3edf2ba3	0.4358798
147	0xbeafca70	-0.34334135
148	0x3edfb835	0.43695226
149	0x3e242b31	0.16032101
150	0x3e285def	0.16442083
151	0x3ca92b60	0.020650566
152	0x3f581452	0.84406006
153	0xbe202f8f	-0.15643142
154	0x3f98d9a9	1.1941425
155	0xbe8ba529	-0.27274445
156	0xbe6abcfb	-0.22923653
157	0x3b81c6ae	0.003960452
158	0xbf10c3a2	-0.5654851
159	0x3f05ec0e	0.52313316
160	0xbe305b13	-0.17222242
161	0xbd6cfec9	-0.05786017
162	0xbd7453c1	-0.059650186
163	0x3de03361	0.109473
164	0x3e0fb0a3	0.14032225
165	0x3c64ffa0	0.013976961
166	0xbe81cb95	-0.25350633
167	0xbe0a79f9	-0.13523091
168	0x3e299b79	0.16563214
169	0x3e78c331	0.2429321
170	0x3e063df5	0.13109572
171	0xbe005ef3	-0.1253622
172	0x3b2bb8a0	0.0026202574
173	0xbe8a56a1	-0.27019218
174	0x3eaab173	0.33338508
175	0xbe42b4e2	-0.19014314
176	0x3e6c16dd	0.23055597
177	0x3d295acc	0.041346356
178	0x3d5d7a0b	0.054071467
179	0xbe042d6d	-0.12907954
180	0xbea28000	-0.3173828
181	0x3e11dd2c	0.14244527
182	0x3eb8628a	0.3601268
183	0xbcab247e	-0.020891424
184	0xbe890fd8	-0.267699
185	0xbe204211	-0.15650202
186	0x3e64e99e	0.22354743
187	0x3ddfbc13	0.10924544
188	0xbe847342	-0.25869185
189	0xbe0bf30a	-0.13666931
190	0xbf4df3f4	-0.8045037
191	0x3dada69b	0.08479043
192	0xbe49cc67	-0.1970688
193	0xbfdec3af	-1.7403468
194	0x3ecce622	0.40019327
195	0xbdfce45f	-0.12348246
196	0x3de73c6c	0.112908214
197	0xbec213fb	-0.3790587
198	0xbe3b311d	-0.18280454
199	0xbe92d3e2	-0.2867728
200	0x3dfb4fdb	0.122710906
201	0x3f019fb5	0.5063432
202	0x3e164bf3	0.1467741
203	0x3e021fa4	0.12707382
204	0xbf66be49	-0.901341
205	0x3e0dcc38	0.13847435
206	0xbcfc2b50	-0.030782372
207	0x3e01f91b	0.12692682
208	0x3ebdc849	0.37066868
209	0xbee7c6f8	-0.4526899
210	0x3e80490e	0.25055736
211	0x3ed157e8	0.4088738
212	0x3f0e7431	0.55646044
213	0xbdd4fa04	-0.10399249
214	0xbe6c1b91	-0.23057391
215	0xbebaebc2	-0.36507994
216	0xbcb37bdd	-0.021909649
217	0xbf0a8bb8	-0.54119444
218	0xbd242f9d	-0.04008447
219	0xbde8fb1b	-0.113760196
220	0x3e2ac287	0.16675769
221	0x3d80781a	0.062729076
222	0x3ea64b21	0.32479194
223	0x3f07dc35	0.53070384
224	0xbe07ef5f	-0.13274907
225	0xbc5a8560	-0.013337463
226	0x3f01038a	0.50396025
227	0x3da46b5d	0.080282904
228	0x3e9c4e73	0.30528602
229	0xbe57be80	-0.21068764
230	0xbe90fecb	-0.28319392
231	0xbd841459	-0.064491935
232	0xbe9b7e0d	-0.30369607
233	0xbee0580c	-0.43817174
234	0x3deb6dee	0.11495577
235	0x3d055228	0.032549053
236	0x3e051388	0.12995732
237	0x3f1d4421	0.6143208
238	0xbf14ee97	-0.5817656
239	0xbe1f139b	-0.15534823
240	0xbe888f47	-0.26671812
241	0x3dfa7993	0.1223022
242	0xbddc1da3	-0.1074784
243	0x3e34ca51	0.17655303
244	0xbe0cbf57	-0.13744865
245	0x3d95cee6	0.07314853
246	0xbe40524f	-0.18781398
247	0x3d0c8005	0.034301776
248	0x3d99d54d	0.07511387
249	0xbea9bfb0	-0.33154058
250	0xbeb22132	-0.3479095
251	0xbe948244	-0.29005635
252	0xbf151c64	-0.58246446
253	0xbf1a6b74	-0.6032021
254	0x3ca829a4	0.020527668
255	0xbc5e232a	-0.013558188

embedder.emb_rnn.weight_hh_l1 f4 [60, 20]
0	0xbcda87df	-0.026676117
1	0x3e545342	0.20734885
2	0x3e4c8b2a	0.19974962
3	0xbecec71f	-0.40386292
4	0xbd887543	-0.06662991
5	0xbe875f87	-0.2644007
6	0xbd4098b2	-0.04702062
7	0xbe497663	-0.19674067
8	0x3e752ebe	0.23943612
9	0xbe7fa26e	-0.24964306
10	0xbdb89d06	-0.09014325
11	0x3ce3af5b	0.027793577
12	0x3e4c30d7	0.19940506
13	0xbe385fa6	-0.18005237
14	0x3e741d1b	0.23839228
15	0x3dff20ce	0.12457429
16	0x3e520f25	0.2051359
17	0xbc907c1e	-0.017637309
18	0x3d84c004	0.064819366
19	0xbe850558	-0.2598064
20	0xbc4b3081	-0.012401701
21	0x3e5c6c41	0.2152567
22	0x3e68977c	0.22714037
23	0xbe7768f5	-0.24161132
24	0xbce38115	-0.027771512
25	0xbe371750	-0.17879987
26	0xbdbbacfc	-0.091638535
27	0x3dd2eccc	0.10299072
28	0x3df1ff9e	0.11816333
29	0xbd3bfd85	-0.045896072
30	0x3ed991df	0.42494103
31	0x3d410f2f	0.04713362
32	0x3e1c4447	0.1526042
33	0xbe81c0f0	-0.25342512
34	0xbdea2952	-0.114336625
35	0x3ee1827f	0.44044873
36	0xbf07fce2	-0.53120244
37	0x3dcb3c62	0.099236265
38	0xbe747734	-0.23873597
39	0xbe52a668	-0.20571291
40	0x3da9a034	0.082825094
41	0x3ddb162d	0.10697589
42	0xbd0e8eb3	-0.034804057
43	0xbe3ba67e	-0.1832523
44	0xbedcbe04	-0.4311372
45	0xbe232897	-0.15933453
46	0xbd25dfbf	-0.040496584
47	0xbc1677b2	-0.009183811
48	0x3f91210f	1.1338214
49	0xbe8445fc	-0.25834644
50	0x3d95fe90	0.073239446
51	0xbedd7b16	-0.4325797
52	0xbe8fb2f9	-0.28066233
53	0x3e1c2067	0.15246736
54	0x3e4ad66d	0.1980836
55	0x3e94ef4a	0.29088813
56	0x3edc6394	0.43044722
57	0x3ca21c46	0.019788872
58	0x3f28e7f6	0.65978944
59	0xbed9b657	-0.42521927
60	0xbe75be1c	-0.23998302
61	0x3e953360	0.2914076
62	0xbd327237	-0.043565955
63	0x3e66839b	0.22511141
64	0x3c91ff4b	0.017821928
65	0x3d655494	0.055988863
66	0xbe4a4ca8	-0.19755805
67	0xbe290879	-0.16507138
68	0x3fc8f76a	1.5700505
69	0xbe8e6a51	-0.27815488
70	0x3e9f760a	0.31144744
71	0xbef667b3	-0.4812599
72	0xbe721205	-0.23639686
73	0x3f40e44e	0.75348365
74	0x3f106e15	0.5641797
75	0x3db3715c	0.08761856
76	0xbe0bf975	-0.13669379
77	0xba20dc23	-0.00061363186
78	0x3efbbffb	0.49169907
79	0xbec2eb4f	-0.3807015
80	0xbe346b52	-0.17619064
81	0x3d19459a	0.037419893
82	0xbda52b59	-0.080649085
83	0xbe8f4e5c	-0.2798947
84	0x3c735578	0.01485192
85	0xbe9ea3bb	-0.3098429
86	0xbc97e0c9	-0.018539803
87	0x3da444fe	0.08020972
88	0x3f40b1c7	0.75271267
89	0x3e6b1ff0	0.22961402
90	0x3ead951a	0.33902818
91	0x3d19a22c	0.037508175
92	0xbdd0f346	-0.10202651
93	0x3ebc59ae	0.3678717
94	0xbd86409a	-0.065552905
95	0x3eb891f4	0.36048853
96	0x3eeac5c8	0.4585402
97	0xbe66a713	-0.22524671
98	0x3e1c4372	0.15260103
99	0xbc3a54b0	-0.01137273
100	0xbddccf76	-0.107817575
101	0x3cd7c908	0.026340976
102	0xbe043e1b	-0.12914316
103	0xbd8b32df	-0.06796812
104	0xbe166d6f	-0.14690183
105	0x3ed30b3d	0.41219512
106	0x3f28cbf3	0.659362
107	0xbe94d947	-0.2907202
108	0x3e094e38	0.13408744
109	0xbbd908e9	-0.0066233766
110	0xbecb5d0f	-0.39719436
111	0x3dd2b0b4	0.1028761
112	0x3db07994	0.08616939
113	0x3d55d2c8	0.05220297
114	0xbd8cd114	-0.06875816
115	0xbe3162c8	-0.17322838
116	0xbecfefb2	-0.4061256
117	0x3e13a35c	0.14417785
118	0x3f365cf2	0.71235573
119	0x3d896f9b	0.0671074
120	0xbe03a5e7	-0.12856255
121	0x3da65887	0.08122354
122	0xbe375015	-0.17901643
123	0xbd0bc079	-0.034119103
124	0x3d658b03	0.056040775
125	0xbe323b6e	-0.17405483
126	0xbe0eaf14	-0.13933975
127	0xbdb4f5ba	-0.08835931
128	0xbea0a09f	-0.31372544
129	0x3daad3f7	0.0834121
130	0x3da694c8	0.081338465
131	0x3dfbafa6	0.12289362
132	0x3d67f251	0.056627575
133	0x3eae9c6b	0.34103712
134	0x3e63aebb	0.22234623
135	0xbe1c43a0	-0.15260172
136	0xbd9b93d4	-0.07596555
137	0x3d530162	0.05151499
138	0xbe3c5552	-0.18391922
139	0xbe2cf81d	-0.16891523
140	0x3c2a2ca2	0.010386618
141	0xbe967160	-0.29383373
142	0xbec511ca	-0.38490134
143	0x3e848597	0.2588317
144	0xbc124c1c	-0.008929279
145	0x3b0ccc44	0.0021484056
146	0x3c15b26e	0.009136779
147	0xbe1f6825	-0.15567072
148	0xbf39a4b1	-0.72516924
149	0x3dd8fcb1	0.10595072
150	0x3d645f4f	0.055754956
151	0x3e5064f9	0.20351018
152	0x3d1be23f	0.038057562
153	0xbdd2e139	-0.10296864
154	0xbe5bd6a8	-0.21468604
155	0x3d23cb26	0.03998866
156	0x3f309e37	0.68991417
157	0x3dd5c449	0.10437829
158	0x3dde1d02	0.108453766
159	0x3e165967	0.14682542
160	0xbe90d694	-0.2828871
161	0xbd832883	-0.06404211
162	0xbd4fb871	-0.050713006
163	0xbd33c263	-0.043886553
164	0xbe259ff6	-0.16174302
165	0x3d149f1c	0.03628455
166	0xbd60771c	-0.05480109
167	0xbcf39012	-0.029731784
168	0xbe41331a	-0.1886715
169	0xbdf3b698	-0.11900061
170	0x3e657fb4	0.22411996
171	0xbe904f60	-0.28185558
172	0xbda41d17	-0.08013361
173	0xbef22e57	-0.4730098
174	0x3d971e34	0.07378808
175	0xbd9fc694	-0.07801548
176	0x3e891570	0.26774168
177	0xbf13c293	-0.5771877
178	0xbeef5b01	-0.46749118
179	0x3e09bacf	0.13450168
180	0x3e56f7c2	0.2099295
181	0xbea07607	-0.31340048
182	0xbdcb8cbc	-0.09938952
183	0x3e960df3	0.29307517
184	0x3e70041b	0.23439066
185	0x3e31afb1	0.17352177
186	0x3ec17bf8	0.37789893
187	0xbec7f569	-0.3905442
188	0x3e2570f7	0.16156374
189	0x3e7f6c39	0.24943627
190	0xbe16648a	-0.1468679
191	0x3dcd9552	0.10038246
192	0x3e1e3264	0.1544891
193	0x3f364ad0	0.71207905
194	0xbe3054cf	-0.17219852
195	0x3d7b687e	0.06137895
196	0x3e39e031	0.18151928
197	0x3e040166	0.12891158
198	0xbf185534	-0.5950501
199	0x3e94eb9d	0.2908601
200	0x3e58e4d6	0.21181044
201	0xbd030a2d	-0.031992126
202	0xbee3dea4	-0.445058
203	0x3f239136	0.6389345
204	0x3e62f1e7	0.22162591
205	0x3cc19a11	0.023633035
206	0x3eae1eab	0.34007773
207	0xbecab1b0	-0.3958869
208	0x3e3853bf	0.18000697
209	0x3ea1f7eb	0.3163446
210	0xbeb63c3f	-0.3559284
211	0x3f0635e1	0.5242596
212	0x3e76f02c	0.24115056
213	0xbecb6e44	-0.39732563
214	0xbdabb668	-0.083844006
215	0xbe9aabfe	-0.30209345
216	0xbf0855b8	-0.53255796
217	0x3e0b7a7c	0.13620943
218	0x3f9400fd	1.1562802
219	0xbe2fe205	-0.17176063
220	0xbe1c8dd7	-0.15288483
221	0x3d055c47	0.032558706
222	0x3dd9656a	0.10615046
223	0xbcfc6efe	-0.030814644
224	0x3da9fcba	0.08300157
225	0xbe94649c	-0.2898301
226	0xbcd9e68a	-0.026599187
227	0xbc9a8d43	-0.018866187
228	0xbe1da1af	-0.15393709
229	0x3d93d091	0.07217515
230	0x3e6940bc	0.227786
231	0x3eba0d3a	0.36338216
232	0xbe5c8594	-0.21535331
233	0x3e8585d6	0.2607867
234	0xbde53b41	-0.111929424
235	0x3e54b5a7	0.2077242
236	0x3df8a5a4	0.121409684
237	0xbcf67e5e	-0.030089553
238	0x3d0dd88c	0.034630343
239	0x3ca557f1	0.020183535
240	0xbeb483a7	-0.35256693
241	0xbd93b7cd	-0.072127916
242	0x3e371786	0.17880067
243	0x3d872984	0.06599715
244	0x3e3b73ef	0.18305944
245	0xbb955c4a	-0.004558121
246	0x3e0758fb	0.13217537
247	0x3d9b8e65	0.07595519
248	0x3cddee79	0.027091252
249	0xbdeb980f	-0.11503612
250	0xbc912805	-0.017719278
251	0x3d914beb	0.07094558
252	0x3d253312	0.040331908
253	0xbdcecf5d	-0.10098145
254	0x3d197735	0.0374672
255	0xbe1630e5	-0.1466709

embedder.emb_rnn.bias_ih_l1 f4 [60]
0	0x3f5d42c6	0.86430013
1	0x3f926a77	1.143874
2	0x3f8914c2	1.070946
3	0x3f82c692	1.0216849
4	0x3f5f62d3	0.8726017
5	0x3f8c8c4e	1.0980318
6	0x3f47ae5f	0.78000444
7	0x3f553afb	0.8329312
8	0x3f8a23cb	1.0792173
9	0x3f641652	0.8909656
10	0x3f82b3e0	1.0211143
11	0x3f604a9b	0.8761384
12	0x3f3fe246	0.7495464
13	0x3f8816ee	1.0631998
14	0x3f84475a	1.0334275
15	0x3f8f4d6a	1.11955
16	0x3f74b055	0.9558156
17	0x3f6ee669	0.9332033
18	0x3f64f199	0.8943115
19	0x3f5e1d13	0.86763114
20	0x3f39187c	0.72302985
21	0x3f28362b	0.65707654
22	0x3f43694c	0.76332545
23	0x3f463c9b	0.77436227
24	0x3f45b593	0.77230185
25	0x3f4ed983	0.80800647
26	0x3f2da6ce	0.6783265
27	0x3f7715c0	0.9651756
28	0x3f229604	0.63510156
29	0x3f4321d0	0.7622347
30	0x3f4fbe6f	0.81149954
31	0x3f152262	0.5825559
32	0x3f584361	0.8447781
33	0x3f2b312b	0.668719
34	0x3f4eddea	0.80807364
35	0x3f4390a9	0.7639261
36	0x3ec97369	0.39345863
37	0x3f1b5c97	0.60688156
38	0x3f3456ef	0.7044515
39	0x3f53e660	0.827734
40	0x3f8858e1	1.0652124
41	0x3f432bdc	0.762388
42	0x3f5488c0	0.83021164
43	0x3f587172	0.84548104
44	0x3f8bb677	1.0915059
45	0x3f4be29f	0.7964267
46	0x3f83202c	1.0244193
47	0x3f3e1c62	0.7426206
48	0x3f56b007	0.83862346
49	0x3f830e22	1.0238688
50	0x3f36fa99	0.7147613
51	0x3f75cba0	0.9601383
52	0x3f7590fa	0.9592434
53	0x3f56b96f	0.838767
54	0x3f4cc15f	0.7998256
55	0x3f4a58fa	0.7904202
56	0x3f5eab15	0.869798
57	0x3f6bf9fa	0.9217831
58	0x3f6b02d9	0.9180122
59	0x3f7bbcd5	0.9833501

embedder.emb_rnn.bias_hh_l1 f4 [60]
0	0xbe0af506	-0.13570032
1	0x3e13548e	0.14387724
2	0x3d9153fc	0.07096097
3	0x3cb1a7d0	0.021686465
4	0xbe0273fe	-0.1273956
5	0x3dc8c3f0	0.09802997
6	0xbe6146ac	-0.21999615
7	0xbe2b1258	-0.16706216
8	0x3da2404b	0.07922419
9	0xbddf5044	-0.10903981
10	0x3cad07b0	0.02112183
11	0xbdfdaf6d	-0.123869754
12	0xbe803abf	-0.2504482
13	0x3d8167c6	0.06318621
14	0x3d08e00d	0.033416796
15	0x3df4d6a3	0.11955001
16	0xbd34f6e3	-0.044180762
17	0xbd88cc71	-0.06679619
18	0xbdd87207	-0.10568624
19	0xbe078a18	-0.13236272
20	0xbe8dce4f	-0.27696463
21	0xbeaf94d5	-0.34293237
22	0xbe725960	-0.23666906
23	0xbe670fa1	-0.22564556
24	0xbe692949	-0.22769655
25	0xbe449abf	-0.19199656
26	0xbea4b340	-0.32168007
27	0xbd0ea255	-0.03482278
28	0xbebad423	-0.36489972
29	0xbe737806	-0.23776254
30	0xbe410774	-0.188505
31	0xbed5bb30	-0.41744375
32	0xbe1ef195	-0.15521844
33	0xbea99d2d	-0.33127728
34	0xbe4487b4	-0.19192392
35	0xbe71bf3d	-0.23608108
36	0xbf1b4671	-0.6065436
37	0xbec9462f	-0.39311358
38	0xbe9751cd	-0.29554597
39	0xbe3065a9	-0.1722628
40	0xbc85604f	-0.016281275
41	0xbe6eb7a3	-0.2331224
42	0xbe2314ee	-0.15925953
43	0xbe3f05ee	-0.18654606
44	0x3db6ebdb	0.089317046
45	0xbe575b6f	-0.21030973
46	0x3c8c376f	0.017116277
47	0xbee79b15	-0.45235506
48	0xbe26a17b	-0.16272537
49	0x3d9a2bb1	0.07527865
50	0xbeab82c1	-0.33498195
51	0xbdf41b24	-0.11919239
52	0x3c542c99	0.012950086
53	0xbe2095c5	-0.15682133
54	0xbe612b22	-0.2198911
55	0xbe74eff8	-0.23919666
56	0xbe2cd957	-0.16879784
57	0xbdf3079f	-0.11866688
58	0xbe04523d	-0.12921996
59	0xbc89d558	-0.016825363

embedder.emb_rnn.weight_ih_l2 f4 [60, 20]
0	0x3c89739a	0.016778756
1	0x3dd42eee	0.10360514
2	0xbe5ea420	-0.21742296
3	0x3e8f7598	0.28019404
4	0xbdb8f460	-0.09030986
5	0x3e60378c	0.2189619
6	0xbeaf9d1b	-0.3429955
7	0xbe4031f4	-0.18769056
8	0x3edb9b46	0.42891902
9	0x3e1bb5a5	0.1520601
10	0x3e0b4417	0.13600193
11	0x3dc70e5f	0.09719538
12	0xbe2f22c5	-0.17103107
13	0x3ea42666	0.32060546
14	0x3c4a6a5f	0.012354462
15	0xbf07dcec	-0.53071475
16	0x3fa23d83	1.2675022
17	0xbd95a387	-0.07306581
18	0x3eb13f87	0.3461878
19	0xbdfc323e	-0.123142704
20	0xbeda7ab0	-0.42671728
21	0x3f0d60fc	0.5522611
22	0x3e825511	0.25455526
23	0x3eb3970a	0.3507617
24	0x3fc17402	1.5113528
25	0x3ea8af16	0.3294608
26	0xbf009131	-0.50221545
27	0x3d99de75	0.075131334
28	0x3ce2d6e5	0.02769036
29	0xba33f1c2	-0.0006864333
30	0xbceaa81b	-0.028644612
31	0x3e7bf946	0.24606809
32	0x3e1fc490	0.15602326
33	0x3f0f124f	0.5588731
34	0x3f5a0172	0.85158455
35	0x3f2cbf89	0.6747976
36	0x3e1e8d59	0.15483607
37	0x3f97c4e4	1.1856961
38	0x3f0a82ce	0.5410584
39	0x3ea5e46c	0.32400835
40	0xbe826719	-0.25469282
41	0xbd34ebd1	-0.044170205
42	0xbb6679cc	-0.0035167811
43	0x3e0e519b	0.13898318
44	0xbd8a2302	-0.067449585
45	0x3e04f48a	0.12983909
46	0xbf1313fc	-0.5745237
47	0x3e73aef1	0.23797204
48	0xbdb29cdc	-0.08721325
49	0x3e83bf92	0.25732094
50	0x3e01d150	0.12677503
51	0x3ae8e70b	0.0017769051
52	0x3e2d340e	0.16914389
53	0x3ca5f8ff	0.020260332
54	0x3efadec0	0.4899807
55	0x3e962b7d	0.29330054
56	0x3e6249ce	0.22098467
57	0x3e1f13ef	0.15534948
58	0x3e3541e0	0.1770091
59	0x3e52dada	0.20591298
60	0xbe0ccf60	-0.13750982
61	0x3e6e6cbc	0.23283666
62	0x3e0a7457	0.13520943
63	0xbc7b0fb2	-0.015323566
64	0xbcfd3132	-0.030907247
65	0x3e86a817	0.26300117
66	0xbf026d2e	-0.50947845
67	0xbe6e84be	-0.23292825
68	0xbf1c2d23	-0.61006373
69	0x3ef3ce97	0.47618553
70	0xbe233ffc	-0.15942377
71	0x3de1133d	0.109899975
72	0x3e80b04b	0.251345
73	0x3df4d650	0.11954939
74	0x3eb290d0	0.34876108
75	0x3e418f11	0.18902232
76	0xbf18bd3e	-0.5966376
77	0x3e140bd1	0.14457633
78	0x3f219cdc	0.63129973
79	0x3e8c8c28	0.2745068
80	0x3e76ef67	0.24114762
81	0x3e86798c	0.26264608
82	0x3e8e2b04	0.27767193
83	0x3dd76361	0.10517002
84	0xbf0c9029	-0.5490747
85	0xbd7374e2	-0.05943764
86	0xbedcc5fa	-0.43119794
87	0x3de7cf0e	0.113187894
88	0x3f035814	0.5130627
89	0x3d8ab2ee	0.067724094
90	0x3e19db9a	0.15025178
91	0x3e58d76e	0.2117593
92	0x3dc29e22	0.09502818
93	0x3e08e4d8	0.13368547
94	0xbc8a6770	-0.016895026
95	0x3e6137e3	0.21993975
96	0x3f7e9dd2	0.99459565
97	0xbe10ef02	-0.14153674
98	0xbf004a22	-0.5011312
99	0x3d5c8b90	0.053844035
100	0xbec84ce8	-0.39121175
101	0x3ebab659	0.36467245
102	0x3eea2f53	0.4573923
103	0xbe865e94	-0.26244032
104	0x3e75dbd5	0.2400964
105	0x3d55f421	0.052234773
106	0xbee4bb62	-0.44674212
107	0xbd87acb0	-0.066247344
108	0x3f2b94d9	0.67024
109	0xbab6fb9d	-0.0013960485
110	0x3db98c45	0.090599574
111	0xbe710292	-0.23536137
112	0xbdbb89d9	-0.09157152
113	0x3eed2728	0.46318936
114	0x3e8281ac	0.25489557
115	0x3db15763	0.08659246
116	0x3e3c51f3	0.18390636
117	0xbe58a47a	-0.21156493
118	0xbe601731	-0.21883847
119	0x3d0ab477	0.03386351
120	0xbe0e3339	-0.13886727
121	0x3f10109f	0.5627536
122	0x3e4f25dc	0.20229286
123	0x3f1c9131	0.61159045
124	0x3e5cd039	0.21563806
125	0x3c8e8b1c	0.017400317
126	0xbc44fa21	-0.012022526
127	0x3e6e7157	0.23285423
128	0x3f61c494	0.8819058
129	0x3e87157b	0.26383576
130	0x3dfc23ce	0.12311517
131	0x3f0a5158	0.5403037
132	0xbcbfbb31	-0.02340469
133	0x3f257b13	0.6464092
134	0x3ea7517a	0.3267935
135	0x3e3ee2b4	0.18641168
136	0x3fcb169f	1.5866278
137	0x3f286298	0.6577544
138	0xbe3f1e55	-0.18663915
139	0xbe0071ff	-0.12543486
140	0xbea188d3	-0.315497
141	0xbecd9d00	-0.40158844
142	0x3da70626	0.081554696
143	0xbf053dcc	-0.5204742
144	0xbd01f06e	-0.031723432
145	0x3e0dd98e	0.13852522
146	0xbc4e71f6	-0.012600413
147	0x3bed1cc2	0.007236094
148	0xbef647c4	-0.48101628
149	0xbdef08d2	-0.11671604
150	0xbdc189c5	-0.094501056
151	0xbee23add	-0.44185534
152	0x3df85a45	0.121265925
153	0x3ee736aa	0.45158893
154	0xbe4dad6c	-0.20085686
155	0xbeeced7f	-0.46274945
156	0xbf10657a	-0.5640484
157	0xbf0b4c57	-0.5441336
158	0x3eb156ae	0.34636444
159	0x3e4007a5	0.18752916
160	0xbd202cca	-0.039105214
161	0xbdb8a708	-0.09016234
162	0x3e087c17	0.13328587
163	0xbe6a2650	-0.22866178
164	0xbe12508e	-0.14288542
165	0xbe7911c5	-0.24323185
166	0x3e6d5790	0.23177934
167	0x3e625f98	0.22106779
168	0x3f126fce	0.5720185
169	0xbeb716a7	-0.3575947
170	0x3e9b24c6	0.30301493
171	0x3f28984d	0.6585739
172	0xbf2419fd	-0.64102155
173	0x3e6c78b7	0.23092924
174	0xbc9b3706	-0.018947136
175	0x3d989434	0.074501425
176	0xbefb030c	-0.49025762
177	0x3efbc23e	0.49171633
178	0x3eabbf43	0.3354436
179	0xbe35760b	-0.17720811
180	0x3edb6637	0.4285142
181	0xbe093cf0	-0.13402152
182	0x3dc2d352	0.095129624
183	0xbe493759	-0.1965002
184	0x3d31b7f2	0.043388315
185	0x3ecaa88b	0.39581713
186	0x3ddc4023	0.107544206
187	0xbe9f58cd	-0.31122437
188	0xbe87238e	-0.26394314
189	0x3e043d53	0.12914018
190	0x3da1687d	0.07881258
191	0x3d44a788	0.048011333
192	0x3e8ab0a4	0.2708789
193	0xbef0c0dd	-0.47022143
194	0xbeb59f40	-0.3547306
195	0xbe7f9618	-0.249596
196	0xbdea793e	-0.11448906
197	0xbd7f524a	-0.062334336
198	0x3f93a67b	1.1535181
199	0x3eb9e899	0.3631027
200	0x3dfbdb2d	0.12297664
201	0x3debcfce	0.11514245
202	0x3e45218d	0.1925108
203	0x3d424456	0.04742845
204	0x3dedbb3d	0.116079785
205	0xbe5a5f64	-0.21325451
206	0x3d1d33c6	0.038379453
207	0x3c6c3484	0.014416818
208	0x3ea0243e	0.3127765
209	0xbdfe726f	-0.1242417
210	0xbe147142	-0.1449633
211	0x3e0181aa	0.12647119
212	0x3e6c30cb	0.23065488
213	0x3e0dd6d3	0.1385148
214	0x3ece3e4b	0.402819
215	0x3e038063	0.12841944
216	0x3eb795b1	0.35856393
217	0x3ed80bdf	0.42196557
218	0xbeae2678	-0.34013724
219	0x3c0c3634	0.008557845
220	0x3d9f40ec	0.07776055
221	0xbe447709	-0.19186033
222	0x3eb45b8c	0.35226095
223	0xbe3b783c	-0.18307585
224	0xbe7f4ab2	-0.24930838
225	0xbe69ecee	-0.22844288
226	0x3f667592	0.9002315
227	0xbcd2d8f0	-0.02573821
228	0x3eaa5648	0.33268952
229	0xbd53c9f7	-0.05170628
230	0xbc578d07	-0.013156182
231	0xbd80f1df	-0.06296133
232	0xbe917efd	-0.28417197
233	0xbf1a566e	-0.6028813
234	0x3dc84076	0.0977792
235	0x3b9c7959	0.004775208
236	0x3f59b2b8	0.8503833
237	0x3e0f1652	0.13973358
238	0x3f142875	0.5787423
239	0xbd57dfbe	-0.05270361
240	0x3d2a9180	0.041642666
241	0x3e9f68ec	0.31134737
242	0xbdae4a2d	-0.08510242
243	0x3d595dd0	0.053067982
244	0x3d8ea50e	0.069650754
245	0x3d26ff8e	0.04077106
246	0xbcefd488	-0.029276147
247	0xbe469bed	-0.19395418
248	0xbf31f47f	-0.69513696
249	0x3ea1d494	0.31607497
250	0x3e3b3cfb	0.18284981
251	0x3ed371aa	0.41297656
252	0xbeb55d58	-0.35422778
253	0x3e5a40f7	0.21313845
254	0x3e15c284	0.14624983
255	0x3e199f03	0.15002064

embedder.emb_rnn.weight_hh_l2 f4 [60, 20]
0	0xbd5c6450	-0.053806603
1	0x3e36cbaf	0.17851137
2	0x3f0a807c	0.541023
3	0x3fb0e5b4	1.38201
4	0xbf3cf031	-0.73804003
5	0x3eb9fffc	0.36328113
6	0xbe9ab93d	-0.3021945
7	0xbcd6f3fe	-0.026239391
8	0x3f629ecd	0.8852356
9	0xbf348520	-0.7051563
10	0x3e538a1a	0.2065815
11	0x3dc31fcc	0.09527549
12	0xbe67d8ba	-0.22641268
13	0x3eef3bb8	0.4672525
14	0x3d44e653	0.048071217
15	0xbd92d33f	-0.07169198
16	0x3edbbb79	0.42916468
17	0xbe9741c9	-0.29542378
18	0xbed56701	-0.41680148
19	0x3ec2cba7	0.38046
20	0x3e7517eb	0.23934905
21	0xbe547ead	-0.20751448
22	0x3da8a956	0.08235423
23	0x3e375a74	0.17905599
24	0xbe43970d	-0.1910059
25	0xbed991df	-0.42494103
26	0xbdda66f7	-0.1066417
27	0xbe1b29c3	-0.1515265
28	0xbe7d80e4	-0.24756199
29	0xbd8ab00a	-0.06771858
30	0x3df03cac	0.11730322
31	0x3dcb0fc6	0.09915118
32	0x3eb1d242	0.34730726
33	0xbd5d9e08	-0.05410579
34	0xbe032e2c	-0.12810582
35	0xbecfcdf2	-0.4058681
36	0xbcd7b60a	-0.02633192
37	0x3eb451f6	0.3521878
38	0x3cab9961	0.02094716
39	0xbd91a2d6	-0.071111366
40	0x3caafc87	0.020872368
41	0xbead6085	-0.338627
42	0x3f2d2fda	0.6765114
43	0x3f2431ad	0.641383
44	0x3ead4a4a	0.3384574
45	0xbe4748b5	-0.1946133
46	0xbd6a7997	-0.057244863
47	0x3e84737e	0.25869364
48	0xbede5252	-0.4342218
49	0xbe942500	-0.2893448
50	0xbded6497	-0.115914516
51	0xbeb4b605	-0.3529512
52	0xbdcec84d	-0.10096798
53	0x3bce9c75	0.006305272
54	0x3c747b78	0.014922015
55	0x3dee4a38	0.1163525
56	0xbc49c98a	-0.012316117
57	0x3d171db0	0.036893547
58	0xbe895ca3	-0.2682849
59	0xbe3e309e	-0.18573233
60	0xbe0e55d3	-0.13899927
61	0xbe41fc0c	-0.18943805
62	0xbf56bfe8	-0.83886576
63	0xbed3c191	-0.41358617
64	0xbec6fdef	-0.3886561
65	0xbecf9924	-0.40546525
66	0xbd7d8bcb	-0.061900895
67	0xbeb71b08	-0.3576281
68	0xbe9abf27	-0.30223963
69	0x3d28be94	0.041197374
70	0xbe7523e6	-0.23939475
71	0xbeae4ae0	-0.340415
72	0xbd8cb230	-0.06869924
73	0x3eb1fd8e	0.3476376
74	0xbd5d71e9	-0.05406371
75	0x3e6903fd	0.22755428
76	0xbe864c9b	-0.2623032
77	0xbe73aaa9	-0.2379557
78	0xbdddb44a	-0.10825403
79	0x3f172bab	0.5905101
80	0xbe80ffd4	-0.2519518
81	0x3d2da90d	0.042397548
82	0xbdf53d88	-0.11974627
83	0xbf04a2ad	-0.51810724
84	0x3f072b0c	0.5280006
85	0x3cc895e3	0.024485534
86	0xbd754b86	-0.059886478
87	0xbe122a68	-0.14273989
88	0x3df78398	0.120856464
89	0x3ca6588e	0.020305898
90	0x3ddfb921	0.109239824
91	0xbe6da431	-0.23207165
92	0x3dd53c3e	0.10411881
93	0x3e483320	0.19550753
94	0xbd0d721d	-0.034532655
95	0x3df6baa1	0.120473154
96	0x3de363dd	0.11103032
97	0x3d0e4383	0.034732353
98	0x3e26e0af	0.16296647
99	0x3e148a0b	0.14505784
100	0xbdd04e3d	-0.10171173
101	0x3d0f418f	0.03497463
102	0xbe2c1e27	-0.16808377
103	0x3f328af1	0.6974326
104	0xbf1d3932	-0.614154
105	0x3d536c03	0.05161668
106	0x3e0ac2d2	0.1355088
107	0x3e0a2003	0.13488774
108	0xbeb5a6c6	-0.354788
109	0x3e031abb	0.12803166
110	0xbe675ecb	-0.22594754
111	0xbf3cc14e	-0.7373246
112	0xbe8274cc	-0.25479734
113	0xbe5ecba8	-0.21757376
114	0x3e69fed3	0.22851114
115	0xbf4488d7	-0.767713
116	0xbd6535d3	-0.055959534
117	0xbb91359d	-0.00443144
118	0xbec35e4d	-0.38157883
119	0xbd1c7e0f	-0.038206156
120	0x3d208c0f	0.03919607
121	0x3ecd14b8	0.4005487
122	0xbe6a1b71	-0.2286203
123	0x3ca16775	0.019702652
124	0xbda1672c	-0.078810066
125	0x3e4c2ac7	0.19938193
126	0x3f8ddeef	1.1083659
127	0x3fd05a15	1.6277491
128	0xbfde9c33	-1.7391418
129	0x3eb851a5	0.3599979
130	0x3d643206	0.05571177
131	0xbf4a3cf8	-0.7899928
132	0x3eb348ae	0.35016388
133	0xbf1d9cbd	-0.6156729
134	0x3f4d1420	0.80108833
135	0x3ed09537	0.40738842
136	0xbc0e4170	-0.008682594
137	0xbe0d2d63	-0.13786845
138	0x3e8d70ee	0.2762522
139	0x3daa3e47	0.0831266
140	0x3ed72207	0.42018148
141	0x3f98a68d	1.1925827
142	0x3bb5318a	0.005529587
143	0xbeb66052	-0.35620362
144	0x3c8794b3	0.016550398
145	0x3f5f5030	0.8723173
146	0x3f305153	0.6887409
147	0x3f97c01b	1.1855501
148	0x3f0f1db9	0.5590473
149	0x3f76f14e	0.9646195
150	0x3f5e677e	0.86876667
151	0x3e6ed074	0.23321706
152	0x3f1d33fc	0.61407447
153	0xbf5ee35a	-0.8706566
154	0x3f678258	0.90433264
155	0x3f473c45	0.7782634
156	0x3f10d3bf	0.565731
157	0x3f38802b	0.7207057
158	0x3ee1051f	0.4394922
159	0x3e9579f5	0.29194608
160	0xbe0d3f88	-0.13793766
161	0xbe603b78	-0.21897686
162	0xbebd732d	-0.37001935
163	0xbe52c481	-0.20582773
164	0xbf041492	-0.5159389
165	0xbeed4109	-0.4633868
166	0x3e16c833	0.14724807
167	0x3d3aa8b2	0.045571037
168	0x3f1ce53f	0.612873
169	0x3ea45a99	0.3210037
170	0x3cb74d66	0.022375774
171	0x3d437d9e	0.04772722
172	0xbc8f8bfa	-0.0175228
173	0x3ed27740	0.41106606
174	0xbe749f54	-0.23888904
175	0xbd86bfbb	-0.065795384
176	0x3d60793a	0.05480311
177	0xbeab9920	-0.33515263
178	0xbe862443	-0.2619954
179	0xbdcb3f5d	-0.09924195
180	0xbdc47375	-0.09592334
181	0xbd56961e	-0.052389257
182	0xbe844314	-0.25832427
183	0x3e33b9ed	0.17551394
184	0xbe60fb21	-0.21970798
185	0x3eb7cf9d	0.35900584
186	0xbd4707a0	-0.048591256
187	0xbd8a48e3	-0.06752183
188	0x3fea0696	1.828326
189	0xbec905f7	-0.39262363
190	0x3e8ab161	0.27088454
191	0x3dad1d6b	0.08452877
192	0xbdb5d729	-0.08878929
193	0x3ebb2e60	0.3655882
194	0x3e0fd47b	0.14045899
195	0xbe6cb2d6	-0.23115095
196	0x3d82f179	0.063937135
197	0x3e4b39f7	0.1984633
198	0x3f2fe303	0.6870577
199	0x3dd0d61c	0.10197088
200	0xbe822071	-0.25415376
201	0x3eca0619	0.39457777
202	0x3e892253	0.26784
203	0x3de57d81	0.112055786
204	0x3e169bf6	0.14707932
205	0x3e75e533	0.24013214
206	0x3e4a571c	0.19759792
207	0x3e1de012	0.15417507
208	0x3dabf3fb	0.08396145
209	0x3d82fc56	0.063957855
210	0x3da546dc	0.08070156
211	0xbf2acb07	-0.66716045
212	0x3e0f2c2a	0.13981691
213	0xbeb88567	-0.36039278
214	0x3d90483e	0.07045029
215	0x3e6c121e	0.23053786
216	0xbecb0c5e	-0.39657873
217	0xbe3d3aaa	-0.1847941
218	0x3dc72ce7	0.09725361
219	0xbea56898	-0.3230636
220	0xbf1fc9b1	-0.6241713
221	0xbe2bf2eb	-0.16791885
222	0xbeb4be35	-0.35301366
223	0x3fc2a12c	1.5205436
224	0xbf29021d	-0.6601885
225	0x3dbfc3f3	0.09363546
226	0xbed3a172	-0.4133411
227	0xbea75c43	-0.32687578
228	0x3ef073f3	0.46963462
229	0xbf991573	-1.1959671
230	0xbeadc6a9	-0.33940628
231	0xbf12ca06	-0.57339513
232	0xbe1efc6a	-0.15525976
233	0xbd09c84a	-0.033638276
234	0xbe7e5d77	-0.24840342
235	0x3f00093c	0.5001409
236	0xbedc7d6c	-0.4306444
237	0xbe563a94	-0.20920783
238	0xbece8d95	-0.40342394
239	0xbefd5cb5	-0.49484792
240	0xbdbbc335	-0.09168092
241	0xbef127b9	-0.47100618
242	0xbe91d111	-0.28479818
243	0x3eeb7151	0.4598489
244	0xbdded9cc	-0.10881385
245	0xbe4f2371	-0.20228364
246	0xbe4cd234	-0.20002061
247	0xbe567677	-0.20943628
248	0xbfa50f59	-1.2895309
249	0xbf09a3fa	-0.53765833
250	0xbeac645f	-0.33670327
251	0x3e1990e2	0.14996675
252	0xbc4b4167	-0.01240573
253	0x3ed4cf55	0.41564432
254	0xbe9d19fa	-0.3068388
255	0xbedac0ad	-0.42725125

embedder.emb_rnn.bias_ih_l2 f4 [60]
0	0x3f7dad64	0.990927
1	0x3f56578c	0.83727336
2	0x3f7fb4f8	0.9988551
3	0x3f797fd3	0.9746067
4	0x3f634efc	0.88792396
5	0x3f5bd46c	0.85871005
6	0x3f590d88	0.8478627
7	0x3f5e4788	0.868279
8	0x3f84d7f3	1.0378402
9	0x3f8fff2f	1.1249751
10	0x3f8b4a6c	1.0882087
11	0x3f81c5b7	1.0138463
12	0x3f818b77	1.0120686
13	0x3f907e8d	1.128862
14	0x3fb21f30	1.3915768
15	0x3f8bece4	1.0931668
16	0x3f5aa9ec	0.8541553
17	0x3f77767b	0.9666516
18	0x3f6cf1c3	0.925564
19	0x3f89b37f	1.0757903
20	0x3f7fcd8a	0.99923
21	0x3f4a2df1	0.7897635
22	0x3f23a8c1	0.63929373
23	0x3ef24c1e	0.47323698
24	0xbf0e1ec1	-0.55515677
25	0x3f1f6117	0.6225752
26	0x3f3c42e9	0.73539597
27	0x3ef8f524	0.48624527
28	0x3ea07e85	0.31346527
29	0x3f34f038	0.70679045
30	0x3f1b1508	0.60578966
31	0x3edb833d	0.42873564
32	0x3f688c3d	0.90838987
33	0x3f2aa5a6	0.6665901
34	0x3f18569c	0.59507155
35	0x3f725968	0.94667673
36	0x3f2949d9	0.6612831
37	0x3f741d6b	0.9535739
38	0x3db76aca	0.08955915
39	0x3f70cf8f	0.9406671
40	0x3f66475f	0.89952654
41	0x3f6f902c	0.93579364
42	0x3f594865	0.8487609
43	0x3f5dc0c6	0.86622274
44	0x3f79cf57	0.97582
45	0x3f7e3712	0.9930278
46	0x3f79fc60	0.9765072
47	0x3f739d7e	0.9516219
48	0x3f47d4cf	0.78059095
49	0x3f44a8d1	0.76820093
50	0x3f4f50be	0.8098258
51	0x3f4ef3d3	0.80840796
52	0x3f696c1c	0.91180587
53	0x3f534ae2	0.8253614
54	0x3f96830d	1.1758744
55	0x3f47ad7a	0.7799908
56	0x3f78bc63	0.97162455
57	0x3f7b9301	0.98271185
58	0x3f4adc05	0.79241973
59	0x3f586ff1	0.8454581

embedder.emb_rnn.bias_hh_l2 f4 [60]
0	0xbc14886a	-0.009065727
1	0xbe26a246	-0.1627284
2	0xba93f3fe	-0.0011287925
3	0xbcd01283	-0.025399452
4	0xbde588bc	-0.11207721
5	0xbe10ae92	-0.14129093
6	0xbe1bc9fc	-0.1521377
7	0xbe06e0dd	-0.13171716
8	0x3d1af53f	0.03783154
9	0x3dfff391	0.124976285
10	0x3db4a9f0	0.088214755
11	0x3c62f657	0.013852677
12	0x3c45ddbe	0.012076793
13	0x3e03f7c7	0.12887488
14	0x3ec87d07	0.39157888
15	0x3dbed944	0.09318784
16	0xbe155733	-0.14584045
17	0xbd08a133	-0.033356857
18	0xbd98723e	-0.07443665
19	0x3d9b35dc	0.07578632
20	0xba48df02	-0.0007662625
21	0xbe574825	-0.21023615
22	0xbeb8ae6d	-0.36070576
23	0xbf06d994	-0.5267575
24	0xbfc70f82	-1.5551608
25	0xbec13ca5	-0.3774158
26	0xbe877b26	-0.26461142
27	0xbf0384fe	-0.51374805
28	0xbf2fc03f	-0.6865272
29	0xbe961f72	-0.29320866
30	0xbec9d711	-0.39421895
31	0xbf123e68	-0.57126474
32	0xbdbb9bca	-0.09160574
33	0xbeaab461	-0.33340743
34	0xbecf5250	-0.40492487
35	0xbd5a6a33	-0.053323936
36	0xbead6cdc	-0.33872116
37	0xbd3e253f	-0.04642224
38	0xbf691320	-0.9104481
39	0xbd730646	-0.059332155
40	0xbdc85694	-0.097821385
41	0x3d3b1068	0.045669943
42	0xbe279370	-0.16364837
43	0xbe1c3322	-0.1525388
44	0xbcfa00f1	-0.030518027
45	0x3ca8bb87	0.020597233
46	0x3de03f62	0.10949589
47	0xbdec2f5c	-0.115324706
48	0xbe9a2c9c	-0.3011216
49	0xbe619652	-0.22029999
50	0xbe4e3a02	-0.20139316
51	0xbe88d2a2	-0.267232
52	0xbdacb1e5	-0.08432368
53	0xbeafce1b	-0.34336933
54	0x3f21336d	0.62969095
55	0xbe74cfbd	-0.23907371
56	0xbdfe58cf	-0.12419283
57	0xbd96cdd3	-0.073634766
58	0xbe0b1916	-0.13583788
59	0xbe347006	-0.17620859
