output/FEM_GAN_50/model.pt (torch, 153208 bytes, 65 tensors)

embedder.emb_rnn.weight_ih_l0 f4 [60, 10]
-0.00051442906 0.27553502 0.12519789 -0.16993518 0.051150735 0.106988 0.117603794 0.183016
0.2617686 0.3482946 0.4168273 0.29810825 0.47524497 0.18920395 0.17883594 0.011026362
-0.074560076 0.34069657 0.14877473 -0.10161118 -0.26385322 -0.18466341 -0.5653641 -0.35310808
-0.30526674 -0.36476904 0.26952302 -0.13646387 0.1559318 -0.039857097 -0.5109051 -0.03733132
-0.2516741 -0.057698354 0.28474456 0.16449217 0.22524749 0.31068945 0.024385722 0.030665005
0.066761054 0.5379774 0.43886143 0.41520524 0.43374166 0.22395222 0.07540926 -0.07263445
-0.4270708 -0.023348253 0.2333494 1.7837323 2.1350255 2.2420714 1.9886975 1.4616243
1.4980831 1.0977223 1.1200994 1.3097556 -0.2607881 -0.3897505 0.15950175 0.09655869
0.22280096 0.6127369 -0.8296578 -0.8670722 -0.3566872 -0.502092 0.33776855 -0.1538203
-0.15465227 -0.24878335 0.24049532 -0.17756107 0.14990042 0.13500151 -0.020973094 0.20405848
0.36091882 -0.036206275 -0.0857759 0.1706864 0.1269556 -0.05844176 -0.07692635 0.13118921
0.11735527 0.031160956 -0.45513883 -0.0029377872 0.20535173 0.10760289 0.008293998 -0.25972202
-0.2161115 0.08939862 -0.07579362 -0.07961303 0.30847457 0.008508121 0.3081836 0.4059122
0.22131391 0.22406906 -0.42879227 -0.30091134 -0.23914751 -0.37201256 0.17204453 0.3743442
-0.13033336 0.38100898 -0.11905219 0.006554457 0.29135093 0.2171341 0.21767014 0.025792135
0.31098634 -0.18446101 0.24930327 0.22237211 0.2935671 -0.1888106 0.064249724 0.06452625
0.29581076 0.14339627 -0.21359 0.27146924 -0.11770343 0.0312737 0.053195033 0.22118567
0.20778617 -0.14545892 -0.25566602 0.046766713 -0.2506415 0.28548288 0.22956198 0.25385618
-0.09751423 0.22006899 -0.28074247 -0.10953483 -0.14715537 -0.25579333 -0.26694584 -0.025308898
0.34234613 0.21158993 0.27120665 0.19788054 0.0068378737 0.14129688 0.011068406 0.039710585
0.086262874 -0.1172463 -0.54134095 -0.47672215 -0.5026188 -0.31874043 0.21650147 -0.1198095
0.22016251 -0.11561845 -0.4139033 -0.28677 -0.1044849 0.032499988 0.13863939 -0.19505677
-0.15237711 -0.2086897 -0.42730454 -0.33213666 -0.09559265 0.16816014 0.11560678 -0.095755175
0.33203697 0.13528302 0.010368238 -0.18903932 0.2703073 -0.07832222 0.2694552 0.09078024
-0.54608005 -0.4907361 0.006335364 -0.20248711 0.22578603 0.16123024 -0.1461767 -0.15249765
0.8720176 0.6725159 -0.6005737 -0.5801962 0.43887943 0.5082121 -0.47530088 -0.054670673
-0.45486456 -0.34887353 1.7234712 0.68043923 -0.25260454 -0.7063666 0.08286656 0.4631615
-0.63423693 -0.74256486 -0.45136943 -0.8842486 -0.9251109 0.089496054 -0.21501845 -0.09364931
0.12981279 -0.33375743 -0.46265292 -0.24086858 -0.4061677 -0.00117858 0.23772538 0.5602162
0.33244783 0.39617035 0.46613452 0.298629 -0.62889874 -0.23275118 -0.5313291 -0.41399294
-0.46896258 0.58467007 0.32101738 0.17388 -0.034617446 0.37261862 -0.62489796 -0.6287391
-0.49325225 -0.31851354 0.928635 0.55422705 -0.026336504 0.13756387 0.331137 0.32011074
00000000: c0da 06ba ed12 8d3e e033 003e 7d03 2ebe
00000010: 6f83 513d 861c db3d 42da f03d 8c68 3b3e
00000020: 8906 863e ab53 b23e 636a d53e a5a1 983e
00000030: 4f53 f33e aebe 413e c520 373e eaa7 343c
00000040: f4b2 98bd c86f ae3e 6758 183e 8619 d0bd
00000050: c517 87be 6818 3dbe b4bb 10bf 95ca b4be
00000060: ec4b 9cbe 02c3 babe ecfe 893e 2fbd 0bbe
00000070: 96ac 1f3e 3241 23bd adca 02bf bae8 18bd
00000080: 6ddb 80be 1c55 6cbd 0aca 913e a370 283e
00000090: 47a7 663e b012 9f3e 91c4 c73c 2d35 fb3c
000000a0: 05ba 883d e3b8 093f 72b2 e03e c895 d43e
000000b0: 6313 de3e bb53 653e 2c70 9a3d 5fc1 94bd
000000c0: 06a9 dabe d644 bfbc 25f3 6e3e 5751 e43f
000000d0: 42a4 0840 197e 0f40 a48d fe3f 8116 bb3f
000000e0: 30c1 bf3f 2a82 8c3f 6b5f 8f3f 12a6 a73f
000000f0: 0586 85be 618d c7be 6d54 233e 90c0 c53d
00000100: ef25 643e 53dc 1c3f 7464 54bf 72f8 5dbf
00000110: b49f b6be 1a89 00bf 00f0 ac3e 1283 1dbe
00000120: 2a5d 1ebe 10c1 7ebe 6844 763e 92d2 35be
00000130: 7f7f 193e d63d 0a3e c4cf abbc b5f4 503e
00000140: 5aca b83e 084d 14bd 46ab afbd 6ac8 2e3e
00000150: a600 023e a060 6fbd 908b 9dbd 7756 063e
00000160: f657 f03d 4345 ff3c f507 e9be e487 40bb
00000170: b947 523e e75e dc3d 8de3 073c 49fa 84be
00000180: 554c 5dbe a016 b73d af39 9bbd 280c a3bd
00000190: 61f0 9d3e a565 0b3c 3eca 9d3e b9d3 cf3e
000001a0: 1da0 623e 5c72 653e a98a dbbe 0d11 9abe
000001b0: 16e3 74be 6e78 bebe 712c 303e 0baa bf3e
000001c0: 1c76 05be 9c13 c33e a2d1 f3bd c5c6 d63b
000001d0: f32b 953e 6758 5e3e ece4 5e3e 074a d33c
000001e0: 9a39 9f3e 59e3 3cbe 5b49 7f3e 84b5 633e
000001f0: 6d4e 963e 9157 41be 5c95 833d 5726 843d
00000200: 8274 973e 79d6 123e 56b7 5abe 04fe 8a3e
00000210: 7f0e f1bd da18 003d 09e3 593d 7f7e 623e
00000220: e6c5 543e 2ff3 14be a8e6 82be 748e 3f3d
00000230: 1554 80be d02a 923e 4c12 6b3e 70f9 813e
00000240: 8ab5 c7bd c459 613e 7abd 8fbe cc53 e0bd
00000250: e6af 16be 58f7 82be 20ad 88be 9b54 cfbc
00000260: fe47 af3e 08ab 583e 99db 8a3e 32a1 4a3e
00000270: 3e10 e03b 21b0 103e 4258 353c 91a7 223d
00000280: 97aa b03d d41e f0bd 5295 0abf ed14 f4be
00000290: a0ab 00bf f231 a3be 90b2 5d3e af5e f5bd
000002a0: 4872 613e 5ec9 ecbd 22eb d3be 84d3 92be
000002b0: 2efc d5bd b51e 053d 7cf7 0d3e f6bc 47be
000002c0: bf08 1cbe c1b2 55be a9c7 dabe d10d aabe
000002d0: 14c6 c3bd 2c32 2c3e 3fc3 ec3d 4a1b c4bd
000002e0: c000 aa3e a287 0a3e 8bdf 293c 8693 41be
000002f0: b865 8a3e 6667 a0bd 08f6 893e feea b93d
00000300: e7cb 0bbf c341 fbbe e398 cf3b c858 4fbe
00000310: 7434 673e 8a19 253e 58af 15be 5828 1cbe
00000320: 8c3c 5f3f 012a 2c3f 33bf 19bf bd87 14bf
00000330: ceb4 e03e 301a 023f a35a f3be 5bee 5fbd
00000340: 02e4 e8be 8d9f b2be b49a dc3f 4431 2e3f
00000350: 6255 81be 71d4 34bf f1b5 a93d 8123 ed3e
00000360: 5a5d 22bf bb18 3ebf e519 e7be 1e5e 62bf
00000370: 11d4 6cbf b549 b73d cc2d 5cbe 36cb bfbd
00000380: a5ed 043e 41e2 aabe d8e0 ecbe 41a6 76be
00000390: 36f5 cfbe 957a 9aba 486e 733e 546a 0f3f
000003a0: 9a36 aa3e d7d6 ca3e 2fa9 ee3e e6e5 983e
000003b0: 82ff 20bf 5356 6ebe 2f05 08bf e2f6 d3be
000003c0: dd1b f0be f0ac 153f 645c a43e 990d 323e
000003d0: 06cb 0dbd dec7 be3e 50f9 1fbf 0cf5 20bf
000003e0: 8f8b fcbe 3514 a3be 06bb 6d3f d3e1 0d3f
000003f0: a7bf d7bc 8bdd 0c3e ca8a a93e 8ee5 a33e

embedder.emb_rnn.weight_hh_l0 f4 [60, 20]
-0.28055096 0.14567646 0.043079633 0.0063702567 0.19414054 0.08186844 0.10958329 0.15411295
-0.041632853 -0.2292952 -0.20060752 0.20345056 -0.14790079 0.25723207 0.1149248 -0.10045993
0.029057037 0.1915413 0.22743306 -0.0016735173 0.49011934 -0.09633156 0.2581398 -0.017601814
0.5167938 0.010479518 0.3818069 0.5602503 0.15126085 0.07142459 0.2652688 0.15755503
-0.030827165 0.09668422 0.3787042 0.29738384 0.18475713 0.26631325 0.1648709 0.5886956
0.20831414 0.0472388 0.067269266 -0.23088202 0.09624363 0.0734763 0.12540072 0.014102823
-0.14025728 -0.28297144 -0.17357302 0.090493016 0.03886576 0.20583844 -0.28340057 0.071868174
0.18527001 -0.08647266 -0.018995328 -0.2361393 -0.110439 0.24186787 -0.37487382 0.007845583
-0.29278532 0.008091153 0.031024937 -0.20572606 -0.5230099 -0.20591454 0.5046098 -0.32844228
0.10951396 -0.30749863 -0.04663728 -0.3755595 -0.5962621 -0.018175675 0.04636356 -0.29767677
-0.29400608 -0.013301054 0.118799575 -0.06445786 -0.25268963 -0.32291922 0.055076856 -0.23606166
-0.23075211 -0.048399065 -0.33127263 -0.23412032 -0.3384411 -0.065496504 -0.33223042 0.0016368021
0.12272975 -0.050739385 0.05152062 0.086902104 0.20889202 -0.19094451 0.0031310727 0.05018995
-0.38693407 0.34364623 -0.14875911 0.10869264 0.09495441 -0.17041531 0.027756339 -0.23051202
0.3012924 0.100393854 -0.20078686 0.0063882926 -0.26575592 -0.14328119 0.11936667 -0.039246533
0.16790983 -0.08022471 0.05437303 0.035691623 -0.021744458 0.10455724 -0.29470927 -0.3125806
0.002519997 -0.03354206 0.3537028 -0.28493553 -0.097247146 -0.123470925 0.026808009 -0.13505618
-0.1151385 0.117497005 -0.21525596 0.001824443 -0.020458866 0.23340659 -0.15930866 -0.055601623
-0.17185885 -0.06833247 0.13640818 0.06332713 0.24422127 0.14569402 -0.07149342 0.13591179
-0.14616111 0.092573546 -0.13139707 -0.18333036 0.058459178 -0.15840498 0.009340521 0.115394935
-0.027606526 -0.15563428 0.011335397 -0.15791856 0.25195438 -0.19750278 -0.213875 0.12116738
-0.020464266 -0.3593957 -0.4382926 -0.14814143 0.15607743 -0.36492625 0.18669626 0.04995275
0.4838468 -0.32309595 0.16319078 0.20760508 -0.24247223 0.52082324 -0.022160446 -0.26026422
-0.1359818 -0.23552077 -0.07542577 0.19775344 -0.0998488 0.28273264 0.24849913 0.043742936
-0.12646186 0.09485461 -0.25836775 -0.16576767 -0.28089 -0.1030962 0.27003932 -0.18111505
0.19051419 -0.018330429 -0.12412814 -0.13508563 -0.0950012 -0.13036917 -0.017669983 0.036800575
-0.109182455 0.016559318 -0.062525295 0.20499007 -0.36962986 -0.18018527 -0.25361535 0.10860346
-0.027432863 0.25962287 0.14025907 0.035244357 0.18110882 -0.11401036 0.20565996 -0.20895468
0.15872061 -0.19351675 0.1916849 -0.0036712936 0.1930109 -0.25704202 0.09067899 0.17295773
0.016877254 0.2873137 0.3301773 0.0073349024 0.5885458 0.14168948 0.20757443 0.13822146
0.17101076 -0.048064 0.08350543 0.19593258 0.15490107 0.10346989 -0.119216666 -0.1949678
-0.25175104 0.25578672 0.055919338 0.051326342 -0.12955405 -0.064406656 0.10042597 -0.25705147
00000000: 60a4 8fbe 362c 153e 4574 303d 96bd d03b
00000010: c7cc 463e a4aa a73d 346d e03d c9cf 1d3e
00000020: 3687 2abd 5ccc 6abe 0f6c 4dbe 5855 503e
00000030: 4e73 17be ecb3 833e b25d eb3d f0bd cdbd
00000040: 0609 ee3c 6723 443e 36e4 683e ec59 dbba
00000050: ecf0 fa3e 7b49 c5bd e62a 843e ae31 90bc
00000060: 994c 043f 49b2 2b3c 327c c33e 906c 0f3f
00000070: 20e4 1a3e 0e47 923d 50d1 873e 1b56 213e
00000080: 4089 fcbc 6002 c63d 84e5 c13e b242 983e
00000090: f930 3d3e 365a 883e ebd3 283e c1b4 163f
000000a0: 4d50 553e 797d 413d 78c4 893d 566c 6cbe
000000b0: 611b c53d be7a 963d 0c69 003e 870f 673c
000000c0: 9b9f 0fbe a2e1 90be 20bd 31be 6754 b93d
000000d0: b431 1f3d 50c7 523e e119 91be 9f2f 933d
000000e0: 6cb7 3d3e 9418 b1bd 179c 9bbc 80ce 71be
000000f0: d82d e2bd 36ac 773e 76ef bfbe c38a 003c
00000100: f5e7 95be c190 043c 0228 fe3c daa9 52be
00000110: fae3 05bf 43db 52be 1c2e 013f 9629 a8be
00000120: db48 e03d 7670 9dbe bc06 3fbd 5649 c0be
00000130: a2a4 18bf 27e5 94bc b7e7 3d3d 1769 98be
00000140: f787 96be aaec 59bc 314d f33d 7c02 84bd
00000150: 8960 81be ab55 a5be 4598 613d 26ba 71be
00000160: 484a 6cbe 193e 46bd 919c a9be 3dbd 6fbe
00000170: 2748 adbe 0823 86bd 1b1a aabe f789 d63a
00000180: bc59 fb3d 1ad4 4fbd 4907 533d bbf9 b13d
00000190: cae7 553e f586 43be af32 4d3b fa93 4d3d
000001a0: 391c c6be 66f2 af3e 4f54 18be 3f9a de3d
000001b0: 7577 c23d 5a81 2ebe 4361 e33c 580b 6cbe
000001c0: ff42 9a3e 4b9b cd3d 129b 4dbe e254 d13b
000001d0: 2911 88be 4eb8 12be 8376 f43d f9c0 20bd
000001e0: 8ef0 2b3e da4c a4bd 41b6 5e3d 6131 123d
000001f0: 6f21 b2bc 1b22 d63d 22e4 96be 900a a0be
00000200: 8926 253b 6663 09bd 8918 b53e 12e3 91be
00000210: 8329 c7bd 53de fcbd 789c db3c 2b4c 0abe
00000220: bccd ebbd 45a2 f03d 0f6c 5cbe 2622 ef3a
00000230: 5a99 a7bc 2302 6f3e cf21 23be 87be 63bd
00000240: c4fb 2fbe e5f1 8bbd 96ae 0b3e a8b1 813d
00000250: 2415 7a3e d030 153e 246b 92bd 762c 0b3e
00000260: 42ab 15be 3397 bd3d f48c 06be f4ba 3bbe
00000270: e472 6f3d ea34 22be fc08 193c 2e54 ec3d
00000280: 1527 e2bc 985e 1fbe 1ab8 393c 67b5 21be
00000290: 2a00 813e 2b3e 4abe 0c02 5bbe 9a26 f83d
000002a0: ada4 a7bc b702 b8be e367 e0be 63b2 17be
000002b0: c3d2 1f3e 9dd7 babe 4e2d 3f3e 419b 4c3d
000002c0: c5ba f73e d56c a5be 7c1b 273e 6d96 543e
000002d0: a44a 78be ac54 053f d389 b5bc 5a41 85be
000002e0: d03e 0bbe 5b2c 71be d378 9abd e17f 4a3e
000002f0: 877d ccbd 55c2 903e 8e76 7e3e cb2b 333d
00000300: 387f 01be 2243 c23d c748 84be 00bf 29be
00000310: d0d0 8fbe 1a24 d3bd 9842 8a3e 3976 39be
00000320: 2716 433e b229 96bc e536 febd e353 0abe
00000330: fd8f c2bd 7f7f 05be a4c0 90bc 33bc 163d
00000340: 0d9b dfbd 68a7 873c 430d 80bd ebe8 513e
00000350: 2040 bdbe 7d82 38be dfd9 81be 7e6b de3d
00000360: e2ba e0bc 4aed 843e 13a0 0f3e 635c 103d
00000370: 9774 393e 437e e9bd 8698 523e 37f8 55be
00000380: a887 223e 4129 46be 0c49 443e 169a 70bb
00000390: a6a4 453e 039b 83be e8b5 b93d d51b 313e
000003a0: 2b42 8a3c c81a 933e 000d a93e 9f59 f03b
000003b0: f0aa 163f 0c17 113e 648e 543e ed89 0d3e
000003c0: 721d 2f3e c2de 44bd e504 ab3d 8da2 483e
000003d0: 639e 1e3e 06e8 d33d de27 f4bd a4a5 47be
000003e0: 83e5 80be 7af6 823e ad0b 653d 923b 523d
000003f0: d1a9 04be a3e7 83bd 22ac cd3d 409c 83be

embedder.emb_rnn.bias_ih_l0 f4 [60]
0.9931067 1.2702289 0.8957595 0.7837764 0.9072659 0.8918467 0.9531974 1.0037519
1.0064833 0.94975114 1.0354493 1.0590878 0.9495642 0.9923609 0.96107745 0.9869069
0.8479091 1.0111489 1.1087481 1.2735895 0.5195784 0.25587657 0.43360052 1.0468056
0.65739334 0.30965495 0.5717831 0.7595956 1.0113362 1.0781499 0.8328327 1.022766
0.7788835 0.7179027 0.6242024 -1.2129699 0.26338854 1.1033393 0.3122321 0.27411944
1.0529946 0.72948587 1.016113 0.9592559 0.87405294 0.98709154 0.9704173 1.0142659
1.0571731 0.9364221 0.74319035 1.0185047 1.0042936 0.99624157 1.034642 1.0702066
1.0452064 0.9060042 0.8784177 1.3408716
00000000: 3e3c 7e3f dc96 a23f 7f50 653f 92a5 483f
00000010: 9442 683f 1150 643f bf04 743f f17a 803f
00000020: 72d4 803f e422 733f 9a89 843f 3090 873f
00000030: a416 733f 5d0b 7e3f 2c09 763f eea5 7c3f
00000040: 9210 593f 546d 813f 75eb 8d3f fb04 a33f
00000050: 1703 053f 4102 833e e300 de3e bafd 853f
00000060: ee4a 283f 188b 9e3e 6160 123f db74 423f
00000070: 7773 813f d100 8a3f 8634 553f ffe9 823f
00000080: e964 473f 79c8 373f bacb 1f3f 9942 9bbf
00000090: ddda 863e 393a 8d3f e3dc 9f3e 6259 8c3e
000000a0: 87c8 863f 96bf 3a3f fe0f 823f cb91 753f
000000b0: efc1 5f3f 08b2 7c3f 456d 783f 77d3 813f
000000c0: 7351 873f 5cb9 6f3f b941 3e3f 5d5e 823f
000000d0: b18c 803f b009 7f3f 266f 843f 88fc 883f
000000e0: 53c9 853f e4ef 673f fbdf 603f aea1 ab3f

embedder.emb_rnn.bias_hh_l0 f4 [60]
-0.0068924045 0.27022946 -0.10423786 -0.21622479 -0.09273514 -0.10815002 -0.04680384 0.0037438571
0.006480151 -0.050249163 0.03545108 0.059089474 -0.050435714 -0.007641771 -0.038922533 -0.013092031
-0.15208599 0.011145638 0.108757555 0.27359262 -0.48041904 -0.7441199 -0.56639975 0.04680566
-0.34260234 -0.69034255 -0.4282139 -0.24040458 0.011335531 0.078151084 -0.16716836 0.022764685
-0.22111388 -0.2821006 -0.37579653 -2.212969 -0.73660994 0.103342265 -0.6877624 -0.72588634
0.0405409 -0.25477314 0.059319276 -0.018557776 -0.12638569 0.107058436 -0.16967878 0.005530807
0.058841884 -0.03150356 -0.2984337 0.026476424 -0.0074297464 -0.0024432659 0.06790321 0.054708686
0.099749655 -0.1297762 -0.12324825 0.39581823
00000000: aed9 e1bb 845b 8a3e a97a d5bd 086a 5dbe
00000010: eceb bdbd c27d ddbd 62b5 3fbd 805b 753b
00000020: 7257 d43b 11d2 4dbd 2735 113d ce07 723d
00000030: ae95 4ebd d267 fabb 3c6d 1fbd f57f 56bc
00000040: 6ebc 1bbe 329c 363c 48bc de3d 5514 8c3e
00000050: 7cf9 f5be a47e 3ebf 93ff 10bf 4bb7 3f3d
00000060: 9369 afbe 4aba 30bf da3e dbbe 9e2c 76be
00000070: aab8 393c ad0d a03d 2f2e 2bbe 017d ba3c
00000080: ad6b 62be 7d6f 90be 6768 c0be 49a1 0dc0
00000090: 7892 3cbf 1ca5 d33d 3211 30bf b0d3 39bf
000000a0: 370e 263d a071 82be c5f8 723d 7a06 98bc
000000b0: 406b 01be 7441 db3d 46c0 2dbe c63b b53b
000000c0: 3004 713d e009 01bd 4dcc 98be 16e5 d83c
000000d0: 3b75 f3bb 331f 20bb d710 8b3d 3716 603d
000000e0: 8c49 cc3d 0de4 04be 9469 fcbd b0a8 ca3e

embedder.emb_rnn.weight_ih_l1 f4 [60, 20]
0.11114843 0.20287141 -0.13057777 -0.040078398 0.055157185 -0.042909488 -0.034418225 -0.17390335
0.051554833 0.14996724 -0.31889674 0.18845215 -0.052737355 0.17075886 -0.13229136 -0.17815214
-0.0034433706 0.068752125 -0.05955031 0.18259236 -0.37325388 0.07719876 0.009207196 -0.18461017
0.1386419 -0.06415597 -0.20068906 0.058167487 0.07061554 0.0032690563 -0.003312167 0.20541912
-0.06956181 0.21991162 -0.21065076 -0.200201 -0.2708733 -0.3882459 0.0264851 -0.18715785
0.0791288 0.048929535 -0.005455544 -0.12808822 -0.25626633 0.08449086 0.038672086 0.19734763
-0.1895984 -0.24934064 -0.20256191 0.20264322 -0.8613822 0.04737509 0.15503329 -0.020132847
-0.16737932 -0.030065957 0.28934178 0.1177489 0.048949067 0.28053543 -0.13556212 0.0009065496
-0.34946388 0.24067423 0.11710184 0.040233653 -0.12345651 -0.027995853 0.5092927 0.045774225
0.59409446 0.05873119 -0.25094587 0.13499191 -0.2968998 -0.03304559 -0.12396803 0.02213899
-0.049936417 0.018880326 -0.19072153 -0.060747437 0.14463115 0.14345421 -0.37791497 -0.02971102
0.101684004 -0.07522824 0.005640677 0.09349666 -0.27376541 0.21151756 -0.23427048 -0.14837621
-0.04232642 0.09524343 0.23325707 0.06626077 0.14304125 0.102214165 0.055083945 0.035779998
-0.19692747 -0.1605799 0.14873889 -0.13333307 -0.3268009 0.21451405 0.06441878 -0.3032225
-0.072702006 0.28087568 0.30208886 0.11420966 0.16075316 0.07245205 0.3226834 -0.16117871
-0.0794573 0.10112107 -0.4845819 -0.26228076 -0.22782612 -0.10928831 -0.2704578 -0.049123794
-0.1452322 -0.06766111 0.3346637 -0.39842248 0.016815688 -0.10758106 0.122433 0.008477978
-0.45774046 0.022864912 -0.17002717 -0.15946227 -0.11082471 0.17771702 0.26381713 0.05873413
-0.11687709 -0.14036863 0.20179242 0.037721314 0.11741324 -0.23938172 -0.41165423 0.09324498
0.3749044 0.033047907 -0.2879776 -0.110268965 0.51739204 -0.08007808 0.27916425 0.08082432
0.1116295 0.14354667 -0.14448008 0.11445218 0.1954645 -0.3362533 0.080264166 0.08700325
-0.1449112 -0.14234369 -0.018694634 0.15754887 -0.53475666 0.017547034 0.17354348 -0.17896162
0.082245454 -0.05038268 -0.14012176 0.04580608 -0.56663084 0.17519817 -0.24112803 -0.14513311
0.116243415 -0.22168133 -0.093672454 0.046622906 -0.29946578 -0.12393557 -0.33907276 -0.04113266
-0.06302724 -0.586433 -0.32158726 0.23094559 -0.18906996 -0.016215736 -0.1657927 -0.22677071
0.027419329 -0.12235858 -0.28065765 -0.09851203 0.13313869 -0.0046508037 0.052202918 -0.22668134
-0.16778323 -0.18026836 -0.10109342 0.13772643 -0.37616712 -0.49326771 -0.062293466 -0.046682093
-0.5081099 -0.15799768 0.10964709 -0.11058562 -0.05389932 0.049826033 -0.21418485 0.032036018
-0.0932822 -0.09039131 -0.2038938 0.12642118 0.19576198 -0.3533743 0.22464052 0.060836285
-0.39157557 0.19555321 -0.3049558 0.12239937 -0.2010256 0.26018637 0.35291803 0.14366795
-0.122740984 -0.31621426 0.14530343 -0.077516824 -0.084454045 -0.3908855 0.18466699 0.06020432
0.04074264 -0.23472233 0.041717585 0.3949189 -0.6076291 -0.36429727 -0.16611992 -0.20149338
00000000: caa1 e33d 86bd 4f3e 2eb6 05be 3f29 24bd
00000010: 80ec 613d dcc1 2fbd 20fa 0cbd b813 32be
00000020: 292b 533d 0391 193e 6f46 a3be 9af9 403e
00000030: 2003 58bd 69db 2e3e 6377 07be 846d 36be
00000040: 2caa 61bb eacd 8c3d 07eb 73bd 7ef9 3a3e
00000050: 221b bfbe 621a 9e3d c7d9 163c 730a 3dbe
00000060: 24f8 0d3e 3564 83bd 6f81 4dbe 0841 6e3d
00000070: e19e 903d aa3d 563b f110 59bb 6459 523e
00000080: 6c76 8ebd 8330 613e d5b4 57be 7e01 4dbe
00000090: e8af 8abe 2bc8 c6be 48f7 d83c 4fa6 3fbe
000000a0: 480e a23d 566a 483d 6cc4 b2bb 8f29 03be
000000b0: 5735 83be 8b09 ad3d 9f66 1e3d 7f15 4a3e
000000c0: 1526 42be 2753 7fbe 646c 4fbe b481 4f3e
000000d0: 8b83 5cbf 620c 423d 0cc1 1e3e a4ed a4bc
000000e0: 7c65 2bbe e24c f6bc 9b24 943e 5626 f13d
000000f0: d17e 483d 57a2 8f3e ccd0 0abe 84a5 6d3a
00000100: eeec b2be 4e73 763e 17d3 ef3d 0bcc 243d
00000110: c4d6 fcbd 8f57 e5bc 0261 023f c17d 3b3d
00000120: 9316 183f 1e90 703d fa7b 80be 523b 0a3e
00000130: 4003 98be d05a 07bd f3e2 fdbd d45c b53c
00000140: 218a 4cbd eaaa 9a3c 814c 43be 4ed2 78bd
00000150: 301a 143e a9e5 123e 127e c1be 8664 f3bc
00000160: b43f d03d 4311 9abd 6ed5 b83b 2d7b bf3d
00000170: fb2a 8cbe 0f98 583e 9ae4 6fbe efef 17be
00000180: 785e 2dbd fd0e c33d f1da 6e3e bab3 873d
00000190: 6879 123e a955 d13d b49f 613d 0c8e 123d
000001a0: 5ba7 49be 0f6f 24be 024f 183e 7788 08be
000001b0: 7352 a7be 92a9 5b3e feed 833d fb3f 9bbe
000001c0: cae4 94bd f0ce 8f3e 64ab 9a3e c1e6 e93d
000001d0: 7a9c 243e be61 943d c236 a53e 080c 25be
000001e0: 82ba a2bd 9018 cf3d 1e1b f8be aa49 86be
000001f0: 404b 69be 8dd2 dfbd 7279 8abe 0836 49bd
00000200: c0b7 14be e891 8abd 0a59 ab3e 08fe cbbe
00000210: 0ec1 893c 7553 dcbd 27be fa3d 38e7 0a3c
00000220: f55c eabe 324f bb3c 9a1b 2ebe 144a 23be
00000230: 11f8 e2bd 73fb 353e 0a13 873e 3393 703d
00000240: 415d efbd cbbc 0fbe aca2 4e3e aa81 1a3d
00000250: 5a76 f03d 7b20 75be 58c4 d2be 39f7 be3d
00000260: 78f3 bf3e 3e5d 073d cd71 93be b2d4 e1bd
00000270: ce73 043f faff a3bd 9eee 8e3e 3987 a53d
00000280: 029e e43d e6fd 123e 96f2 13be e865 ea3d
00000290: d927 483e 6429 acbe 8a61 a43d c32e b23d
000002a0: 9a63 14be 8bc2 11be 7d25 99bc 7e54 213e
000002b0: d0e5 08bf ccbe 8f3c 62b5 313e b741 37be
000002c0: 4e70 a83d 125e 4ebd 147c 0fbe 289f 3b3d
000002d0: b80e 11bf 2667 333e 44ea 76be c69d 14be
000002e0: 0711 ee3d 6e00 63be 58d7 bfbd a9f7 3e3d
000002f0: 9453 99be efd1 fdbd f29a adbe b87a 28bd
00000300: 6d14 81bd 7920 16bf 16a7 a4be 007d 6c3e
00000310: 8e9b 41be ddd6 84bc 90c5 29be 9536 68be
00000320: 809e e03c 2397 fabd 5cb2 8fbe adc0 c9bd
00000330: 8255 083e c565 98bb bad2 553d 271f 68be
00000340: 5ecf 2bbe 4598 38be 110a cfbd 2808 0d3e
00000350: fa98 c0be 968d fcbe 6f27 7fbd b935 3fbd
00000360: 7e13 02bf 25ca 21be a78e e03d b77a e2bd
00000370: 89c5 5cbd 6216 4c3d 4653 5bbe 3338 033d
00000380: bd0a bfbd 141f b9bd 89c9 50be 8e74 013e
00000390: d475 483e 7aed b4be 2a08 663e 782f 793d
000003a0: 987c c8be 1a3f 483e 2b23 9cbe 85ac fa3d
000003b0: a8d9 4dbe 2637 853e acb1 b43e b11d 133e
000003c0: a05f fbbd d6e6 a1be 6cca 143e 24c1 9ebd
000003d0: 3ef6 acbd 2522 c8be 5819 3d3e ce98 763d
000003e0: c1e1 263d 0d5b 70be 0fe0 2a3d cf32 ca3e
000003f0: 958d 1bbf 2c85 babe 571b 2abe 4854 4ebe

embedder.emb_rnn.weight_hh_l1 f4 [60, 20]
-0.03171652 -0.27574098 -0.029594524 0.03998011 0.51183295 -0.0716068 0.17338593 0.05379983
0.26418403 -0.23477928 0.17073697 0.38818425 0.22828789 0.11780283 0.089354515 0.16570216
0.06046851 0.10213457 -0.11916506 0.078209065 0.16009204 -0.4938389 0.26342624 0.21801306
0.14425442 -0.11502848 -0.14938664 -0.07496759 0.03781361 -0.2693797 0.27941638 -0.17747237
0.013871844 0.22930156 0.13340351 -0.21948634 -0.21247415 -0.10621488 0.023919962 0.098521076
0.1190437 0.010582764 0.0952837 -0.23968057 0.12755133 0.090590835 -0.4842686 0.03707595
0.11480216 0.098246016 -0.0104851 -0.07342015 -0.14721599 0.13383487 -0.02367732 -0.0606443
-0.11218365 0.2852977 0.22037975 -0.067345284 -0.055954624 -0.8286888 0.044993438 -0.10786082
-0.070640765 -0.22975516 0.34349427 0.012199807 0.12913704 -0.29987305 0.053817242 -0.28114888
-0.23704931 -0.3797192 0.3861596 -0.10224243 -0.022985961 -0.3433769 0.26571986 -0.10507772
-0.21048395 0.18792473 -0.3823637 0.0051279897 -0.3979175 -0.13154617 -0.08560601 -0.060299616
0.015550784 -0.17722566 -0.47923195 0.22893113 0.28584382 -0.24281758 -0.003990988 0.19839579
-0.053108994 -0.08257378 -0.25211743 0.030320982 -0.2822124 0.119894825 0.16595623 -0.01938206
0.12249065 0.059027888 0.16181205 -0.058973167 0.07119582 -0.046325106 0.09789505 -0.06381697
0.22577418 -0.07861703 -0.02142631 -0.0026216388 -0.26187497 0.1429196 -0.08108354 -0.19763266
0.25715652 0.042431213 0.22203593 -0.30663455 -0.18033035 0.14700675 -0.1868223 0.030218575
0.24360351 0.19601847 0.27808744 -0.08843036 -0.044677883 0.16397221 -0.10069796 0.16518074
-0.12418311 0.21507825 -0.13471101 -0.34605533 -0.26444888 -0.13244386 -0.2875351 -0.020060528
-0.05264572 0.15876563 0.35500976 0.10744388 -0.18805908 -0.12943761 -0.1511045 -0.054270223
0.2597872 0.18249784 0.5739608 -0.12638015 0.02305906 0.054305185 0.5363652 -0.16771452
-0.398594 -0.17884748 -0.42999616 -0.16651337 -0.037174392 -0.1345479 0.3026884 0.08036179
-0.01149373 -0.025609795 0.042005174 0.29055166 0.17737234 0.22190306 0.24480449 -0.01765553
-0.22302106 -0.20082685 0.064780615 0.19497877 -0.013363485 -0.3876004 -0.19762123 0.12087888
0.14432617 -0.23281722 0.07953862 -0.30120406 0.2823364 -0.14660001 -0.14650126 -0.067851216
0.24654858 -0.23536341 -0.39212984 -0.052099217 0.061434273 -0.01518889 -0.05570874 -0.002185261
-0.291193 0.024397278 -0.4074705 -0.18580453 0.15590021 -0.023144772 0.3815013 -0.23966022
0.173743 -0.2159728 -0.16216299 -0.25464875 0.3590987 -0.26751772 -0.2138356 -0.21119894
-0.04568807 -0.29444417 -0.0701813 -0.2564113 -0.14773601 0.44069022 -0.21855216 0.11120382
-0.15472521 -0.051046994 -0.06990698 0.035961118 0.35723034 -0.097991675 0.1281566 0.14533181
0.37591416 0.21419181 -0.034950204 0.110448375 -0.33909324 -0.26124528 0.22644247 -0.0733433
-0.22828045 0.20347503 -0.14888199 0.18506141 0.2882014 0.14223917 -0.3429183 -0.19438814
0.1956373 -0.21027619 -0.29092488 -0.035861842 0.3865145 -0.2674674 -0.16072921 0.24716826
00000000: 2fe9 01bd ec2d 8dbe 3770 f2bc 2fc2 233d
00000010: 7c07 033f 96a6 92bd 158c 313e 365d 5c3d
00000020: 2143 873e fb69 70be acd5 2e3e 16c0 c63e
00000030: 4dc4 693e 9c42 f13d 80ff b63d d4ad 293e
00000040: d4ad 773d ee2b d13d d00c f4bd 132c a03d
00000050: 2bef 233e 74d8 fcbe cedf 863e d13e 5f3e
00000060: 6eb7 133e 0d94 ebbd d0f8 18be 9c88 99bd
00000070: 72e2 1a3d 23ec 89be aa0f 8f3e 51bb 35be
00000080: bb46 633c 07ce 6a3e ee9a 083e 07c1 60be
00000090: d392 59be 3087 d9bd ccf3 c33c 6bc5 c93d
000000a0: 2fcd f33d 5463 2d3c 1a24 c33d d36e 75be
000000b0: d19c 023e b087 b93d 0ef2 f7be f4dc 173d
000000c0: 651d eb3d 3535 c93d b2c9 2bbc 4e5d 96bd
000000d0: cabf 16be 020c 093e f0f6 c1bc 2866 78bd
000000e0: 8bc0 e5bd 8a12 923e 3bab 613e 53ec 89bd
000000f0: ad30 65bd f324 54bf 0a4b 383d 22e6 dcbd
00000100: 1bac 90bd f044 6bbe 7bde af3e b3e1 473c
00000110: 803c 043e f688 99be 786f 5c3d bff2 8fbe
00000120: 0ebd 72be 8e6a c2be b6b6 c53e 7b64 d1bd
00000130: 0e4d bcbc 19cf afbe 6f0c 883e fd32 d7bd
00000140: 1b89 57be 576f 403e 2dc5 c3be b208 a83b
00000150: d8bb cbbe 0ab4 06be 3452 afbd bbfc 76bd
00000160: b7c8 7e3c a57a 35be e45d f5be ec6c 6a3e
00000170: 1f5a 923e 2ca5 78be d5c6 82bb 4428 4b3e
00000180: d188 59bd 711c a9bd 8915 81be b563 f83c
00000190: 257e 90be 6b8b f53d 6ef0 293e 20c7 9ebc
000001a0: 61dc fa3d 3ac7 713d 0fb2 253e d98d 71bd
000001b0: 1dcf 913d 65bf 3dbd 337d c83d 79b2 82bd
000001c0: 5931 673e f701 a1bd 3b86 afbc cdcf 2bbb
000001d0: 7a14 86be 8459 123e 210f a6bd 3760 4abe
000001e0: 05aa 833e 5acc 2d3d 635d 633e 34ff 9cbe
000001f0: 85a8 38be f088 163e 584e 3fbe f28c f73c
00000200: 3373 793e 11b9 483e 7a61 8e3e fa1a b5bd
00000210: 2800 37bd 55e8 273e bb3a cebd 2425 293e
00000220: b753 febd 793d 5c3e aff1 09be 2a2e b1be
00000230: d865 87be 5d9f 07be cd37 93be fa55 a4bc
00000240: 0aa3 57bd 7593 223e d7c3 b53e 890b dc3d
00000250: 8f92 40be 4b8b 04be 23bb 1abe 744a 5ebd
00000260: d402 853e b7e0 3a3e 18ef 123f cc69 01be
00000270: 5be6 bc3c 1d6f 5e3d 3b4f 093f 5bbd 2bbe
00000280: 8314 ccbe cb23 37be 7528 dcbe 7b82 2abe
00000290: 2d44 18bd edc6 09be f9f9 9a3e b994 a43d
000002a0: 3350 3cbc a2cb d1bc 9e0d 2c3d 30c3 943e
000002b0: 18a1 353e 8e3a 633e 07ae 7a3e 54a2 90bc
000002c0: a25f 64be 8ea5 4dbe b3ab 843d 84a8 473e
000002d0: 85f2 5abc 8f73 c6be 385d 4abe 598f f73d
000002e0: 3dca 133e a367 6ebe 25e5 a23d 6b37 9abe
000002f0: 668e 903e 501e 16be 6d04 16be 94f5 8abd
00000300: 3b77 7c3e 1b03 71be 3ec5 c8be fd65 55bd
00000310: 81a2 7b3d d2da 78bc d92e 64bd 9936 0fbb
00000320: 4017 95be cddc c73c f99f d0be 8b43 3ebe
00000330: 4ea4 1f3e 1b9a bdbc 2354 c33e 7d69 75be
00000340: afe9 313e f927 5dbe 0e0e 26be 5261 82be
00000350: c9db b73e 15f8 88be b8f7 5abe 8944 58be
00000360: 6a23 3bbd 63c1 96be 37bb 8fbd 5848 83be
00000370: 1c48 17be 26a2 e13e 23cc 5fbe d4be e33d
00000380: 4970 1ebe a716 51bd 642b 8fbd f74b 133d
00000390: e5e6 b63e dcaf c8bd 7c3b 033e ddd1 143e
000003a0: d277 c03e 1955 5b3e f227 0fbd c232 e23d
000003b0: a19d adbe f1c1 85be 89e0 673e 0335 96bd
000003c0: 5ac2 69be c25b 503e 8574 18be bd80 3d3e
000003d0: 228f 933e 25a7 113e fd92 afbe af0d 47be
000003e0: 2555 483e a452 57be 1bf4 94be dee3 12bd
000003f0: 3be5 c53e 7df1 88be 3396 24be ad19 7d3e

embedder.emb_rnn.bias_ih_l1 f4 [60]
0.9801612 0.9896298 1.0153329 0.9508141 0.947713 0.9556441 0.9305596 1.007123
1.0275201 0.9058249 0.8983211 0.98506093 1.0159523 0.989045 0.9259928 1.0697888
0.99247843 1.0024272 1.0240123 0.8915773 0.52176046 0.6541195 1.205055 0.6453433
0.3535667 0.62745154 -0.030717282 0.68033206 0.057141755 0.65564054 0.5750929 -0.29466736
0.014160218 0.860527 -0.30999026 0.39156708 0.38086742 0.72561383 0.91435933 0.73017186
1.0767887 0.9436705 1.0432532 1.0465513 0.9222853 0.96123093 0.90143716 0.9562293
0.86966646 0.972434 0.9357296 0.95606816 0.75841874 1.0216413 0.9050366 1.2975088
0.9337302 1.0213162 0.9641851 1.005662
00000000: d8eb 7a3f 6158 7d3f 6ef6 813f 8e68 733f
00000010: 529d 723f 17a5 743f 2739 6e3f 68e9 803f
00000020: c785 833f 24e4 673f 5ff8 653f f42c 7c3f
00000030: ba0a 823f 0e32 7d3f dd0d 6d3f d7ee 883f
00000040: 1113 7e3f 894f 803f d612 833f 693e 643f
00000050: 1892 053f 6074 273f 3e3f 9a3f 3835 253f
00000060: b206 b53e aaa0 203f cfa2 fbbc 3e2a 2e3f
00000070: 790d 6a3d 0fd8 273f 4a39 133f a4de 96be
00000080: 4200 683c 7f4b 5c3f 0bb7 9ebe 7b7b c83e
00000090: 0e01 c33e d4c1 393f 7413 6a3f 8bec 3a3f
000000a0: 36d4 893f 6494 713f 5289 853f 65f5 853f
000000b0: e41a 6c3f 3b13 763f 96c4 663f 72cb 743f
000000c0: 76a2 5e3f 6ff1 783f fa8b 6f3f e2c0 743f
000000d0: bb27 423f 24c5 823f 7bb0 673f c514 a63f
000000e0: f108 6f3f 7dba 823f d6d4 763f 88b9 803f

embedder.emb_rnn.bias_hh_l1 f4 [60]
-0.019841297 -0.0103698475 0.015329592 -0.049181513 -0.052287783 -0.044354443 -0.069440745 0.0071189813
0.027517578 -0.094177015 -0.10167592 -0.014940556 0.015948366 -0.010956713 -0.07400379 0.06979101
-0.0075230966 0.0024301577 0.0240089 -0.10841929 -0.47824094 -0.34588337 0.20505513 -0.35465252
-0.6464373 -0.37255254 -1.0307176 -0.31966403 -0.9428594 -0.34436455 -0.4249082 -1.2946706
-0.9858385 -0.13947588 -1.309988 -0.6084254 -0.6191327 -0.27438462 -0.08564308 -0.26983193
0.07157162 -0.06958952 0.023298766 0.08458125 -0.11362776 -0.07334722 -0.046302587 -0.035909977
-0.14418939 -0.13560395 -0.12875478 -0.046996154 -0.31106892 -0.008773873 -0.06569239 0.3326627
-0.046529826 0.024555616 -0.047717426 -0.006377665
00000000: 378a a2bc 4be6 29bc f828 7b3c 8e72 49bd
00000010: b72b 56bd 01ad 35bd f336 8ebd 5846 e93b
00000020: 8b6c e13c e1df c0bd 773b d0bd 3cc9 74bc
00000030: 26a6 823c c983 33bc 4d8f 97bd 97ee 8e3d
00000040: 4f84 f6bb 4843 1f3b 50ae c43c ef0a debd
00000050: ffdb f4be a017 b1be f9f9 513e 0495 b5be
00000060: ea7c 25bf 35bf bebe 8eee 83bf 01ab a3be
00000070: 3c5f 71bf 8d50 b0be 918d d9be c4b7 a5bf
00000080: e95f 7cbf c4d2 0ebe b0ad a7bf c4c1 1bbf
00000090: 7b7f 1ebf 247c 8cbe a465 afbd 6927 8abe
000000a0: 2494 923d f384 8ebd 0edd be3c ef38 ad3d
000000b0: acb5 e8bd 1137 96bd c8a7 3dbd 5716 13bd
000000c0: 62a6 13be c3db 0abe 4bd8 03be 0a7f 40bd
000000d0: 6d44 9fbe 4ac0 0fbc bb89 86bd c452 aa3e
000000e0: 0f96 3ebd dc28 c93c 5973 43bd bbfb d0bb

embedder.emb_rnn.weight_ih_l2 f4 [60, 20]
-0.23666912 -0.4483887 -0.022709219 0.07684009 0.02482762 0.03480263 -0.021885611 0.0973664
-0.18346114 -0.13329954 0.565284 0.082308695 -0.23268259 -0.18335173 0.3134273 0.19302271
0.13721994 0.14558844 0.09145493 0.033997893 0.15058471 0.23309495 0.16015726 -0.16406089
-0.02287863 0.20850605 0.21736851 -0.16477704 0.03502608 -0.05800207 -0.2905445 0.0021402717
-0.1836211 -0.015515562 -0.15625589 0.28487787 0.18401788 -0.06133356 -0.04356105 0.077189125
0.06261752 -0.6115666 -0.1282159 -0.12555985 0.10408605 -0.1983901 0.23417968 0.22852862
0.21395619 -0.139231 0.4296314 0.043234274 -0.04500379 0.016792294 0.40968132 0.2699728
-0.17365061 -0.029631946 -0.22799513 -0.25002494 0.019105798 -0.42497694 -0.0700691 0.20197302
0.2875995 -0.21550673 0.3537779 0.025442373 0.184707 -0.3807102 -0.27306575 -0.4697669
0.061172996 0.08969444 -0.03976909 -0.35069224 -0.28889287 -0.27003634 -0.46118322 -0.071367115
0.12720698 -0.3296396 -0.308605 0.09318823 0.24265304 -0.23043479 0.32895106 -0.16344056
-0.07496435 0.26048923 0.0825208 0.4850022 0.021597099 -0.08294764 0.2500274 0.16908012
0.09408461 -0.27171722 0.42276543 -0.23092794 0.08071288 0.09525763 0.15750624 -0.15751073
-0.19497876 0.011598339 -0.09469717 0.013352853 0.05520055 0.015634932 -0.29566824 0.4416177
-0.2774009 -0.185496 -0.1960887 -0.19644906 0.23783527 -0.21277836 0.21524447 0.026926627
0.48255646 -0.28167573 -0.34698287 0.0019160063 1.2357305 0.13471057 -6.3331566 0.2245371
-0.27162373 0.37608725 0.026204163 -0.7062214 -0.2523061 -0.23716883 -0.64680374 -0.015481796
-0.29248342 0.010506125 -0.89908403 0.05691653 -0.10902936 0.15887116 0.091394916 0.01582241
0.46015736 0.099591695 -0.23631884 -0.5634514 -0.19585215 -0.23881014 -0.29250586 -1.0657686
-0.37125036 0.17388183 0.31535736 -0.2689135 0.17513481 0.073545665 -0.15242429 -0.31938615
-0.068051614 -0.62642443 -0.15180509 -0.12757887 -0.2679151 -0.060078975 -0.11766818 -0.082793556
0.25809383 -0.037491314 -0.08097147 -0.0049587823 -0.11822627 -0.024993729 -0.19651254 0.0121388165
0.23229456 0.02431042 -0.15260863 0.038831137 0.008056796 0.5525823 -0.33653945 -0.05587595
-0.011230512 0.1072106 0.20095427 0.2602096 0.30976918 -0.14468081 -0.174727 -0.0171964
0.4146981 -0.08565759 0.051730484 -0.2609209 -0.3893734 -0.080334045 -0.16738653 -0.28369755
0.24802998 -0.20297025 0.17570809 -0.3026032 -0.079472415 0.0077329422 -0.1613492 -0.16189931
-0.14044407 0.06289479 0.17303398 -0.23703389 0.24470077 -0.2568324 0.07287435 -0.2527003
0.30855083 -0.48213124 0.26415715 0.092167296 -0.16579255 -0.056176484 0.02507149 0.12024292
0.12513982 0.095385835 0.072644874 -0.22545484 0.2893792 0.0057653906 -0.10634068 0.15764125
0.40972194 0.05745827 -0.07594964 -0.17552145 -0.15721287 0.06316493 -0.021679362 -0.2491921
-0.15554948 0.48633826 -0.24057087 -0.28624117 -0.05388583 0.08513663 -0.24807605 -0.16774091
0.084834926 0.2994162 -0.10109557 0.24013501 -0.083393835 0.18415971 -0.24231711 -0.07079205
00000000: 6459 72be 3493 e5be af08 babc 565e 9d3d
00000010: 4b63 cb3c 348d 0e3d 7449 b3bc 0968 c73d
00000020: 3ddd 3bbe ad7f 08be 74b6 103f 7691 a83d
00000030: 5844 6ebe 8ec0 3bbe 8b79 a03e bfa7 453e
00000040: 6283 0c3e 2315 153e b94c bb3d 6041 0b3d
00000050: e132 1a3e 71b0 6e3e 4400 243e 94ff 27be
00000060: f76b bbbc 9c82 553e da95 5e3e 50bb 28be
00000070: 8277 0f3d 9493 6dbd 40c2 94be cd43 0c3b
00000080: 2b07 3cbe fc34 7ebc 8b01 20be 83db 913e
00000090: 2f6f 3c3e e638 7bbd 126d 32bd 5515 9e3d
000000a0: 9d3d 803d a18f 1cbf 074b 03be c392 00be
000000b0: 112b d53d c626 4bbe cccc 6f3e 6803 6a3e
000000c0: 5517 5b3e 9292 0ebe a6f8 db3e 6c16 313d
000000d0: e555 38bd fe8f 893c c0c1 d13e e039 8a3e
000000e0: 77d1 31be b2be f2bc 8e77 69be 4503 80be
000000f0: c383 9c3c 9496 d9be 6380 8fbd 04d2 4e3e
00000100: 3e40 933e ccad 5cbe 6022 b53e 866c d03c
00000110: d523 3d3e 73ec c2be 46cf 8bbe 4a85 f0be
00000120: 8990 7a3d b8b1 b73d eae4 22bd ef8d b3be
00000130: c4e9 93be 3442 8abe 3520 ecbe ec28 92bd
00000140: 8c42 023e 86c6 a8be 7901 9ebe 79d9 be3d
00000150: 0a7a 783e 19f7 6bbe 466c a83e f65c 27be
00000160: e986 99bd d85e 853e aa00 a93d 3552 f83e
00000170: 66ec b03c 74e0 a9bd 9703 803e 5723 2d3e
00000180: 6faf c03d 851e 8bbe b674 d83e 6078 6cbe
00000190: cb4c a53d 6f16 c33d 5149 213e 7e4a 21be
000001a0: 83a8 47be f606 3e3c 97f0 c1bd edc5 5a3c
000001b0: f919 623d d414 803c d461 97be b71b e23e
000001c0: 7e07 8ebe aaf2 3dbe 7acb 48be f129 49be
000001d0: 178b 733e 92e2 59be 0c69 5c3e 3b95 dc3c
000001e0: a411 f73e cd37 90be bda7 b1be 8122 fb3a
000001f0: 6b2c 9e3f 91f1 093e 38a9 cac0 0eed 653e
00000200: 4412 8bbe 828e c03e 1daa d63c edca 34bf
00000210: 442e 81be 63dc 72be ee94 25bf 5ca7 7dbc
00000220: 63c0 95be e221 2c3c 5f2a 66bf 4f21 693d
00000230: c94a dfbd 1faf 223e 422d bb3d 009e 813c
00000240: bf99 eb3e bbf6 cb3d 91fd 71be 5a3e 10bf
00000250: 778d 48be a58a 74be 54c3 95be 1b6b 88bf
00000260: 8714 bebe 140e 323e 8576 a13e 08af 89be
00000270: 8a56 333e 1c9f 963d 1d15 1cbe 9586 a3be
00000280: a55e 8bbd 5a5d 20bf cb72 1bbe 09a4 02be
00000290: 2b2c 89be 5f15 76bd 04fc f0bd ab8f a9bd
000002a0: e024 843e 7e90 19bd 5fd4 a5bd 487d a2bb
000002b0: 9d20 f2bd a6bf ccbc 953a 49be e3e1 463c
000002c0: a0de 6d3e a526 c73c 7045 1cbe 660d 1f3d
000002d0: a700 043c 0976 0d3f e64e acbe 2ede 64bd
000002e0: 2e00 38bc 3b91 db3d f5c6 4d3e 313a 853e
000002f0: 119a 9e3e 3527 14be a2eb 32be 77df 8cbc
00000300: 4f53 d43e 3f6d afbd 58e3 533d 6d97 85be
00000310: f35b c7be 2d86 a4bd 6067 2bbe ce40 91be
00000320: 92fb 7d3e 6fd7 4fbe d2ec 333e ceee 9abe
00000330: 6fc2 a2bd 9f64 fd3b ba38 25be efc8 25be
00000340: 92d0 0fbe fcce 803d d22f 313e 03b9 72be
00000350: d792 7a3e 897f 83be 263f 953d ef61 81be
00000360: 60fa 9d3e e8d9 f6be 9b3f 873e 35c2 bc3d
00000370: 86c5 29be 5019 66bd ba62 cd3c ec41 f63d
00000380: a724 003e a659 c33d d6c6 943d a2dd 66be
00000390: 8329 943e 9aeb bc3b 24c9 d9bd b56c 213e
000003a0: 13c7 d13e 5d59 6b3d 7c8b 9bbd e5bb 33be
000003b0: 69fc 20be 9d5c 813d eb98 b1bc 372c 7fbe
000003c0: 5d48 1fbe 5401 f93e 3658 76be 348e 92be
000003d0: 63b7 5cbd 1d5c ae3d a607 7ebe 46c4 2bbe
000003e0: efbd ad3d 154d 993e 320b cfbd f4e5 753e
000003f0: 63ca aabd 5d94 3c3e fa21 78be 6cfb 90bd

embedder.emb_rnn.weight_hh_l2 f4 [60, 20]
-0.04034082 -0.19787161 -0.07103278 0.34166604 0.12239013 0.04958587 -0.099695444 -0.17293401
-0.17117257 -0.09275788 0.3515663 -0.014965102 0.025527475 -0.2090062 -0.110535584 0.09050321
0.18826088 -0.0314777 0.014422865 0.4336888 0.0677899 -0.013170721 0.018070435 0.23768109
-0.08372604 0.050939385 -0.2001104 -0.11647277 -0.32199728 -0.023722356 0.07131264 0.14970523
-0.20736924 -0.17627893 0.021988675 -0.13907215 0.15597263 0.14888948 -0.19130668 0.046348207
-0.22194807 0.13560064 -0.015091727 0.18145587 0.080241345 -0.04998893 -0.2896273 -0.46458554
-0.08455768 0.046373058 -0.070387274 -0.041733578 -0.5553863 0.23464483 -0.12423211 -0.18430717
0.12770633 -0.11210394 -0.0100658685 -0.06916967 0.006570973 -0.12875287 0.03248172 0.5203772
-0.2806446 -0.2951841 0.12263354 0.6224892 0.2927831 0.010905212 -0.40778232 -0.096168526
-0.27801293 -0.30549094 0.16510321 0.36446396 0.13408612 -0.32348323 -0.042860854 0.1284506
-0.0077372235 -0.39933598 -0.069208 0.22109567 -0.31191707 -0.2840532 0.21654662 0.5223837
-0.20876718 0.05787211 -0.16109739 -0.08270354 0.66699284 -0.23568708 0.07741007 -0.02424931
0.032879602 -0.018335352 0.1351179 -0.1409904 -0.15771808 -0.2768869 -0.18987326 0.045758996
0.12258142 -0.06291582 0.12661453 -0.18121587 -0.022968132 0.10039007 0.12767908 0.0011457019
-0.23993061 -0.049696323 0.06365534 0.20433375 -0.03897203 -0.30492407 0.21313293 0.17491822
0.13714875 -0.025885735 0.25763008 0.51099396 -0.27815428 -0.26586854 0.4951701 0.16553016
-0.30313477 0.27590787 -0.09239977 -0.21514064 1.351628 0.27422065 -0.04293968 -0.019372484
0.06525295 -0.029473957 0.16497904 -0.24426945 0.041169085 0.09819156 -0.20768405 0.01434821
-0.38389504 -0.00025989677 0.00093200424 -0.12597565 0.11285244 -0.24470855 -0.25107443 -0.34471938
-0.39481762 -0.26984262 0.13978879 0.0794393 0.1211049 -0.11364195 -0.06617438 0.19089648
-0.19898398 -0.19602579 -0.30589014 0.016775414 0.04841013 -0.27216685 0.39153752 -0.048235413
-0.30965763 -0.015504374 -0.16139819 -0.18877944 -0.3295987 -0.14955267 0.011426783 -0.077254996
-0.3428467 -0.22999185 -0.27759096 0.095613495 0.050315175 -0.23171513 -0.27717742 0.02809355
0.05962894 -0.3406274 0.14259252 -0.19232275 -0.17408791 0.09093951 -0.18346585 -0.11983013
0.5442784 0.1147847 -0.2526554 0.21330355 -0.26321316 0.13975756 0.13209482 -0.06530011
-0.006926781 0.27180707 -0.15245052 0.17451155 -0.63783187 -0.16058466 0.40203434 -0.4012873
-0.0011637891 0.2607439 -0.22129133 0.032119684 0.39981636 -0.27252692 0.064453244 -0.25371152
-0.029575635 0.24368684 -0.30396822 0.32567796 0.28563815 -0.12622191 -0.019685505 -0.17984517
0.06252536 -0.14662832 0.015968453 -0.12080856 0.23455657 0.1478216 0.06752232 -0.20050567
0.1836753 -0.25730413 -0.2498356 0.2876021 -0.04475601 0.41063926 -0.0554837 -0.0057910406
-0.29542324 0.07652338 0.20174079 0.14320923 0.11350466 -0.033219483 -0.5400722 -0.27055332
-0.051229227 -0.23795682 -0.07433886 0.041559845 0.14354917 0.22486193 -0.02671388 -0.061117657
00000000: 6a3c 25bd db9e 4abe a279 91bd daee ae3e
00000010: ada7 fa3d 8e1a 4b3d 202d ccbd 9d15 31be
00000020: dd47 2fbe d8f7 bdbd 8000 b43e 3030 75bc
00000030: ff1e d13c b905 56be 7b60 e2bd bf59 b93d
00000040: 76c7 403e c3ee 00bd e14d 6c3c 750c de3e
00000050: 6ed5 8a3d 02ca 57bc 7308 943c ac62 733e
00000060: 8f78 abbd d1a5 503d bee9 4cbe 4789 eebd
00000070: d4dc a4be 6355 c2bc 5d0c 923d 544c 193e
00000080: 9a58 54be 7782 34be 9821 b43c ee68 0ebe
00000090: 4ab7 1f3e 7c76 183e e6e5 43be 9ed7 3d3d
000000a0: 5b46 63be e5da 0a3e 4a43 77bc 91cf 393e
000000b0: 9355 a43d 31c1 4cbd 084a 94be 28de edbe
000000c0: 942c adbd adf1 3d3d 3427 90bd d4f0 2abd
000000d0: cc2d 0ebf bc46 703e 686d febd 05bb 3cbe
000000e0: 73c5 023e c096 e5bd 50eb 24bc d4a8 8dbd
000000f0: 5151 d73b cbd7 03be 8d0b 053d 7137 053f
00000100: a6b0 8fbe 5f22 97be 4b27 fb3d 745b 1f3f
00000110: abe7 953e c6ab 323c d8c8 d0be 01f4 c4bd
00000120: b657 8ebe 4f69 9cbe d110 293e 059b ba3e
00000130: df4d 093e 989f a5be dd8e 2fbd 8e88 033e
00000140: 8988 fdbb c475 ccbe edbc 8dbd e766 623e
00000150: 98b3 9fbe 6c6f 91be 66be 5d3e f0ba 053f
00000160: 10c7 55be 4e0b 6d3d b7f6 24be 7960 a9bd
00000170: 0bc0 2a3f f457 71be 2c89 9e3d 7da6 c6bc
00000180: c3ac 063d 0534 96bc 595c 0a3e ca5f 10be
00000190: d980 21be 1fc4 8dbe 236e 42be c96d 3b3d
000001a0: f80b fb3d 02da 80bd 3da7 013e a790 39be
000001b0: aa27 bcbc 4f99 cd3d 4ebe 023e 602b 963a
000001c0: 5fb0 75be 5f8e 4bbd bb5d 823d de3c 513e
000001d0: 23a1 1fbd 021f 9cbe 853f 5a3e c31d 333e
000001e0: b970 0c3e 520e d4bc 17e8 833e 80d0 023f
000001f0: 3d6a 8ebe ec1f 88be ef86 fd3e bd80 293e
00000200: 7b34 9bbe cc43 8d3e 173c bdbd d44d 5cbe
00000210: 2502 ad3f a666 8c3e 85e1 2fbd 0bb3 9ebc
00000220: 57a3 853d 5e73 f1bc 44f0 283e c521 7abe
00000230: eaa0 283d a818 c93d 21ab 54be c114 6b3c
00000240: e48d c4be c142 88b9 bf51 743a c3ff 00be
00000250: 2e1f e73d e194 7abe d48c 80be 0f7f b0be
00000260: 8925 cabe d028 8abe cb24 0f3e 12b1 a23d
00000270: d905 f83d 1cbd e8bd 6f86 87bd 5e7a 433e
00000280: 75c2 4bbe fcba 48be a29d 9cbe 986c 893c
00000290: b349 463d 7459 8bbe 9b77 c83e 7f92 45bd
000002a0: 728b 9ebe 0f06 7ebc 9145 25be 664f 41be
000002b0: 29c1 a8be 5624 19be 6737 3b3c de37 9ebd
000002c0: 9a89 afbe fc82 6bbe 6720 8ebe 02d1 c33d
000002d0: 4917 4e3d bb46 6dbe 33ea 8dbe 7224 e63c
000002e0: 7a3d 743d b766 aebe c603 123e 41f0 44be
000002f0: 1a44 32be 7e3e ba3d 79de 3bbe 8069 f5bd
00000300: d455 0b3f 3e14 eb3d 0c5c 81be 3f6c 5a3e
00000310: e0c3 86be 9b1c 0f3e dd43 073e 10bc 85bd
00000320: 0dfa e2bb 4c2a 8b3e fd1b 1cbe 28b3 323e
00000330: f348 23bf 4e70 24be 72d7 cd3e 8775 cdbe
00000340: 488a 98ba 3980 853e 329a 62be ee8f 033d
00000350: bbb4 cc3e a688 8bbe 1000 843d 7ae6 81be
00000360: 9a48 f2bc 0b89 793e b9a1 9bbe 43bf a63e
00000370: 2a3f 923e 5140 01be 7f43 a1bc 5529 38be
00000380: 4c0d 803d bc25 16be 46d0 823c 7a6a f7bd
00000390: 992f 703e 8c5e 173e 2449 8a3d 5c51 4dbe
000003a0: 6115 3c3e 5ebd 83be e7d4 7fbe 9540 933e
000003b0: 1452 37bd 4f3f d23e e042 63bd c5c2 bdbb
000003c0: b741 97be 4ab8 9c3d 2395 4e3e 71a5 123e
000003d0: 2275 e83d 2711 08bd 2c42 0abf f785 8abe
000003e0: bdd5 51bd f4aa 73be f93e 98bd a83a 2a3d
000003f0: 8efe 123e 3542 663e 11d7 dabc 8256 7abd

embedder.emb_rnn.bias_ih_l2 f4 [60]
1.089582 1.0145379 1.0232737 0.92479277 1.0214636 0.872291 0.95427895 0.90303445
0.9332664 0.9648139 0.91385233 0.9381432 0.9897339 1.0606496 0.93985313 0.9375791
0.95955575 1.037958 0.9458279 0.9708946 0.57485855 0.58209366 0.69003534 0.38053492
0.99889493 0.72337395 -0.06933176 0.14663441 0.3326613 0.61259145 0.8914005 0.5942335
0.8474944 0.82318974 0.83662075 0.5385723 0.7077029 0.3243312 0.5002566 -0.051383395
0.8420721 0.8822428 0.9441772 0.8602105 0.93672335 0.933516 1.0309985 1.0213407
0.8941076 0.95974994 1.0386701 0.978793 0.9828562 1.0768195 0.9349249 0.90218496
0.97589386 0.9170765 0.9714509 0.96377355
00000000: 6c77 8b3f 61dc 813f a2fa 823f 38bf 6c3f
00000010: 52bf 823f 774e 5f3f a04b 743f 442d 673f
00000020: 8cea 6e3f 0bfe 763f 3af2 693f 272a 703f
00000030: 335f 7d3f 5ec3 873f 379a 703f 2f05 703f
00000040: 72a5 753f cfdb 843f c721 723f 8c8c 783f
00000050: ee29 133f 1704 153f 28a6 303f 79d5 c23e
00000060: 94b7 7f3f 092f 393f cffd 8dbd 5527 163e
00000070: 9552 aa3e cbd2 1c3f d332 643f b01f 183f
00000080: 65f5 583f 90bc 523f c72c 563f e0df 093f
00000090: 042c 353f bd0e a63e d110 003f 6577 52bd
000000a0: 0a92 573f aada 613f 99b5 713f c136 5c3f
000000b0: 1acd 6f3f e8fa 6e3f c2f7 833f 4bbb 823f
000000c0: 3ce4 643f 2cb2 753f 24f3 843f 2e92 7a3f
000000d0: 779c 7b3f 39d5 893f 3d57 6f3f 98f5 663f
000000e0: 2ed4 793f 87c5 6a3f 02b1 783f ddb9 763f

embedder.emb_rnn.bias_hh_l2 f4 [60]
0.08958963 0.014539182 0.023275161 -0.07520629 0.021463875 -0.12770945 -0.04571629 -0.09696682
-0.06673199 -0.03518472 -0.08614894 -0.0618542 -0.010265591 0.060644895 -0.06014609 -0.06242214
-0.040443424 0.037958127 -0.054172732 -0.029111685 -0.42513937 -0.41790572 -0.30996603 -0.6194647
-0.0011116609 -0.27662086 -1.0693305 -0.85336536 -0.667332 -0.38740548 -0.108600505 -0.40576828
-0.15250386 -0.17680593 -0.16337824 -0.46142754 -0.29229596 -0.6756671 -0.49974015 -1.0513833
-0.17621653 -0.107943974 -0.010349634 -0.16873224 -0.056132406 -0.049344763 -0.073159054 -0.105237804
-0.090539835 -0.21352679 0.039771073 -0.030688995 -0.051407114 0.07234186 -0.08260485 -0.074091986
-0.018030977 -0.10317232 -0.052799854 -0.0352639
00000000: c57a b73d c035 6e3c 8dab be3c c105 9abd
00000010: 02d5 af3c 44c6 02be 0141 3bbd 8a96 c6bd
00000020: c8aa 88bd da1d 10bd db6e b0bd d45a 7dbd
00000030: 0231 28bc c866 783d bf5b 76bd 5cae 7fbd
00000040: 01a8 25bd fb79 1b3d 3ae4 5dbd a17b eebc
00000050: deab d9be bdf7 d5be deb3 9ebe 3d95 1ebf
00000060: 26b5 91ba 40a1 8dbe d2df 88bf 2776 5abf
00000070: 45d6 2abf 035a c6be f169 debd dcc0 cfbe
00000080: f929 1cbe 9d0c 35be a04c 27be 3b40 ecbe
00000090: d1a7 95be 85f8 2cbf f1dd ffbe ba93 86bf
000000a0: 1b72 34be bb11 ddbd 8391 29bc 25c8 2cbe
000000b0: 18eb 65bd bc1d 4abd 6ad4 95bd eb86 d7bd
000000c0: f36c b9bd c4a6 5abe fee6 223d 7d67 fbbc
000000d0: 4490 52bd f827 943d bb2c a9bd 8abd 97bd
000000e0: b3b5 93bc 024c d3bd a944 58bd e170 10bd
