output/FEM_GAN_20/model.pt (torch, 153208 bytes, 65 tensors)

embedder.emb_rnn.weight_ih_l0 f4 [60, 10]
0.022788672 0.25141224 0.27548954 -0.09624534 0.10232715 0.22693631 -0.016342515 -0.001787217
0.16670743 0.2439258 0.20983818 0.554087 0.67787325 0.35879079 0.38557538 0.54255486
-0.013113206 0.4038695 0.21931392 -0.034077447 0.039284695 -0.22930491 -0.4497346 -0.29075876
-0.2857119 -0.45048025 0.17107385 -0.26978382 0.115345635 -0.08580955 -0.00402312 -0.05492805
-0.34106675 -0.12999386 0.22511093 0.19770515 0.36659858 0.45675537 0.21168388 0.22619969
0.13899525 -0.030248154 -0.1102183 -0.0852232 0.0106244525 1.0425316 0.6000798 0.5620304
0.1591394 0.60782117 0.10130481 -0.9386822 -0.83800215 -0.6671633 -0.8583981 -0.7813655
0.52459496 0.1635474 0.28432557 0.5099559 -0.9665256 -1.1260278 -1.2758884 -1.2526389
-1.0322361 -1.1353612 -1.3594062 -1.2753459 -0.9322964 -1.0627288 -0.23267664 -0.0657343
-0.01808014 -0.11622668 0.3809364 -0.17876425 0.24527219 0.23691447 -0.007606547 0.20228167
0.49398085 -0.1326506 -0.17483518 0.059989475 0.010890787 -0.33251184 -0.0989494 0.10234002
0.054850742 -0.04577144 -0.38345414 -0.071945906 0.1776853 0.098144606 -0.0012627837 -0.24567011
-0.18668823 0.12904584 -0.029893707 -0.02094076 -0.71328056 -0.83149576 -0.55431926 -0.45522222
-0.62266153 -0.5143409 0.23815674 0.368784 0.50935996 0.4033123 0.041332446 1.0669045
-0.5272966 0.17120735 -0.16062237 -0.7532182 0.2342162 0.4098741 -0.016135432 -0.18330936
0.23052046 0.092759 0.3490812 0.4376352 0.5058578 -0.45151675 0.34738797 0.4061809
0.4622127 0.2995406 -0.8717561 -0.0076244012 -0.13803844 0.028231338 -0.002760997 0.08894076
0.5410371 0.18078192 0.08931164 0.40004003 -0.024792358 0.22350426 0.1619944 0.17132138
-0.17283241 0.2549548 -0.2723956 -0.11121826 -0.060044553 -0.14641833 -0.09649588 0.15055712
0.011535313 -0.047406632 0.11278609 0.22163258 0.061485503 0.23997888 0.04317681 0.083701424
0.86729753 -0.08359304 -0.12747087 -0.120160066 -0.21636367 0.1918165 -0.11060052 -0.47910285
-0.079654634 -0.430974 -0.20756184 -0.29088196 0.16616613 0.19052152 0.24824978 -0.016445942
-0.27864397 -0.44636172 -0.46575817 -0.38590443 -0.18193085 0.0916968 0.009480628 -0.20300862
0.22828755 0.12494635 0.09733628 -0.10614976 0.35894606 0.012377886 -0.18862613 0.26840815
-0.20584077 -0.21822487 0.25123614 0.048360113 0.032373797 -0.060822062 -0.21423815 -0.20586601
-0.47070676 -0.29428822 -0.45939314 -0.5832456 0.085021585 -0.39824754 0.4888078 0.5362773
0.62750614 0.6623267 -1.7221785 -0.62270594 -0.6833811 -0.8926299 -0.50803137 -0.7537222
-0.4265023 -0.444765 -0.27077332 -0.7070708 -2.1717498 -0.36154103 -0.2633404 -0.20010972
0.029603515 -0.35500798 -0.29300874 -0.049894653 -0.30886012 0.07732966 -0.4808008 0.34231928
0.33631438 0.3957839 0.41002685 0.24682596 -0.59006786 -0.18980646 -0.39691222 -0.25993046
0.0654808 0.35061908 0.11059477 -0.042095415 -0.25839105 0.30682352 -0.38906637 -0.38817117
-0.21152073 -0.027370099 0.2535212 0.2553856 -0.6465122 -0.45101294 -0.009958976 2.1143594
00000000: 4faf ba3c 1bb9 803e f70c 8d3e 471c c5bd
00000010: e690 d13d fe61 683e bde0 85bc 0d41 eaba
00000020: 5ab5 2a3e afc7 793e d2df 563e a5d8 0d3f
00000030: 1a89 2d3f 6db3 b73e 236a c53e e0e4 0a3f
00000040: c6d8 56bc fcc7 ce3e d493 603e cb94 0bbd
00000050: fde8 203d e8ce 6abe 9d43 e6be 55de 94be
00000060: d548 92be 59a5 e6be fc2d 2f3e 1b21 8abe
00000070: 553a ec3d ebbc afbd 60d4 83bb 3cfc 60bd
00000080: 4da0 aebe 1c1d 05be 7b83 663e 3873 4a3e
00000090: cfb2 bb3e d7db e93e a9c3 583e e4a0 673e
000000a0: c554 0e3e faca f7bc 22ba e1bd 8089 aebd
000000b0: 2f12 2e3c ad71 853f d49e 193f 39e1 0f3f
000000c0: 70f5 223e 2b9a 1b3f e578 cf3d 7a4d 70bf
000000d0: 4f87 56bf 37cb 2abf fabf 5bbf 9207 48bf
000000e0: db4b 063f f878 273e 1f93 913e 788c 023f
000000f0: 396e 77bf ae21 90bf 5050 a3bf 7956 a0bf
00000100: 5020 84bf 8453 91bf 0601 aebf 893e a3bf
00000110: faaa 6ebf 7f07 88bf c942 6ebe b49f 86bd
00000120: cd1c 94bc 4108 eebd 190a c33e fa0d 37be
00000130: a228 7b3e b599 723e 5740 f9bb ed22 4f3e
00000140: 0feb fc3e 8fd5 07be fe07 33be 86b7 753d
00000150: 456f 323c fe3e aabe fca5 cabd a597 d13d
00000160: 2cab 603d d57a 3bbd 1a54 c4be 6058 93bd
00000170: 23f3 353e 0a00 c93d fd83 a5ba f290 7bbe
00000180: 332b 3fbe 9824 043e a6e3 f4bc f58b abbc
00000190: 8e99 36bf e8dc 54bf dee7 0dbf e312 e9be
000001a0: bf66 1fbf d8ab 03bf 5cdf 733e 42d1 bc3e
000001b0: 6a65 023f f37e ce3e 364c 293d 5490 883f
000001c0: e9fc 06bf fb50 2f3e 317a 24be e8d2 40bf
000001d0: 5fd6 6f3e 05db d13e 742e 84bc 73b5 3bbe
000001e0: 8e0d 6c3e 6ef8 bd3d c5ba b23e b911 e03e
000001f0: e67f 013f 342d e7be d6dc b13e f1f6 cf3e
00000200: 25a7 ec3e 635d 993e 682b 5fbf 1dd6 f9bb
00000210: f359 0dbe 6845 e73c d8f1 34bb 9326 b63d
00000220: 6881 0a3f e51e 393e 05e9 b63d 0cd2 cc3e
00000230: 5819 cbbc 4dde 643e dce1 253e df6e 2f3e
00000240: fbfa 30be 6f89 823e 7077 8bbe 66c6 e3bd
00000250: 47f1 75bd b0ee 15be a29f c5bd a52b 1a3e
00000260: 9cfe 3c3c 752d 42bd 65fc e63d a7f3 623e
00000270: 39d8 7b3d 06bd 753e 2bda 303d a76b ab3d
00000280: 3607 5e3f d432 abbd b987 02be 7b16 f6bd
00000290: 708e 5dbe 8b6b 443e 8782 e2bd f84c f5be
000002a0: f821 a3bd a0a8 dcbe 178b 54be 7bee 94be
000002b0: 7427 2a3e 1318 433e 3135 7e3e a4b9 86bc
000002c0: 6caa 8ebe 8689 e4be db77 eebe 4495 c5be
000002d0: 154c 3abe 88cb bb3d a354 1b3c 7ee1 4fbe
000002e0: 36c4 693e dfe3 ff3d 3e58 c73d 0c65 d9bd
000002f0: c7c7 b73e 9ecc 4a3c 3527 41be cb6c 893e
00000300: ecc7 52be 5776 5fbe 06a2 803e 4115 463d
00000310: 639a 043d 8e20 79bd 3f61 5bbe 8ace 52be
00000320: 7a00 f1be f2ac 96be 9435 ebbe 954f 15bf
00000330: cc1f ae3d 1ae7 cbbe 0445 fa3e 7849 093f
00000340: 3ea4 203f 3e8e 293f 5870 dcbf a869 1fbf
00000350: 10f2 2ebf 6583 64bf 580e 02bf f0f3 40bf
00000360: 825e dabe 3db8 e3be cda2 8abe 9802 35bf
00000370: f3fd 0ac0 e81b b9be 8ed4 86be 90e9 4cbe
00000380: 1283 f23c 9bc3 b5be 3e05 96be 565e 4cbd
00000390: ea22 9ebe 035f 9e3d 862b f6be 7944 af3e
000003a0: 6631 ac3e 30a4 ca3e 0aef d13e f2bf 7c3e
000003b0: b00e 17bf a05c 42be 1438 cbbe 9b15 85be
000003c0: cc1a 863d 5884 b33e 837f e23d 3e6c 2cbd
000003d0: d54b 84be f917 9d3e b533 c7be 5fbe c6be
000003e0: e498 58be 4237 e0bc 88cd 813e e7c1 823e
000003f0: d381 25bf 2beb e6be f92a 23bc aa51 0740

embedder.emb_rnn.weight_hh_l0 f4 [60, 20]
-0.27468932 0.1316741 -0.48975724 -0.12186127 0.087573074 0.33721974 0.07243793 0.10695175
-0.14289626 -0.3198916 -0.20154387 0.16656606 -0.03660969 0.13977139 0.07020442 -0.1499228
-0.1269754 0.1947048 0.3647662 -0.06750599 -0.1313417 0.092107885 -0.044234037 -0.26292184
0.2404181 -0.026191223 0.11067839 0.4696383 -0.061877497 0.4796276 0.31967872 -0.58868045
-0.33223584 0.34203178 -0.0063827406 -0.041360717 -0.050005596 -0.33342856 0.75592375 0.21481659
0.40285137 0.017485907 0.057723954 -0.289099 0.081973396 -0.10328726 0.1369887 -0.06953112
-0.10169814 0.01593317 -0.14619456 0.0787467 -0.034906797 0.26010132 -0.34777838 0.08804265
0.12263605 -0.03661819 0.0029159288 -0.20721062 0.0020414577 0.041182246 0.04153582 0.03725901
-0.16885167 0.22938327 0.053171605 -0.17630993 -0.32470307 -0.4999967 -0.1169305 -0.1867265
0.10330631 0.12322179 0.07713634 -0.30685207 -0.20322222 0.12996267 -0.0904178 -0.13684854
-0.069034114 -0.10223033 0.12998717 0.04926395 -0.28187624 -0.30733672 0.049596637 -0.11995703
-0.11353504 -0.14306743 -0.31759098 0.027394649 0.02874002 0.02169184 -0.16538332 0.050851177
-0.20697744 0.32473055 1.0317127 0.18141139 -0.21238816 -0.20442837 -0.0839388 -0.07821312
-0.35782167 0.46678492 0.037579887 -0.10454077 0.0930063 -0.20110199 -0.050072547 -0.2665374
0.10128283 -0.11519747 -0.11723477 0.20924647 -0.2798906 0.18757169 0.045609888 -0.056159925
0.18397373 -0.054723263 -0.04317547 0.19776623 0.08590714 0.05411335 -0.34801358 -0.2347084
0.0003444479 0.0492394 0.29702005 -0.18602619 0.49835998 0.1802708 0.19720589 -0.2101101
-0.14293496 0.16118814 -0.018804614 0.046031985 -0.17185707 0.30759126 -0.26472768 -0.12121209
-0.044495326 0.34818605 0.24023141 -0.29365304 0.20385264 -0.28763297 0.089872606 0.18280566
-0.073768735 0.07973123 0.047354795 -0.1296912 0.16958906 0.07046556 -0.016866198 0.17164744
-0.1184398 -0.35024518 -0.068292946 -0.30592567 0.1435365 -0.44959357 -0.31987846 0.06286178
-0.19090247 -0.20125596 -0.31380442 -0.19070715 0.21698338 -0.13075268 0.088862136 -0.10609826
0.08784291 -0.19208847 0.31906155 0.08581723 -0.096534245 0.15283 -0.06455621 -0.20016776
-0.19159874 -0.5044069 -0.13051084 0.4485562 -0.22605947 0.3152086 0.042861074 -0.06314269
-0.17698306 -0.052186083 -0.291983 -0.22567287 -0.34679627 -0.31478074 0.35867342 -0.2271892
0.32605278 -0.07697746 0.06998446 -0.36316377 -0.16383214 -0.04866199 -0.43680263 0.21947029
-0.17223425 0.28571212 0.020737626 0.020446787 -0.24514529 0.17060722 -0.29126585 -0.010413039
0.07066301 0.08444785 0.22539794 -0.071439 -0.019353336 -0.3328772 0.066101305 -0.26074633
0.025939215 -0.44142893 0.12865168 -0.29378065 0.24941011 -0.32645267 0.052946184 -0.17917751
-0.6274692 -0.04649467 0.10070982 -0.24451134 0.13086304 0.23435411 -0.28656432 0.041582055
0.15784654 -0.11298342 0.014817232 0.19053002 0.11687161 0.27510253 0.015862986 -0.26806706
-0.287538 0.13928166 -0.07563945 0.32875755 0.035395358 -0.12147502 0.01567464 -0.27350098
00000000: 14a4 8cbe 93d5 063e 76c1 fabe 6792 f9bd
00000010: 8359 b33d 11a8 ac3e 565a 943d 8509 db3d
00000020: 6653 12be d5c8 a3be 8461 4ebe 4b90 2a3e
00000030: 0bf4 15bd 3b20 0f3e 56c7 8f3d 5d85 19be
00000040: d705 02be b260 473e a3c2 ba3e 9540 8abd
00000050: 707e 06be 0fa3 bc3d c02e 35bd b19d 86be
00000060: 2a30 763e fa8e d6bc 5aab e23d 6e74 f03e
00000070: 4273 7dbd c091 f53e eeac a33e c3b3 16bf
00000080: d11a aabe ca1e af3e 4f26 d1bb db69 29bd
00000090: abd2 4cbd 26b7 aabe 3884 413f e1f8 5b3e
000000a0: 8942 ce3e 9b3e 8f3c f46f 6c3d c904 94be
000000b0: abe1 a73d 4588 d3bd c446 0c3e 5566 8ebd
000000c0: 1d47 d0bd 4886 823c 07b4 15be f345 a13d
000000d0: 6efa 0ebd 002c 853e 0210 b2be b44f b43d
000000e0: 9c28 fb3d f5fc 15bd 2b19 3f3b 052f 54be
000000f0: fac9 053b b7ae 283d 7721 2a3d e79c 183d
00000100: 74e7 2cbe 73e3 6a3e 78ca 593d 978a 34be
00000110: 7b3f a6be 91ff ffbe 4279 efbd 3b35 3fbe
00000120: 4292 d33d b55b fc3d a8f9 9d3d b71b 9dbe
00000130: 7c19 50be ef14 053e f82c b9bd 0622 0cbe
00000140: c261 8dbd 235e d1bd 5b1b 053e ffc8 493d
00000150: 1552 90be 3d5b 9dbe d825 4b3d 08ac f5bd
00000160: 0f85 e8bd 4580 12be 499b a2be be6a e03c
00000170: 3170 eb3c 16b3 b13c 3f5a 29be 5349 503d
00000180: e5f1 53be 1543 a63e 290f 843f e8c3 393e
00000190: 487c 59be ac55 51be 1be8 abbd 332e a0bd
000001a0: 6734 b7be 6ffe ee3e 5eed 193d 7919 d6bd
000001b0: 167a be3d aeed 4dbe df18 4dbd 9777 88be
000001c0: 5f6d cf3d a7ec ebbd c818 f0bd b544 563e
000001d0: d24d 8fbe cb12 403e 6fd1 3a3d f307 66bd
000001e0: 9c63 3c3e 8025 60bd c3d8 30bd 3b83 4a3e
000001f0: 15f0 af3d f6a5 5d3d d62e b2be 6657 70be
00000200: 0497 b439 41af 493d 0313 983e a67d 3ebe
00000210: 0a29 ff3e e998 383e 57f0 493e 1a27 57be
00000220: 8b5d 12be 810e 253e 220c 9abc 098c 3c3d
00000230: 4dfb 2fbe 9a7c 9d3e 638a 87be 0b3e f8bd
00000240: bb40 36bd 7145 b23e 39ff 753e b159 96be
00000250: bfbe 503e a144 93be 210f b83d 6831 3b3e
00000260: 1014 97bd 214a a33d 1af7 413d c5cd 04be
00000270: c1a8 2d3e 3f50 903d fb2a 8abc 59c4 2f3e
00000280: 9190 f2bd 5653 b3be 2cdd 8bbd 4aa2 9cbe
00000290: 3bfb 123e 2131 e6be 1cc7 a3be adbd 803d
000002a0: f07b 43be 0b16 4ebe f9aa a0be bc48 43be
000002b0: e430 5e3e 08e4 05be 5afd b53d 0b4a d9bd
000002c0: fce6 b33d d7b2 44be 095c a33e f2c0 af3d
000002d0: bfb3 c5bd 787f 1c3e 0c36 84bd c7f8 4cbe
000002e0: 7632 44be d020 01bf a2a4 05be 29a9 e53e
000002f0: 227c 67be 0663 a13e 188f 2f3d f450 81bd
00000300: 0c3b 35be 13c1 55bd cc7e 95be ca16 67be
00000310: 488f b1be f12a a1be 0ba4 b73e 49a4 68be
00000320: 64f0 a63e 5ca6 9dbd 0354 8f3d 9af0 b9be
00000330: 9dc3 27be cb51 47bd 98a4 dfbe d2bc 603e
00000340: 2d5e 30be dc48 923e f4e1 a93c 0580 a73c
00000350: 5e07 7bbe a9b3 2e3e cc20 95be 739b 2abc
00000360: c5b7 903d fff2 ac3d b8ce 663e 9c4e 92bd
00000370: e38a 9ebc e16e aabe 1f60 873d 8b80 85be
00000380: 7a7e d43c f902 e2be 44bd 033e 6b6a 96be
00000390: 5d65 7f3e ce24 a7be 19de 583d 4f7a 37be
000003a0: d2a1 20bf 3271 3ebd f340 ce3d 2e61 7abe
000003b0: f600 063e 86fa 6f3e 8fb8 92be f251 2a3d
000003c0: 86a2 213e da63 e7bd fac3 723c 4d1a 433e
000003d0: 625a ef3d 3dda 8c3e 18f3 813c 1640 89be
000003e0: 2e38 93be da9f 0e3e dbe8 9abd e952 a83e
000003f0: b9fa 103d e5c7 f8bd 1a68 803c 5208 8cbe

embedder.emb_rnn.bias_ih_l0 f4 [60]
0.9567506 1.2367961 0.9090691 0.9214729 0.94187593 0.91288453 1.0464551 1.0881733
0.8979914 0.8970789 0.9947676 0.8892876 0.9743797 1.005853 0.9565416 1.0172714
1.0130843 1.0124846 1.164864 1.1429101 0.47201243 0.43179107 0.49945387 0.90888554
0.83000606 0.33511606 0.3810568 0.3187068 0.8074435 0.57572 0.7137189 0.7607533
0.69644666 0.645581 0.73808753 0.58500975 0.7849122 0.83734983 0.5832857 0.2866149
1.0336332 1.1499114 1.0152993 0.9442893 0.96756613 0.9421246 0.9104347 0.9395749
1.0841739 0.9397139 0.7624661 0.9619368 0.93822217 0.8605866 0.9711419 1.0333189
0.8492011 0.94025654 0.91465396 1.1558592
00000000: 9bed 743f 564f 9e3f c1b8 683f a6e5 6b3f
00000010: c81e 713f cdb2 693f 3ef2 853f 4349 8b3f
00000020: c4e2 653f f6a6 653f 17a9 7e3f 5aa8 633f
00000030: f370 793f cbbf 803f e9df 743f f335 823f
00000040: bfac 813f 1899 813f 431a 953f e14a 923f
00000050: 9dab f13e b813 dd3e 6bb8 ff3e b9ac 683f
00000060: 477b 543f 5594 ab3e e019 c33e 8a2d a33e
00000070: 9eb4 4e3f 6362 133f 48b6 363f bac0 423f
00000080: 544a 323f cc44 253f 4ef3 3c3f 33c3 153f
00000090: 02f0 483f 8f5c 563f 3652 153f 30bf 923e
000000a0: 184e 843f 4c30 933f 54f5 813f f2bc 713f
000000b0: 6ab2 773f 142f 713f 4012 693f fb87 703f
000000c0: 36c6 8a3f 1791 703f fa30 433f 7d41 763f
000000d0: 542f 703f 674f 5c3f c19c 783f cb43 843f
000000e0: 3e65 593f a7b4 703f c326 6a3f 32f3 933f

embedder.emb_rnn.bias_hh_l0 f4 [60]
-0.043249328 0.236797 -0.09093441 -0.07852514 -0.05812712 -0.087115526 0.046449408 0.088174276
-0.1020107 -0.10292159 -0.0052332133 -0.11071503 -0.02561891 0.0058535133 -0.043459825 0.017271832
0.01308715 0.012488142 0.16486496 0.14290467 -0.5279876 -0.56820834 -0.500546 -0.09111556
-0.16999395 -0.66488683 -0.61893797 -0.68129694 -0.19255526 -0.42428046 -0.28627715 -0.23924547
-0.3035561 -0.35441807 -0.26191103 -0.41498747 -0.21508592 -0.16265088 -0.41671717 -0.71337974
0.023215512 0.17207772 0.111219496 -0.070539474 0.026189618 -0.07132481 -0.13654877 -0.065184645
0.07329402 -0.06853783 -0.3027786 -0.059667382 -0.083450116 -0.12457633 -0.07390739 0.016297033
-0.068346776 -0.124941885 -0.0947807 0.16317733
00000000: 3526 31bd ea7a 723e d23b babd cad1 a0bd
00000010: b416 6ebd a069 b2bd bc41 3e3d b794 b43d
00000020: fcea d0bd 8ec8 d2bd 607b abbb 90be e2bd
00000030: c0de d1bc d4ce bf3b ee02 32bd a87d 8d3c
00000040: 7c6b 563c 109b 4c3c 5cd2 283e 9a55 123e
00000050: 322a 07bf 1a76 11bf c823 00bf cb9a babd
00000060: e512 2ebe 0636 2abf b872 1ebf 7a69 2ebf
00000070: 352d 45be 4a3b d9be eb92 92be c4fc 74be
00000080: b56b 9bbe 4976 b5be 3419 86be 3d79 d4be
00000090: 7c3f 5cbe f48d 26be f45b d5be 0ea0 36bf
000000a0: 752e be3c 2435 303e 0cc7 e33d 0077 90bd
000000b0: 9c8b d63c be12 92bd 71d3 0bbe 877f 85bd
000000c0: 2d1b 963d 905d 8cbd cc05 9bbe c965 74bd
000000d0: e5e7 aabd e021 ffbd c25c 97bd 5b81 853c
000000e0: 65f9 8bbd 88e1 ffbd 621c c2bd f517 273e

embedder.emb_rnn.weight_ih_l1 f4 [60, 20]
0.21254659 0.037130166 0.063400246 3.389852e-05 -0.057108864 -0.17249769 0.11829561 -0.040016614
0.12851508 0.194155 -0.14531077 0.1499994 -0.25427896 -0.0365282 -0.051270347 -0.17161213
0.01702391 0.12891091 -0.068960175 0.18376903 -0.33600563 -0.13688199 0.20042802 -0.2123428
0.007468713 -0.0148357265 -0.008564724 0.06300298 0.059373293 0.028053455 0.06909721 0.2360454
-0.03419925 0.20539038 -0.16881388 -0.3053295 -0.14087331 -0.12336585 0.0069171484 -0.15579046
0.12974156 0.32719135 0.05166208 -0.0525493 -0.18813768 0.16747384 0.15986754 0.23241659
-0.1344023 -0.06611556 0.062205542 0.22039026 -0.07394962 0.0060557737 0.23229864 0.25413013
-0.13708828 0.016944898 0.095602445 0.185126 -0.4700281 0.20126091 -0.6238058 0.07835762
-0.060177125 0.85380083 0.17842992 -0.0023807369 -0.14230388 -0.339738 0.17201261 -0.018287493
0.42623925 0.08222545 -0.19050391 0.17539476 -0.16138111 0.30475852 0.13296029 0.04503794
-0.15562385 -0.06446674 -0.21352433 -0.10071432 0.14043994 0.7299843 -0.3403863 -0.1488858
0.019846287 -0.22911084 0.029333448 0.05481107 -0.026401673 0.41732708 -0.2758915 -0.14195648
-0.2910481 0.13308276 0.08948376 0.04676565 -0.0820493 0.050009623 -0.15460883 -0.19992973
-0.3208174 0.18745966 0.1550961 0.113592766 -0.35294524 0.32897794 0.20305054 -0.41957143
-0.22699896 0.24040641 0.15183958 0.0015351961 -0.14160521 0.31553322 0.52806914 -0.21375175
-0.061591182 -0.36944413 -0.29609528 -0.8745226 -0.07414153 -0.03833452 -0.49831006 -0.28930238
-0.22237687 -0.6223631 -0.42774752 -0.25835943 -0.4377276 0.1469928 -0.0065188915 0.06871707
0.037976928 0.4707195 0.118558645 -0.25389472 -0.46465775 0.21784933 0.55761945 0.017757356
-0.09840691 0.6419 0.21309038 -0.13173242 0.12105875 -0.008989206 -0.13959159 -0.14285202
0.37754327 -0.2387769 -0.1702891 -0.10766943 0.22329682 0.2708882 0.19198316 0.0670559
0.33874506 0.33668163 -0.26869345 0.42743048 0.27131003 -0.43657064 -0.01986691 0.1532966
-0.012566024 0.06960867 -0.09701589 0.13481289 -0.00744458 0.18866174 0.3737377 0.070778914
0.3181993 -0.0066742436 0.071779646 0.20356923 -0.7805086 0.19997111 -0.94914174 -0.0019915376
0.18596768 -0.06043542 0.044535805 -0.013135943 -0.34126177 -0.36187598 -0.30770078 -0.0648047
0.03666033 -0.4392862 -0.21090323 0.19909053 -0.056621276 0.029905979 -0.015812363 -0.201495
0.20365351 -0.011420827 -0.1813222 -0.17126201 0.2039684 0.14157063 0.16962622 -0.4574051
-0.044802763 -0.056135293 -0.10097597 0.0310621 0.27292877 -0.24029575 0.019327464 0.13931184
0.0032423835 -0.08151921 0.28094617 -0.0833938 -0.05933387 0.120748706 -0.24436161 0.058230653
-0.09355378 -0.14835343 0.022986485 0.1642192 0.21409209 -0.3429008 0.3784117 0.1257298
-0.51696897 -0.017098518 -0.11657737 0.16926186 -0.1843555 0.3702915 0.21066177 0.23682798
-0.03457373 -0.10206427 0.14378576 -0.24967173 -0.1029125 -0.14188051 0.18923807 -0.25092632
-0.0016341294 -0.058667857 -0.0030698522 0.12663957 -0.25416952 -0.43971545 -0.10117139 -0.1574685
00000000: d0a5 593e cd15 183d fdd7 813d 422e 0e38
00000010: fcea 69bd 3ca3 30be f844 f23d 76e8 23bd
00000020: 7599 033e 91d0 463e 59cc 14be 7199 193e
00000030: da30 82be 989e 15bd db00 52bd 17bb 2fbe
00000040: ba75 8b3c 3901 043e fe3a 8dbd f32d 3c3e
00000050: ee08 acbe cb2a 0cbe 013d 4d3e 6470 59be
00000060: 1bbc f43b 8c11 73bc 0e53 0cbc b507 813d
00000070: 6931 733d 5cd0 e53c d782 8d3d e3b5 713e
00000080: 8314 0cbd db51 523e 8cdd 2cbe 2654 9cbe
00000090: 1841 10be 3ca7 fcbd 3fa9 e23b 8987 1fbe
000000a0: f9da 043e a085 a73e 9e9b 533d ef3d 57bd
000000b0: 2aa7 40be 437e 2b3e 51b4 233e 9dfe 6d3e
000000c0: c2a0 09be 9867 87bd 3dcb 7e3d fcad 613e
000000d0: e672 97bd 836f c63b b2df 6d3e 581d 823e
000000e0: df60 0cbe 07d0 8a3c 37cb c33d ac91 3d3e
000000f0: 86a7 f0be 5717 4e3e bdb1 1fbf f679 a03d
00000100: 4a7c 76bd b192 5a3f 55b6 363e 2306 1cbb
00000110: 1cb8 11be 24f2 adbe 1324 303e a7cf 95bc
00000120: 083c da3e d165 a83d 7513 43be af9a 333e
00000130: 1741 25be 4f09 9c3e be26 083e b479 383d
00000140: dc5b 1fbe 2307 84bd 1fa6 5abe 4f43 cebd
00000150: 7dcf 0f3e 40e0 3a3f 1d47 aebe 8575 18be
00000160: ae94 a23c 089c 6abe b34c f03c 9381 603d
00000170: 5248 d8bc e5ab d53e a741 8dbe 0a5d 11be
00000180: 4204 95be d946 083e 4343 b73d 578d 3f3d
00000190: 7709 a8bd e4d6 4c3d c751 1ebe 61ba 4cbe
000001a0: 2e42 a4be 6df5 3f3e 83d1 1e3e 53a3 e83d
000001b0: 3db5 b4be cc6f a83e 7bec 4f3e 11d2 d6be
000001c0: 6a72 68be 192d 763e d67b 1b3e a238 c93a
000001d0: f500 11be 928d a13e 8a2f 073f bde1 5abe
000001e0: 0947 7cbd c827 bdbe cd99 97be b7e0 5fbf
000001f0: 84d7 97bd a804 1dbd 7f22 ffbe 711f 94be
00000200: c3b6 63be 3053 1fbf b901 dbbe b047 84be
00000210: d51d e0be 4885 163e 6d9c d5bb 89bb 8c3d
00000220: b28d 1b3d 2502 f13e e0ce f23d 7dfe 81be
00000230: 9fe7 edbe e513 5f3e 26c0 0e3f e077 913c
00000240: 9089 c9bd 8f53 243f 5d34 5a3e dde4 06be
00000250: a6ed f73d 7647 13bc 19f1 0ebe cd47 12be
00000260: 5a4d c13e ef81 74be 4460 2ebe ca81 dcbd
00000270: eca7 643e dcb1 8a3e 3c97 443e 9b54 893d
00000280: fe6f ad3e 8961 ac3e 3092 89be 2bd8 da3e
00000290: 26e9 8a3e 3086 dfbe eebf a2bc c9f9 1c3e
000002a0: bae1 4dbc fe8e 8e3d 44b0 c6bd 640c 0a3e
000002b0: aaf1 f3bb 8b30 413e 8c5a bf3e 89f4 903d
000002c0: 05eb a23e 9db3 dabb 3501 933d 7474 503e
000002d0: 69cf 47bf 3ac5 4c3e f4fa 72bf 7584 02bb
000002e0: 506e 3e3e 228b 77bd 2d6b 363d 2338 57bc
000002f0: ddb9 aebe cf47 b9be f58a 9dbe 54b8 84bd
00000300: 2429 163d 1fea e0be 04f7 57be 63de 4b3e
00000310: b6eb 67bd 62fd f43c ee88 81bc b554 4ebe
00000320: 8c8a 503e 6c1e 3bbc 87ac 39be 4f5f 2fbe
00000330: 18dd 503e e4f7 103e 7fb2 2d3e 0031 eabe
00000340: 1a83 37bd 1fee 65bd 7dcc cebd f275 fe3c
00000350: 52bd 8b3e 1710 76be a154 9e3c c3a7 0e3e
00000360: 2b7e 543b 8bf3 a6bd 2dd8 8f3e 5eca aabd
00000370: 1208 73bd 194b f73d ee39 7abe 4483 6e3d
00000380: 2099 bfbd f6e9 17be 274e bc3c 1429 283e
00000390: f53a 5b3e b290 afbe 2ebf c13e 50bf 003e
000003a0: 1458 04bf 3112 8cbc 1ec0 eebd fb52 2d3e
000003b0: b0c7 3cbe d996 bd3e b8b7 573e 0983 723e
000003c0: 2f9d 0dbd 1207 d1bd 933c 133e f2a9 7fbe
000003d0: cac3 d2bd 2049 11be a0c7 413e 6a79 80be
000003e0: 4930 d6ba b54d 70bd 932f 49bb cead 013e
000003f0: 8222 82be 6222 e1be f232 cfbd 6c3f 21be

embedder.emb_rnn.weight_hh_l1 f4 [60, 20]
-0.13480105 -0.25887662 0.021683786 0.041234367 0.33078802 -0.05554562 -0.081183165 0.08852723
0.07568182 -0.27575445 0.27649242 0.21554637 0.17009202 0.18221124 0.19747198 0.25944015
-0.15922414 0.1821098 0.12849791 0.051145487 0.2086082 -0.45877662 0.28026047 0.20874088
0.25161183 -0.11155637 -0.12325255 -0.029962316 0.06033498 -0.25209305 0.34048045 -0.03194743
-0.043298647 0.34607023 0.16907477 -0.22119723 -0.0836051 -0.10997355 0.107577026 0.15966554
0.24010439 0.07564318 0.118284605 -0.094330244 -0.14815162 0.20904791 -0.1577491 0.22169545
0.15935197 0.1870825 -0.04722279 -0.119626015 0.11902671 0.19502388 -0.2629526 -0.008242095
-0.096034266 0.3643437 -0.10858932 -0.007686879 0.057861887 -0.12008363 0.121932045 -0.08563387
-0.17803107 0.2556685 0.09824079 0.40875873 0.2366346 -0.10077073 -0.05652354 -0.16942935
-0.19460769 -0.27576506 0.12101083 -0.059045665 -0.08920398 0.08016719 -0.10220923 -0.008961269
-0.15934907 0.07949779 -0.32036877 -0.03499527 -0.120511256 0.13170902 -0.032118976 -0.66745776
-0.07541742 -0.30633453 -0.34503737 0.23317641 0.19083656 -0.2878654 0.3123454 0.33509085
-0.0037921532 -0.08967602 -0.14706737 0.10622386 -0.34152073 0.29415563 0.12032629 0.12612608
0.27091816 -0.0072790533 0.3239364 0.11094362 -0.026833698 0.05964303 0.044552483 0.09685274
-0.24908735 -0.1258081 -0.24184546 0.17376101 -0.32287866 0.11624912 -0.41861546 -0.15004715
0.12961154 0.0744711 0.20155562 -0.32453063 0.05145162 0.34298113 -0.026303744 -0.33037862
0.27946728 0.18139331 0.13210545 -0.3265607 -0.16090965 0.1571213 -0.07255057 -0.19236748
-0.101117715 0.07680243 0.17436226 -0.40568712 -0.1957783 0.19277573 -0.23104964 -0.015690839
-0.44063628 -0.0027769895 0.26079527 0.33870932 -0.14414456 -0.088130966 -0.087587014 -0.009745721
0.28465843 0.19351757 0.2951961 -0.19407156 0.025104523 0.09913421 0.24497013 -0.17818421
-0.19878404 -0.05326441 -0.32314262 -0.06638695 -0.22743317 0.23407757 -0.053643253 1.0756603
-0.15418833 0.13678809 -0.07035916 0.27648005 0.17220016 0.3537656 0.29523134 -0.070877805
-0.30200732 -0.08654983 0.24571136 0.3068635 -0.115294956 -0.03981623 -0.15230384 0.17313372
0.4442522 -0.115714625 0.035664555 -0.031666353 0.2696546 -0.00283702 -0.09847256 -0.0477064
0.16515963 -0.2391019 -0.32586476 0.04144337 0.09588314 -0.035210274 -0.085385695 -0.005604581
-0.22930063 0.090160325 -0.48574907 -0.021871997 -0.46021444 0.07596299 0.3263893 0.51773214
0.15448831 0.07416039 -0.2651073 0.054541618 0.6197568 -0.2618181 -0.12209591 -0.9772875
-0.22913401 -0.26188308 0.11471509 -0.26504534 -0.041324124 0.33986884 -0.12564269 0.20049524
-0.16368842 0.050448604 -0.030455682 0.15845259 0.24131453 -0.028228512 0.11443917 0.26626357
0.34972098 0.13025445 -0.02002291 0.1452274 -0.19784302 -0.16790934 0.23650081 -0.0015603657
-0.3980289 0.4527307 -0.0549333 0.3359732 0.016556235 -0.14081994 -0.046703454 -0.4090295
-0.06993885 -0.16356137 -0.037280288 -0.009468154 0.46838227 -0.23494515 -0.08416199 0.1686554
00000000: 4909 0abe 7a8b 84be 32a2 b13c 5ee5 283d
00000010: 0c5d a93e ce83 63bd 5c43 a6bd c44d b53d
00000020: 12ff 9a3d b02f 8dbe 6a90 8d3e 30b8 5c3e
00000030: 9a2c 2e3e 9595 3a3e 1836 4a3e 57d5 843e
00000040: a70b 23be fe7a 3a3e f594 033e ee7d 513d
00000050: 639d 553e c5e4 eabe 4d7e 8f3e 2bc0 553e
00000060: 44d3 803e ab77 e4bd d56b fcbd 8873 f5bc
00000070: d021 773d 5712 81be 7453 ae3e 4fdb 02bd
00000080: ec59 31bd 1e30 b13e f021 2d3e 8781 62be
00000090: 2739 abbd d039 e1bd 5851 dc3d 5d7f 233e
000000a0: eddd 753e d0ea 9a3d 333f f23d 3730 c1bd
000000b0: 0fb5 17be a810 563e fb88 21be 2204 633e
000000c0: 2a2d 233e 8e92 3f3e af6c 41bd 7cfe f4bd
000000d0: 47c4 f33d 57b4 473e b9a1 86be da09 07bc
000000e0: 9dad c4bd 428b ba3e 1464 debd 37e2 fbbb
000000f0: 9600 6d3d 68ee f5bd 82b7 f93d cf60 afbd
00000100: c74d 36be fbe6 823e 7832 c93d d348 d13e
00000110: 5750 723e e260 cebd 3a85 67bd e37e 2dbe
00000120: 3d47 47be 1431 8dbe 87d4 f73d ded9 71bd
00000130: 94b0 b6bd b22e a43d 1353 d1bd 49d2 12bc
00000140: 672c 23be bdcf a23d 6007 a4be 3357 0fbd
00000150: 9bce f6bd bbde 063e 308f 03bd 83de 2abf
00000160: 7374 9abd e1d7 9cbe bda8 b0be ccc5 6e3e
00000170: a96a 433e 1863 93be bceb 9f3e 0791 ab3e
00000180: c685 78bb 10a8 b7bd d498 16be e58b d93d
00000190: cedb aebe 919b 963e a16d f63d 3227 013e
000001a0: c9b5 8a3e 2085 eebb feda a53e 6936 e33d
000001b0: 58d2 dbbc 404c 743d aa7c 363d bb5a c63d
000001c0: c110 7fbe d7d3 00be 56a6 77be 68ee 313e
000001d0: 5a50 a5be 0514 ee3d c454 d6be f6a5 19be
000001e0: e3b8 043e 4e84 983d 9964 4e3e e128 a6be
000001f0: efbe 523d 399b af3e f37a d7bc 6327 a9be
00000200: 5616 8f3e 2bbf 393e a746 073e f732 a7be
00000210: 80c5 24be 68e4 203e 6595 94bd fbfb 44be
00000220: ce16 cfbd 984a 9d3d 058c 323e 39b6 cfbe
00000230: 1b7a 48be 0067 453e 4798 6cbe 138a 80bc
00000240: 149b e1be 27fe 35bb f586 853e 4f6b ad3e
00000250: a29a 13be 027e b4bd d260 b3bd 84ac 1fbc
00000260: c0be 913e 7829 463e f123 973e b2ba 46be
00000270: 00a8 cd3c e006 cb3d 73d9 7a3e ec75 36be
00000280: 0b8e 4bbe c82b 5abd f372 a5be e2f5 87bd
00000290: 3ee4 68be 08b2 6f3e 07b9 5bbd 3daf 893f
000002a0: 8ce3 1dbe 2d12 0c3e 7718 90bd cb8e 8d3e
000002b0: 3d55 303e c420 b53e 9028 973e 6228 91bd
000002c0: b4a0 9abe 0a41 b1bd c29b 7b3e 361d 9d3e
000002d0: c31f ecbd 5816 23bd 8af5 1bbe f749 313e
000002e0: 0675 e33e cafb ecbd ff14 123d 94b4 01bd
000002f0: 2b10 8a3e 4ced 39bb fbab c9bd c967 43bd
00000300: 9b1f 293e 21d7 74be bfd7 a6be 86c0 293d
00000310: 615e c43d a638 10bd b2de aebd a2a6 b7bb
00000320: c9cd 6abe faa5 b83d 1ab4 f8be e72c b3bc
00000330: 3aa1 ebbe 7c92 9b3d 801c a73e 188a 043f
00000340: 2f32 1e3e 67e1 973d 25bc 87be 0867 5f3d
00000350: 62a8 1e3f 060d 86be 6c0d fabd 832f 7abf
00000360: 1ba2 6abe 8a15 86be bfef ea3d 06b4 87be
00000370: 7c43 29bd 4a03 ae3e 7aa8 00be a04e 4d3e
00000380: f09d 27be 32a3 4e3d 327e f9bc 6541 223e
00000390: 281b 773e 7b3f e7bc 155f ea3d b353 883e
000003a0: a10e b33e 6c61 053e 1607 a4bc 7eb6 143e
000003b0: 5c97 4abe 6df0 2bbe 452d 723e 2f85 ccba
000003c0: 72ca cbbe 51cc e73e bd01 61bd ae04 ac3e
000003d0: f1a0 873c 1a33 10be 1f4c 3fbd 516c d1be
000003e0: 1a3c 8fbd a27c 27be 37b3 18bd 5120 1bbc
000003f0: cdcf ef3e 7695 70be 1f5d acbd 00b4 2c3e

embedder.emb_rnn.bias_ih_l1 f4 [60]
0.9670159 1.0152397 1.0837214 1.0006493 0.91578364 0.9190401 0.88534075 1.0062058
1.1761858 0.9599881 0.9759999 1.0641229 0.9867017 0.9825635 1.0013225 1.1959088
1.0186219 0.9320738 0.9369824 0.9359065 0.6879547 0.7839465 0.9299443 0.5763732
0.63858443 0.34009284 0.57502365 0.4061161 0.6070541 0.60291463 0.7384595 0.40144894
0.23790866 0.933254 0.7588595 0.79042226 0.7992637 0.7012339 0.89427876 0.6178006
1.0380846 0.88035506 1.141835 0.99135077 0.9359854 0.97448766 0.9113963 0.9073806
0.72856283 0.95485467 0.8535532 0.8812484 0.9312065 1.008435 0.85141134 1.1226902
1.0229715 1.1329191 0.9098799 1.080609
00000000: 5b8e 773f 60f3 813f 62b7 8a3f 4715 803f
00000010: cc70 6a3f 3646 6b3f b1a5 623f 5acb 803f
00000020: 428d 963f c8c1 753f 21db 793f 2e35 883f
00000030: 7c98 7c3f 4889 7b3f 562b 803f 8a13 993f
00000040: 3462 823f 639c 6e3f 14de 6f3f 9297 6f3f
00000050: cd1d 303f b8b0 483f d410 6e3f 328d 133f
00000060: 457a 233f a620 ae3e c034 133f 73ee cf3e
00000070: e667 1b3f 9d58 1a3f af0b 3d3f b78a cd3e
00000080: 549e 733e bce9 6e3f 9e44 423f 1d59 4a3f
00000090: 8c9c 4c3f 1184 333f 74ef 643f 2e28 1e3f
000000a0: f5df 843f f35e 613f a627 923f 2ac9 7d3f
000000b0: bd9c 6f3f 0678 793f 4551 693f 184a 683f
000000c0: 1883 3a3f 5b71 743f 7682 5a3f 7f99 613f
000000d0: 8d63 6e3f 6614 813f 18f6 593f 50b4 8f3f
000000e0: bbf0 823f 7e03 913f e4ed 683f 6551 8a3f

embedder.emb_rnn.bias_hh_l1 f4 [60]
-0.03298578 0.015239961 0.08371964 0.0006528529 -0.08421436 -0.08096137 -0.11466078 0.006203629
0.1761865 -0.04000711 -0.02400227 0.06412239 -0.013300968 -0.017434826 0.0013207949 0.19590683
0.018619359 -0.06792366 -0.06301814 -0.06409746 -0.3120452 -0.21605152 -0.07005996 -0.42363188
-0.36141393 -0.65990824 -0.42497504 -0.59388906 -0.39294288 -0.39708677 -0.26154226 -0.5985514
-0.7620893 -0.066742994 -0.24114177 -0.20957671 -0.20073482 -0.29876772 -0.10571938 -0.3821986
0.03807424 -0.1209021 0.12578346 -0.02368214 -0.05397699 -0.027674668 -0.0070504406 -0.1255052
-0.28095445 -0.16337547 -0.16623075 -0.13458714 -0.09907923 -0.06963733 -0.11697801 0.21079542
0.042134974 0.13173012 -0.15960291 0.10410367
00000000: 191c 07bd 08b1 793c 3475 ab3d 3724 2b3a
00000010: 9478 acbd 13cf a5bd 45d3 eabd d047 cb3b
00000020: 3c6a 343e 7fde 23bd 69a0 c4bc 9952 833d
00000030: 4eec 59bc 7bd3 8ebc 861e ad3a cd9b 483e
00000040: a087 983c 8f1b 8bbd a80f 81bd 8745 83bd
00000050: 63c4 9fbe 9c3c 5dbe 997b 8fbd 47e6 d8be
00000060: 3f0b b9be bfef 28bf 5496 d9be 1d09 18bf
00000070: cf2f c9be f54e cbbe dee8 85be aa3a 19bf
00000080: 4918 43bf 8db0 88bd deed 76be 479b 56be
00000090: 6e8d 4dbe 15f8 98be 6783 d8bd 89af c3be
000000a0: bcf3 1b3d 859b f7bd 61cd 003e 0c01 c2bc
000000b0: fa16 5dbd fcb5 e2bc 6207 e7bb 6f84 00be
000000c0: 43d9 8fbe e64b 27be 6538 2abe 36d1 09be
000000d0: 0dea cabd 049e 8ebd 2b92 efbd c1da 573e
000000e0: b995 2c3d 43e4 063e f26e 23be 4e34 d53d

embedder.emb_rnn.weight_ih_l2 f4 [60, 20]
-0.21132614 -0.65312 0.010262102 0.09372878 0.10427995 -0.011337402 -0.6232586 -0.015617047
-0.14272201 -0.10560344 0.75134224 -0.26074636 -0.14398181 -0.006581351 0.25680196 0.18957649
0.05611848 0.2538295 0.10952065 0.087848336 0.123564266 0.02280548 0.14830706 0.1796199
-0.22522269 0.5860489 0.2933971 0.68448305 0.07804462 0.4785175 -0.27959695 0.03199901
-0.96828693 -0.05325885 -0.5180736 0.6134902 0.1604033 -0.11889028 -1.062292 0.04334012
0.01115413 -0.016588807 -0.15653352 -0.39089483 0.17821811 0.07211197 0.3189785 -0.4794712
0.33483124 -0.3120439 0.36994082 0.085244715 0.016212204 0.028330589 0.6469866 -0.47745436
-0.19845283 -0.08196147 0.48479107 -0.27701393 -0.119504206 -0.1047144 -0.06392718 0.055735745
0.36971927 -0.30853176 0.3065803 -0.23371628 0.28870288 -0.59193856 -0.30345422 0.18216954
0.1061172 0.12364219 -0.08221463 -0.42897302 -0.28647557 -0.2546249 0.07744854 -0.097496696
0.23747654 -0.62080514 -0.21524824 0.16255438 0.3921905 -0.23168379 0.15562178 0.22749825
-0.11568598 0.35911423 0.22536822 -0.6117362 -0.21051095 0.31789222 0.22933511 0.22824542
0.1367301 -0.15559594 0.49054697 -0.10245808 0.11303859 0.29690135 0.048647765 -0.23252353
-0.08891245 -0.033313636 -0.048051998 -0.389079 0.11342099 0.058008894 -0.3344153 0.2597601
-0.22101256 -0.19866991 -0.1563686 -0.5538004 0.10960942 -0.21663661 0.12302091 -0.003878059
0.24425611 -0.14037345 -0.2711603 -0.43715778 1.4829546 -0.3963907 -0.1677547 -1.5510982
0.114714466 -0.21250677 0.09692355 -0.309342 -0.49656355 -0.16660249 0.3363191 -0.5172258
-0.29301822 -0.1168123 0.7647679 0.057201974 0.022022462 0.097026035 0.11189088 -0.16346332
-0.59759676 -0.49523512 -0.1302343 -0.3907955 -0.20890811 -0.30166382 -0.10893425 -0.19037746
0.23329325 0.21783145 0.35167894 -0.92829895 0.29014802 0.1216609 1.1711203 -0.3217036
-0.16109347 -0.046199955 -0.23038538 -0.20226769 0.013508061 -0.23603755 -0.88557404 -0.32594246
0.3825835 -0.14657106 0.2558702 -0.41686207 -0.73318624 0.02594484 -0.0778365 -0.010092195
0.24274927 -0.028584968 0.23040481 -0.039015334 0.11027946 0.4763091 -0.2833096 0.007506479
-0.70126104 0.32923508 0.15546204 0.55534387 0.25863266 -0.074484885 -0.13625379 0.037298784
0.50447625 -0.09003506 -0.0022279143 -0.2805064 -0.24881116 -0.11118275 -0.70079815 -0.1366504
0.23005007 0.07128675 0.18791738 -0.31940064 0.5780026 -0.19982255 -0.19585454 -0.5274133
-0.08275324 0.20023511 0.5042577 -0.42869237 -0.15117724 0.0029469288 -0.10019609 -0.1107884
0.2362359 -0.21660542 0.01162265 0.18132052 -0.0123761315 -0.36152828 0.3049187 0.20843937
0.5904142 0.41347632 -0.26076585 -0.48176113 0.0064285146 -0.22490136 0.14479391 -0.07610495
0.07578229 0.28820458 -0.25557765 0.010482074 0.09838978 0.30147356 0.2541987 0.0917582
-0.2885689 0.35842878 -0.2747504 -0.37598482 -0.0026143955 0.7672373 -0.15594766 -0.22685988
0.1435881 0.17337668 -0.13378528 0.09642672 0.013634557 0.05359835 -0.11643978 -0.36609226
00000000: e165 58be df32 27bf 6022 283c e0f4 bf3d
00000010: ba90 d53d 83c0 39bc e08d 1fbf a5de 7fbc
00000020: b825 12be 9e46 d8bd f757 403f 8c80 85be
00000030: f86f 13be 60a8 d7bb 8c7b 833e 5720 423e
00000040: 7edc 653d f1f5 813e 5d4c e03d d4e9 b33d
00000050: 430f fd3d 8fd2 ba3c cedd 173e 47ee 373e
00000060: c7a0 66be 4d07 163f 2538 963e 483a 2f3f
00000070: dcd5 9f3d 3f00 f53e 5527 8fbe 6511 033d
00000080: a7e1 77bf f425 5abd 79a0 04bf b20d 1d3f
00000090: c340 243e bf7c f3bd 2ff9 87bf 6985 313d
000000a0: d0bf 363c 40e5 87bc 534a 20be 5e23 c8be
000000b0: cf7e 363e 71af 933d 2651 a33e 407d f5be
000000c0: 006f ab3e 38c4 9fbe e268 bd3e c894 ae3d
000000d0: 75cf 843c 8d15 e83c eaa0 253f e674 f4be
000000e0: 3837 4bbe 6adb a7bd 8936 f83e c5d4 8dbe
000000f0: 9fbe f4bd 8174 d6bd 41ec 82bd 2a4b 643d
00000100: d84b bd3e e0f7 9dbe 18f8 9c3e 5253 6fbe
00000110: ddd0 933e 4989 17bf 5a5e 9bbe a78a 3a3e
00000120: f953 d93d 1e38 fd3d 2560 a8bd 5aa2 dbbe
00000130: edac 92be 325e 82be 579d 9e3d 59ac c7bd
00000140: 0d2d 733e 16ed 1ebf 096a 5cbe a874 263e
00000150: 31cd c83e 843e 6dbe 515b 1f3e 4df5 683e
00000160: c5ec ecbd d2dd b73e edc6 663e be9a 1cbf
00000170: 2f90 57be c5c2 a23e d3d6 6a3e 2bb9 693e
00000180: fa02 0c3e 8b54 1fbe f928 fb3e 8bd5 d1bd
00000190: c780 e73d 7403 983e e142 473d a61a 6ebe
000001a0: bb17 b6bd e173 08bd 2cd2 44bd 5d35 c7be
000001b0: 4449 e83d bc9a 6d3d 7b38 abbe 47ff 843e
000001c0: 1e51 62be 2070 4bbe 171f 20be ddc5 0dbf
000001d0: e77a e03d fdd5 5dbe 63f2 fb3d 0927 7ebb
000001e0: 461e 7a3e 0fbe 0fbe 86d5 8abe 25d3 dfbe
000001f0: 75d1 bd3f b9f3 cabe e3c7 2bbe 638a c6bf
00000200: 6bef ea3d 609b 59be db7f c63d 1362 9ebe
00000210: 943d febe d899 2abe 0432 ac3e e968 04bf
00000220: 7c06 96be 4a3b efbd d4c7 433f 9e4c 6a3d
00000230: 7368 b43c 96b5 c63d 0c27 e53d ee62 27be
00000240: 1afc 18bf 758f fdbe 245c 05be 5916 c8be
00000250: 02ec 55be ae73 9abe ec18 dfbd 4ff2 42be
00000260: 6de4 6e3e 350f 5f3e 430f b43e 00a5 6dbf
00000270: 488e 943e 5a29 f93d 45e7 953f 56b6 a4be
00000280: b0f5 24be 2a3c 3dbd 25ea 6bbe 431f 4fbe
00000290: ea50 5d3c d4b3 71be fbb4 62bf eee1 a6be
000002a0: fce1 c33e b916 16be 6b01 833e f26e d5be
000002b0: 18b2 3bbf 468a d43c be68 9fbd bc59 25bc
000002c0: 4493 783e 062b eabc 3def 6b3e 8bce 1fbd
000002d0: 33da e13d c9de f33e f50d 91be e9f8 f53b
000002e0: d885 33bf 8091 a83e 7131 1f3e 042b 0e3f
000002f0: 806b 843e 888b 98bd 1d86 0bbe 9cc6 183d
00000300: 5b25 013f 4d64 b8bd 3302 12bb 899e 8fbe
00000310: 5ac8 7ebe c8b3 e3bd 8267 33bf 15ee 0bbe
00000320: 3f92 6b3e cafe 913d 6a6d 403e 7b88 a3be
00000330: faf7 133f 489e 4cbe 188e 48be 8f04 07bf
00000340: 887a a9bd 6f0a 4d3e 0817 013f 917d dbbe
00000350: 35ce 1abe 4321 413b 9c33 cdbd 07e5 e2bd
00000360: d3e7 713e d0cd 5dbe ed6c 3e3c 16ac 393e
00000370: 42c5 4abc 3c1a b9be 4e1e 9c3e 2171 553e
00000380: 6325 173f 2bb3 d33e 1a83 85be 65a9 f6be
00000390: 4aa6 d23b 8b4c 66be db44 143e e9dc 9bbd
000003a0: bf33 9b3d 8d8f 933e 13db 82be 01bd 2b3c
000003b0: 9580 c93d be5a 9a3e 5526 823e b9eb bb3d
000003c0: 4ebf 93be fa83 b73e 16ac 8cbe 1581 c0be
000003d0: 4756 2bbb aa69 443f beb0 1fbe f54d 68be
000003e0: c208 133e a889 313e 02ff 08be 5f7b c53d
000003f0: 7a63 5f3c f289 5b3d fb77 eebd 7270 bbbe

embedder.emb_rnn.weight_hh_l2 f4 [60, 20]
-0.3397794 -0.08729054 0.09395548 0.32403198 0.0983442 -0.015503562 -0.0131937 -0.08861463
-0.2254997 -0.03331325 0.4682124 0.08498782 -0.19031456 -0.23985319 -0.11215104 -0.24838483
0.18500169 -0.0956672 0.060172193 0.17812656 0.11848448 -0.3534696 0.116270795 0.024839588
0.32746837 -0.3920068 -0.47866976 -1.2221158 -0.22691804 -0.13704245 0.06479304 0.20769843
-0.895571 -0.4175266 0.08148006 -0.07804225 -0.71905017 0.2068589 0.439043 -0.12625161
-0.047178555 0.25205472 0.30545145 -0.029261641 -0.037679937 -0.12407937 0.19682115 -0.25094265
0.0509048 0.008875496 -0.118824564 0.00064196496 -0.24401538 0.32684988 -0.22110902 -0.12393233
0.07961088 0.18084455 -0.25606906 0.08730156 0.024603805 -0.44816306 -0.15384808 0.46744162
-0.43796724 0.38344318 -0.14430948 0.342303 0.30750716 -0.01459295 -0.38074654 -0.09369149
0.5471419 -0.2449943 0.10066934 0.33921984 0.26271015 -0.3710766 -0.23376565 -0.24665527
0.11578887 -0.5768973 -0.21412556 -0.29268667 -0.13369067 -0.14040372 0.6299832 0.0913347
0.009526773 -0.30478403 -0.1732276 0.2137479 0.599161 -0.13211441 0.06728644 0.13580476
0.2801567 -0.17211474 0.44929644 0.09427908 -0.1570105 -0.3515114 -0.25295082 0.030819664
0.15990503 -0.108628795 0.066783175 -0.1890987 -0.14942627 0.09597487 0.110057175 -0.035384264
-0.3571232 -0.1676195 0.049318567 0.22203502 -0.029271215 -0.32502517 0.42978624 0.120689675
-0.023127332 0.577027 0.56758565 0.3362112 0.25283438 0.25770378 -0.62132096 -1.0898314
0.14719552 -0.024339858 -0.07125553 -0.14485542 -0.49051112 0.5513151 -0.12844898 -0.23503104
-0.29292184 -0.16775364 0.2517295 -0.18981467 0.0026315826 1.1217661 0.82409304 0.6740126
0.32265112 -0.2939232 -0.054807726 -1.2606167 -0.019607132 -0.30504104 -0.06321137 -0.3650257
0.11232907 -0.013397457 0.12360162 0.07965279 0.11124693 -0.011669963 -0.11342617 0.2817316
-0.57671034 -0.22983374 -0.37342343 -0.09702943 0.14839469 -0.4192448 0.33224478 0.2055997
-0.52135175 0.14289966 -0.30278197 -0.19363147 -0.54609936 -0.3791331 -0.055519015 0.028655702
-0.2565077 -0.16373819 -0.28854254 -0.35025576 0.030603316 -0.3838726 -0.22050904 0.04255334
-0.019399896 -0.016765524 0.079869665 -0.16508071 -0.2587758 0.3263402 -0.0898741 -0.09712668
0.17233637 0.22067454 -0.21244042 -0.061078176 0.06267074 0.089259535 0.05483906 0.008045542
0.30150104 -0.08640816 -0.08697281 -0.1688559 -0.42738006 0.31926066 0.1976268 -0.40785533
0.28590003 0.063491985 -0.18818633 0.15776469 0.35887882 -0.48601332 -0.023799725 -0.108504854
0.27216667 0.01936196 0.04029145 0.5860365 0.12441924 -0.22543004 0.032014273 0.043359928
0.08514591 0.23098028 -0.035498977 -0.15266287 0.010570699 0.3181498 0.28636116 -0.0057894825
0.37999117 -0.16513477 0.016557733 0.11952502 0.26771343 0.09832658 0.043180417 -0.18884511
-0.23026346 0.4236841 -0.22113211 0.012244691 -0.11691964 -0.08223024 -0.5554171 -0.44301865
0.054970838 -0.30099612 -0.18767178 -0.15797468 -0.8233289 -0.2718528 -0.14236784 0.044232026
00000000: 91f7 adbe 62c5 b2bd bb6b c03d 85e7 a53e
00000010: af68 c93d a702 7ebc 642a 58bc 967b b5bd
00000020: 65e9 66be 7973 08bd 89b9 ef3e 180e ae3d
00000030: d2e1 42be 139c 75be 72af e5bd 9858 7ebe
00000040: 1571 3d3e 2aed c3bd 1e77 763d cf66 363e
00000050: fea7 f23d f8f9 b4be 621f ee3d 647c cb3c
00000060: efa9 a73e 1eb5 c8be 3414 f5be 4a6e 9cbf
00000070: 345d 68be db54 0cbe 37b2 843d e6ae 543e
00000080: 2444 65bf 0cc6 d5be 05df a63d 9dd4 9fbd
00000090: ac13 38bf d2d2 533e 3eca e03e 1a48 01be
000000a0: 4d3e 41bd 510d 813e 2264 9c3e 1cb6 efbc
000000b0: 4756 1abd 531d febd 7c8b 493e 8e7b 80be
000000c0: 8d81 503d 876a 113c 4b5a f3bd 8a49 283a
000000d0: 2bdf 79be de58 a73e 676a 62be 3cd0 fdbd
000000e0: 070b a33d 502f 393e 7c1b 83be 29cb b23d
000000f0: eb8d c93c a175 e5be 5a8a 1dbe 8254 ef3e
00000100: 3e3d e0be aa52 c43e ddc5 13be 5742 af3e
00000110: 9471 9d3e 4517 6fbc 36f1 c2be 53e1 bfbd
00000120: 7e11 0c3f c9df 7abe ba2b ce3d 39ae ad3e
00000130: f281 863e c1fd bdbe 4360 6fbe 3393 7cbe
00000140: b722 ed3d 8baf 13bf bb43 5bbe 07db 95be
00000150: 35e6 08be fec5 0fbe 9446 213f b00d bb3d
00000160: 2f16 1c3c a70c 9cbe 9362 31be bbe0 5a3e
00000170: 9e62 193f 0049 07be 79cd 893d 6710 0b3e
00000180: b370 8f3e d93e 30be 2f0a e63e 6415 c13d
00000190: 5cc7 20be 4df9 b3be c582 81be 8579 fc3c
000001a0: 25be 233e c678 debd 9ec5 883d 17a3 41be
000001b0: 3303 19be 798e c43d a865 e13d 17ef 10bd
000001c0: dad8 b6be 72a4 2bbe 4402 4a3d 265d 633e
000001d0: 30ca efbc b369 a6be f10c dc3e 262c f73d
000001e0: 8875 bdbc 0bb8 133f 4b4d 113f e023 ac3e
000001f0: 8273 813e c0f1 833e e40e 1fbf 987f 8bbf
00000200: 6cba 163e 6264 c7bc 6bee 91bd fb54 14be
00000210: 4624 fbbe fd22 0d3f 2188 03be faab 70be
00000220: daf9 95be 9cc7 2bbe b0e2 803e c75e 42be
00000230: a176 2c3b 0896 8f3f c3f7 523f 178c 2c3f
00000240: 8732 a53e 1a7d 96be 117e 60bd e35b a1bf
00000250: 239f a0bc 572e 9cbe f674 81bd a6e4 babe
00000260: c90c e63d 0281 5bbc d922 fd3d 0121 a33d
00000270: 6ed5 e33d 5f33 3fbc fb4b e8bd 203f 903e
00000280: 4aa3 13bf 8959 6bbe 5b31 bfbe 5eb7 c6bd
00000290: c7f4 173e 41a7 d6be fd1b aa3e ba88 523e
000002a0: 4f77 05bf 4a54 123e 3d06 9bbe 5447 46be
000002b0: 2bcd 0bbf bc1d c2be e867 63bd 5dbf ea3c
000002c0: fa54 83be fcaa 27be d9bb 93be b954 b3be
000002d0: ceb3 fa3c f38a c4be 1fcd 61be 694c 2e3d
000002e0: 88ec 9ebc da57 89bc b592 a33d eb0a 29be
000002f0: 437e 84be 1016 a73e ea0f b8bd 5aea c6bd
00000300: f278 303e 82f8 613e fb89 59be 1c2d 7abd
00000310: 8459 803d b4cd b63d ec9e 603d 73d1 033c
00000320: 585e 9a3e c3f6 b0bd cd1e b2bd 90e8 2cbe
00000330: 8fd1 dabe 2276 a33e ae5e 4a3e 6ad2 d0be
00000340: 7d61 923e 1608 823d ebb3 40be 118d 213e
00000350: f7be b73e bdd6 f8be a4f7 c2bc cb37 debd
00000360: 6e59 8b3e f99c 9e3c a608 253d 7d06 163f
00000370: 84cf fe3d 22d7 66be 6621 033d 2e9a 313d
00000380: fb60 ae3d 1886 6c3e 6067 11bd a853 1cbe
00000390: ba30 2d3c 88e4 a23e ee9d 923e b3b5 bdbb
000003a0: 348e c23e 1719 29be 15a4 873c 89c9 f43d
000003b0: bc11 893e 725f c93d f3dd 303d 9d60 41be
000003c0: 2fca 6bbe 1fed d83e 7570 62be f59d 483c
000003d0: 9073 efbd 5468 a8bd d12f 0ebf 57d3 e2be
000003e0: 1a29 613d 2a1c 9abe 082d 40be 1dc4 21be
000003f0: afc5 52bf 4a30 8bbe e0c8 11be a42c 353d

embedder.emb_rnn.bias_ih_l2 f4 [60]
1.1365685 0.9282389 1.0366551 0.9184329 1.0984275 0.84869415 1.0480199 0.98946035
0.87410843 0.98456895 0.9720244 1.2003591 0.8463331 1.0022448 1.09003 0.93066555
1.0375282 1.0772578 1.0076705 0.95406383 0.5255151 0.7719217 0.4818628 0.66762125
1.2061567 0.8505244 0.16551568 0.64771265 0.5037818 0.62694085 0.8343633 0.5952511
0.18771602 0.4960236 0.916684 0.528738 0.6678242 0.59708405 0.668959 0.6246262
0.7896645 0.9180221 1.0169028 0.85891104 1.0657195 0.9834784 1.0506852 1.0254873
0.8192684 0.9525979 0.9960625 0.9733347 0.8675574 1.0021276 1.0017629 0.89313847
0.96227676 0.87606144 0.9617915 0.9665233
00000000: 147b 913f 11a1 6d3f 1db1 843f 6b1e 6b3f
00000010: 4699 8c3f 0544 593f 8425 863f 464d 7d3f
00000020: 92c5 5f3f b60c 7c3f 97d6 783f 5ea5 993f
00000030: 49a9 583f 8f49 803f 1a86 8b3f 1940 6e3f
00000040: b9cd 843f 95e3 893f 59fb 803f 873d 743f
00000050: 2888 063f a99c 453f b9b6 f63e 3ae9 2a3f
00000060: 5863 9a3f f8bb 593f f17c 293e 7fd0 253f
00000070: d8f7 003f 327f 203f d598 553f 6062 183f
00000080: a138 403e cef6 fd3e cdab 6a3f 605b 073f
00000090: 87f6 2a3f 80da 183f e640 2b3f 81e7 1f3f
000000a0: 7427 4a3f 7f03 6b3f df29 823f 98e1 5b3f
000000b0: 7f69 883f 3ec5 7b3f da7c 863f 2b43 833f
000000c0: 93bb 513f 75dd 733f f4fd 7e3f 772c 793f
000000d0: 3e18 5e3f b845 803f c439 803f b9a4 643f
000000e0: c557 763f 9045 603f f837 763f 126e 773f

embedder.emb_rnn.bias_hh_l2 f4 [60]
0.13656646 -0.07175948 0.036657244 -0.08156758 0.09843013 -0.15130943 0.048023235 -0.010536301
-0.12589121 -0.015431636 -0.027973091 0.20036319 -0.15366842 0.002247357 0.09003206 -0.06933421
0.037524052 0.07725143 0.007667553 -0.045936823 -0.47448757 -0.22807844 -0.518135 -0.33238128
0.20615157 -0.14947683 -0.8344837 -0.3522887 -0.49621865 -0.37305865 -0.16563593 -0.4047459
-0.81228864 -0.50397617 -0.083317906 -0.47125933 -0.33217752 -0.40291432 -0.3310419 -0.37537497
-0.22776364 -0.09825532 0.15389942 -0.14571151 0.069644935 -0.027373642 -0.005602473 -0.02703319
-0.22174367 -0.1893507 0.019656733 -0.012366234 -0.16391602 -0.018942239 0.008727375 -0.08217119
-0.029819246 -0.17612456 -0.044769954 -0.049825896
00000000: 14d8 0b3e a2f6 92bd e825 163d e70c a7bd
00000010: bc95 c93d dcf0 1abe 03b4 443d 73a0 2cbc
00000020: a0e9 00be f9d4 7cbc d327 e5bc 022c 4d3e
00000030: 415b 1dbe 6548 133b bb62 b83d 18ff 8dbd
00000040: d2b2 193d ff35 9e3d 1940 fb3b 4028 3cbd
00000050: 09f0 f2be 658d 69be 7fa4 04bf e12d aabe
00000060: 6619 533e 7410 19be b9a0 55bf 2f5f b4be
00000070: 5f10 febe 8b01 bfbe 779c 29be db3a cfbe
00000080: 26f2 4fbf 9504 01bf 94a2 aabd e748 f1be
00000090: 2c13 aabe c94a cebe 537e a9be 2631 c0be
000000a0: df3a 69be 163a c9bd cf97 1d3e 6635 15be
000000b0: 01a2 8e3d b03e e0bc f394 b7bb b574 ddbc
000000c0: c610 63be 26e5 41be 2807 a13c bf9b 4abc
000000d0: 9ad9 27be c12c 9bbc 44fd 0e3c 5e49 a8bd
000000e0: 7e47 f4bc ff59 34be b360 37bd 3d16 4cbd
