output/FEM_GAN_90/model.pt (torch, 153208 bytes, 65 tensors)

embedder.emb_rnn.weight_ih_l0 f4 [60, 10]
000000 d2 74 51 be b5 80 5a be 95 1d 70 be 2b 17 2f 3e
       -0.2045472 -0.2133816 -0.23448785 0.17098682
000010 6a 85 84 be 45 88 46 be f0 6c 24 3d 3a 74 8b 3e
       -0.25883037 -0.1938792 0.040142953 0.2723711
000020 cd 51 48 bd 7a e4 aa 3e ae 04 3e bf c7 77 a9 bd
       -0.048906136 0.3337744 -0.7422589 -0.08274799
000030 6a c5 02 3f 00 79 e7 3e 97 ac 52 3e 6f 9b f6 3e
       0.5108248 0.45209503 0.2057365 0.4816546
000040 1d 45 b3 bd 9a fb b1 bc b3 81 ad bd 14 ad c5 be
       -0.08753417 -0.021726418 -0.08472004 -0.3860861
000050 ea 80 30 3f ff 4b d6 3e b8 60 90 be 53 12 5b 3e
       0.6894671 0.41854855 -0.2819879 0.21393709
000060 d1 41 88 3e 19 fd b5 bd 35 c5 59 3e e4 24 cb 3e
       0.26612714 -0.08886165 0.21266635 0.39676583
000070 53 be 14 3c d8 8d c2 bd 57 ad fc 3e df 42 98 3f
       0.00907858 -0.09499711 0.49350998 1.1895407
000080 bb 54 9e 3f b6 d7 7e 3f 71 8c 8d 3f f6 2d b1 3f
       1.2369608 0.995479 1.1058484 1.3842151
000090 80 48 d0 be ff f1 e7 be 27 bc 96 be f8 10 47 bf
       -0.40680313 -0.45301816 -0.29440424 -0.7776027
0000a0 46 2c bd bc 08 55 1a bb a4 a9 06 3b 41 df 0d 3e
       -0.0230924 -0.0023549218 0.002054789 0.13854696
0000b0 0b a3 4d be a9 15 5b bd 48 db 98 3e 0c 4c 6e 3e
       -0.20081727 -0.053487454 0.29854798 0.23271197
0000c0 7c 2d af bd 64 cd 5a 3e 30 0f 01 bf 84 30 5f 3e
       -0.08553597 0.21367413 -0.504138 0.21795851
0000d0 f3 35 d5 bc 75 41 b9 3c 57 ab 8e be d0 dc b0 bd
       -0.026026702 0.02261422 -0.27865097 -0.08635867
0000e0 29 9f c0 bd a6 a0 d4 be 0a 6b 33 bc 6a 48 fb bd
       -0.094053574 -0.41528815 -0.010950813 -0.12269671
0000f0 88 f6 9a 3f 9b a9 49 3e a6 e3 41 be c8 fd 63 bd
       1.2106485 0.19693606 -0.18934497 -0.055661947
000100 97 40 99 3e 84 e6 02 3e 8e 9a 1c 3f a7 93 3a 3f
       0.2993209 0.12783247 0.6117333 0.7288155
000110 9f 70 6f 3f af ac fc 3e a4 63 a2 bd ec 5f e3 bd
       0.9353122 0.49350497 -0.07929161 -0.1110228
000120 f4 58 c6 be a3 fc 1f 3e 61 ce 7c be 04 5e ac bd
       -0.3873974 0.15623717 -0.24688102 -0.084163696
000130 b9 4f f8 bb ab b5 be bd d9 58 b1 bd 6a c9 19 be
       -0.007577863 -0.09311994 -0.086595245 -0.1501824
000140 f8 ae f8 3d a3 fd e8 3d ba 5f da 3c b0 26 fe bd
       0.12142748 0.11376502 0.026656974 -0.12409723
000150 3e 8a 9e be 1c dd a9 be ac 52 98 3e ce 56 9d bc
       -0.30964845 -0.33176506 0.29750574 -0.01920643
000160 10 02 10 bd 88 ec 00 be cb 4d 87 be 54 c3 90 bd
       -0.035158217 -0.1259023 -0.2642654 -0.07068506
000170 dd 67 57 3e ca e0 aa be 91 9c 79 be 72 da 7d 3e
       0.21035714 -0.33374625 -0.24376132 0.24790362
000180 1a d9 a2 3e 1e fe bd bd f2 ed 0a 3e bd 80 26 be
       0.3180626 -0.09276985 0.13567331 -0.16260047
000190 81 8b cb bc 30 b3 61 be ce 87 88 be 29 20 90 be
       -0.024846794 -0.22041011 -0.2666611 -0.28149536
0001a0 ba 78 81 be bf a9 be be 27 ad c0 3d af 5e 4f 3d
       -0.2528742 -0.3723888 0.09408026 0.050627407
0001b0 7b 06 a3 bb 5c 31 af be f4 fc e7 be 81 2b c8 be
       -0.0049751378 -0.34217346 -0.45310175 -0.3909569
0001c0 57 dd 34 bf be 00 50 bf 70 fa cb be 9d ce eb be
       -0.7065024 -0.8125113 -0.39839506 -0.4605607
0001d0 3e a8 35 be a9 9e 61 be 19 33 cf be 00 3d 0c bf
       -0.1773996 -0.2203318 -0.40468672 -0.5478058
0001e0 94 11 64 be 11 92 b2 3d b7 fe c2 bd 11 7c 68 3e
       -0.2227233 0.08719266 -0.09521239 0.22703578
0001f0 88 97 78 3e 43 28 1a 3e c7 d4 46 bc 28 f3 e2 3d
       0.24276555 0.15054421 -0.012135691 0.110815346
000200 ca a9 30 be 47 99 ea 3b 93 5b d9 3d 1a 13 c2 3e
       -0.1725227 0.0071593854 0.106131695 0.37905198
000210 f7 22 f5 3d b6 78 dc 3e e8 58 b9 bc c9 97 18 3e
       0.1196956 0.43060845 -0.022625402 0.14901651
000220 0b 60 bf 3c c8 13 f3 bd b0 5b 57 be 31 86 88 be
       0.023361227 -0.11869007 -0.2103107 -0.2666488
000230 fe 23 a6 3f 08 9d 8a 3d 2d 31 88 3e 67 be f3 bc
       1.2979734 0.067682326 0.26600018 -0.029753877
000240 78 fc 6f 3e 31 f0 93 bd fd 50 8f bc c2 b9 71 3e
       0.23436153 -0.07223547 -0.017494673 0.23606017
000250 24 4f 2c be c8 54 ec 3d 30 74 14 bd 22 8d 5e bd
       -0.16827065 0.11539608 -0.036243618 -0.054333813
000260 e5 6d 39 3e 9a f5 a3 3d 0b 66 86 bd 31 36 32 be
       0.18108328 0.08005829 -0.06562432 -0.17403485
000270 dd 15 6a 3d 3b f0 7b be 54 1d 77 be 83 4b 96 bc
       0.057149757 -0.2460336 -0.24132282 -0.018346554
000280 64 90 0b bf bd 0a 29 be 24 48 05 3e 9c 3a 9b be
       -0.545172 -0.16508003 0.130158 -0.30318153
000290 3c eb cd be 07 77 91 be 74 82 c4 3d eb e8 54 bd
       -0.40218532 -0.28411123 0.095951945 -0.05197994
0002a0 8d 42 30 3e df b3 b2 3e 24 65 37 be d7 89 c8 3d
       0.17212887 0.34902856 -0.17909676 0.09791916
0002b0 81 1e 40 3e 7d 99 77 bd 38 01 61 3e b7 f2 f8 bd
       0.18761636 -0.060449112 0.21973121 -0.12155669
0002c0 d8 5e 3c 3e e4 93 a3 3e 7d 48 eb 3e 4b fb 63 3e
       0.18395555 0.3194877 0.45953742 0.2226383
0002d0 48 c0 ca be 49 c6 26 3d 11 e3 a3 3e bc a5 4e 3e
       -0.39599824 0.040716443 0.32009175 0.2018041
0002e0 a1 5a 96 3d 76 a8 cd bd e3 d9 7f bd 2a db 84 be
       0.07341505 -0.10041897 -0.062463652 -0.2594846
0002f0 14 53 24 be a3 a4 a0 be 5c 42 75 be 1a 0d 95 be
       -0.16047317 -0.31375608 -0.23951095 -0.29111558
000300 a3 e0 4d bd 21 f5 5c 3e b4 37 2e 3c 97 5c 5e 3e
       -0.05026306 0.21577884 0.010633398 0.21715008
000310 e6 43 4a be 73 07 76 be c3 4c 6f 3e 30 d0 62 be
       -0.19752464 -0.24026279 0.23369126 -0.2214973
000320 e3 51 84 3f 98 8d d6 be 63 d9 f9 bb 8b f2 1b 3e
       1.033749 -0.41904902 -0.0076247915 0.15229242
000330 68 b1 3b bf 1a 49 fb bf 42 35 a9 bf 0c 7e d5 bf
       -0.73317575 -1.9631684 -1.3219378 -1.6679091
000340 bc 9b 8b bf bd 44 4d bf b8 62 e6 bf 66 d6 c8 be
       -1.0906901 -0.8018301 -1.7998877 -0.39226073
000350 e5 3b 88 3e 34 c2 21 3f e8 78 d3 3e 5d d8 2b 3f
       0.26608196 0.63186955 0.41303182 0.6712702
000360 83 da 3d bf 4f 85 82 bf 2f 24 6e bf 44 96 5d bf
       -0.7416155 -1.0196933 -0.9302396 -0.8655741
000370 ad fb a5 3f b7 d7 c2 3f 42 04 ee be 5f 8b 8d be
       1.296743 1.5222081 -0.46487623 -0.27645394
000380 6b 1a 38 bd fa 5d 8b 3e 54 a1 af be 3f 20 26 bd
       -0.04494707 0.27220136 -0.3430277 -0.040558096
000390 71 b9 03 bf a3 62 e3 be 8a 94 ac bf 91 5e c1 bf
       -0.51454836 -0.4441119 -1.348283 -1.5106984
0003a0 79 d5 d2 bf 57 ff dd bf 01 1d d8 bf db 85 f0 bf
       -1.6471397 -1.7343549 -1.6883851 -1.879085
0003b0 e9 46 ba 3f c1 5a da 3f 8c 7d da 3f 42 02 f1 3f
       1.455289 1.7058946 1.7069564 1.8828814
0003c0 70 ec 98 3f 45 1c 73 bf b1 0e d4 bf 93 7e eb bf
       1.1947155 -0.9496501 -1.6566983 -1.8398002
0003d0 1a 66 a5 bf 17 97 ca bf 88 bf 5e bf 0e 81 68 bf
       -1.2921784 -1.5827359 -0.87011003 -0.9082192
0003e0 76 5e 3d bf a5 5d 4c bf cf 5e 87 bf 35 81 70 3e
       -0.7397226 -0.7983039 -1.0575808 0.23486789
0003f0 fa 18 21 bf 7c 6b 15 bf e6 a1 68 3c a0 87 a3 be
       -0.62928736 -0.58367133 0.014198756 -0.3193941

embedder.emb_rnn.weight_hh_l0 f4 [60, 20]
000000 d8 79 84 3d 80 9a 9d 3e fd a7 a9 be 61 5f 03 3d
       0.06468552 0.30781937 -0.33135977 0.032073382
000010 9f 50 20 3b 82 89 89 be f0 ef 7e 3e 5f 61 74 3e
       0.0024462116 -0.26862723 0.24896216 0.23865269
000020 92 23 6b bd 9c 0e f9 bd b4 16 a2 bc e1 52 8e bc
       -0.05740697 -0.1216099 -0.019786216 -0.017373504
000030 85 0c 44 be 07 6d a3 3d 61 41 53 be 2c 28 70 3e
       -0.19145401 0.0797978 -0.20630409 0.23452824
000040 22 1f bf bd 8f be 4a 3e a0 e2 e8 3e 67 28 3e be
       -0.0933211 0.19799255 0.454854 -0.185701
000050 73 3e 2f 3e 90 42 44 3f 61 b7 1f bf 27 d4 18 be
       0.17113666 0.76664066 -0.6238919 -0.1492468
000060 ab 5e 36 bd 49 1a fb bb 6c dc 7b 3e e6 c5 83 bd
       -0.044523876 -0.0076630455 0.24595803 -0.064342305
000070 c3 c4 44 bd 0d 68 ad bd a1 9c 2c 3d 99 ef 0a bc
       -0.04803921 -0.08467112 0.04214156 -0.008479976
000080 0d 15 d7 3d ff 25 39 3e 3b 26 96 bd 4c 7b d8 be
       0.10502062 0.180809 -0.07331511 -0.42281568
000090 a0 04 18 3e 32 2c 36 bd db ca 13 3e 38 bc 53 3c
       0.14845514 -0.04447574 0.14432852 0.012923293
0000a0 30 02 a4 bd 67 82 5e be 4e 92 10 3e 63 27 76 3d
       -0.0800823 -0.21729432 0.14118311 0.060096156
0000b0 f0 ce 7c bd 3f c7 3b be 27 ba 9b 3d db ac 1c bd
       -0.06172079 -0.18337725 0.07603865 -0.038250785
0000c0 82 08 95 3e ad 1a 43 be 86 42 0a bf 09 c0 37 be
       0.29108053 -0.19053145 -0.54007757 -0.1794435
0000d0 82 c1 1c be d3 56 17 be 88 7f a0 bd f1 83 bb bd
       -0.15308192 -0.14779215 -0.07836825 -0.09156025
0000e0 ab 2d dc 3e 30 5f 8c be 3c d6 0b bf c1 fd f8 3e
       0.43003592 -0.27416372 -0.5462377 0.486311
0000f0 1b 91 8d be 3a 33 0d be dc 4c 86 3e bf 96 a7 be
       -0.2764977 -0.13789073 0.26230514 -0.32732198
000100 9c 2f f2 bc 54 64 03 be 86 1d cc be 2e b5 0c bc
       -0.029563718 -0.12831241 -0.39866275 -0.0085881185
000110 17 fd 8a bd 24 30 4d bd 09 49 2d 3c a9 9b a1 be
       -0.06786554 -0.05009474 0.010576495 -0.31564072
000120 90 5a 7e be f9 4e 28 be 2c a6 95 be 55 a2 02 3f
       -0.24839234 -0.16436376 -0.29228342 0.5102895
000130 b4 63 af bc fa ca e0 be 8b 36 ac 3e 56 67 9d be
       -0.021409847 -0.4390486 0.33635363 -0.30742902
000140 95 50 ab be 4b 61 df 3c 87 7e a6 bd 29 c3 01 3e
       -0.33459917 0.027268073 -0.08129602 0.12672104
000150 a2 2f 3d be 13 e3 1d 3d 46 2d 41 be aa 6e 51 3e
       -0.18475202 0.038546633 -0.18864927 0.20452371
000160 a4 0c 91 be 28 52 fd 3d 19 12 dc bc e4 3c 58 3e
       -0.28329957 0.12369186 -0.026864098 0.21116978
000170 05 e5 dd bd 32 f5 3e be cf b1 a2 be cc 6b 12 3e
       -0.10834698 -0.18648222 -0.31776282 0.14298934
000180 d7 d1 8d be d6 4f a6 be e4 0f d6 bd 4c ab 35 be
       -0.27699158 -0.32482785 -0.1045225 -0.17741126
000190 84 3d 40 3e d8 53 30 be 8c 43 4c 3d 47 2c 6b 3d
       0.18773466 -0.17219484 0.049869105 0.057415273
0001a0 0f 86 6f bd 9f bc 10 3e 49 69 59 3c b0 8a 4b be
       -0.058477458 0.14134453 0.013269731 -0.19877124
0001b0 2c fb 9b 3e ed aa 99 3d 33 35 99 3e d7 bc 68 3d
       0.30465066 0.07503305 0.299234 0.056820717
0001c0 d2 07 91 bd 99 b0 46 be a9 76 13 3d 9b e9 5f 3e
       -0.0708157 -0.19403304 0.036001835 0.21866457
0001d0 5b aa 7c 3e d2 c2 2f be 60 99 5c be 54 3a ca 3d
       0.2467436 -0.17164162 -0.21542883 0.098744065
0001e0 c1 be 01 3e 42 85 40 bf 0a 14 2f be 2e f4 a6 3d
       0.12670423 -0.75203335 -0.17097488 0.08152042
0001f0 da 4a da 3d c8 86 d0 3d 7e f1 04 bf 02 3d 5f 3e
       0.10658808 0.101819575 -0.5193099 0.21800616
000200 01 4f 61 be 57 68 82 3e 58 e8 ed bd eb 9f 0b 3e
       -0.22002794 0.2547023 -0.11616582 0.13635223
000210 30 6f 3b 3d 16 7b 3b bf 44 08 29 be a6 5d 6a be
       0.045760334 -0.7323469 -0.1650706 -0.22887287
000220 46 ab 04 bd 53 cb 05 be 34 d1 37 bb fb 53 b4 3d
       -0.0323899 -0.13065843 -0.0028048279 0.088050805
000230 42 80 a4 3c 5b 1d 14 bd 68 81 12 3d 07 70 d7 bd
       0.02008069 -0.036160808 0.035767943 -0.105194144
000240 63 b9 a7 3e 1e 26 b2 3e 91 0a 67 3e 2d 04 e8 3c
       0.32758626 0.34794706 0.22562625 0.028322304
000250 f5 49 f7 3d ce 20 93 3c 04 1e 13 be 26 0a 9c 3e
       0.12074653 0.017959978 -0.14366919 0.30476493
000260 f2 b5 45 3e d9 1c a4 3e 64 da 66 3e 98 81 f8 3d
       0.19307688 0.3205326 0.22544247 0.12134093
000270 8f 9e 9a bd 72 b0 98 3d 1a dd 23 3e 1c d4 0e be
       -0.07549774 0.07455529 0.16002312 -0.13948101
000280 14 92 82 be 7d 42 fa bd 0c 0f 53 bd 3e 74 72 be
       -0.25502074 -0.12219713 -0.05152802 -0.23677155
000290 ee 8c 0e 3e d8 06 a9 be a5 14 e9 3d f4 9f c7 bd
       0.13920948 -0.33013034 0.11380891 -0.097473055
0002a0 e3 b7 6e bd 8e c2 08 be 55 f2 05 3f 5e 56 75 3e
       -0.058280837 -0.13355467 0.52322894 0.23958728
0002b0 9c 89 e4 3c d9 52 cb 3d 6c 64 7a be 49 7b e7 3b
       0.027897649 0.09927911 -0.2445237 0.0070642573
0002c0 58 bd e1 bd ff 0f 56 3e 5b b0 a5 3e 50 f8 22 be
       -0.110224426 0.2090454 0.3236111 -0.15915036
0002d0 a5 12 dc 3d f5 74 f0 bd c6 d8 d0 bd 2d 93 4a 3d
       0.10745744 -0.11741058 -0.10197596 0.049456764
0002e0 c6 8b cc 3d 20 8d 5c 3e f7 c4 72 3e 63 0f 9c 3d
       0.09987597 0.2153821 0.23707949 0.07620122
0002f0 b3 e6 07 bf a4 e3 b4 bd 7c 3f ce 3e dd 33 31 3d
       -0.53086394 -0.088324815 0.4028281 0.04326235
000300 17 6e 94 3d 1e 5c ba bc ce 84 20 3e 13 72 1b 3f
       0.072475605 -0.022749003 0.15675661 0.6072094
000310 bc 4e 57 be b7 57 12 be c7 d5 3b 3f 29 c5 4f be
       -0.21026129 -0.14291273 0.73373073 -0.20290054
000320 79 71 13 3e ad 6f 3a 3d 14 67 92 3e 89 6a a7 3e
       0.14398755 0.04551666 0.28594267 0.32698467
000330 70 c5 96 3e 10 bd 29 3e 0e fc 98 3e 48 f5 7c 3c
       0.29447508 0.16576028 0.29879802 0.015439339
000340 f9 35 85 3d 5a c2 a8 3e 78 ee 31 3e 37 ba cc bb
       0.06504435 0.32960778 0.17376125 -0.0062477845
000350 9d 98 f5 3d 1a 6c 8d 3e c1 a0 48 bd 11 86 87 bd
       0.11991999 0.27621537 -0.048981432 -0.06617368
000360 46 9d 3d 3e 0e 86 ba 3e eb e9 97 3d 2a 60 8a 3e
       0.18517026 0.364304 0.07417663 0.27026492
000370 bf f5 0b 3e 94 89 17 bd 19 01 45 bd 8d ff d1 bd
       0.13667963 -0.03699644 -0.04809675 -0.102538206
000380 e2 b0 ae be 14 36 cd bd f4 62 3e bd 7e c7 f6 bd
       -0.34119326 -0.1002008 -0.046481088 -0.12049769
000390 3c 8b 25 be 9f f7 3b be d9 85 cd 3d 18 8c d6 bb
       -0.16166395 -0.18356179 0.10035295 -0.006547462
0003a0 84 1c 5f be 8c 46 5e be aa c9 94 be 40 a2 cf bd
       -0.21788222 -0.21706599 -0.29060107 -0.101383686
0003b0 a7 9f c4 bd c4 0f 8d be 50 f1 8d 3e 78 0e 4a bd
       -0.09600764 -0.2755109 0.2772317 -0.049330205
0003c0 05 10 b6 be be 06 61 be 1e 04 53 bd 5f b8 69 be
       -0.35559097 -0.21975228 -0.0515176 -0.22824238
0003d0 a3 54 25 3e a7 ba e8 be ca 88 9b 3d 9e e5 bb bd
       0.16145568 -0.45454904 0.0759445 -0.091746554
0003e0 77 ec 88 be ae 63 05 be 98 35 31 3e 27 c3 46 3e
       -0.26742908 -0.13026306 0.173056 0.19410382
0003f0 ff b9 0b be 90 62 03 be 97 d4 66 3d 94 96 97 3d
       -0.1364517 -0.12830567 0.056355085 0.074017674

embedder.emb_rnn.bias_ih_l0 f4 [60]
000000 b3 82 84 3f 19 28 90 3f e7 42 5e 3f 5c 0b 62 3f
       1.0352386 1.1262237 0.86820835 0.88298583
000010 e9 98 6f 3f cf 6e 82 3f 24 58 8a 3f 2b 89 8e 3f
       0.935927 1.0190066 1.0808148 1.113561
000020 24 36 78 3f bf 72 83 3f 70 ea 88 3f 14 67 83 3f
       0.9695761 1.0269393 1.0696545 1.0265832
000030 2c 43 66 3f 35 a5 8d 3f 1f b1 5b 3f be 8d 90 3f
       0.89946246 1.1066042 0.8581714 1.1293256
000040 6d 2a 8b 3f 3d 23 90 3f 1d b5 89 3f f5 b6 74 3f
       1.0872322 1.1260754 1.0758396 0.9559167
000050 a8 18 bf 3e 54 cb d9 3e d7 2e 3d 3e b7 9b a2 be
       0.373235 0.4253794 0.18474899 -0.31759426
000060 7a 21 62 3c 1f e3 ac bd 6e da 19 3f 49 ca 76 3f
       0.013801927 -0.084417574 0.6009892 0.9640241
000070 5b e3 d2 3e f1 2d b7 be 14 84 72 3f 13 1e 3c 3f
       0.41189083 -0.35777238 0.94732785 0.7348339
000080 d9 e5 69 3e 8e 70 64 3f 7f 3e 26 3f c5 40 20 3f
       0.22841586 0.89234245 0.6493911 0.6259883
000090 28 0c 10 3f 41 e1 a4 3e 08 7d 37 3f f0 1f 29 3f
       0.5626855 0.32203105 0.7167516 0.6606436
0000a0 d1 9e 8a 3f f7 50 7f 3f 59 e0 85 3f 16 6f 24 3f
       1.0829717 0.9973292 1.045909 0.64232004
0000b0 dc bc 69 3f ee d4 86 3f 16 49 88 3f a7 41 69 3f
       0.913038 1.0533731 1.0647304 0.911158
0000c0 37 4f 8c 3f c9 f2 9d 3f be cf 5b 3f 2a 7e 43 3f
       1.0961674 1.2339717 0.85863864 0.76364386
0000d0 b6 7d 8a 3f 6f 0b 7c 3f 44 8e 6c 3f a9 98 5b 3f
       1.0819614 0.98454946 0.9240458 0.85779816
0000e0 16 a3 68 3f 11 aa 93 3f ac 3e 5a 3f 7c 2b 6d 3f
       0.9087385 1.1536275 0.8525188 0.92644477

embedder.emb_rnn.bias_hh_l0 f4 [60]
000000 74 5c 10 3d cb 41 01 3e c9 f3 06 be 08 a4 ef bd
       0.03524442 0.12622754 -0.13178934 -0.11701208
000010 30 37 83 bd cd ba 9b 3c 8f 80 a5 3d 3b 93 e8 3d
       -0.064070106 0.019009972 0.08081161 0.11356207
000020 62 38 f9 bc b9 b1 dc 3c 33 a6 8e 3d 4b bb d9 3c
       -0.030422393 0.026940214 0.06965294 0.026578566
000030 f2 e5 cd bd da 54 da 3d 9a 3c 11 be d7 6e 04 3e
       -0.10053624 0.106607154 -0.14183274 0.12932907
000040 c0 a4 b2 3d ac 19 01 3e 0d 55 9b 3d 26 8f 34 bd
       0.0872283 0.1260745 0.075845815 -0.04408183
000050 96 73 20 bf 78 1a 13 bf 70 b4 50 bf d6 a6 a8 bf
       -0.6267637 -0.57462263 -0.81525326 -1.3175914
000060 b6 77 7c bf 32 ce 8a bf 3d 4b cc be 0f 5b 13 bd
       -0.98620164 -1.0844176 -0.39901152 -0.035975512
000070 ad 8e 16 bf b3 cb ad bf 20 c2 57 bd 1c c4 87 be
       -0.58811456 -1.3577789 -0.052675366 -0.26516807
000080 a2 86 45 bf 22 7b dc bd 54 83 b3 be d5 7d bf be
       -0.7715856 -0.10765673 -0.35061133 -0.3740069
000090 f8 e7 df be 21 8f 2d bf 23 05 91 be 83 c0 ad be
       -0.43731666 -0.6779652 -0.28324232 -0.33935937
0000a0 fb ef 98 3d 37 1f 03 3d 2f 7e 23 bd c2 60 62 be
       0.07467648 0.03201219 -0.03991526 -0.22107223
0000b0 85 45 52 bd 7c ca a7 3d 13 2c 82 3d 5a b2 c0 bd
       -0.05133583 0.08192918 0.06356063 -0.09409018
0000c0 90 b1 dd 3d 34 7f 5f 3e 54 36 12 be 77 19 d3 be
       0.10824883 0.21825868 -0.14278537 -0.41230366
0000d0 be 63 83 3d 42 64 b0 bc 07 c3 34 bc 52 56 0d be
       0.06415509 -0.021532182 -0.011032826 -0.1380246
0000e0 cb b3 07 be 35 ad 18 3e e6 aa 1a be a3 74 7e bd
       -0.1325218 0.14909823 -0.15104255 -0.062122952

embedder.emb_rnn.weight_ih_l1 f4 [60, 20]
000000 51 c3 80 3e 16 0a 14 3d ca 7a 83 3d e6 7a f3 bd
       0.25149015 0.03614243 0.064199045 -0.118886754
000010 b3 67 8f 3e 78 97 19 3e 83 a8 bc 3e 6a a5 60 be
       0.28008804 0.14999187 0.36847314 -0.219381
000020 56 f1 5a bd b1 da c8 3c 8a 56 44 be f0 ef 04 be
       -0.053452812 0.024518343 -0.19173637 -0.12982154
000030 42 d8 eb 3d b3 1b 5e 3e b2 ae 1a 3e 1d 5b 65 3d
       0.11515857 0.21690254 0.15105703 0.055995096
000040 87 6f e3 bd cc b1 85 bd 23 4a 9a 3d 5f 28 68 3e
       -0.111052565 -0.06528053 0.07533672 0.2267165
000050 8a 42 ad bd 76 34 b3 3d df 82 62 bc 71 e1 91 be
       -0.08459957 0.087502405 -0.013825147 -0.2849231
000060 f1 45 26 be d6 47 14 3e a3 8c 39 bd 75 e7 ae 3e
       -0.16237618 0.14480528 -0.045300137 0.34160963
000070 98 24 04 3e 05 91 99 be 00 d3 0b be 90 21 47 be
       0.12904584 -0.29993454 -0.13654709 -0.19446397
000080 ec 6e 04 be 34 89 cd bd 71 f4 87 be e5 41 1d be
       -0.12932938 -0.10035935 -0.26553681 -0.15357168
000090 77 6b 36 3f 32 a4 98 be cb ef 68 bf c2 fc fc 3e
       0.7125773 -0.2981277 -0.90990895 0.4941159
0000a0 46 be b0 3e 6e 92 52 3e c7 8b 25 be f9 92 49 bd
       0.34520167 0.20563671 -0.16166602 -0.04921243
0000b0 df 98 08 3d 77 66 4d 3e b9 45 d0 bd 2f fb b4 3d
       0.033348914 0.20058618 -0.101695485 0.08836972
0000c0 73 40 fa 3d f9 7e 09 3e 43 fe b2 be e7 0b 7e be
       0.12219324 0.13427342 -0.3495961 -0.24809228
0000d0 07 35 97 3e f6 10 88 3e 6d 81 72 3d e9 69 21 be
       0.29532644 0.2657544 0.05920546 -0.15763058
0000e0 68 62 7f 3e f8 89 ec 3d bd b0 b6 bd 0e cb 73 be
       0.24939883 0.11549753 -0.08920429 -0.23807928
0000f0 e3 94 82 be 9a c1 99 3c 46 97 fd bd c4 da 9f bc
       -0.25504217 0.018769074 -0.12382369 -0.019513495
000100 0f 67 47 3e ec 5f 3e 3e 76 7f 40 be 97 b2 af 3e
       0.19472907 0.18591279 -0.18798622 0.3431594
000110 a3 20 c9 bc 52 b8 56 be 04 00 c7 3d 3a ca ae 3e
       -0.024551695 -0.2096875 0.097168 0.34138662
000120 95 68 4f 3c e8 9c 0d 3e 9c 1d 84 3e 4d b5 54 3e
       0.012659212 0.13829386 0.2580384 0.20772286
000130 a8 38 97 3e 16 52 9f be 8e 35 25 be 32 db 30 bf
       0.29535413 -0.31117314 -0.1613371 -0.69084466
000140 8f 95 99 3e ab b1 a6 bd 37 ee 66 be ba 21 69 3e
       0.29996917 -0.08139356 -0.22551809 0.22766772
000150 56 04 06 be 61 84 0a 3e 1e 90 4c 3d 31 3a 7c 3e
       -0.13087592 0.13527061 0.04994213 0.24631573
000160 30 77 31 3e 46 13 b6 3e 2c a5 40 3d af 64 6a 3e
       0.17330623 0.3556158 0.04703252 0.2288997
000170 0c 75 94 bd ca 05 bb bc ba 77 d4 3e 34 c3 b5 3e
       -0.072488874 -0.022829909 0.41497594 0.3550049
000180 3a 2a 95 3e 5c 0a be 3e d3 0b de 3e 5c 63 e6 3d
       0.2913378 0.3711728 0.43368396 0.1124942
000190 15 c2 e3 bd 8e 3e 04 be 4d ca d1 be cb ac 52 3d
       -0.111210026 -0.12914488 -0.40974656 0.05143432
0001a0 fa 02 36 3d a0 db 76 be 47 f6 ef 3d c1 4c 0b 3f
       0.044436432 -0.24107218 0.117168956 0.5441399
0001b0 4e f2 65 3d 27 cb 8e be 2e a2 0c 3f 23 6d 12 3e
       0.056139283 -0.27889368 0.54934967 0.14299445
0001c0 07 b4 d6 be 02 86 9e 3d a3 f3 95 be e0 c7 0c 3e
       -0.41934225 0.07740404 -0.29287443 0.13748121
0001d0 76 4c 16 3e b4 89 b1 3c d2 0c ec bf 82 59 7b be
       0.14677605 0.021672107 -1.8441412 -0.24545863
0001e0 aa 1a 2c 3e 79 cc 0e be 38 a7 2d 3e 9d 74 17 3e
       0.16807047 -0.13945188 0.1695832 0.14790578
0001f0 07 e0 68 3d 90 3e 35 3e e3 5d 44 3e 79 7c ac 3e
       0.056854274 0.17699647 0.1917644 0.33688715
000200 98 c2 82 be f4 c8 50 be 2e b1 9a 3e 6a c7 19 be
       -0.25539088 -0.20389158 0.30213302 -0.15017477
000210 9a 23 3c 3e cb 9d 21 be 24 65 17 be ab e7 cb 3e
       0.18372956 -0.1578285 -0.14784676 0.39825186
000220 65 e5 18 be 59 d2 d0 3d 67 37 ac bf 9b 66 7e 3c
       -0.14931257 0.10196371 -1.3454407 0.015527393
000230 ee 2b 9e 3d 2c 28 49 be 69 bf 09 be 3d 52 f8 bd
       0.07723223 -0.1964423 -0.13451923 -0.12125061
000240 76 52 09 be 20 11 6b 3e 1e 07 01 3d 04 5b 0c 3f
       -0.13410363 0.22955751 0.031500928 0.5482638
000250 c1 e6 a0 bd 31 eb 93 3d c6 a4 a0 3e 1e 0b 15 3f
       -0.07856513 0.072225936 0.31375712 0.5822009
000260 60 15 ad be 54 b2 63 3e c2 1c 9b 3e d2 ea 34 3e
       -0.3380537 0.22235996 0.30295378 0.17667702
000270 65 f3 4e be 91 2d 35 be 5b 11 05 3e e6 a5 2e bf
       -0.20210035 -0.17693163 0.12994902 -0.6822189
000280 50 63 64 be 6b b2 46 bd 8a 9f 91 be 21 04 a5 3d
       -0.2230351 -0.048509996 -0.2844203 0.08057428
000290 91 14 16 3e 7a 4c 60 be 01 b1 28 be 5d 44 44 be
       0.14656283 -0.21904173 -0.16473772 -0.19166704
0002a0 5a 50 4a be ae 6d 2f be 8b d3 a8 3e 19 94 a8 3e
       -0.19757214 -0.17131683 0.32973894 0.3292549
0002b0 06 ea f7 3d 4e 6c 13 3e fc 47 e4 bd 02 fb 9c 3e
       0.12105183 0.14396784 -0.111465424 0.30660254
0002c0 0e 52 c4 3e a1 a6 2c 3e 19 3d 0c be 51 54 fe be
       0.38343853 0.16860439 -0.13695182 -0.49673703
0002d0 7a 5c a1 bd a6 ff 7f bd 94 13 a1 bd 23 ca 8d 3e
       -0.07878967 -0.062499665 -0.07865062 0.2769328
0002e0 48 40 cb 3d 38 ac ff 3d 21 2b 17 3d de b0 8e be
       0.0992437 0.1248402 0.036906365 -0.27869314
0002f0 b6 73 d9 3d 9b 10 82 3e 20 93 b8 bd 28 d3 11 3d
       0.10617773 0.25403294 -0.09012437 0.035601765
000300 99 5f f4 bd 62 5c 08 3e a7 98 64 3c 92 aa 7b bd
       -0.11932296 0.13316491 0.013952411 -0.061441965
000310 12 fe b3 bd 11 df 28 be 4c 7c 4c bd c7 ce c4 bd
       -0.087886944 -0.16491343 -0.049923226 -0.09609752
000320 a3 3b 3c 3e 80 56 0c be d4 fe 41 3e 4c 83 e2 3d
       0.18382125 -0.13704872 0.18944865 0.11060199
000330 f4 a0 30 be 00 48 53 3d 6d 55 d7 bb 7d d6 75 3e
       -0.17248899 0.051582336 -0.006571463 0.24007602
000340 3d 67 bf be a3 26 4a be 77 94 ac 3d 66 74 b9 bd
       -0.37383452 -0.19741301 0.08426755 -0.09055404
000350 9d d5 5a 3e e2 58 72 be 4b 02 d7 bd 8d 19 cb 3d
       0.2137055 -0.23666719 -0.10498484 0.09916983
000360 4d 0a 8b be 3f dd 17 3e 4a ce a7 bd 37 ad 89 bd
       -0.27156296 0.14830492 -0.081936434 -0.06722491
000370 db 32 7d 3e 0d ac 9e bb 01 30 40 be d1 f3 18 3e
       0.24726431 -0.0048422874 -0.18768312 0.14936759
000380 9a 48 ba be c7 ff 42 3e 9d c2 1c be b9 50 91 be
       -0.36383516 0.19042884 -0.15308614 -0.283819
000390 5f 55 68 be 7d 83 a1 bd 4a 17 d8 3c ec 56 dd bc
       -0.22688816 -0.078864075 0.026378293 -0.027018987
0003a0 8d 14 ee bd 40 cf 2b be 81 38 72 3e 76 3e 32 bd
       -0.116250135 -0.16778278 0.23654367 -0.0435166
0003b0 85 1c bc be 97 94 85 bd a8 1a 4f 3f 62 5a eb bd
       -0.3674051 -0.06522482 0.8090005 -0.114918485
0003c0 56 a2 2f 3e 40 6b 80 bc b7 e4 6a 3d 26 fb 92 be
       0.1715177 -0.01567614 0.057347026 -0.28707236
0003d0 45 1c dc bd f4 0b aa bc 61 18 90 be 59 3b 3f bf
       -0.107475795 -0.020757653 -0.281436 -0.7469993
0003e0 6d ec 71 3d 0b 95 f5 3d da 34 19 bf b0 ee ce be
       0.059063364 0.11991318 -0.5984627 -0.4041648
0003f0 09 cc 82 be 80 10 57 bc b5 b2 91 be 80 93 9a bf
       -0.2554629 -0.0131264925 -0.28456655 -1.2076263

embedder.emb_rnn.weight_hh_l1 f4 [60, 20]
000000 1b ba f6 3d 18 04 2f bd fd 58 16 3e 6e 02 9c bd
       0.120472156 -0.042728513 0.14682384 -0.07617651
000010 1d d6 2f 3e 27 2f a4 3e a5 60 88 be 7b 8d 45 3e
       0.17171521 0.32067224 -0.26636234 0.19292252
000020 81 35 10 be 06 16 00 be 7b 85 16 3e a3 7f 6c be
       -0.1408291 -0.12508401 0.14699356 -0.23095565
000030 81 7f 4a be 53 4a 7b 3e 9a 0e 8d bd 56 b4 42 3e
       -0.19775201 0.24540071 -0.06887551 0.19014105
000040 ec 84 78 bc 74 ab a9 3c 33 83 8d 3d f6 87 db bc
       -0.01516841 0.020711638 0.0690979 -0.02679823
000050 d1 1d 0f 3e 40 16 99 be 85 8e 1e 3e d5 ce e8 3d
       0.13976218 -0.29899788 0.15484054 0.11367575
000060 52 32 18 be 9c 59 9c bc 5b 76 a2 3d ac b3 5e 3e
       -0.14862946 -0.019085698 0.07932731 0.21748227
000070 cd bb 4a be cd 48 e7 bd 74 5a 5a bc a3 a2 b4 3d
       -0.19798203 -0.112931825 -0.01332723 0.08820083
000080 50 9f e8 3e 5a dc 20 3d b4 05 90 bd 5d 0b d6 3d
       0.45434046 0.039272644 -0.07032338 0.10451386
000090 39 f1 23 bd b1 32 84 3e 6e e2 bc 3d aa 58 ac 3e
       -0.04002497 0.25819924 0.092228755 0.33661395
0000a0 db fc 29 3d 9f 84 67 3e fb 66 e5 3d 2b e2 e8 bd
       0.041500907 0.22609185 0.112012826 -0.11371263
0000b0 3e 4a ae bd e6 11 9b 3e 50 34 2f 3e e0 9f 2d be
       -0.08510254 0.30287093 0.171098 -0.16955519
0000c0 00 5c 3d 3e 96 98 c5 bd ed 9f 6c bd 03 90 20 be
       0.18492126 -0.09648244 -0.057769705 -0.15679936
0000d0 f1 05 80 be a5 38 6f 3e d1 b1 37 3c d8 4f 65 3e
       -0.25004533 0.23361452 0.011211828 0.22393739
0000e0 30 5a 53 bc 4e 85 4c 3d 3c 2f 18 3e 14 c1 0c 3c
       -0.01289992 0.049931817 0.14861768 0.008590955
0000f0 c7 fd 29 3d 11 e9 b0 be be 72 0a 3e 20 89 6d 3d
       0.041501787 -0.34552816 0.13520333 0.0579921
000100 f2 93 92 3e 28 9b 01 be c5 09 80 be b6 77 f3 3c
       0.28628498 -0.12656844 -0.25007454 0.029720169
000110 bf b1 62 3e 43 95 11 3e 08 f5 b1 be 24 ec a2 bc
       0.22138117 0.14217095 -0.34757257 -0.019887991
000120 c5 62 db be 83 e0 cb 3d 26 96 14 3e 79 d7 9d 3c
       -0.42848793 0.099549316 0.14510402 0.019267784
000130 c1 3f 3a be f1 d2 3f 3e 16 3d fb 3d 12 fc 86 3d
       -0.18188383 0.18732812 0.122675106 0.06591047
000140 50 32 d7 bc 02 7e c1 3d 16 6f 0c 3e 81 8b a6 3d
       -0.026269108 0.09447862 0.13714251 0.08132077
000150 87 dd 23 3d 42 0e bf 3e 59 bd 3a 3e 32 ac 13 be
       0.040006187 0.37315565 0.18236293 -0.14421156
000160 6b d9 3a bd 24 52 bf 3e 8c 5e aa 3e 2e bd 9e 3e
       -0.045617502 0.37367356 0.3327526 0.31003708
000170 6c 00 aa be 10 48 b1 bd df 8d c8 bc 4b c4 b7 3e
       -0.33203447 -0.08656323 -0.024481712 0.35891947
000180 c9 3d 97 be c6 2e 38 3e 75 2b c2 3d 51 76 3d bd
       -0.29539326 0.17986593 0.09480945 -0.046255413
000190 a2 7d b0 be d7 5b de 3d d2 e3 85 bd 7a 14 80 be
       -0.3447085 0.10857361 -0.06537594 -0.25015622
0001a0 17 85 02 bc c5 04 8c bd 85 8f 1b be 03 b6 61 3d
       -0.007966301 -0.06836847 -0.15191467 0.05510522
0001b0 65 ec 4b be 76 34 9a 3d e4 98 81 3e 9a b6 d8 3e
       -0.19914396 0.075295374 0.2531196 0.42326814
0001c0 69 f5 17 3e bc 40 53 bd 26 f4 62 b8 18 19 d7 bb
       0.1483971 -0.051575407 -5.410998e-05 -0.0065642707
0001d0 90 3d df bd 0a fd 57 3e 35 dc 40 3e f2 a3 73 3e
       -0.10900414 0.2109262 0.18834002 0.23793009
0001e0 e9 9b ef 3c 97 62 fb be 78 b1 80 bc 1d 26 1c 3e
       0.029249148 -0.49098656 -0.015709624 0.15248914
0001f0 80 e6 26 be e3 11 f4 bd cc d1 94 bd 53 d2 ab 3d
       -0.16298866 -0.11917474 -0.07266578 0.083897255
000200 91 a6 32 be 1c ee 65 3e d4 4f e0 bc fc 92 5c be
       -0.17446353 0.22454113 -0.027381815 -0.21540445
000210 55 6c 0f bd b6 fa 80 3e 80 14 3a 3e 70 b3 d5 3d
       -0.035015423 0.25191277 0.18171883 0.104346156
000220 ec b4 07 3e cd 96 ba 3d 8b f1 27 be 65 bf 51 3e
       0.1325261 0.09110794 -0.16400735 0.20483167
000230 7c ae 02 be c6 d5 1a be 68 4f 32 3e a8 5f 0f 3e
       -0.12761873 -0.1512061 0.17413104 0.14001334
000240 d7 79 ec bd 65 74 48 be bb 23 1d 3e 6d f7 27 3c
       -0.115466766 -0.19575651 0.15345661 0.010251862
000250 87 33 dc bd ee aa 29 be a5 64 b9 bd ac 79 c4 be
       -0.107520156 -0.16569111 -0.090523995 -0.38374078
000260 80 a3 18 be df 04 f3 bd a5 29 18 3e 2a 3f 5e be
       -0.1490612 -0.118661635 0.14859636 -0.21703783
000270 b5 69 8f be ca 41 97 be bd 73 5e be 66 c5 70 bd
       -0.28010336 -0.2954238 -0.21723838 -0.058782004
000280 93 94 27 3e 1f a8 d0 3d f0 94 46 be c3 1d 14 3e
       0.1636527 0.101883166 -0.19392753 0.14464478
000290 8d a4 05 3b 09 74 53 3e c5 82 b7 be 2d ac aa bd
       0.002039227 0.20649733 -0.35841957 -0.08333621
0002a0 33 8a 70 3e 5a 89 8e bc b7 ae 84 3e 36 92 83 bd
       0.23490219 -0.017399479 0.25914547 -0.06424372
0002b0 35 1d e1 3d 2d 52 93 3e 54 d1 84 be 46 2d a6 3d
       0.10991899 0.28773633 -0.25940955 0.08114104
0002c0 3d ad 80 bd e7 50 69 3e a0 b6 87 bc f3 a9 11 be
       -0.062830426 0.22784768 -0.016566575 -0.14224987
0002d0 97 e4 cc bd 18 ae 86 be b3 0c 89 3c 18 9d 40 be
       -0.100045376 -0.26304698 0.016729688 -0.18809927
0002e0 fe f8 67 be b4 ae 72 3e c5 dd 5a 3e f4 8f 1b be
       -0.22653577 0.23699456 0.21373661 -0.15191633
0002f0 74 1e 38 bc 33 7a 01 3e a2 77 1a 3e 46 f8 30 3e
       -0.011237729 0.12644272 0.15084699 0.17282209
000300 97 eb 2d 3e 6e 91 87 bd c5 03 66 3e 24 d4 16 bd
       0.16984402 -0.066195354 0.22462375 -0.036823407
000310 f9 78 16 be 7e ee 0a be f4 93 91 bd fd e6 d1 bd
       -0.14694585 -0.1356754 -0.07108298 -0.10249136
000320 9a dc 17 3e b8 15 41 3e 9f 40 b2 3c 32 c9 d3 3e
       0.14830247 0.18855941 0.02175933 0.41364437
000330 4e da a7 3d 63 6e a4 ba 7d 92 e2 3e e4 05 2c bd
       0.08195935 -0.0012545105 0.44252387 -0.041997805
000340 e4 64 86 3c 4c 52 aa bd ec b9 b3 3d a8 07 ea 3e
       0.01640553 -0.08316478 0.08775696 0.45708966
000350 9f f7 05 3d 89 77 34 3e dc 5d 1b be 9f db ac 3d
       0.032706853 0.17623724 -0.15172523 0.08440327
000360 b7 6c dd bd 39 cf 61 bd fd bf cd 3d 37 b3 37 3e
       -0.10811751 -0.055129264 0.100463845 0.17939459
000370 75 91 1d 3e c1 07 a0 3e 9d a0 2c 3d 6f 24 4c be
       0.15387519 0.31255916 0.04214536 -0.19935773
000380 8c 98 bf 3e ab 97 9e 3d 66 ef 13 3c d5 ff 84 bd
       0.37421072 0.07743772 0.009029245 -0.064941086
000390 4b af 48 3e b0 4f d7 bd 1a 2b 10 3e 53 c5 1b 3e
       0.19598119 -0.10513246 0.14078942 0.15211992
0003a0 24 48 e8 bb c0 f9 11 3c f7 b6 b2 bc b0 ae 13 3e
       -0.007088678 0.008909643 -0.02181576 0.14422107
0003b0 59 ce 64 be 2e f0 db 3d e4 7b 61 3b 0a c6 c1 3d
       -0.2234434 0.1073917 0.003440612 0.09461601
0003c0 72 76 46 be 1e 32 86 3e 86 8c 5c 3e a3 ab 5b 3e
       -0.19381121 0.2621011 0.2153798 0.21452193
0003d0 ed 61 8b 3e a6 00 29 3e 05 78 d3 bd 7f 7f 62 be
       0.2722315 0.16504154 -0.10325626 -0.22118948
0003e0 46 bd b3 3c 59 d4 b4 3d 4a 29 c2 3d a2 cb a2 3d
       0.021940839 0.088295646 0.094805315 0.07948996
0003f0 10 b1 84 bd 97 f9 45 3d 5a dd 6d be 6a ae 63 bd
       -0.064790845 0.04833373 -0.2322897 -0.055586256

embedder.emb_rnn.bias_ih_l1 f4 [60]
000000 25 37 88 3f 8e 1b 6e 3f fb 7c 88 3f 0f 65 79 3f
       1.0641829 0.93010795 1.0663141 0.9741983
000010 80 6c 95 3f 5d 8c 58 3f cd 7a 7e 3f 69 d5 81 3f
       1.1673737 0.8458918 0.9940613 1.0143253
000020 80 28 80 3f 10 79 82 3f 35 dc 73 3f 27 7e 7a 3f
       1.001236 1.0193195 0.95257884 0.97848743
000030 7c 57 66 3f 4d 1f 6b 3f 54 98 81 3f 2a 14 91 3f
       0.8997724 0.91844636 1.0124612 1.1334279
000040 ea 59 6b 3f 0a b1 90 3f 7a a6 6f 3f 83 34 89 3f
       0.9193407 1.1304028 0.936134 1.071915
000050 58 59 a1 3f d0 5f 22 3f fc 73 50 3f c6 08 e8 3e
       1.260539 0.6342745 0.8142698 0.45319194
000060 15 b5 36 3f d0 9d 76 3f e4 d9 42 3f 88 9d 31 bd
       0.7137006 0.9633455 0.76113725 -0.043363124
000070 cd d9 99 3f e0 8f 64 3f e8 06 65 3f 47 b9 e0 3e
       1.2019593 0.89282036 0.89463663 0.43891355
000080 5d ac 07 3f 84 f0 0c 3f 36 7b 49 3f 67 f4 80 3f
       0.5299738 0.550545 0.7870363 1.0074586
000090 43 b7 13 3f e7 dc a0 3e da 9c 55 3f 69 78 2e 3f
       0.5770151 0.31418535 0.8344246 0.6815248
0000a0 26 97 8d 3f 2e 72 64 3f 1d dd 69 3f 67 7d 5e 3f
       1.1061752 0.89236724 0.9135302 0.869101
0000b0 9a a3 5e 3f c6 f8 80 3f 78 4e 73 3f 5a 21 49 3f
       0.86968386 1.007592 0.9504161 0.78566515
0000c0 22 44 91 3f f6 1b 83 3f 86 b6 77 3f 4c 63 69 3f
       1.1348917 1.0242908 0.96762884 0.9116714
0000d0 c4 0d 6c 3f 97 da 81 3f f6 a1 85 3f 36 e2 85 3f
       0.92208505 1.0144833 1.0440052 1.0459659
0000e0 77 28 71 3f ea c6 5a 3f e3 ca 83 3f fb 75 55 3f
       0.9420237 0.8545977 1.0296291 0.8338315

embedder.emb_rnn.bias_hh_l1 f4 [60]
000000 a7 72 83 3d 2f 23 8f bd 59 cc 87 3d c0 59 d3 bc
       0.064183526 -0.069891326 0.06630773 -0.025799632
000010 f6 64 2b 3e e2 ce 1d be e6 a2 c2 bb 46 be 6a 3c
       0.16737732 -0.15410951 -0.005939829 0.014327591
000020 d3 f3 a1 3a e7 3f 9e 3c a6 3b 42 bd e5 3c b0 bc
       0.001235599 0.01931758 -0.047420166 -0.021513412
000030 5e 41 cd bd 19 08 a7 bd 2f 1f 4c 3c 3e a3 08 3e
       -0.100222334 -0.081558414 0.012458607 0.13343522
000040 d9 2e a5 bd b4 87 05 3e 38 cb 82 bd 06 48 93 3d
       -0.08065576 0.13040048 -0.06386417 0.07191472
000050 01 65 85 3e 60 40 bb be 07 30 3e be b5 fb 0b bf
       0.26053622 -0.36572552 -0.18573008 -0.5468095
000060 27 95 92 be 2c 22 16 bd 2c 99 74 be ff 8c 85 bf
       -0.2862942 -0.036653683 -0.23886555 -1.0433654
000070 96 cd 4e 3e 1a 80 db bd ee c8 d7 bd 6c a3 0f bf
       0.20195612 -0.10717793 -0.10536371 -0.56108737
000080 a5 a7 f0 be bf 1e e6 be 9a 13 5a be 15 67 f4 3b
       -0.47002903 -0.44945332 -0.2129654 0.0074585774
000090 6c 91 d8 be 37 91 2f bf bb 8b 29 be 22 0f a3 be
       -0.42298448 -0.68580955 -0.16557209 -0.31847483
0000a0 f3 ad c8 3d ff c2 72 bc b4 92 c3 bd 50 a6 1c be
       0.09798803 -0.0148169985 -0.09549466 -0.15297818
0000b0 f3 df f4 bd 4e 9e 79 3d 90 2e a8 bd ac 81 81 be
       -0.119567774 0.060941987 -0.08212006 -0.25294244
0000c0 38 d4 24 3e bf 14 08 3d 95 9c 2a bd 14 25 d6 bd
       0.1609658 0.03322291 -0.041653235 -0.10456291
0000d0 4f 10 02 bd 8d 56 41 bd 78 9f 96 3d 02 e5 44 3d
       -0.031753834 -0.047201682 0.07354635 0.04806996
0000e0 52 db 88 bd 69 96 17 be 30 ee 2f 3d df 4d 3a be
       -0.06682457 -0.1480347 0.042951763 -0.18193768

embedder.emb_rnn.weight_ih_l2 f4 [60, 20]
000000 c6 71 0d be 4b 6a 09 3e 75 83 80 3e 06 a2 d3 3e
       -0.13812932 0.13419454 0.25100294 0.41334552
000010 77 9b c9 3e 95 e9 b1 be e4 19 94 bd 62 58 97 3e
       0.39376423 -0.3474852 -0.07231501 0.29559618
000020 3a c0 a2 bd 76 59 b5 3d f5 3c c7 3d c9 cf f7 bd
       -0.079468206 0.08854954 0.097284235 -0.12100179
000030 49 eb 8e 3e bc 94 36 be b0 b7 6c 3d 8c 15 20 be
       0.27913883 -0.17830175 0.057792366 -0.1563322
000040 f0 9c 03 3e bb 4a 24 bd 1a ea 9e be f7 dd 00 3f
       0.12852836 -0.04011033 -0.3103798 0.5033869
000050 0b e7 63 be 31 01 c2 be f3 e8 de 3b bf 1c 6f bd
       -0.22256105 -0.37891534 0.006802672 -0.058377024
000060 40 8a 21 3e cb f7 03 3e f7 b3 13 be 78 97 8a 3b
       0.15775394 0.12887494 -0.1442412 0.0042294823
000070 d0 f9 b4 be bf be 20 3e 25 44 1c be bd 94 99 bc
       -0.35346842 0.15697764 -0.1526037 -0.018747682
000080 d0 50 14 be 82 47 13 bf 92 85 16 3e 6c b6 b6 bd
       -0.14483953 -0.5753099 0.1469939 -0.08921513
000090 8e 09 01 bf f6 81 60 3e fa 33 48 3d e8 5b b9 3e
       -0.50405204 0.21924576 0.048877694 0.3620293
0000a0 c2 6c 2c be 83 2d 85 be b9 8d 94 3d 08 29 2b be
       -0.16838363 -0.26011285 0.07253594 -0.16714871
0000b0 09 77 44 bd a0 89 3d 3d f5 46 57 3e 19 35 b5 3d
       -0.047965083 0.046273828 0.21023162 0.08848018
0000c0 a7 27 2f 3e 83 db 1b 3d 9b 8f 14 be a0 fa 26 bd
       0.1710497 0.03805114 -0.14507906 -0.04076636
0000d0 ed e2 cb bd eb de ad 3e 67 87 2c 3e 66 0d c1 bd
       -0.09955392 0.33959135 0.16848527 -0.09426384
0000e0 8b 2d f8 3d 3c 8d cd bd 36 af ec bd 92 dd 4e bd
       0.12118062 -0.10036704 -0.11556856 -0.050504275
0000f0 00 40 c2 3d 13 db e2 bd 21 04 1a 3e 5a 21 2b 3e
       0.09484863 -0.11076941 0.15040638 0.16711941
000100 0f b2 3a 3d 2d d6 99 3d 1b b5 03 3f 67 9a 5c bd
       0.045579966 0.07511554 0.5144822 -0.053858187
000110 26 0f 8c be b3 5b bc 3d b0 7c 0f 3e fd b5 42 3e
       -0.27355307 0.09197178 0.14012408 0.19014736
000120 51 0c a1 be ee 62 13 be b2 a6 77 3d 1c 1e 13 3e
       -0.3145471 -0.14393207 0.060461707 0.14366955
000130 ec 13 25 3c a4 0c 4a 3d 5a 0f 0a 3d bc 68 c2 bd
       0.0100755505 0.04932846 0.033706047 -0.09492633
000140 3b ea b6 bd 9e 0c 0f be 9a ab 99 3d 84 3e 3c bf
       -0.08931395 -0.13969657 0.075034335 -0.7353289
000150 72 02 4f bc 4d 53 d5 bd 29 1d 99 bd af 26 c5 be
       -0.01263486 -0.10416279 -0.07476265 -0.38506076
000160 24 b7 40 be 3f fe 73 bc f5 39 60 3e f3 8f 50 3e
       -0.18819863 -0.01489216 0.21897109 0.20367412
000170 f1 5a 9b be fa ea fd 3c 3f 6b 7b bd 10 43 d8 bc
       -0.3034282 0.030995835 -0.061381575 -0.026399165
000180 95 4c 0c be b2 5e 93 bc a5 76 cf 3e 3e e3 a1 be
       -0.13701089 -0.01798949 0.40520206 -0.31618685
000190 fb 7b 97 be cb 3f 6b bf 30 88 24 be db ee 03 3e
       -0.29586777 -0.91894215 -0.16067576 0.12884085
0001a0 40 56 22 be 8b a7 26 3e ce 48 b9 3e 97 c0 48 3e
       -0.15853214 0.1627485 0.36188358 0.19604717
0001b0 57 a3 cb bd e2 7c 2f be 7c 0d 3b be c6 ab 3d bf
       -0.09943264 -0.17137483 -0.18266863 -0.7409023
0001c0 fd 23 ec 3e 0c 6d 8a 3e fe c9 94 3d 1c 8c 40 bd
       0.46121207 0.2703632 0.072650895 -0.04700862
0001d0 53 63 49 be 13 99 91 3e 8d 39 63 3e 32 df 82 3e
       -0.19666795 0.284371 0.22189923 0.2556091
0001e0 3f 5e bf 3c 08 e3 cf 3e 71 34 37 3e cb 91 13 3d
       0.02336037 0.406029 0.17891099 0.03602771
0001f0 18 b9 a5 be 90 3e 99 3d 14 72 9c be d7 0b b8 3e
       -0.32367778 0.07482636 -0.30555785 0.35946533
000200 d5 25 9f 3d d8 55 27 3c f5 96 36 be c7 1a 41 3e
       0.07770888 0.010213338 -0.17831023 0.18857871
000210 c0 2e ad bd 02 4f 5b 3e 62 aa 73 be 6b 6b 5b bc
       -0.084561825 0.21416858 -0.23795465 -0.01339231
000220 aa 65 00 bf 5e e0 85 3e 4e 7b 5d be 46 1e cb bd
       -0.5015513 0.2614774 -0.21629068 -0.099178836
000230 6f b5 5f be 86 75 97 3d 6f 8f 0c be 4b af 59 be
       -0.21846555 0.07395463 -0.1372659 -0.21258275
000240 a4 6d 0d bd 19 b7 d4 3d e3 94 87 3e d0 35 18 3e
       -0.03452839 0.103864856 0.2648078 0.14864278
000250 d7 ab a2 bc ee 46 67 3d 22 f7 87 be 61 1f 6e 3e
       -0.01985733 0.05646413 -0.26555735 0.23254158
000260 a0 f3 d5 3a 97 5b 50 3d 59 56 19 be 6b 44 64 be
       0.0016323216 0.050868597 -0.14974345 -0.22291724
000270 b6 5a 1e 3e 8d 24 d4 3a d0 98 56 3e 2a c2 8c 3d
       0.15464291 0.0016185209 0.20956731 0.06872971
000280 de 07 f1 bd 8f 71 68 3d 80 06 c4 3c 9d f4 82 bd
       -0.11769079 0.056748923 0.02392888 -0.063943125
000290 77 fa 18 3e e0 1d ac 3d 34 88 98 bd e2 b8 94 3d
       0.14939295 0.08404136 -0.07447854 0.07261826
0002a0 be 2c 0c be 6b ed 2d be 92 27 1b 3c 63 d4 f4 bd
       -0.13688943 -0.16985099 0.0094698835 -0.11954572
0002b0 eb 80 ed be b7 3d 8d bd bd ad 4f be 4a 3a 1a bd
       -0.4638742 -0.06896537 -0.2028112 -0.037653245
0002c0 58 56 1e bd c6 32 20 3d fa 6c 0d be 0f d9 d9 3d
       -0.038656563 0.03911092 -0.13811103 0.10637104
0002d0 4e ea 2c be 98 b8 58 bd eb 2d a4 3e 48 d0 8b bb
       -0.16886255 -0.052910417 0.32066283 -0.0042667724
0002e0 47 c4 45 be 5d 21 b4 bc c7 1d 5e ba 83 32 db 3d
       -0.19313155 -0.021988565 -0.0008473065 0.10702994
0002f0 91 02 96 be 50 16 03 3e 0c 61 3e be 64 ab b2 be
       -0.29298833 0.1280148 -0.18591708 -0.34896386
000300 61 2f 70 3e aa 88 8f bd 4d f2 04 be 97 da 07 3e
       0.23455574 -0.070084885 -0.12983055 0.13266979
000310 7b e4 f5 3e c1 2d e9 3d 0b a4 2c be cb f1 a2 3e
       0.4802588 0.1138568 -0.16859452 0.31825098
000320 ac 37 80 be 49 78 be be 83 23 6b 3e 9d 92 84 bd
       -0.25042474 -0.37201145 0.22962765 -0.06473277
000330 b8 2e a7 3e d7 9f f1 3d d3 d0 90 3d 58 4d 57 bc
       0.3265283 0.11798065 0.0707108 -0.013140999
000340 d4 ac 62 be 04 2e 63 be a5 65 b3 be 8d 17 76 3e
       -0.22136241 -0.22185522 -0.35038486 0.24032421
000350 c1 9a a1 be 1b 0b e8 be 02 87 3e 3e ac 33 c8 bd
       -0.3156338 -0.45320973 0.18606189 -0.09775481
000360 10 b4 bb 3c 6c d0 29 be 32 57 c7 bd 7a ad 5a 3e
       0.022913009 -0.16583413 -0.09733428 0.21355239
000370 49 59 51 be 55 55 92 be bd 43 01 be 66 2a 92 3e
       -0.20444216 -0.28580728 -0.12623496 0.28547972
000380 db 81 97 be de 56 5f 3d 10 66 a4 3d 9a 83 f8 bd
       -0.2959126 0.054526202 0.080272794 -0.12134476
000390 f0 b2 aa bd d3 a5 1d be 11 c2 01 bc bc c3 74 be
       -0.08334911 -0.15395288 -0.007919804 -0.23902792
0003a0 29 f6 b5 bd 6b 3d 2e 3e aa 66 3c 3e e5 50 31 be
       -0.08884842 0.17015617 0.18398538 -0.17316015
0003b0 60 28 f8 3e 80 e3 6a be 9b 6a 73 3e 85 eb 2d 3e
       0.48468304 -0.22938347 0.23771136 0.16984375
0003c0 4b 64 9f 3e cb 1b 32 3e 52 90 c2 3d 40 2a d9 3c
       0.31131205 0.17393415 0.09500183 0.026509404
0003d0 4c 38 49 be dd 4d b6 3d 4c 0b 09 3e 7a ba 0c 3e
       -0.19650382 0.0890157 0.13383216 0.1374301
0003e0 13 88 a1 3d fa 40 51 3d ad 36 13 be 12 ff 26 3d
       0.07887282 0.051087357 -0.14376326 0.040770598
0003f0 f3 08 91 be 13 13 d8 3d 02 74 0c 3e 89 79 09 3e
       -0.2832714 0.10550513 0.13716128 0.13425268

embedder.emb_rnn.weight_hh_l2 f4 [60, 20]
000000 bf a8 b9 bd 48 66 d2 be 46 76 ee 3d a6 5e a9 3e
       -0.09065389 -0.4109366 0.116436526 0.33080024
000010 4e 18 06 bd 0f 5b 72 3d b9 27 fe bc 21 5c 8e be
       -0.032738023 0.05916887 -0.0310248 -0.27804664
000020 b4 d1 0e be 56 ba 87 bc 89 cf fe 3c f8 a8 93 be
       -0.13947183 -0.016568344 0.03110482 -0.2883985
000030 2e 3f 5a 3d b2 c9 b4 be 27 7b 9d 3e 6d 48 0a be
       0.05328291 -0.3531013 0.3075802 -0.1350419
000040 cd 61 89 bd d5 b1 1c 3d b4 7d 25 bd 64 ea c2 3c
       -0.06708107 0.03825553 -0.040403083 0.023793407
000050 d8 a3 05 be 0b b6 9b 3d c8 c9 12 be e6 b7 dc 3d
       -0.13050783 0.07603081 -0.14334786 0.10777263
000060 b9 ad ef bc 02 f9 24 be 1b ad 74 be e8 3b a8 be
       -0.029257642 -0.16110614 -0.2389416 -0.32858205
000070 29 c4 44 be 4c d6 93 bd 71 08 99 3e 55 e6 41 be
       -0.19215454 -0.07218608 0.29889253 -0.18935521
000080 1b ca ef 3d f6 fd 95 3d 34 8a 6e bc 27 55 b2 3d
       0.117084704 0.0732383 -0.014559317 0.08707648
000090 2a 01 0c be 92 7f cf 3c 2a e8 c4 bd 79 d7 69 bd
       -0.13672319 0.025329385 -0.09614594 -0.057090256
0000a0 8d 03 1e 3e b8 7a 6b bd f3 a4 87 be 55 b4 83 3d
       0.15431042 -0.05749008 -0.26493034 0.0643088
0000b0 74 6a bd 3d e1 2b 83 be 6d 7a f1 3c 2a 47 8e bb
       0.0924882 -0.25619414 0.029477322 -0.0043419795
0000c0 dc 33 70 be 88 5d 0e be 59 43 0c bf 31 7c 57 3c
       -0.23457283 -0.13902867 -0.54790264 0.013152168
0000d0 1f fa 64 be 21 72 8a 3e 09 0c cc 3d 21 5a 9e be
       -0.22361039 0.27040198 0.09963233 -0.30928138
0000e0 3e 9a 88 3d b0 d0 14 3f f6 fc 08 be 17 00 8b be
       0.06670044 0.5813093 -0.13377747 -0.27148506
0000f0 94 ae a4 be 1f 8a 59 3e 5a 5f f1 3d 78 64 b9 3e
       -0.32164443 0.21244095 0.11785765 0.36209464
000100 0d 75 4d 3e 3f e7 4b 3d 43 9f 0e bd 68 52 63 3c
       0.20064183 0.04978108 -0.034819853 0.013874628
000110 a3 98 d8 3d ed 0c 8e be 41 e9 d8 3e ef 16 1c 3d
       0.10575988 -0.27744237 0.4236546 0.03810781
000120 64 10 3c be 2e 18 87 bd 8e 68 59 bd 96 03 aa 3d
       -0.18365628 -0.06596409 -0.053078227 0.08301465
000130 5c f6 91 3b 01 9c 83 3d 71 8a 4d 3e 19 72 38 3e
       0.004454417 0.0642624 0.20072342 0.18012275
000140 4d 92 25 3d 2a 8b fd 3d 63 33 a0 3e fb a3 f4 bd
       0.040422726 0.12380059 0.31289205 -0.11945339
000150 aa d6 4d 3d d5 f2 cc 3e 56 fc e7 bc 6b 03 01 3e
       0.050253548 0.40029016 -0.028318565 0.1259896
000160 8a b1 77 3d 76 61 d1 bd a4 f0 66 bd fd f2 d7 ba
       0.06047205 -0.10223667 -0.056381837 -0.0016475614
000170 e2 36 38 bd 50 ac fa 3d b8 9d 76 be a3 6f a9 3c
       -0.044974215 0.12239897 -0.24083602 0.020683115
000180 b0 5e b8 be 5d ba 49 3d c5 ed fa bd 54 b6 97 bd
       -0.3600974 0.049249995 -0.12252382 -0.07407823
000190 ba 23 22 bd 1a 70 80 bd 0a 31 8e be 9e 48 18 3e
       -0.039584853 -0.06271382 -0.2777179 0.14871451
0001a0 eb 1c 80 3d c3 da d4 3d 9c 62 35 3e 6c af 0d be
       0.06255516 0.10393288 0.17713398 -0.1383645
0001b0 37 07 1c be 71 23 8a bc a6 91 0e bd ca 19 4c bd
       -0.15237127 -0.016862603 -0.03480687 -0.049829282
0001c0 33 05 03 be e4 30 15 be 59 c0 36 3f 06 bf 90 3e
       -0.12794952 -0.14569432 0.7138725 0.2827074
0001d0 e5 b0 e5 3d 4c 91 5b 3f cf e0 85 be d3 6b b6 3e
       0.112153806 0.8576858 -0.26148078 0.35629138
0001e0 73 17 8f 3c b5 57 35 3e 75 07 ae bc 78 6b 21 be
       0.017467236 0.17709239 -0.02124379 -0.15763652
0001f0 72 0e 9e 3c 98 db 0e 3e dd 80 90 bd f2 0e fd bd
       0.019293997 0.13950956 -0.07055829 -0.12356366
000200 5b c5 e2 3d f4 ef 0e 3f 81 b7 93 be f3 72 15 3e
       0.11072799 0.5583489 -0.2885094 0.14594631
000210 24 b2 7f 3d 94 c8 25 bd aa 38 a5 bb e4 bf 9f bd
       0.062425748 -0.04047449 -0.0050421553 -0.07800272
000220 b4 9b 62 3e 50 63 84 3e 79 1a 6c 3e b8 5e 7e 3d
       0.22129709 0.2585702 0.23056974 0.06210205
000230 8a 96 4b be 84 04 7f bd cd f3 dc bd 83 3f 62 be
       -0.19881645 -0.062260166 -0.10788689 -0.2209454
000240 2a a7 00 3d d4 81 90 be ef 7d dd 3d 30 4c 91 be
       0.03140942 -0.2822405 0.108150356 -0.2837844
000250 8e 7b 1d be 71 f5 1e be 28 4d 6d bd 84 de 6c 3d
       -0.15379164 -0.15523316 -0.05793491 0.057829395
000260 d5 47 18 bd b4 86 05 be 58 80 86 3e 7c fb 41 be
       -0.03717788 -0.13039666 0.26269794 -0.1894359
000270 ba 37 55 3e a5 f5 1b be b2 68 0d be 1b f1 89 3d
       0.20822039 -0.15230425 -0.1380947 0.0673544
000280 ff 83 a4 be 81 f4 85 be fe 26 45 3d 1e ef 8f be
       -0.32131955 -0.26163104 0.04813289 -0.2811212
000290 fb 3b f6 bd f1 41 c2 3d 3d 9e b7 be c4 fb d6 bd
       -0.12023159 0.094852336 -0.35862914 -0.10497239
0002a0 7a 7e 3f 3e fc b1 97 be ec 27 3b 3e 94 47 8b bc
       0.1870059 -0.2962798 0.18276948 -0.017001905
0002b0 5b ac 0c be d3 7b a6 be 81 4a 3b 3e 4e a5 0e 3d
       -0.13737623 -0.32516345 0.1829014 0.034825616
0002c0 b6 8f 86 be 87 b8 97 3e bd c6 24 be a5 27 03 3e
       -0.26281518 0.2963297 -0.16091438 0.12808092
0002d0 17 28 92 3d 0a bd 36 3e f9 ba 90 be 01 d4 02 be
       0.07136553 0.1784555 -0.2826765 -0.12776186
0002e0 ea 19 2f 3e dc 10 a8 bd bd bc a5 3d 9e 16 a5 bb
       0.17099729 -0.08206341 0.080926396 -0.0050380966
0002f0 bb c5 3b be e9 4b 98 be 01 d3 05 3e bf f1 85 be
       -0.18337147 -0.29745415 0.13068773 -0.26161
000300 89 0a 88 bd bb 25 e2 be 54 78 9c be 35 e9 7d 3e
       -0.066426344 -0.4416941 -0.30560553 0.24795993
000310 87 dc 5f 3e 11 8f 8f 3e 93 69 d6 3e 19 e0 08 3e
       0.21861468 0.28038839 0.41877422 0.13366736
000320 ca d8 e4 bd f5 5f 84 be c4 b9 8b be 0b 8a b3 bd
       -0.11174162 -0.2585446 -0.27290165 -0.08766564
000330 a9 e5 4d 3e 2a 20 8a 3d 2b de 40 be 1f 53 58 3e
       0.2010714 0.06744416 -0.1883475 0.21125458
000340 db b7 36 bd 40 c5 20 be b0 1f 84 3e 16 bc 44 bc
       -0.044608932 -0.15700245 0.25805426 -0.012007734
000350 ce 5e 89 be 05 f1 d8 bd cf b3 a3 3e f2 56 87 3e
       -0.26830143 -0.10592846 0.3197312 0.26433522
000360 b3 3d 1f be 97 10 56 3e f2 82 ec bd f0 00 0d bd
       -0.1555088 0.20904766 -0.11548413 -0.034424722
000370 b4 d7 98 3d 2c 9c 17 bd 1b 87 82 bd 8d a8 2f 3e
       0.07463017 -0.03701417 -0.063734256 0.17154141
000380 62 0c 8a 3e 4e e3 93 3e a4 41 34 3c c1 76 78 be
       0.26962572 0.28884357 0.011001978 -0.24264051
000390 4d f6 98 3e 0f 59 66 bd f0 ed d6 3e 93 a3 1b 3e
       0.29875413 -0.056237277 0.41978407 0.15199117
0003a0 3d 50 ee 3d 43 06 f9 3d 82 02 5c bd 54 78 3b 3e
       0.11636398 0.121593975 -0.05371333 0.1830762
0003b0 5f 16 9e 3e 77 05 0b 3e 3a 9d bc 3e 63 6c 7a bd
       0.30876443 0.13576303 0.36838704 -0.061138522
0003c0 3e 4d 57 be 3a 0b ce 3d 3c 70 88 3e a6 7b 31 bd
       -0.2102556 0.10060735 0.26648128 -0.04333081
0003d0 86 30 ca 3d 08 c7 a5 3e 6a a0 26 3e 9c ef 4d 3e
       0.09872536 0.3237841 0.1627213 0.20110935
0003e0 dc 80 c4 3d 79 1d 83 be 45 53 aa 3d 28 ba 1d 3e
       0.095948905 -0.25608423 0.08316664 0.15403044
0003f0 bf cf 30 3d d8 48 91 3d ef 07 97 3e 0f de 78 be
       0.043166872 0.07093972 0.2949824 -0.24303459

embedder.emb_rnn.bias_ih_l2 f4 [60]
000000 e0 b4 6a 3f 6a 34 62 3f 3b 25 80 3f ce 48 76 3f
       0.91682243 0.8836123 1.0011362 0.9620484
000010 8a de 89 3f bd 62 71 3f e7 c2 75 3f ef bb 73 3f
       1.0771039 0.9429129 0.9600052 0.9520864
000020 8f c7 69 3f 7e 3d 71 3f 10 4a 7b 3f d3 cc 84 3f
       0.9132013 0.94234455 0.98159885 1.0375007
000030 7b 22 87 3f f7 19 87 3f 9c 23 69 3f b1 d4 74 3f
       1.0557398 1.0554799 0.9106996 0.9563704
000040 7c b6 6f 3f 7e 6f 7e 3f 3b e3 7e 3f 9a 67 76 3f
       0.93637824 0.99388874 0.99565476 0.96251833
000050 74 57 88 3f d9 ec 41 3f d3 0c 8a 3f 78 10 54 3f
       1.0651689 0.75752026 1.0785164 0.8283763
000060 62 b5 18 3f 91 5f 83 3f 80 ac 91 3f 5b e5 80 3f
       0.5965177 1.026354 1.1380768 1.0069994
000070 bd 1f 72 3e b7 77 ee be 9a 6f 0f bf 55 b4 42 3f
       0.2364492 -0.4657571 -0.56029665 0.76056415
000080 24 de 80 3f 24 65 a2 3f 19 97 c2 3e c6 af e4 3e
       1.0067792 1.2687116 0.38005903 0.44665354
000090 3d bd 15 3f fb c4 23 3f 49 45 44 be 24 53 1a bf
       0.5849188 0.63972443 -0.19167055 -0.6028311
0000a0 47 c0 7d 3f 12 0d 81 3f 08 c2 81 3f cb 98 82 3f
       0.99121517 1.0082114 1.0137339 1.0202879
0000b0 89 44 58 3f 2d 11 72 3f 77 6a 7c 3f 73 5e 82 3f
       0.84479576 0.9455746 0.9859995 1.0185074
0000c0 77 6a 7f 3f 23 56 83 3f 37 0c 81 3f 5e e5 83 3f
       0.9977183 1.0260662 1.0081853 1.0304372
0000d0 75 5e 7e 3f 2e 8b 5f 3f 15 5b 7b 3f f6 a8 79 3f
       0.9936288 0.87321746 0.98185855 0.9752344
0000e0 ba 24 70 3f 06 e7 73 3f ba 33 77 3f ca ee 76 3f
       0.9380604 0.9527439 0.96563303 0.96458113
