output/FEM_GAN_90/model.pt (torch, 153208 bytes, 65 tensors)

embedder.emb_rnn.weight_ih_l0 f4 [60, 10]
0	0x3dcae220	0.09906411
1	0x3e71c3f4	0.23609906
2	0x3ddbf665	0.107403554
3	0xbe4cc409	-0.19996656
4	0x3c825df0	0.015913934
5	0x3d806962	0.062701
6	0x3e6315fc	0.22176355
7	0x3e9456e3	0.2897254
8	0x3ec68e3a	0.38780385
9	0x3ef5e1be	0.4802379
10	0xbdbcc581	-0.092173584
11	0x3e3c9053	0.1841443
12	0x3f2944be	0.6612052
13	0x3ea32baf	0.31869265
14	0x3e840fe5	0.25793377
15	0x3e7c384a	0.24630848
16	0xbf00b6d5	-0.5027898
17	0xbe0eb49b	-0.13936083
18	0xbe9070c0	-0.2821102
19	0xbf0b6272	-0.5444709
20	0x3e2673e6	0.16255149
21	0xbe6fda24	-0.23423058
22	0xbed73302	-0.42031103
23	0xbe8d9592	-0.27653176
24	0xbe7df091	-0.247988
25	0xbebb0bc3	-0.3653241
26	0x3e160116	0.14648852
27	0xbe92262b	-0.28544745
28	0x3d24cd60	0.040234923
29	0xbe2cc0f4	-0.16870481
30	0xbec4773c	-0.3837222
31	0x3d04084e	0.032234482
32	0xbe938348	-0.28811097
33	0xbd4adc8c	-0.049526736
34	0x3e9a7fdc	0.30175674
35	0x3e809dca	0.25120384
36	0x3eb8749f	0.36026475
37	0x3eeea56a	0.46610576
38	0x3dfcc486	0.12342171
39	0x3e05c810	0.13064599
40	0x3e6892cb	0.22712247
41	0x3ee79b24	0.4523555
42	0x3e894e86	0.2681772
43	0x3e82c74c	0.25542676
44	0x3e95fca1	0.29294303
45	0x3e2d0a65	0.16898496
46	0x3e8fdfe8	0.28100514
47	0x3e1373a8	0.14399588
48	0xbe34c8ee	-0.17654774
49	0x3e7cc41d	0.24684186
50	0x3f26c88c	0.6514976
51	0x3fd6aa70	1.6770763
52	0x3fea2c89	1.8294841
53	0x3ff1c710	1.8888874
54	0x3fd43380	1.6578217
55	0x3f4ff2b9	0.8122974
56	0x3f6525dd	0.895109
57	0x3efbfcef	0.4921641
58	0x3f05a5d9	0.5220619
59	0x3f35e546	0.7105297
60	0xbcab919c	-0.020943455
61	0xbe724d52	-0.23662308
62	0xbed8a950	-0.42316675
63	0xbeb35d0f	-0.35031936
64	0xbe05bbb3	-0.13059883
65	0xbec20d66	-0.37900847
66	0xbef10764	-0.4707595
67	0xbeb613c7	-0.35561964
68	0xbd8f5f3b	-0.07000586
69	0xbe4c14dd	-0.19929834
70	0x3e3d32ac	0.18476361
71	0xbe6fe99b	-0.23428957
72	0xbeb1d230	-0.34730673
73	0xbecd0add	-0.4004735
74	0x3dc3b4e9	0.0955599
75	0xbe9bdfec	-0.30444276
76	0x3d0cd629	0.034383927
77	0x3d3b20f8	0.04568574
78	0xbe538e3f	-0.20659731
79	0x3c2062b3	0.009789157
80	0x3ea636e4	0.32463753
81	0xbd0503a8	-0.03247419
82	0xbcf49cba	-0.02985989
83	0x3e6a9d53	0.22911577
84	0x3e2d371b	0.16915552
85	0xbd02cf64	-0.031936064
86	0x3b6513e3	0.003495448
87	0x3e58f673	0.21187763
88	0x3e497263	0.19672541
89	0x3ddc1d0c	0.10747728
90	0xbe933ac7	-0.2875578
91	0x3c368400	0.01113987
92	0x3e4d1228	0.20026457
93	0x3dd0a88c	0.10188398
94	0x3b56f02e	0.0032796967
95	0xbe83c379	-0.2573507
96	0xbe44d1cc	-0.19220656
97	0x3de7d715	0.113203205
98	0xbd4d753f	-0.050160643
99	0xbd53bc79	-0.051693413
100	0x3bd2c304	0.006431939
101	0xbe258005	-0.16162117
102	0x3e486a7a	0.19571868
103	0x3e9c5990	0.3053708
104	0x3de2efde	0.11080907
105	0x3d457474	0.04820676
106	0xbefa37be	-0.48870653
107	0xbeb9a8ec	-0.3626169
108	0xbe9fe995	-0.31232896
109	0xbee44f34	-0.44591677
110	0xbdf6bc73	-0.120476626
111	0x3e6f1d2d	0.23350973
112	0xbe96740b	-0.2938541
113	0x3e5f088c	0.21780604
114	0xbe8962d2	-0.26833206
115	0xbe3d36af	-0.18477891
116	0x3e26443b	0.16236965
117	0x3db646e6	0.089002416
118	0x3db7c65e	0.089733824
119	0xbdd426a9	-0.10358936
120	0x3e606a22	0.21915486
121	0xbe0b2db0	-0.13591647
122	0x3e89ebdd	0.26937762
123	0x3e7f7666	0.24947509
124	0x3ead4167	0.3383896
125	0xbdc7660c	-0.09736261
126	0x3a74bac8	0.0009335694
127	0xbb48f361	-0.0030662643
128	0x3e6cf423	0.23140006
129	0x3d9b696b	0.07588466
130	0xbe4e4c65	-0.2014633
131	0x3e8614b5	0.26187673
132	0xbd3d0301	-0.046145443
133	0x3db5c425	0.08875302
134	0x3dbc9c79	0.09209532
135	0x3e7eff75	0.24902137
136	0x3e9d3836	0.30706948
137	0xbd4fab61	-0.05070055
138	0xbe1de89a	-0.15420762
139	0x3e186e10	0.14885736
140	0xbd55589a	-0.05208645
141	0x3e987654	0.29777777
142	0x3e4d19d4	0.20029384
143	0x3e6af58c	0.22945231
144	0xbde73990	-0.11290276
145	0x3e841635	0.25798193
146	0xbe07d801	-0.13265993
147	0x3d30bac5	0.043146867
148	0x3cb9d353	0.022683775
149	0xbd99ee85	-0.07516197
150	0xbe82a71c	-0.2551812
151	0x3e169c28	0.14708006
152	0x3e9d843b	0.30764946
153	0x3e4e3d55	0.20140584
154	0x3e9e7f86	0.30956668
155	0x3e710e9b	0.23540728
156	0xbe1a2e83	-0.15056805
157	0xbbe2221f	-0.00690104
158	0xbe283175	-0.16425116
159	0xbe0c47ab	-0.13699214
160	0x3b2e1d3a	0.0026567713
161	0xbe7935bb	-0.24336903
162	0xbe6208d4	-0.2207368
163	0xbe7cc14d	-0.24683113
164	0xbeb9639c	-0.36208808
165	0xbe4f0666	-0.20217285
166	0x3c86bab5	0.01644645
167	0xbec6d1d4	-0.3883196
168	0x3d82e9e1	0.06392265
169	0xbe929d4c	-0.28635633
170	0xbeb0fd60	-0.3456831
171	0xbe7a01a7	-0.24414693
172	0xbd8f904f	-0.070099466
173	0x3d7c99ee	0.061670236
174	0x3e2addf3	0.1668623
175	0xbe19edc1	-0.15032102
176	0xbdf0d2b4	-0.117589384
177	0xbe3378f4	-0.17526609
178	0xbebe975d	-0.37224856
179	0xbe8aa582	-0.27079397
180	0xbe4adc9b	-0.19810717
181	0x3e42e28d	0.19031735
182	0x3e08d61b	0.13362925
183	0xbda4dd3d	-0.0805001
184	0x3eaee496	0.34158772
185	0x3e35fdad	0.17772551
186	0x3d61dff7	0.05514523
187	0xbe174850	-0.14773679
188	0x3ea44403	0.3208314
189	0xbcd7351b	-0.02627044
190	0x3efe3c76	0.49655503
191	0x3d97777a	0.07395835
192	0xbf0332e6	-0.5124954
193	0xbeecc0c2	-0.46240813
194	0x3ce55bd3	0.027997887
195	0xbcdbcf4c	-0.026832245
196	0x3e922a0c	0.28547704
197	0x3e736d13	0.23772077
198	0xbd950f1d	-0.07278273
199	0xbd99b7ed	-0.07505784
200	0x3df31b70	0.11870468
201	0xbe09e5ea	-0.13466612
202	0x3d4e83a4	0.05041851
203	0x3da0b032	0.078461066
204	0x3ec4363f	0.38322636
205	0xbde1041d	-0.10987113
206	0xbf2962f7	-0.66166633
207	0xbf40b736	-0.7527956
208	0xbea357ce	-0.31902927
209	0xbe8aa34f	-0.2707772
210	0xbf2ec0aa	-0.6826273
211	0x3ed81b69	0.42208412
212	0x3eca6fa6	0.39538306
213	0x3e24b501	0.16084673
214	0x3f1c3d29	0.61030823
215	0x3eb09bf0	0.3449397
216	0xbee9f4dd	-0.45694628
217	0xbefa857d	-0.48929968
218	0xbebc4b3d	-0.36776152
219	0xbf539ebb	-0.8266408
220	0xbfc320cf	-1.5244387
221	0xbe4ae7dc	-0.1981501
222	0xbec405f1	-0.38285783
223	0xbe81c08c	-0.25342214
224	0xbd4da0e9	-0.050202284
225	0xbf39cad7	-0.72575134
226	0xbcfbc0de	-0.030731615
227	0x3e49da8e	0.19712278
228	0x3c8df9f6	0.017331105
229	0x3ed862c2	0.42262846
230	0x3ed40216	0.4140784
231	0x3f28cec0	0.65940475
232	0x3ef1a00b	0.47192416
233	0x3f16ca50	0.58902454
234	0x3f25e528	0.6480279
235	0x3f3bfa27	0.7342858
236	0xbf60d4ee	-0.87824905
237	0xbef16034	-0.4714371
238	0xbf45cc1c	-0.7726457
239	0xbf289231	-0.6584807
240	0xbe79455c	-0.24342865
241	0x3ee74ebd	0.4517726
242	0x3eb945a1	0.36185935
243	0x3e701619	0.2344593
244	0xbbd3d409	-0.0064644855
245	0x3f0ae1c2	0.5425073
246	0xbea29966	-0.3175766
247	0xbea399c3	-0.31953248
248	0xbe3ce73e	-0.18447587
249	0xbc8ba3dd	-0.01704591
250	0x3ea4e34e	0.3220467
251	0x3ed8cc06	0.42343158
252	0xbcbb27ae	-0.02284607
253	0x3e31ed24	0.17375618
254	0x3eb31c2c	0.3498243
255	0x3ef4aceb	0.47788176

embedder.emb_rnn.weight_hh_l0 f4 [60, 20]
0	0xbe80bdbe	-0.25144762
1	0x3e4c04fe	0.1992378
2	0x3d05157f	0.032491203
3	0x3cee1f83	0.02906776
4	0x3e4a993a	0.19785014
5	0x3d5d9b30	0.054103076
6	0x3de28110	0.11059773
7	0x3e3b69c0	0.18302059
8	0xbc160b4f	-0.00915797
9	0xbe6d8287	-0.23194323
10	0xbe249b40	-0.16074848
11	0x3e6295fa	0.22127524
12	0xbe2026ae	-0.15639755
13	0x3dbe42ea	0.092901066
14	0x3e032ace	0.12809297
15	0xbe0abcfe	-0.13548657
16	0xbd92c4fc	-0.07166478
17	0x3e396167	0.18103562
18	0x3e39be55	0.18139012
19	0x3ca04575	0.01956437
20	0x3e0b7825	0.1362005
21	0xbc6b305d	-0.014354792
22	0x3eb0cb5b	0.34530148
23	0xbe90dcc8	-0.28293443
24	0x3e9ce2c4	0.30641758
25	0x3e1e1418	0.15437353
26	0xbb8ecd17	-0.0043579447
27	0x3e7672db	0.24067251
28	0xbd025c9b	-0.031826597
29	0xbe77481b	-0.241486
30	0x3ec1b262	0.37831408
31	0xbec1106e	-0.37707847
32	0xbdf85b3a	-0.12126775
33	0x3d9c2012	0.076233044
34	0x3d1a2701	0.037634853
35	0xbd70b290	-0.05876404
36	0xbd4136f8	-0.047171563
37	0x3df5d043	0.120026134
38	0x3f3d303c	0.73901725
39	0x3e8052fa	0.25063306
40	0x3e5d8ea9	0.21636452
41	0xbbef79cd	-0.007308221
42	0x3d6e4b6a	0.05817739
43	0xbe81f9a0	-0.2538576
44	0x3dd8cbb3	0.105857275
45	0x3e152a84	0.14567
46	0x3d9f30df	0.07772993
47	0xbae91c5d	-0.0017784942
48	0xbe35f449	-0.17768969
49	0xbe97630b	-0.2956775
50	0xbe5cf9f6	-0.21579728
51	0x3da5e1ef	0.08099734
52	0xbdbf9ff1	-0.09356678
53	0xbe31089e	-0.17288443
54	0xbeb81c72	-0.35959202
55	0x3d25d85b	0.040489536
56	0x3cb6549c	0.022257142
57	0xbe53c175	-0.20679267
58	0x3c880ef2	0.016608689
59	0xbe79e9af	-0.2440555
60	0x3e0944aa	0.134051
61	0x3d669fbd	0.056304682
62	0xbdf054a1	-0.11734892
63	0x3e3d93f0	0.18513465
64	0xbe1f26e4	-0.1554218
65	0xbd1b5784	-0.03792526
66	0x3d990c1a	0.07473011
67	0x3d1fd5aa	0.039022125
68	0xbea70d0b	-0.32627138
69	0xbd3b46fc	-0.045721993
70	0xbe01668c	-0.12636775
71	0xbe3d85ff	-0.18508147
72	0x3ea696cf	0.32536933
73	0x3ea01dff	0.31272885
74	0x3e6f93e3	0.23396258
75	0xbdf714b0	-0.12064493
76	0xbe3f933b	-0.18708508
77	0x3dca5491	0.09879411
78	0x3e3c7c20	0.18406725
79	0xbde09715	-0.109663166
80	0xbb71ef53	-0.003691633
81	0xbdcf062a	-0.101085976
82	0x3e265373	0.16242771
83	0x3d8c10d0	0.06839144
84	0xbe3cdd7b	-0.18443863
85	0xbed24a53	-0.4107233
86	0x3e37131c	0.17878383
87	0xbdd31f1c	-0.10308668
88	0xbdadeede	-0.08492826
89	0xbc87fcec	-0.016600095
90	0xbe422480	-0.18959236
91	0xbdce2d89	-0.10067279
92	0xbe9389a4	-0.2881595
93	0x3be2baed	0.006919256
94	0xbe4be050	-0.19909787
95	0x3de11540	0.10990381
96	0xbdfdca4f	-0.12392103
97	0x3d0a391a	0.033745863
98	0xbe3b0598	-0.18263853
99	0x3e765c83	0.24058728
100	0x3e811ca5	0.25217167
101	0x3d152ab4	0.036417678
102	0xbe952dfb	-0.29136643
103	0xbe2b2580	-0.16713524
104	0xbef1abae	-0.47201294
105	0x3e71a22a	0.23597017
106	0x3db13071	0.086518176
107	0x3d49346b	0.049122255
108	0x3da1488d	0.07875166
109	0x3d5832f6	0.052782975
110	0x3d1ea4ae	0.03873127
111	0xbe23a4a0	-0.15980768
112	0x3e998712	0.29985863
113	0x3de37738	0.111067235
114	0xbe762d0e	-0.24040624
115	0xbc820dbc	-0.01587569
116	0xbe557674	-0.20845968
117	0xbbb2f1d4	-0.005460957
118	0x3d74e6a9	0.059790287
119	0xbdd85aaa	-0.10564168
120	0x3e92799f	0.28608415
121	0xbdf206da	-0.11817713
122	0x3db7b509	0.089700766
123	0x3e00f99a	0.12595215
124	0xbd8703ee	-0.065925464
125	0x3e117e13	0.1420825
126	0xbe44deba	-0.19225588
127	0xbe7a208b	-0.24426477
128	0x3d3ccb8b	0.04609255
129	0x3d8280d4	0.06372228
130	0x3e7ed128	0.24884474
131	0xbe1fc05d	-0.15600725
132	0xbc774497	-0.015092037
133	0x3e672953	0.22574358
134	0x3d8bd858	0.06828374
135	0xbd464bf3	-0.048412275
136	0xbe4cafd0	-0.19988942
137	0x3e47139b	0.19441073
138	0xbef00e1f	-0.46885774
139	0x3d3aaaab	0.045572918
140	0xbdf5b5df	-0.1199758
141	0x3dfd6112	0.1237203
142	0xbe41d8b1	-0.18930317
143	0xbe219666	-0.15780029
144	0xbe86e485	-0.26346222
145	0x3c1c023d	0.009522018
146	0x3d0097e0	0.03139484
147	0xbd975532	-0.073892966
148	0x3dea9b3a	0.11455388
149	0xbcef0965	-0.029179284
150	0xbc5e99a1	-0.013586433
151	0xbb092814	-0.002092843
152	0xbda11c8b	-0.07866772
153	0x3d99f012	0.07516493
154	0xbe82b9fc	-0.2553252
155	0xbe2e05a0	-0.16994333
156	0x3d2c532b	0.042071503
157	0xbea983f3	-0.33108482
158	0x3e4c3c2b	0.19944827
159	0xbc3a816f	-0.011383398
160	0x3dc7c3aa	0.09754117
161	0xbd9e60b1	-0.07733286
162	0x3d94c38a	0.072638586
163	0xbd1a87c3	-0.03772713
164	0x3ebd336a	0.36953288
165	0xbe9dd95d	-0.30829898
166	0xbd91038c	-0.07080755
167	0x3e938741	0.28814128
168	0x3e0c3127	0.13690625
169	0xbdc6e39a	-0.0971138
170	0xbe16f0fd	-0.14740367
171	0xbc047875	-0.00808536
172	0x3d9c144e	0.0762106
173	0xbc96c1ba	-0.018402923
174	0x3eabfbea	0.33590633
175	0x3d52cf7f	0.051467415
176	0x3ebd81a2	0.37012964
177	0xbe03517a	-0.1282405
178	0x3e31a706	0.1734887
179	0x3eadf956	0.3397929
180	0xbe7ddad8	-0.24790514
181	0x3e5b0e9e	0.21392295
182	0xbd2b9dbf	-0.041898485
183	0xbe7cf4de	-0.24702784
184	0xbdd255f0	-0.102702975
185	0xbe7aca33	-0.24491195
186	0xbd961b51	-0.07329429
187	0x3e1e180f	0.15438865
188	0xbdf3c58a	-0.11902912
189	0x3b7435ad	0.0037263439
190	0x3eb2988a	0.34882003
191	0x3d316012	0.04330451
192	0xbe2a90d1	-0.16656806
193	0xbe57698a	-0.21036354
194	0xbe8d888a	-0.27643234
195	0xbe093caf	-0.13402055
196	0xbea30c8f	-0.3184552
197	0xbe62b2d6	-0.22138533
198	0x3df69f23	0.12042072
199	0xbe5ca144	-0.21545893
200	0x3e135088	0.14386189
201	0x3d1ef7a0	0.038810372
202	0xbd418840	-0.04724908
203	0xbdbefb96	-0.0932533
204	0xbdc1fe3f	-0.09472322
205	0xbe510f46	-0.20415983
206	0x39b0e72e	0.00033741578
207	0x3dcff979	0.10155005
208	0x3c982510	0.01857236
209	0x3df3d759	0.11906309
210	0x3d9abf1b	0.07555982
211	0x3e8167dc	0.2527455
212	0xbeb6461a	-0.35600358
213	0xbdf8ca05	-0.12147907
214	0xbe838b6b	-0.25692305
215	0x3e79cf04	0.24395376
216	0xbcbd6e8d	-0.023124004
217	0x3eecf63c	0.46281612
218	0xbdae36cc	-0.085065454
219	0x3d898956	0.06715648
220	0x3e2f8b99	0.17143096
221	0xbe25f5fa	-0.16207114
222	0x3da6c6b1	0.08143366
223	0xbe921323	-0.28530225
224	0x3daeddd4	0.08538404
225	0xbe23e654	-0.16005832
226	0x3e0caf96	0.13738856
227	0xbcaa1045	-0.020759711
228	0x3e3e8a8f	0.18607543
229	0xbe7f62ad	-0.24939986
230	0x3d1f6fb7	0.0389249
231	0x3cf7b04b	0.03023543
232	0xbd27463f	-0.040838476
233	0x3e209484	0.15681654
234	0x3e8562ee	0.2605204
235	0xbdc08c6f	-0.094017856
236	0x3e92f73c	0.2870425
237	0x3d830de2	0.06399132
238	0x3ea49601	0.32145694
239	0x3d7ec9ae	0.062204055
240	0x3dff8261	0.1247604
241	0xbd7c58a0	-0.061607957
242	0xbda6a8a9	-0.08137638
243	0x3e071a59	0.13193645
244	0x3de48889	0.111588545
245	0x3e14da9f	0.14536522
246	0xbe0f6d08	-0.14006436
247	0xbe6abc46	-0.22923383
248	0xbe921cbb	-0.28537545
249	0x3e6c3716	0.23067889
250	0x3c569a9b	0.013098384
251	0x3d3ea485	0.046543617
252	0xbe057f67	-0.13036881
253	0x39ff3a11	0.00048680653
254	0x3d899b51	0.067190774
255	0xbe7f65ec	-0.24941224

embedder.emb_rnn.bias_ih_l0 f4 [60]
0	0x3f7f6f0a	0.9977881
1	0x3f7f7fe3	0.99804515
2	0x3f5c0161	0.85939604
3	0x3f7ab78d	0.97936326
4	0x3f83a37f	1.028427
5	0x3f539017	0.8264174
6	0x3f7fc54c	0.99910426
7	0x3f5f461e	0.87216365
8	0x3f929aa7	1.1453446
9	0x3f71ecec	0.9450214
10	0x3f8b0bf5	1.0863024
11	0x3f84d075	1.0376116
12	0x3f693e8a	0.9111105
13	0x3f84bc70	1.0370007
14	0x3f884dac	1.0648704
15	0x3f7ebc35	0.9950593
16	0x3f83b955	1.0290934
17	0x3f7f26dd	0.99668676
18	0x3f9135db	1.134456
19	0x3f6b51e0	0.91921806
20	0x3f0abd22	0.54194844
21	0x3f3abfad	0.72948724
22	0x3f3b56c4	0.7317927
23	0x3f77e527	0.96834034
24	0x3f25b750	0.6473284
25	0x3e47ac02	0.1949921
26	0x3f0dcd86	0.5539173
27	0x3f5e8684	0.86924005
28	0x3f6ec26f	0.9326543
29	0x3f8292a4	1.0201001
30	0x3f2ee750	0.68321705
31	0x3f9f244b	1.2432951
32	0x3f413a21	0.7547932
33	0x3f283f7b	0.65721864
34	0x3edb6b37	0.42855236
35	0x3efc54dc	0.49283493
36	0x3f609755	0.87730914
37	0x3f7dbc05	0.9911502
38	0x3f5383c8	0.8262296
39	0x3e0a3a3f	0.13498782
40	0x3f86cb8e	1.053087
41	0x3f54a618	0.8306594
42	0x3f7947d3	0.9737522
43	0x3f6e1f1b	0.93016213
44	0x3f6e7e07	0.9316105
45	0x3f76f84d	0.96472627
46	0x3f8174a6	1.0113723
47	0x3f8039bf	1.0017623
48	0x3f8831ad	1.064016
49	0x3f73165a	0.9495598
50	0x3f3aa180	0.7290268
51	0x3f8d8ff5	1.1059557
52	0x3f812c43	1.0091633
53	0x3f8031c2	1.0015185
54	0x3f86017a	1.0469201
55	0x3f83017f	1.0234832
56	0x3f846517	1.034335
57	0x3f691e91	0.91062266
58	0x3f5cb7ec	0.8621814
59	0x3f7ebd0c	0.9950721

embedder.emb_rnn.bias_hh_l0 f4 [60]
0	0xbb10e4ae	-0.002210896
1	0xbb007a17	-0.0019604021
2	0xbe0ffaf0	-0.14060569
3	0xbca911ab	-0.020638308
4	0x3ce8d60a	0.028422374
5	0xbe31c150	-0.17358899
6	0xba6b9a31	-0.0008987515
7	0xbe02e75c	-0.12783569
8	0x3e14d516	0.14534411
9	0xbd6128ff	-0.054970738
10	0x3db0c023	0.08630397
11	0x3d1a1223	0.037614953
12	0xbdb60b68	-0.08888894
13	0x3d178c70	0.036999166
14	0x3d84db27	0.064871125
15	0xbba1e097	-0.0049401033
16	0x3cee4e8f	0.029090194
17	0xbb591e5b	-0.0033129666
18	0x3e09af2d	0.1344573
19	0xbda5706a	-0.08078082
20	0xbeea85ba	-0.4580515
21	0xbe8a806b	-0.270511
22	0xbe89525b	-0.26820645
23	0xbd01aa35	-0.031656463
24	0xbeb490e7	-0.35266802
25	0xbf4e1520	-0.80500984
26	0xbee464f7	-0.4460828
27	0xbe05e4bc	-0.13075536
28	0xbd89ec48	-0.0673452
29	0x3ca4aab9	0.020100938
30	0xbea23117	-0.31678078
31	0x3e792106	0.24329004
32	0xbe7b1683	-0.24520306
33	0xbeaf80e2	-0.34278017
34	0xbf124a61	-0.57144743
35	0xbf01d5f0	-0.5071707
36	0xbdfb4538	-0.12269062
37	0xbc11096a	-0.008852342
38	0xbe31f1cb	-0.17377393
39	0xbf5d716d	-0.865012
40	0x3d69844f	0.057010945
41	0xbdaaa5f7	-0.083324365
42	0xbcf96b07	-0.030446542
43	0xbd82c3db	-0.06385013
44	0xbd5bede1	-0.053693656
45	0x3d98db31	0.074636824
46	0xbd20df6e	-0.03927558
47	0xbc727828	-0.014799155
48	0x3d85d2e0	0.06534362
49	0xbd53fbdf	-0.051753875
50	0xbeb535ac	-0.3539251
51	0x3de7917c	0.11307046
52	0xbb41f9b0	-0.0029598288
53	0x3b409495	0.0029385437
54	0x3d45653e	0.048192255
55	0x3bc3c226	0.005974072
56	0x3d7adb5a	0.061244346
57	0xbdf3e2fd	-0.11908529
58	0xbe10d824	-0.14144951
59	0x3d1dcb18	0.038523763

embedder.emb_rnn.weight_ih_l1 f4 [60, 20]
0	0xbe14afbe	-0.14520165
1	0xbda0af7a	-0.078459695
2	0x3dbd5656	0.09244983
3	0xbc876472	-0.016527388
4	0xbd829e9b	-0.06377908
5	0xbca565c9	-0.020190137
6	0x3ca6bcb0	0.020353645
7	0xbe5ad83c	-0.2137155
8	0x3d89de00	0.06731796
9	0xbd133c29	-0.035946045
10	0xbe927734	-0.2860657
11	0x3dbc8f18	0.092069805
12	0xbc82aefd	-0.015952582
13	0x3d5b2c47	0.053509023
14	0xbe1fb14c	-0.15594977
15	0xbe7de9a1	-0.24796154
16	0x3d9699bc	0.07353541
17	0xbd2700f5	-0.040772397
18	0x3e3cf2a4	0.18451935
19	0x3e07cb20	0.1326108
20	0xbe99f530	-0.30069876
21	0xbe68f983	-0.22751431
22	0x3e572197	0.21008907
23	0x3aa8cb5d	0.001287799
24	0x3dcfaa3e	0.10139893
25	0xbd392ec2	-0.045210607
26	0xbdd25d92	-0.10271753
27	0x3d53d5d8	0.05171761
28	0x3de51cfb	0.11187168
29	0xbd73866f	-0.059454378
30	0x3c2b1fb1	0.010444568
31	0x3eb1e10c	0.3474201
32	0x3dcb394f	0.0992304
33	0x3e0cb10c	0.13739413
34	0xbded6ab0	-0.11592615
35	0xbeda38c5	-0.42621437
36	0xbe40d5f8	-0.18831623
37	0xbe286377	-0.16444193
38	0xbc80cd27	-0.015722824
39	0xbe3e1fdd	-0.18566842
40	0x3d9ffac2	0.078115
41	0x3e89ad58	0.26890063
42	0x3d85ebe4	0.06539133
43	0xbe526e6d	-0.20549937
44	0xbe6fdc85	-0.23423965
45	0xbda3f728	-0.08006126
46	0xbd79e921	-0.061013345
47	0x3e66e853	0.22549562
48	0xbe4ba82d	-0.19888373
49	0xbe068038	-0.13134849
50	0xbcdc790d	-0.02691319
51	0x3db50d99	0.08840484
52	0xbf4122ed	-0.7544392
53	0x3e062f6a	0.13104025
54	0x3de8405d	0.11340401
55	0x3f1c2327	0.6099114
56	0xbe6f3c78	-0.23362911
57	0xbcaf2a45	-0.02138246
58	0x3ed6ef5b	0.4197949
59	0x3ddebce8	0.10875875
60	0x3dcf6604	0.1012688
61	0x3e903986	0.28168887
62	0xbe312a4c	-0.17301291
63	0x3e1fe2e5	0.15613897
64	0xbdc16da6	-0.09444742
65	0x3e2f1e8b	0.17101495
66	0x3e4b5bfc	0.19859308
67	0x3e371244	0.17878062
68	0xbe9f08f3	-0.31061515
69	0xbe4d6065	-0.20056303
70	0x3e124f0e	0.1428797
71	0x3d844652	0.06458725
72	0x3eee7928	0.4657681
73	0x3e4fe324	0.20301491
74	0xbe3c18dd	-0.1836886
75	0xbddacc6f	-0.10683524
76	0x3d2dee8b	0.04246382
77	0x3e3c5687	0.18392383
78	0x3e5acc69	0.21367039
79	0x3d5e37f7	0.05425259
80	0xbd6c9e64	-0.05776824
81	0x3df06a51	0.11739028
82	0xbdfdc6a2	-0.12391402
83	0xbe070cdb	-0.13188498
84	0x3e19ed41	0.15031911
85	0x3e067185	0.13129242
86	0xbe970eac	-0.2950338
87	0xbd5cad64	-0.053876296
88	0x3d33dec8	0.043913633
89	0xbe1eef49	-0.15520968
90	0x3de03bc4	0.109488994
91	0x3ccd54dd	0.02506488
92	0xbe4e1ed4	-0.20128947
93	0x3e725033	0.23663406
94	0xbe8281e9	-0.2548974
95	0x3b821b09	0.003970508
96	0xbe5f4ff4	-0.21807843
97	0x3de8aa3a	0.11360593
98	0x3e41a460	0.1891036
99	0x3d363549	0.04448441
100	0x3e0a0614	0.13478881
101	0x3e2f04cd	0.17091675
102	0x3de85b4a	0.11345537
103	0x3ce3726b	0.02776452
104	0xbe38780d	-0.18014546
105	0xbe4daca7	-0.20085393
106	0x3e37e163	0.17957072
107	0xbe031e49	-0.12804522
108	0xbeb0da8f	-0.34541747
109	0x3e69b80c	0.22824115
110	0x3ebb218a	0.36549026
111	0xbe9c6f82	-0.30553824
112	0xbe2936b8	-0.1652478
113	0x3e176a09	0.14786543
114	0x3e89f194	0.26942122
115	0x3ec8e7fe	0.39239496
116	0xbd9c8e3a	-0.07644315
117	0x3e0e07cc	0.13870162
118	0x3e6ea799	0.23306121
119	0xbe30a26a	-0.17249456
120	0x3e1bf588	0.15230381
121	0xbec9a441	-0.39383128
122	0xbeabf374	-0.33584177
123	0xbd8e38c6	-0.069444224
124	0xbcede91c	-0.02904182
125	0xbeb9a73f	-0.3626041
126	0xbdfb81d2	-0.12280621
127	0xbd86e50c	-0.06586656
128	0xbe1490be	-0.1450834
129	0x3d3a3f79	0.04547069
130	0x3e12d77a	0.1434001
131	0xbe834dce	-0.25645298
132	0x3efbaa03	0.49153146
133	0x3e82e531	0.25565484
134	0x3e82238e	0.2541775
135	0xbc37e61a	-0.011224294
136	0x3dccc151	0.0999781
137	0x3e8f35fa	0.27970868
138	0x3e0c510d	0.13702793
139	0xbe28d64e	-0.16488001
140	0xbd9a367e	-0.07529925
141	0x3e8030ae	0.2503714
142	0x3eee898e	0.4658932
143	0x3e21ae5a	0.15789166
144	0x3bed5cbe	0.0072437217
145	0xbe7eba25	-0.24875696
146	0x3ea12264	0.3147155
147	0x3e170a2b	0.14749973
148	0x3e530f89	0.20611395
149	0xbe9c8820	-0.30572605
150	0xbe15e340	-0.1463747
151	0x3e43278e	0.19058058
152	0x3eb650b1	0.35608438
153	0x3d7b7126	0.061387204
154	0xbe30f119	-0.17279471
155	0x3d4ae2af	0.04953259
156	0x3e82f0bd	0.25574294
157	0xbaf84fed	-0.0018944718
158	0x3e106bcf	0.14103626
159	0x3e36dd23	0.17857794
160	0x3dbeb810	0.09312451
161	0x3ea5b2ce	0.3236298
162	0xbea2a91a	-0.3176964
163	0x3de89439	0.11356396
164	0x3dd3c702	0.10340692
165	0xbf0d9176	-0.5530008
166	0x3dab32cd	0.08359299
167	0x3d784586	0.060613178
168	0xbe634d1f	-0.22197388
169	0xbe1cc977	-0.15311228
170	0xbd3c223c	-0.045931086
171	0xbb99855f	-0.0046850885
172	0xbf0f05b7	-0.55868095
173	0xbdf7cd86	-0.12099747
174	0x3dea04f7	0.11426728
175	0xbef2c5a4	-0.47416413
176	0x3ce22d83	0.027609592
177	0x3e3567bd	0.17715354
178	0xbec7a20f	-0.38990828
179	0xbc9dea54	-0.019276775
180	0xbf0405b8	-0.51571226
181	0x3e22a168	0.15881884
182	0xbe866a2f	-0.26252887
183	0xbe0a9b22	-0.13535741
184	0x3de80086	0.11328225
185	0xbe5eb1cf	-0.21747516
186	0xbdc92ff2	-0.09823598
187	0x3d2eacc7	0.042645242
188	0xbea4a058	-0.32153583
189	0x3d9cd90b	0.07658585
190	0xbe6a81f4	-0.22901136
191	0xbd01d87f	-0.031700607
192	0xbded52a5	-0.11588029
193	0xbf149717	-0.58043045
194	0xbeb95a79	-0.36201838
195	0x3e76d96f	0.24106382
196	0xbded4ec7	-0.11587291
197	0x3bcd0bd1	0.006257512
198	0xbdaff79f	-0.08592152
199	0xbe6f6285	-0.23377426
200	0x3e359c54	0.17735416
201	0x3d0b262e	0.033971958
202	0xbdde8385	-0.10864929
203	0xbe1b0801	-0.15139772
204	0x3e0a623f	0.1351404
205	0xbb079ce6	-0.0020692884
206	0xbd193704	-0.037405983
207	0xbe46ba11	-0.19406916
208	0xbe27259c	-0.1632294
209	0xbe0cacc3	-0.13737778
210	0xbe6ca102	-0.23108295
211	0x3dc009c5	0.093768634
212	0xbedac0cc	-0.42725217
213	0xbe83016c	-0.25587022
214	0xbde8f8de	-0.11375593
215	0x3e0f27de	0.13980052
216	0xbdc87a1b	-0.09788915
217	0xbe3329f2	-0.1749647
218	0x3cdaa5b5	0.026690343
219	0xbe1aa27a	-0.15101042
220	0x3cd199ae	0.025585975
221	0x3de5b998	0.1121704
222	0xbe441fb6	-0.19152722
223	0x3c65828d	0.0140081765
224	0xbe002ba5	-0.12516649
225	0xbe2f502f	-0.17120431
226	0xbe315507	-0.17317592
227	0x3e2b8646	0.1675044
228	0x3e40be17	0.18822514
229	0xbe9c5d37	-0.30539867
230	0x3f0cbc35	0.5497468
231	0x3dc41159	0.09573621
232	0xbf08c7b9	-0.5342975
233	0x3e355a4f	0.17710231
234	0xbe82c46d	-0.25540486
235	0x3edc99b5	0.4308602
236	0xbe8c7465	-0.27432552
237	0x3e8538ef	0.2602
238	0x3e8ea173	0.2785755
239	0x3e48529c	0.19562763
240	0xbe1dedf1	-0.15422799
241	0x3f0861bb	0.53274125
242	0x3dda56d5	0.10661093
243	0xbe1b3851	-0.15158202
244	0xbdcdf518	-0.100565135
245	0xbf178f63	-0.59203166
246	0x3e45f0f4	0.19330198
247	0x3d6b0098	0.057373613
248	0xbc979b82	-0.01850677
249	0xbcf0e67b	-0.029406777
250	0x3e05307b	0.13006775
251	0x3e94a41c	0.29031456
252	0xbf5fff38	-0.8749881
253	0xbed22b29	-0.41048554
254	0xbe897ed9	-0.2685459
255	0xbeb8cf08	-0.36095452

embedder.emb_rnn.weight_hh_l1 f4 [60, 20]
0	0xbe44261d	-0.19155164
1	0xbd693f11	-0.05694491
2	0xbdc8f2fe	-0.09811972
3	0x3cfe6f95	0.031059066
4	0x3e3545b6	0.17702374
5	0x3e81cf27	0.25353357
6	0xbce2c132	-0.027680013
7	0x3e0d101d	0.13775678
8	0x3deb0f38	0.11477512
9	0xbe529b12	-0.20566967
10	0xbda17a09	-0.078846045
11	0x3f4923db	0.78570336
12	0x3e843d53	0.25828037
13	0x3de72876	0.11287014
14	0x3e9699e7	0.29414293
15	0x3e8cd4da	0.27506143
16	0xbea2f9c6	-0.31831187
17	0x3e1af43a	0.15132228
18	0x3cb0e517	0.021593614
19	0x3cae47b8	0.021274433
20	0x3e9d59b4	0.307325
21	0xbdf36eb3	-0.118863486
22	0x3e937e2d	0.28807202
23	0x3ec35bea	0.38156062
24	0x3e85d850	0.26141596
25	0x3e716409	0.23573317
26	0xbe5a71ba	-0.21332446
27	0xbcc6a8d5	-0.024250427
28	0x3e242244	0.16028696
29	0xbe6663e9	-0.2249905
30	0x3e5d767d	0.21627231
31	0x3e4252c1	0.1897688
32	0x3de468ae	0.111527786
33	0x3e522bc8	0.20524514
34	0x3e51da37	0.20493399
35	0xbd8ca994	-0.06868282
36	0xbe7d9cb1	-0.24766804
37	0x3d3e1c9c	0.046414003
38	0xbc1a7656	-0.009427628
39	0x3d90c0d5	0.0706803
40	0x3d473aba	0.04863999
41	0x3d4c24c4	0.04983975
42	0x3e07719f	0.13226937
43	0xbe457ccf	-0.19285892
44	0xbe3034cd	-0.17207642
45	0x3db482d6	0.088140175
46	0xbdeec4a7	-0.11658602
47	0x3dd42538	0.103586614
48	0x3e8a17c4	0.26971257
49	0x3dedae9a	0.11605568
50	0xbe868f23	-0.2628108
51	0xbdb94d5e	-0.0904796
52	0xbe4893ef	-0.19587682
53	0x3d9af254	0.07565752
54	0xbe3d8be2	-0.18510392
55	0xbe149ee3	-0.14513735
56	0xbe71f702	-0.23629382
57	0x3e892142	0.26783186
58	0x3d1eebd7	0.038799133
59	0xbd942b65	-0.07234839
60	0x3d8ea263	0.069645666
61	0x3bcfd31d	0.0063423053
62	0xbc87fc22	-0.016599718
63	0xbd83b192	-0.06430353
64	0xbcd12f20	-0.025535166
65	0x3ef13340	0.47109413
66	0x3e05b0fa	0.13055792
67	0x3e896895	0.26837602
68	0x3eb35d9a	0.3503235
69	0x3d24ed94	0.040265635
70	0xbcf02fc8	-0.029319659
71	0x3ed4b1f4	0.41542017
72	0xbe497cb6	-0.1967648
73	0xbedae10f	-0.4274983
74	0xbe63ba95	-0.22239144
75	0xbc7c4f95	-0.015399833
76	0xbe08a733	-0.13345031
77	0x3cc3ad6d	0.023886407
78	0xbed827e2	-0.42217928
79	0xbdd699fe	-0.104785904
80	0xbe8578bb	-0.26068673
81	0x3dc2d2eb	0.09512886
82	0xbec73928	-0.38910794
83	0xbbf90b6c	-0.0076002385
84	0xbea41bdb	-0.32052502
85	0xbe777e1b	-0.24169199
86	0xbd37fb5b	-0.044917446
87	0xbdb0cea9	-0.08633167
88	0x3d1872a9	0.037218723
89	0xbe3b3bc4	-0.18284518
90	0xbe926fa9	-0.28600815
91	0x3e8cb3e9	0.2748101
92	0x3e856362	0.26052386
93	0xbe98dcf6	-0.2985608
94	0x3cf51236	0.02991591
95	0x3dfc967d	0.12333391
96	0xbd4f54a6	-0.050617836
97	0xbe1ec24f	-0.1550381
98	0xbe95fd00	-0.29294586
99	0x3bb8e924	0.005643027
100	0xbe6e8042	-0.23291114
101	0x3e380ebf	0.17974375
102	0x3e150413	0.14552335
103	0xbcded66d	-0.027201856
104	0x3daf098e	0.08546744
105	0xbe4c2c0c	-0.19938678
106	0x3e50fb78	0.20408428
107	0xbe02aeff	-0.12762068
108	0x3dc00f20	0.09377885
109	0xbd9a4436	-0.075325415
110	0x3d9a2f3d	0.07528541
111	0xbf89f148	-1.0776758
112	0x3e4f8a72	0.20267656
113	0xbe024695	-0.12722237
114	0xbe9c3eee	-0.30516762
115	0xbcf7e1bb	-0.030259004
116	0xbe67934b	-0.22614782
117	0x3e0fd2b8	0.14045227
118	0xbe17914d	-0.14801522
119	0xbe5b7ee4	-0.21435124
120	0x3df1a44f	0.117989175
121	0x3e886fad	0.26647702
122	0x3e478bee	0.19486973
123	0xbe8acfbf	-0.27111623
124	0xbd8435ad	-0.0645555
125	0x3e3f01e6	0.18653068
126	0xbdfe1a5f	-0.12407374
127	0x3e4da40e	0.20082113
128	0x3ea83759	0.32854727
129	0x3eadfcf0	0.33982038
130	0x3ee28b80	0.44247055
131	0x3d1b40ca	0.037903585
132	0x3bfbcd99	0.0076844213
133	0x3e466806	0.1937562
134	0xbe3d2e20	-0.18474627
135	0x3c99eeb6	0.018790584
136	0xbe68ea84	-0.2274571
137	0x3db75d5f	0.08953356
138	0xbbe3eae2	-0.0069554904
139	0xbece8ab4	-0.40340197
140	0xbe030a2e	-0.12796852
141	0x3d34f7ee	0.044181757
142	0xbe568b3d	-0.20951553
143	0x3da23723	0.07920673
144	0x3d4c45da	0.049871303
145	0x3d813289	0.06308467
146	0x3e903633	0.2816635
147	0x3e6ceab5	0.23136409
148	0xbe90c920	-0.28278446
149	0xbcb2a829	-0.0218087
150	0xbcd45658	-0.025920078
151	0xbe587557	-0.21138512
152	0x3e310235	0.17285998
153	0x3e5cfd41	0.21580984
154	0x3ea5b103	0.32361612
155	0xbd346fba	-0.044051863
156	0x3db92e1e	0.09041999
157	0x3e46d04a	0.19415393
158	0x3ec98c23	0.39364728
159	0xbd716af9	-0.058939908
160	0xbd998184	-0.07495406
161	0x3dfbd3c8	0.122962534
162	0xbe8cb184	-0.27479184
163	0xbe750c03	-0.23930363
164	0x3e34ffbe	0.17675683
165	0xbe4715b9	-0.1944188
166	0x3e8d06c8	0.27544236
167	0xbccb823a	-0.02484237
168	0x3e4d065e	0.2002196
169	0xbdf56fc2	-0.11984207
170	0x3ea91bbc	0.33028972
171	0x3bb3c95a	0.0054866495
172	0x3e0109f8	0.12601459
173	0x3e42892a	0.18997636
174	0x3e5177f7	0.20455919
175	0xbe707916	-0.2348369
176	0x3e501518	0.20320547
177	0xbe86e5d1	-0.2634721
178	0x3e2cc37e	0.1687145
179	0x3ec9e7f6	0.39434785
180	0xbd0e23ba	-0.03470204
181	0x3d068f45	0.032851476
182	0xbe59fd19	-0.21287955
183	0x3de3cb6d	0.11122785
184	0x3df6671a	0.12031384
185	0xbe0e6445	-0.13905437
186	0x3d9f103d	0.07766769
187	0xbeac7ba9	-0.33688095
188	0x3e78ddc4	0.24303347
189	0xbe36d898	-0.17856061
190	0xbe2b9720	-0.16756868
191	0xbc88c2b5	-0.016694406
192	0x3e8f917c	0.28040683
193	0xbe7e0189	-0.24805273
194	0xbec55513	-0.3854147
195	0xbd6922f4	-0.0569181
196	0x3d5990ad	0.05311649
197	0xbdb7282d	-0.0894321
198	0x3daab3bb	0.08335062
199	0xbcbcb456	-0.02303521
200	0xbe7d95b3	-0.24764137
201	0x3dd76d4a	0.10518892
202	0xbec9bca0	-0.39401722
203	0xbdd40200	-0.10351944
204	0x3ddf099d	0.108905055
205	0x3c53f68b	0.012937198
206	0x3e987ce3	0.2978278
207	0xbe5be5fd	-0.21474452
208	0x3e708538	0.23488319
209	0xbe1dd78c	-0.15414256
210	0xbc9eb8df	-0.019375263
211	0xbd45e085	-0.04830982
212	0x3eabef81	0.33581164
213	0xbe882fd2	-0.26598984
214	0xbead910a	-0.3389972
215	0xbe78fc39	-0.24314965
216	0xbdcb7abe	-0.099355206
217	0xbe882d79	-0.26597193
218	0xbc495526	-0.012288367
219	0xbe6ef0fa	-0.23334113
220	0xbd910cd8	-0.07082528
221	0x3e6d652a	0.23183122
222	0xbe370e01	-0.17876436
223	0x3e21b077	0.15789972
224	0xbdd247aa	-0.10267575
225	0xbe58410f	-0.21118568
226	0xbdd37cba	-0.10326524
227	0x3d23e6e5	0.04001512
228	0x3ec25c40	0.37961006
229	0xbd8df118	-0.069307506
230	0x3e4b12ce	0.19831392
231	0xbe807789	-0.25091198
232	0x3e9c650d	0.30545846
233	0x3e635dd8	0.22203767
234	0xbddc2006	-0.107482955
235	0x3cf30bc6	0.0296687
236	0xbe942998	-0.28937984
237	0xbe816ce8	-0.252784
238	0x3ec191f6	0.37806672
239	0xbd0a758a	-0.0338035
240	0xbeb2e84d	-0.34942856
241	0x3ef186a3	0.47173032
242	0xbe5a5657	-0.21321999
243	0x3e8228da	0.25421792
244	0x3e9641c7	0.2934706
245	0x3e014dc6	0.12627324
246	0xbde3d022	-0.111236826
247	0xbe285717	-0.16439472
248	0x3e0ae4f3	0.135639
249	0xbe5f644e	-0.21815607
250	0xbdf7b119	-0.120943256
251	0xbe353920	-0.17697573
252	0x3f11af18	0.56907797
253	0xbe58ce72	-0.21172503
254	0xbe149e91	-0.14513613
255	0x3dfa2c58	0.12215489

embedder.emb_rnn.bias_ih_l1 f4 [60]
0	0x3f75fc0b	0.9608771
1	0x3f89dafa	1.0769951
2	0x3f8248ce	1.0178468
3	0x3f8a7e03	1.0819706
4	0x3f6c46d8	0.922956
5	0x3f72985b	0.94763726
6	0x3f8b749c	1.0894961
7	0x3f8e0faf	1.1098536
8	0x3f7efc2f	0.9960355
9	0x3f664d1a	0.899614
10	0x3f616514	0.8804486
11	0x3f837066	1.0268676
12	0x3f7b5186	0.9817127
13	0x3f8063d7	1.0030469
14	0x3f727949	0.94716316
15	0x3f856ca9	1.0423785
16	0x3f7d974e	0.99059
17	0x3fa47feb	1.2851537
18	0x3f83e724	1.0304914
19	0x3f7414d2	0.9534427
20	0x3ee4459d	0.4458436
21	0x3f292e50	0.6608629
22	0x3f33d8e8	0.7025285
23	0x3f0056d0	0.50132465
24	0x3e708a09	0.23490156
25	0x3edc490d	0.43024483
26	0x3e854f9c	0.260373
27	0x3f327406	0.6970829
28	0xbe5338ca	-0.20627132
29	0x3f299257	0.6623892
30	0xbf263cdf	-0.6493663
31	0xbf427d28	-0.75972223
32	0xbd96197c	-0.073290795
33	0x3f7295b2	0.94759667
34	0x3db458bc	0.08805987
35	0x3f817435	1.0113589
36	0x3e7f8f89	0.24957098
37	0x3f051853	0.5199024
38	0x3f60c010	0.87793064
39	0x3fa9a3b1	1.325308
40	0x3f8adefa	1.0849297
41	0x3f6ef01d	0.93335134
42	0x3f849557	1.0358075
43	0x3f814ded	1.0101906
44	0x3f6efd17	0.93354934
45	0x3f71b416	0.94415414
46	0x3f3e3c21	0.743105
47	0x3f73f2dd	0.95292455
48	0x3f4f62e5	0.81010276
49	0x3f76ffdc	0.9648416
50	0x3f6a2351	0.9146014
51	0x3f74d261	0.9563351
52	0x3f409c25	0.7523826
53	0x3f839e8d	1.0282761
54	0x3f6b56e2	0.9192945
55	0x3f6a103b	0.91431016
56	0x3f699d9c	0.9125612
57	0x3f864690	1.0490284
58	0x3f780c11	0.9689341
59	0x3f807629	1.003606

embedder.emb_rnn.bias_hh_l1 f4 [60]
0	0xbd203f7b	-0.03912304
1	0x3d9daf44	0.07699445
2	0x3c922f06	0.017844688
3	0x3da7e304	0.08197597
4	0xbd9dc718	-0.0770399
5	0xbd567f1b	-0.05236731
6	0x3db749dd	0.08949635
7	0x3de0fa41	0.10985232
8	0xbb821f9d	-0.0039710538
9	0xbdcd94dd	-0.10038159
10	0xbdf4d6be	-0.11955021
11	0x3cdc1813	0.026866948
12	0xbc95d196	-0.018288415
13	0x3b47d33b	0.0030490893
14	0xbd586bb7	-0.0528371
15	0x3d2d947d	0.042377938
16	0xbc1a1c83	-0.009406212
17	0x3e920083	0.28516015
18	0x3cf9bd9b	0.030485919
19	0xbd3eb243	-0.046556722
20	0xbf0ddd08	-0.5541539
21	0xbeada391	-0.33913854
22	0xbe984e91	-0.2974744
23	0xbeff52a3	-0.49867734
24	0xbf43dd3e	-0.76509464
25	0xbf11db25	-0.56975013
26	0xbf3d5820	-0.73962593
27	0xbe9b17f1	-0.30291703
28	0xbf9a6737	-1.2062749
29	0xbeacdb83	-0.33761224
30	0xbfd31e7b	-1.6493677
31	0xbfe13ea1	-1.7597238
32	0xbf89617a	-1.0732872
33	0xbd56a2dc	-0.05240141
34	0xbf6974ea	-0.9119402
35	0x3c3a2245	0.01136071
36	0xbf401c50	-0.750432
37	0xbef5cfaf	-0.48010013
38	0xbdf9fea0	-0.12206769
39	0x3ea68ec8	0.32530808
40	0x3d9f7aba	0.0778708
41	0xbd9225a6	-0.07136087
42	0x3d00e84a	0.031471528
43	0x3d342793	0.043983053
44	0xbd43d725	-0.0478126
45	0xbda596d6	-0.0808541
46	0xbe82b6d7	-0.2553012
47	0xbd499e90	-0.049223483
48	0xbe6c9793	-0.23104696
49	0xbe1091a0	-0.14118052
50	0xbdd8e69e	-0.10590862
51	0xbd0fb637	-0.035085883
52	0xbec98dd0	-0.39366007
53	0x3cb2b2c4	0.021813758
54	0xbd397dfe	-0.04528617
55	0xbe5a1a86	-0.2129918
56	0xbc87595a	-0.016522098
57	0x3d3a6bde	0.045513026
58	0xbd370c92	-0.044689722
59	0x3bf4dfdc	0.007472975

embedder.emb_rnn.weight_ih_l2 f4 [60, 20]
0	0xbe5746b1	-0.2102306
1	0xbe8939e2	-0.26801974
2	0xbda3bcdc	-0.079950064
3	0x3d272f39	0.04081652
4	0x3d579d2c	0.052640125
5	0xbe174a84	-0.14774519
6	0xbe4689b4	-0.19388467
7	0x3dc67d1f	0.09691834
8	0xbe50ee3c	-0.20403379
9	0xbe37cbb7	-0.17948805
10	0x3f5907f8	0.84777784
11	0x3e34e061	0.17663719
12	0xbd46d25b	-0.048540454
13	0xbdf87cfd	-0.121332146
14	0x3ea5796f	0.3231921
15	0x3e247880	0.16061592
16	0xbd4fc718	-0.05072698
17	0x3e2cc2cc	0.16871184
18	0x3e3d682a	0.18496767
19	0xbc2a5c80	-0.01039803
20	0x3df21140	0.118196964
21	0x3db3b000	0.08773804
22	0x3dea1664	0.11430052
23	0xbe43f3e7	-0.1913601
24	0xbe3b4311	-0.18287303
25	0x3e4a1f03	0.19738393
26	0x3e4a1a19	0.19736518
27	0xbe3cfd6c	-0.18456048
28	0x3e24fd0a	0.16112152
29	0xbde01005	-0.109405555
30	0xbef65ed9	-0.48119238
31	0x3e5128b6	0.20425686
32	0xbdeecb74	-0.11659899
33	0xbc1b55ab	-0.009480874
34	0xbe35b962	-0.17746499
35	0x3e9ce861	0.3064604
36	0x3df03634	0.117290884
37	0xbd2d617c	-0.042329296
38	0xbde3858d	-0.11109457
39	0x3bde6200	0.006786585
40	0x3d35938c	0.044330165
41	0xbd888462	-0.06665875
42	0xbe48c90c	-0.19607943
43	0xbe40934b	-0.18806188
44	0xbe5a5802	-0.21322635
45	0xbed2e194	-0.41187727
46	0x3ea0d720	0.31414127
47	0x3e8f7645	0.2801992
48	0x3e8b7fd0	0.2724595
49	0xbd96b4da	-0.073587134
50	0x3f3065a3	0.68905085
51	0xbd927cac	-0.071526855
52	0x3cb7782e	0.022396173
53	0xbcad28c7	-0.021137608
54	0x3e992308	0.2990954
55	0x3e99e56a	0.30057842
56	0xbe4f958c	-0.20271891
57	0xbddcfa84	-0.107899696
58	0xbe66c660	-0.22536612
59	0xbea59c5c	-0.32345855
60	0x3d200801	0.039070133
61	0x3e218e8c	0.15777034
62	0x3db5532e	0.08853756
63	0x3ecbd4de	0.39810842
64	0x3ddc9577	0.10770696
65	0x3d4759d5	0.048669655
66	0x3e1eabe2	0.15495256
67	0x3e39eb70	0.18156219
68	0x3dba320b	0.09091576
69	0xbe3677ca	-0.17819133
70	0xbe75770b	-0.23971193
71	0x3ec41601	0.38298038
72	0xbd486e58	-0.048933357
73	0x3ea306ae	0.31841034
74	0xbed8bd14	-0.42331755
75	0xbe362b16	-0.17789873
76	0xbe361355	-0.17780812
77	0xbdb70ee7	-0.08938389
78	0xbe6dc09f	-0.2321801
79	0xbc203a57	-0.009779534
80	0x3e38c7e7	0.18045007
81	0xbe0b9d3d	-0.136342
82	0xbe7d0902	-0.24710467
83	0x3e0539db	0.13010351
84	0x3e3ee196	0.18640742
85	0xbea4adfd	-0.32163993
86	0x3e808ef9	0.2510908
87	0xbe2b26b8	-0.16713989
88	0xbe225f6d	-0.15856715
89	0x3e8b37e2	0.27191073
90	0xbd451b06	-0.048121475
91	0x3e96b7a7	0.2943699
92	0xbd11739e	-0.03551065
93	0xbae64c82	-0.0017570409
94	0x3e611b56	0.21983084
95	0x3ead1cf9	0.33811167
96	0x3da872c6	0.08225016
97	0xbe09cc93	-0.13456945
98	0x3e3f4354	0.18678027
99	0xbe449261	-0.19196464
100	0x3dd70936	0.10499804
101	0x3e36ff8c	0.17870921
102	0x3e4a3afb	0.19749062
103	0xbe0156d4	-0.12630779
104	0x3e19e6f9	0.15029515
105	0x3dafb1b1	0.08578814
106	0xbe587e73	-0.21141987
107	0xbd81dff5	-0.063415445
108	0x3c371d49	0.011176416
109	0xbd748f7a	-0.059707142
110	0xbdf562ea	-0.11981757
111	0x3e82de19	0.25560072
112	0xbe88e525	-0.26737323
113	0xbe0bd368	-0.13654864
114	0xbdd7b848	-0.10533196
115	0xbe0c391d	-0.13693662
116	0x3e873e6a	0.26414806
117	0xbe30a452	-0.17250183
118	0x3e494765	0.19656141
119	0x3da140c6	0.07873683
120	0xbe2c4658	-0.16823709
121	0x3dbeeadc	0.093221396
122	0xbf0fc6ed	-0.5616291
123	0xbe950a69	-0.29109505
124	0xbe0b0ff5	-0.13580306
125	0x3f0bbdb7	0.54586357
126	0x3bf09b7f	0.0073427553
127	0x3e2e7dde	0.17040202
128	0x3eb56509	0.35428646
129	0x3ea5a9d2	0.32356125
130	0xbefe818f	-0.4970822
131	0xbe9dabd7	-0.30795166
132	0x3d0668ae	0.032814674
133	0x3c030a8d	0.007998121
134	0xbc9fb593	-0.019495761
135	0xbea8d6a2	-0.32976252
136	0xbf242645	-0.64120895
137	0xbeb72fc4	-0.3577863
138	0xbeed37ce	-0.46331638
139	0xbe5069fd	-0.20352931
140	0xbdcfc2aa	-0.10144551
141	0x3d555e87	0.0520921
142	0x3d6bd5ae	0.057576828
143	0xbb1b347f	-0.0023682413
144	0x3eb17b5f	0.34664437
145	0x3e776325	0.24158914
146	0xbc97c403	-0.018526083
147	0xbea64111	-0.32471517
148	0xbe91d873	-0.2848545
149	0xbe559018	-0.20855749
150	0x3d35ba28	0.044366986
151	0x3d964004	0.07336429
152	0xbea46a55	-0.32112375
153	0x3de2cf71	0.110747226
154	0x3ef6fbc1	0.48238948
155	0xbe9396ad	-0.28825894
156	0x3e67c631	0.22634198
157	0x3db8c592	0.090220585
158	0x3e34b2ce	0.17646334
159	0xbec74782	-0.38921744
160	0xbd2a3d1f	-0.041562196
161	0x3e6b258d	0.22963543
162	0xbe0ce827	-0.13760434
163	0xbdd291c3	-0.10281708
164	0xbd5644bc	-0.052311644
165	0x3ec81925	0.39081684
166	0xbd7b1ad9	-0.0613049
167	0xbd8c3b5e	-0.06847261
168	0x3e4ab62a	0.19796053
169	0x3cd3a28f	0.02583435
170	0x3db76c97	0.08956259
171	0x3e30660b	0.17226426
172	0xbe1dc196	-0.15405878
173	0x3bd8e252	0.0066187764
174	0xbe2d5523	-0.16927008
175	0xba19e0cb	-0.00058699836
176	0x3e47a873	0.19497852
177	0x3c8dfc0e	0.017332103
178	0x3e39ae06	0.18132791
179	0x3dd8fce3	0.10595109
180	0x3d4b38d4	0.049614742
181	0x3f244a3c	0.6417577
182	0xbebf13ba	-0.37319738
183	0xba9c9164	-0.0011945185
184	0xbbc47365	-0.0059952014
185	0x3e19da82	0.1502476
186	0x3e648ee3	0.22320132
187	0x3e893320	0.26796818
188	0x3eefc260	0.46827984
189	0xbe190bf6	-0.14945969
190	0xbeb610c8	-0.35559678
191	0xbceab55a	-0.028650928
192	0x3efabe89	0.48973492
193	0xbd85b59e	-0.06528781
194	0x3dfad97d	0.12248514
195	0xbe7a0550	-0.24416089
196	0xbebc96ef	-0.36833903
197	0xbdb92be6	-0.09041576
198	0xbe43d2fe	-0.19123456
199	0xbe9359a5	-0.2877933
200	0x3e0ed414	0.13948089
201	0x3f09ff9f	0.5390567
202	0x3e2e1084	0.16998488
203	0xbead4373	-0.33840522
204	0xbeb53c09	-0.35397366
205	0x3f14fc52	0.5819751
206	0xbe29ab2b	-0.16569202
207	0x3d972e72	0.073819056
208	0xbdb3b582	-0.08774854
209	0x3e663a35	0.22483142
210	0xbde594a9	-0.11209995
211	0x3e742d01	0.23845293
212	0x3e40063c	0.18752378
213	0xbeaff503	-0.34366617
214	0xbdbf22ce	-0.0933281
215	0xbe8e3c10	-0.277802
216	0x3e340463	0.17579798
217	0xbe9b7d84	-0.30369198
218	0x3e01df31	0.12682797
219	0x3dd2f2be	0.10300206
220	0xbda6c30f	-0.08142673
221	0xbea4a21d	-0.32154933
222	0x3ddfbb4f	0.10924398
223	0x3e8438dc	0.2582463
224	0xbd2c29a5	-0.042031903
225	0xbf8df41b	-1.109012
226	0xbd48eaea	-0.049052157
227	0xbe99dfbb	-0.30053505
228	0x3e26ae51	0.16277434
229	0xbd334a44	-0.043771997
230	0xbea28adc	-0.31746566
231	0xbf3ced9e	-0.73800075
232	0x3e9e2a29	0.3089154
233	0x3e3982f4	0.18116361
234	0x3db6ccd0	0.08925784
235	0xbe6a4210	-0.22876763
236	0xbd576760	-0.05258882
237	0x3e0f41e9	0.13989986
238	0x3e38fe39	0.18065728
239	0xbe27747e	-0.16353032
240	0xbe1dd526	-0.15413341
241	0x3f731cec	0.94966006
242	0xbea19c2a	-0.31564456
243	0xbec60da2	-0.38682276
244	0x3f74355c	0.9539392
245	0x3edd37f9	0.43206766
246	0xbe200b75	-0.1562937
247	0xbeb1764b	-0.34660563
248	0x3eda5a2d	0.42646924
249	0x3e03593a	0.12827006
250	0x3f85da16	1.045718
251	0x3ef04423	0.46926984
252	0x3cb1e1d0	0.021714121
253	0x3e05f22d	0.13080664
254	0x3ab863ed	0.0014067866
255	0xbece44e4	-0.40286934

embedder.emb_rnn.weight_hh_l2 f4 [60, 20]
0	0xbdbe6fe5	-0.09298686
1	0xbd966b34	-0.07344666
2	0xbda724ec	-0.08161339
3	0x3e069ca1	0.13145687
4	0x3e09a759	0.13442744
5	0x3eb1ffac	0.34765375
6	0xbece4385	-0.40285888
7	0xbdba679e	-0.09101795
8	0xbe2bf8da	-0.16794148
9	0xbda06467	-0.0783165
10	0x3e8f3703	0.27971658
11	0xbdfd9bb4	-0.12383214
12	0x3c4ca23f	0.012489854
13	0xbe5f2fcb	-0.21795575
14	0xbe0ca05f	-0.13733052
15	0xbc06a93a	-0.008219058
16	0x3e2bad23	0.16765265
17	0x3cbec1b2	0.02328572
18	0x3dddd568	0.1083172
19	0x3e5c5bed	0.21519442
20	0x3e819cdb	0.25314984
21	0xbdcc3650	-0.09971297
22	0x3d3a4510	0.04547602
23	0x3e1bff26	0.1523405
24	0xbeee685c	-0.46563995
25	0xbc89e602	-0.01683331
26	0xbe0ba873	-0.13638477
27	0xbdadb5f7	-0.08481973
28	0xbe7e0e39	-0.24810113
29	0xbd618804	-0.055061355
30	0x3c4ec26d	0.012619597
31	0x3de320ac	0.11090216
32	0xbe42d007	-0.19024669
33	0xbe49410c	-0.1965372
34	0xbcd73b5d	-0.026273424
35	0xbddb65d1	-0.10712779
36	0x3df022e8	0.11725408
37	0x3e06d8bb	0.13168614
38	0xbe2bac85	-0.1676503
39	0x3dfd0a9e	0.12355541
40	0xbebe1e0e	-0.37132305
41	0x3e9c86ce	0.30571598
42	0xbd268c8e	-0.040661387
43	0x3dd9f025	0.10641507
44	0x3c602b07	0.0136821335
45	0xbe9e7d71	-0.3095508
46	0xbe139d3a	-0.14415446
47	0xbe227608	-0.15865338
48	0xbd6982ec	-0.057009622
49	0xbc79460a	-0.0152144525
50	0xbdee558c	-0.116374105
51	0xbded1274	-0.11575785
52	0xbce34ee7	-0.027747585
53	0x3e666ede	0.2250323
54	0xbe3a7050	-0.18206906
55	0xbe154034	-0.14575273
56	0x3d9d8981	0.076922424
57	0xbdbb7270	-0.091526866
58	0xbecd0088	-0.40039468
59	0xbddd70cc	-0.1081253
60	0xbd928bab	-0.07155546
61	0xbb94ba01	-0.004538775
62	0x3df07c2d	0.11742435
63	0x3dced8a9	0.100999184
64	0x3dafc7a0	0.08582997
65	0x3ead9db5	0.33909383
66	0x3e892562	0.26786333
67	0x3e99d41c	0.3004464
68	0x3ee26fda	0.4422596
69	0x3d87a776	0.066237375
70	0xbe848ad9	-0.25887182
71	0xbd6c4f54	-0.05769284
72	0x3e532503	0.20619588
73	0xbdc34cbe	-0.09536122
74	0x3e1c142b	0.15242068
75	0x3e95f795	0.29290453
76	0x3ebad0ee	0.36487526
77	0xbece25ec	-0.40263307
78	0xbe0c4e20	-0.13701677
79	0xbe9615f4	-0.29313624
80	0x3cce5eca	0.025191683
81	0xbe831468	-0.25601506
82	0xbcc843df	-0.024446426
83	0x3deee920	0.11665559
84	0xbdffe66f	-0.124951236
85	0x3da3c9f3	0.07997503
86	0x3b8e3201	0.004339457
87	0x3dcf6088	0.10125834
88	0xbe1bde19	-0.15221442
89	0x3db1bed7	0.08678978
90	0xbe166b66	-0.14689407
91	0xbe34705e	-0.1762099
92	0x3e9fdf12	0.31224877
93	0xbe2f08a4	-0.1709314
94	0x3da21a52	0.079151765
95	0xbd8d8ceb	-0.069116436
96	0x3d898465	0.067147054
97	0xbdce1c83	-0.10064032
98	0xbd796573	-0.060887765
99	0xbe3bd426	-0.18342647
100	0xbdbca910	-0.092119336
101	0xbe7d9c61	-0.24766685
102	0xbe5cf280	-0.21576881
103	0x3da730d7	0.08163612
104	0x3dfa1095	0.12210194
105	0xbe946b2d	-0.2898802
106	0xbde0701c	-0.10958883
107	0xbe06d089	-0.13165487
108	0xbd868f5b	-0.06570312
109	0x3dfb4bd8	0.122703254
110	0x3c489d1b	0.012244488
111	0xbd6ba0f2	-0.057526536
112	0xbec18edc	-0.37804306
113	0xbce4750d	-0.027887845
114	0x3d9f35c5	0.077739276
115	0x3e323a03	0.17404942
116	0xbcbb0407	-0.022829069
117	0xbe6664e2	-0.22499421
118	0x3e1a8e69	0.15093388
119	0x3e85d8d0	0.26141977
120	0xbd13f458	-0.036121696
121	0xbe289ef3	-0.16466884
122	0x3e99583e	0.29950136
123	0x3f1a232f	0.60209936
124	0x3f9cf577	1.226241
125	0xbe8fa16b	-0.2805284
126	0x3f38bdf9	0.72164875
127	0xbe57cec6	-0.21074972
128	0x3e22631d	0.15858121
129	0x3f07e6ba	0.53086436
130	0x3f4d69c4	0.8023951
131	0xbe7693f0	-0.24079871
132	0xbfb4ca45	-1.4124228
133	0x3e37dc19	0.17955054
134	0xbe9fe3cc	-0.31228483
135	0xbeab34e8	-0.33438802
136	0x3dd7f929	0.105455704
137	0xbe1d141f	-0.15339707
138	0xbb7cc828	-0.003857145
139	0xbf286020	-0.65771675
140	0xb98ec477	-0.00027230728
141	0xbaac2175	-0.001313253
142	0xbdeec3c5	-0.11658434
143	0x3e048c76	0.12944207
144	0xbed4595a	-0.4147442
145	0x3efd9a76	0.49531907
146	0xbf3b7545	-0.73225814
147	0xbe78fb14	-0.24314529
148	0x3d2b288d	0.04178672
149	0xbea38abe	-0.3194179
150	0xbf07abdd	-0.5299662
151	0xbe97cfe8	-0.29650807
152	0x3d7b6a91	0.061380927
153	0xbe90132b	-0.28139624
154	0x3cc064be	0.023485538
155	0x3e05d647	0.13070022
156	0x3e1d2fa0	0.15350199
157	0xbbd98a9f	-0.0066388394
158	0xbe4604c3	-0.19337754
159	0x3e033189	0.12811865
160	0xbe521ae0	-0.20518064
161	0xbd888679	-0.066662736
162	0xbeb262cd	-0.34841004
163	0x3d801542	0.062540546
164	0x3d0ef385	0.034900207
165	0xbf05c289	-0.5224996
166	0x3f0e847c	0.55670905
167	0xbdc0bb21	-0.09410692
168	0xbe5df3ba	-0.21675006
169	0x3d41485d	0.04718815
170	0x3cb9cce5	0.02268071
171	0xbdd4ccd6	-0.10390632
172	0xbe781e45	-0.24230297
173	0xbe0467af	-0.12930177
174	0x3da6c137	0.081423216
175	0xbe2827a1	-0.16421367
176	0xbeaefe11	-0.34178212
177	0xbe48981b	-0.19589274
178	0xbe81b950	-0.25336695
179	0xbe0fd63c	-0.14046568
180	0x3de8f7d4	0.113753945
181	0xbce5ede5	-0.028067539
182	0xbe8e59ab	-0.27802786
183	0xbe15e073	-0.14636402
184	0x3d8bca8b	0.068257414
185	0xbdc17f77	-0.0944814
186	0xbe402a92	-0.1876624
187	0xbe92ee30	-0.28697348
188	0xbe38cfaa	-0.18047968
189	0x3dc2dafa	0.09514423
190	0x3dc9c55f	0.09852099
191	0xbd17955f	-0.037007686
192	0x3e14c37a	0.14527693
193	0x3dc19082	0.09451391
194	0xbe98190f	-0.29706618
195	0x3e8a0a26	0.26960868
196	0xbe8e84d7	-0.27835724
197	0x3e3283d3	0.174331
198	0x3e161634	0.14656907
199	0x3e0fde98	0.14049757
200	0xbe7f5d68	-0.24937975
201	0xbeb992d7	-0.36244842
202	0xbe5881d7	-0.2114328
203	0xbe9f437e	-0.3110618
204	0xbf0703d6	-0.5274023
205	0xbe173089	-0.14764608
206	0xbbc240ad	-0.00592812
207	0xbeaf27b1	-0.3420997
208	0xbe69479f	-0.22781228
209	0xbd39829e	-0.045290582
210	0xbd72a81d	-0.059242357
211	0x3f0a75bc	0.540859
212	0xbdc2283f	-0.094803326
213	0xbe921ba6	-0.2853672
214	0xbdac5593	-0.084147595
215	0x3caac4e6	0.020845842
216	0x3ced54cc	0.028971098
217	0x3d3e9dac	0.046537086
218	0x3e96e5cd	0.294722
219	0x3ee3bc8b	0.44479784
220	0x3e649549	0.22322573
221	0xbe35821d	-0.17725416
222	0x3d7df3ec	0.0620002
223	0xbdc4a8d1	-0.09602512
224	0xbe6d48bd	-0.23172279
225	0xbec10a30	-0.37703085
226	0x3ed1839b	0.4092072
227	0xbe466bfe	-0.19377133
228	0x3df4272f	0.11921536
229	0x3e80a37f	0.25124738
230	0x3e3d17f7	0.18466173
231	0xbe4b9c29	-0.19883789
232	0x3e0bdac0	0.13657665
233	0xbe303475	-0.17207511
234	0xbe236ec0	-0.15960217
235	0x3e2ce2d0	0.16883397
236	0x3dd94165	0.10608176
237	0x3e77b962	0.24191812
238	0xbe923898	-0.28558803
239	0x3da1fe7e	0.07909869
240	0x3e9c1a36	0.30488747
241	0x3d9b0b95	0.075705685
242	0x3e267a29	0.16257538
243	0x3c978d22	0.018499915
244	0xbda38550	-0.07984412
245	0x3db69aea	0.08916266
246	0xbe318df4	-0.17339307
247	0x3d4fab93	0.050700735
248	0xbc895783	-0.016765362
249	0xbead601b	-0.33862385
250	0xbde03c9f	-0.109490626
251	0xbe0fcf00	-0.14043808
252	0xbe5efe4b	-0.21776693
253	0x3db90f1c	0.09036085
254	0xbd8f2f12	-0.069914
255	0x3c285868	0.010274984

embedder.emb_rnn.bias_ih_l2 f4 [60]
0	0x3f86b618	1.0524321
1	0x3f7f15da	0.9964272
2	0x3f7fa866	0.9986633
3	0x3f8bad71	1.0912305
4	0x3f8b33a4	1.0875134
5	0x3f63ec55	0.8903249
6	0x3f5f4ad4	0.87223554
7	0x3f619493	0.8811733
8	0x3f77d540	0.9680977
9	0x3f7c5ff9	0.9858394
10	0x3f61e6e1	0.8824292
11	0x3f81424c	1.0098357
12	0x3f622ad0	0.88346577
13	0x3f81c286	1.0137489
14	0x3f7d0592	0.98836625
15	0x3f6ceec8	0.9255185
16	0x3f6e101d	0.92993337
17	0x3f8572af	1.0425624
18	0x3f730dca	0.94942915
19	0x3f778654	0.96689343
20	0xbdb506bb	-0.08839174
21	0x3f02cfe0	0.5109844
22	0x3f5c3221	0.8601399
23	0x3ee90c6b	0.45517287
24	0x3f8d7279	1.1050559
25	0x3e62db65	0.22154005
26	0x3f2fba12	0.68643296
27	0x3ef16689	0.4714854
28	0x3e589e8b	0.2115423
29	0x3f25ada3	0.64718074
30	0x3f511748	0.8167615
31	0x3f0b5cda	0.54438555
32	0x3f7f5a8f	0.99747556
33	0x3f2a1226	0.6643394
34	0x3f2f34d3	0.6843998
35	0x3eb8ca54	0.36091864
36	0x3f15976b	0.5843417
37	0x3ed669c6	0.41877574
38	0x3ea581b9	0.32325533
39	0x3df81999	0.12114257
40	0x3f64fb89	0.8944631
41	0x3f6c2205	0.9223941
42	0x3f7e98a7	0.9945168
43	0x3f5e75c7	0.86898464
44	0x3f6b52b8	0.91923094
45	0x3f6256b8	0.8841357
46	0x3f7fcd51	0.9992266
47	0x3f8390ec	1.0278602
48	0x3f721f38	0.94578886
49	0x3f79df12	0.97606003
50	0x3f6b88ed	0.9200581
51	0x3f7af9a5	0.9803718
52	0x3f81e1c2	1.0147021
53	0x3f8b5646	1.0885704
54	0x3f6da4fc	0.9282987
55	0x3f63b244	0.88943887
56	0x3f76db57	0.96428436
57	0x3f6a3f66	0.9150299
58	0x3f7a80a0	0.97852516
59	0x3f7ab21e	0.97928035

embedder.emb_rnn.bias_hh_l2 f4 [60]
0	0x3d56c8dc	0.05243765
1	0xbb6a1cc0	-0.0035722703
2	0xbaaf08b9	-0.001335404
3	0x3dbad776	0.09123127
4	0x3db3398f	0.08751213
5	0xbde09d87	-0.10967546
6	0xbe02d504	-0.12776572
7	0xbdf35a82	-0.11882497
8	0xbd02aab8	-0.03190109
9	0xbc67fc5d	-0.014159289
10	0xbdf0c8c1	-0.11757041
11	0x3c2134f5	0.009839286
12	0xbdeea8ed	-0.11653314
13	0x3c6129eb	0.013742904
14	0xbc3eaa63	-0.011637303
15	0xbd98897f	-0.074481
16	0xbd8f7dde	-0.07006429
17	0x3d2e520d	0.04255872
18	0xbd4f212a	-0.050568737
19	0xbd079c0f	-0.033107813
20	0xbf8b5051	-1.0883886
21	0xbefa6035	-0.48901525
22	0xbe0f3778	-0.13986003
23	0xbf0b79bc	-0.54482627
24	0x3dd72a3d	0.10506103
25	0xbf47493f	-0.7784614
26	0xbea08be3	-0.31356725
27	0xbf074cc4	-0.5285151
28	0xbf49d83d	-0.7884558
29	0xbeb4a475	-0.3528172
30	0xbe3ba3a0	-0.18324137
31	0xbee94607	-0.4556124
32	0xbb2573a7	-0.0025245936
33	0xbeabdbf6	-0.33566254
34	0xbea196d9	-0.315604
35	0xbf239af4	-0.63908315
36	0xbed4d130	-0.41565847
37	0xbf14cafa	-0.5812222
38	0xbf2d3f17	-0.6767439
39	0xbf60fc93	-0.878854
40	0xbe2c5932	-0.168309
41	0xbd88098e	-0.066424474
42	0x3cb36325	0.021897862
43	0xbe073064	-0.13202053
44	0xbdc9f6e8	-0.09861547
45	0xbdc92e59	-0.09823293
46	0x3da4a96d	0.08040128
47	0xbdb23942	-0.08702327
48	0xbce07648	-0.02740015
49	0xbea85cb7	-0.32883236
50	0xbdbaf8a8	-0.09129459
51	0xbd3bcab8	-0.045847625
52	0xbe83c3d0	-0.2573533
53	0x3da5f06f	0.081025
54	0xbda00752	-0.07813896
55	0xbdd70338	-0.10498661
56	0xbd2433ce	-0.040088467
57	0xbdc73847	-0.09727531
58	0xbcea1667	-0.028575135
59	0xbd02eb7d	-0.03196286
