output/FEM_GAN_10/model.pt (torch, 153208 bytes, 65 tensors)

embedder.emb_rnn.weight_ih_l0 f4 [60, 10]
00000000: 10e6 bc3b 6803 963e 844c 633e 8360 d2bd
00000010: 195d ce3d cd68 c13d ddde 18be 2771 cabd
00000020: efb6 34bc adcf 8e3d 068e 663f d091 5fbc
00000030: 1913 93bd 28a3 bbbe 6603 a7be 364b eabe
00000040: 096c e3be 3633 e4bc 7562 5cbe 9f18 ecbe
00000050: 7388 f4be 99b9 0ebe 410c c7be 2372 54be
00000060: 4f49 3ebe 8a3f 9abe 524d 803e 158f 2ebe
00000070: 6c7e 083e 359d 93bd 288e 32bf eecb 663f
00000080: 483e 473f 6bf7 773f 2edc a93f 27d4 d63f
00000090: 390e 343e 279d 843e 76c4 a6bc 1279 84bc
000000a0: 7ed1 d33e 447e b13e 56ad a93e 9aa1 783e
000000b0: d90a 633e afee afbd 5a5f b9be ee1a 14bf
000000c0: ff23 4fbf 4e7e cbbe 526f b23e 0f32 babe
000000d0: 82a0 abbe 6e2f 21be 9a56 aabe 1f89 fcbe
000000e0: 0543 a93e 1784 eabc f024 c3bd aece c73d
000000f0: 439f debe ec45 97be 4d41 fabe 1cb8 e5be
00000100: a1d5 6ebe ebec e6be bf9e 34bf 8715 1ebf
00000110: a238 95be c65d d7be c9f1 f23e 5b91 823d
00000120: e715 d33c 88f5 9bbd 437a d63e 8a86 01bd
00000130: dbd5 dc3d 0609 b73d 1deb ccbd e7fb ea3d
00000140: 93c6 793e 170d e3bd 6955 0abe 77a4 e83d
00000150: debf 7a3d 92d9 18be df3a 61ba 694c 553e
00000160: 9352 483e 2ef5 da3d fae1 47be d213 9abc
00000170: e1de 9f3e cf9f 283e bcb7 6c3d 731d d53b
00000180: 28fd 5abe 0126 613d bb1a 9dbc bea6 9bbc
00000190: 0a94 f13f d8a8 673f 9a43 e4be c4ca 5b3d
000001a0: 34f8 78be 6a06 41bf fbd8 29bf abbe 4abf
000001b0: 17aa d4be 163c 19bf 1f6f b7be 9edb 673e
000001c0: 484e f9be d3cc 633d a87e cebe 5dc7 78be
000001d0: 0dac 2e3e f89c ee3d af8a ea3d 38a7 8fbd
000001e0: bfa0 923c 8756 82be 9b5e 883e 8d4c 893e
000001f0: d0d8 ac3e 4961 d3bd f33f 9d3c dfff cd3c
00000200: 2bba 633e 24b7 763d 5846 013e 13cd f03e
00000210: 990f bb3e 8631 e13e 84ec da3e 0a19 f83e
00000220: 8a0a 983e 61e7 babd 6e47 f7bd c2bb 373e
00000230: f346 b2be 4a28 783d 4f68 85bd f0b7 e6bc
00000240: 37ec babe d265 363d 2203 9ebe 2d2b 05be
00000250: 60ba 08be 86ce 66be fd4c 293e 9331 2b3e
00000260: ee38 a43d 1084 96bc 9888 2e3e cc19 933e
00000270: 0b72 68be a71b d4bc 6daa 89be d7a1 64be
00000280: b743 283f 06b4 92be 8d7c 75be 4e9b 8bbe
00000290: 1871 cbbe 0e98 4bbe 75ee 5cbe 3280 1ebf
000002a0: 59c5 14be 4b2c fdbe f426 453d d630 87bd
000002b0: 5e19 d63d 62ca 6e3e 0e73 ab3e 1b1b 8a3c
000002c0: cf6b a43c 692e 72bd d195 53be 187a d7bd
000002d0: c525 55bf b4c7 f83c cae9 a93d 18bc 14be
000002e0: de17 873e df0a 5a3d 5b79 91be 422d febe
000002f0: a214 e3bc 503f c2be 1fbd e33c 8a31 2a3e
00000300: 4068 86be 7ef7 90be ca58 353e 5f72 d9bd
00000310: 1144 fb3d 07df d43c d3ea 4cbe 934e 57be
00000320: 0157 f93d 635e 2ebc 69bf 36be c103 5dbe
00000330: ec77 7c3e b697 b43d 9073 42bf d3ae 42bf
00000340: 8835 f2be 56aa ccbe 92aa 66bf d442 1bbf
00000350: aab4 ecbe be89 37bf ad6c 73be f9cc 26be
00000360: e63c 9a3c 6b0c 283d a19d 8a3d a5cb c6be
00000370: 21b9 31bf dfe4 00be 6884 d23d dcbf 673e
00000380: fb92 863e 3ca8 06be ad97 44bf 689f 09bf
00000390: 68e0 3dbf 3354 abbe 9184 c3bf e16f e8be
000003a0: e08d 20be 056c ddbd 43f9 bcbd 9877 17be
000003b0: 7f6c f6be ca78 febc afd6 cdbe 02e2 8fbe
000003c0: 8545 86bf 76a5 d63e 268d d9bd c1d7 03be
000003d0: 11d0 b0be 44fe 24be 399b bbbe 0100 a7be
000003e0: 815a a5be 6931 22be a942 90bf 5e2f 89be
000003f0: 14b9 55bd 4ae6 fb3d 76a9 d53c 842b cb3c
0.0057647303 0.29299474 0.22197157 -0.102723144 0.10076351 0.09443817 -0.14928766 -0.09884863
-0.011029943 0.06973205 0.9006046 -0.013645604 -0.07181377 -0.36647916 -0.3261978 -0.45760506
-0.44418362 -0.02785645 -0.21521933 -0.46112534 -0.47760352 -0.13937987 -0.38876536 -0.20746665
-0.18582653 -0.301266 0.2505899 -0.17046769 0.13329476 -0.07207719 -0.69748163 0.9015492
0.7782941 0.96861905 1.3270319 1.6783494 0.1758355 0.25901148 -0.020357352 -0.016171012
0.41370767 0.34666646 0.33140057 0.24280396 0.22172107 -0.08590447 -0.3620556 -0.5785359
-0.809143 -0.397448 0.34850556 -0.36366317 -0.33520895 -0.15740749 -0.33269197 -0.49323365
0.33058944 -0.028627438 -0.0952853 0.09756218 -0.43480882 -0.29545534 -0.48877946 -0.44867027
-0.2332368 -0.4510263 -0.7055473 -0.617516 -0.2914477 -0.4206373 0.47450092 0.063753806
0.02576728 -0.07615191 0.41890153 -0.031622447 0.10782977 0.08937268 -0.10005782 0.11473828
0.24392156 -0.11086481 -0.13509144 0.11359494 0.061218135 -0.14926746 -0.00085918413 0.2082993
0.1956275 0.106912956 -0.19519797 -0.01880828 0.3122473 0.16467212 0.05779241 0.0065037548
-0.21385634 0.054967884 -0.019177785 -0.019000407 1.8873303 0.9049201 -0.44582826 0.05366017
-0.24313432 -0.7540041 -0.6634671 -0.79197186 -0.41536018 -0.5985731 -0.35826966 0.22642371
-0.48692536 0.055615257 -0.40331006 -0.24294801 0.1705782 0.11651033 0.11452233 -0.07014316
0.017898915 -0.2545664 0.26634678 0.26816216 0.33759165 -0.1032129 0.019195532 0.025146423
0.22238986 0.06023325 0.1262449 0.4703146 0.36535338 0.43983096 0.42758572 0.48456603
0.2969554 -0.09126163 -0.12074171 0.17942718 -0.34819755 0.060585298 -0.06514036 -0.02816388
-0.36508343 0.044530697 -0.30861765 -0.13004752 -0.13352346 -0.2253972 0.16533275 0.1671813
0.08018671 -0.01837352 0.17044294 0.2873062 -0.22699754 -0.025892092 -0.26887837 -0.22327362
0.65728325 -0.28652972 -0.23973294 -0.27266926 -0.3973472 -0.19882223 -0.21575339 -0.6191436
-0.14528407 -0.49447855 0.04813285 -0.066011116 0.10454057 0.2331939 0.33486217 0.016858628
0.020070938 -0.05912629 -0.20662619 -0.105213344 -0.83260757 0.030368663 0.08296545 -0.14524877
0.26385397 0.053233024 -0.284129 -0.49643904 -0.0277198 -0.3793893 0.02780014 0.1662046
-0.2625141 -0.28313822 0.17709652 -0.10617518 0.12268842 0.025985254 -0.20011453 -0.21026067
0.12174798 -0.010642621 -0.17846455 -0.21583463 0.24655122 0.08817999 -0.75957584 -0.7604801
-0.47306466 -0.39973706 -0.9010402 -0.60648847 -0.46231586 -0.7169455 -0.23771925 -0.16289128
0.018827867 0.041027468 0.067683466 -0.38827243 -0.6942311 -0.12587307 0.10279161 0.22631782
0.26284012 -0.13150114 -0.7679394 -0.5375886 -0.7417054 -0.33462676 -1.5274831 -0.45397857
-0.15679121 -0.10811619 -0.092272304 -0.14791715 -0.4812965 -0.031063456 -0.40202853 -0.28102118
-1.0489966 0.41923112 -0.10622625 -0.12875272 -0.34533742 -0.1611262 -0.36641863 -0.3261719
-0.32295612 -0.15839161 -1.1270343 -0.2679395 -0.052178457 0.122997835 0.026081782 0.024801023

embedder.emb_rnn.weight_hh_l0 f4 [60, 20]
00000000: aa50 d23e 2848 d03c a16a 69bd 9662 21be
00000010: a022 ddba a8a4 b7bd b785 92bb 8392 603e
00000020: 9dd2 153e c1d6 3ebd e309 afbe 3765 ae3c
00000030: f223 183d 2f77 cf3d 34cf b73d b1dd 86be
00000040: 0b0e 6ebe ac6b 01bd f424 1a3e e74d 05be
00000050: f6a1 44bf b041 0a3e e35c 1a3c cfbd 97be
00000060: 6e75 f03e bc37 383c b456 073e 98d0 cf3d
00000070: 3250 b9be 96eb b43d 2cf5 8f3e c226 c4be
00000080: 249b 80be c0c6 a6bd 48ce 1e3e b3ea 28bd
00000090: 18a4 afbd 85a6 96bd 1df8 6e3e 44c7 7b3e
000000a0: 7125 c63d b163 e13d 2a82 de3d 16a1 10be
000000b0: 9866 953e f37b 38bc c97a 663e 6fcf 3a3d
000000c0: cf1b 723d 885a 81be a23c 7ebd dc1a 193e
000000d0: 301c 883c 63a2 543e 6c0c f23d 5d4b 353e
000000e0: 7223 5a3e 932c 353d efbb 85bc 22c3 08be
000000f0: 45a1 81bd d99b 813c 9f03 8fbe 6630 3a3e
00000100: dec3 bf3d ddc8 50be d837 27be fcab bc3c
00000110: a051 d8be 8633 e1bd e1b8 0dbe 5f5b 00bf
00000120: 72d2 413d cd8c 853e 0552 4d3d 240c 9ebe
00000130: aa5d 79be aad9 afbd 2b47 183e 3c5b 22be
00000140: c7dd 0fbe 8cf5 5abe 4ee1 aa3c fbb7 00bc
00000150: b9fe a5bc 8cf9 5fbe 4e83 bb3c 6bda bfbe
00000160: 0fce 633d ca9a 9fbe 5100 a3be 7eb7 91bd
00000170: c3bd 39be 9ea6 623c 3109 07be 190c bcbc
00000180: e1eb 3cbe b9b8 debd 4b4a 80be 66a9 5e3e
00000190: f40b a63e 1fbb dbbd c340 553e 86cc e73d
000001a0: 60fa 80be 4e1a 71bc fa46 d03d 244a 6c3e
000001b0: 16bf 8b3e bf3f ccbd 387f b7bd 1786 bcbd
000001c0: 6e39 ff3d 276e d2bd 5825 bcbd fb25 973e
000001d0: b451 c5bd aeb4 153e 3d91 9c3e f2d3 c33c
000001e0: f03f a03e 1f6e 14be c980 0e3b bf14 543e
000001f0: d239 923d 0a98 603e a708 8dbe c4d3 a4be
00000200: f6ac a23a 1e9c d83d 84a0 8a3e 9d54 cabd
00000210: 4c28 77be 35e9 b93e 6557 ad3e 8464 5dbe
00000220: 1d87 17be bff0 423e b760 0bbe a4ea 343d
00000230: a40a 263d 8d8c 823e 9794 bfbd f867 80bb
00000240: 34a3 8dbd 40ea a3bd 25da 3b3e d4fe 6e3e
00000250: 6d09 a83e 3e5d 4f3d 797b f03c 06c8 1c3e
00000260: 5b3d 6dbe da8b 2a3e 56c4 8b3d 8edf 42be
00000270: e66b 3c3e e5c2 8fbe 7b03 82bd 47c0 013e
00000280: 1c28 02be d3f0 bdbe 2c5e 8dbe 6d5b a0be
00000290: 7096 963e 03ed aebe 4aaa 85be 7761 143d
000002a0: 7ac2 6cbe a7bf 14bf b645 9ebe 5527 91be
000002b0: d26a 133e b03b 23be 48e7 bc3e e531 49be
000002c0: 08b3 723d a642 e4be 3182 743e 24b9 c23c
000002d0: b0b7 2fbf 442a 7d3e de18 e7bd db70 7fbe
000002e0: 1c8d 86bd 8fa9 acbe 57a7 e3bd 1c06 563e
000002f0: d6ea b7bf 3cc5 dfbe 3e39 213e 389b 273e
00000300: a085 d8be ab24 9bbd e086 29be 0f26 1fbe
00000310: 3b15 8cbe 6fa1 94be fa6f c53e 3cac 0abe
00000320: ff6f 24be 48da 78bd f735 7cbd 366a 6fbe
00000330: a84e b5be 122c dc3d b76b 20bf a64f 8ebe
00000340: a762 6dbe 1804 083f b4d3 ee3d c655 3c3e
00000350: de03 763d e53e c23e 7cc2 89be 17c7 a23c
00000360: 9a5c ca3d 7a45 81bc 9cc6 b7bd 9456 fcbc
00000370: 763c a23e 1c1e d8bd ab3f dc3d 3182 37be
00000380: afc4 293e 3c36 25be be40 9d3e 3e9d 09be
00000390: f9e0 033f 5aac 693b 2cca 8e3d b4ce f93d
000003a0: a1c4 c0bc 7c73 bc3d 7764 c43e 299b afbd
000003b0: 6705 963e 4161 3b3e 7a73 633e 76d0 1f3e
000003c0: b3fc fe3d 8bc3 43be 8095 933d 2c51 b73d
000003d0: b108 61bd 565b 0fbd 1379 1fbe 791c fbbd
000003e0: 89b6 46be 2964 903e a4e4 d3bd e56d 6dbd
000003f0: 1936 833e 9bac 833e d38e 6a3c 1ff4 c4be
0.41077167 0.025425032 -0.056986455 -0.15760264 -0.0016871281 -0.089669526 -0.0044715065 0.2193089
0.14631124 -0.046591524 -0.3418723 0.021288497 0.037143655 0.10130154 0.08975068 -0.26341012
-0.23247544 -0.031596825 0.15053159 -0.13017999 -0.7680963 0.1350162 0.00942156 -0.29637
0.46964592 0.011243757 0.13216668 0.10147208 -0.36193997 0.08833997 0.2811674 -0.3831082
-0.25118363 -0.08143377 0.15508378 -0.04123945 -0.0857622 -0.0735598 0.23336835 0.24587733
0.0967511 0.11005343 0.108646706 -0.1412395 0.29179835 -0.011260021 0.22507776 0.04560798
0.05910855 -0.25264382 -0.062069543 0.14951652 0.016615003 0.2076507 0.118187755 0.1770453
0.21302584 0.044231962 -0.016324965 -0.13355687 -0.06329588 0.015821384 -0.2793245 0.18182525
0.093635306 -0.20389123 -0.16329896 0.023031227 -0.42249775 -0.109961554 -0.13840057 -0.5013942
0.047319837 0.26083985 0.050127048 -0.30868638 -0.24352136 -0.08586438 0.14870898 -0.15855116
-0.14049445 -0.21382731 0.020859387 -0.007856364 -0.020263063 -0.21872538 0.02288976 -0.37471327
0.055616435 -0.31172782 -0.3183618 -0.071150765 -0.18138795 0.01383367 -0.131871 -0.022954987
-0.18449356 -0.10875077 -0.2505668 0.21744308 0.32430995 -0.1072905 0.20825486 0.113183066
-0.2519102 -0.014715744 0.10169788 0.23075157 0.27294225 -0.09973096 -0.08959812 -0.09205263
0.12462126 -0.10274916 -0.0918681 0.29521164 -0.09634724 0.14619705 0.30579558 0.023904774
0.3129878 -0.14495133 0.0021744242 0.20711039 0.071399346 0.21932998 -0.27545664 -0.32192814
0.0012411166 0.10576652 0.2707559 -0.0987942 -0.24136466 0.36310735 0.3385574 -0.21620375
-0.14797635 0.1903715 -0.13611113 0.044169083 0.04053749 0.25497857 -0.09354513 -0.003918644
-0.06915894 -0.08003664 0.18344934 0.23339397 0.3281969 0.050626032 0.029355751 0.15310678
-0.23167937 0.16654912 0.068245575 -0.19030592 0.18400535 -0.2807838 -0.0634832 0.12671004
-0.12710613 -0.37097797 -0.2761091 -0.31319752 0.2941165 -0.341652 -0.26106483 0.036225762
-0.23121062 -0.5810494 -0.3091256 -0.2835032 0.14396217 -0.15940738 0.36895204 -0.1964794
0.05925277 -0.445821 0.23877789 0.023769923 -0.6863966 0.24723154 -0.1128404 -0.24945395
-0.06569883 -0.33723113 -0.11115902 0.20900768 -1.4368541 -0.43705165 0.15744492 0.16367805
-0.42289448 -0.07575353 -0.16555357 -0.15541862 -0.27359948 -0.29029414 0.38561994 -0.13542265
-0.16058348 -0.060755044 -0.061574902 -0.2338036 -0.35411572 0.10750593 -0.6266436 -0.27795142
-0.23182164 0.53131247 0.11661473 0.18392095 0.06006228 0.3793861 -0.26906192 0.019870324
0.098809436 -0.0157802 -0.089734286 -0.030803002 0.31686753 -0.10552618 0.10754331 -0.17920758
0.16578935 -0.1613397 0.30713457 -0.1343889 0.51515156 0.0035655708 0.06972155 0.121976286
-0.02353126 0.092017144 0.383579 -0.08574516 0.29300997 0.18298818 0.2221202 0.15606865
0.12450542 -0.19117562 0.07206249 0.08951029 -0.05493993 -0.034999214 -0.1557353 -0.1226129
-0.19405569 0.28201416 -0.10346344 -0.05796613 0.2562721 0.25717625 0.0143162785 -0.384675

embedder.emb_rnn.bias_ih_l0 f4 [60]
00000000: 6578 543f e6d3 743f ba43 7f3f 121f 833f
00000010: 1b94 6e3f f3ef 833f 1569 843f ab71 853f
00000020: f6b8 593f a6c8 7b3f 0543 753f 76ea 883f
00000030: e7e4 623f 8895 843f 58a7 8b3f 4119 7a3f
00000040: 49f7 863f 184e 8e3f 1f03 7e3f 01b8 8b3f
00000050: 7242 fb3e 7cc7 393f 0408 3b3f 0938 f43e
00000060: 000e 193f 6922 2b3f 8c83 d53e 013a 223f
00000070: 6786 5c3f 438d 213f a302 08bf cb15 2d3f
00000080: 09be 823f 1e5b ff3e 8c5b 7b3f 2a45 573f
00000090: 1845 2c3f 884a 683f 78c4 0f3e 7b90 673f
000000a0: 77c8 893f 54db 7d3f 38db 843f 53d3 193f
000000b0: 60a7 3f3f 33e7 843f c858 633f 8f19 863f
000000c0: 81db 873f 759d 803f 1245 5c3e 07f9 733f
000000d0: b9ea 7a3f 78b1 503f eb7b 663f 1ad6 313f
000000e0: 1c5d 843f f514 8f3f 9b5c 6e3f 0162 8b3f
0.8299621 0.9563583 0.9971272 1.0243857 0.9319474 1.0307602 1.0344568 1.0425314
0.85047853 0.9835304 0.9580539 1.0696552 0.8863053 1.0358133 1.0910444 0.97694784
1.0544215 1.1117582 0.9922351 1.0915529 0.4907413 0.72570014 0.73059106 0.47699
0.5978699 0.6684938 0.41701925 0.63369757 0.8614258 0.63106173 -0.53129023 0.6761138
1.0214244 0.49874204 0.98186564 0.8408991 0.6729293 0.90738726 0.1403979 0.90454835
1.0764302 0.99162793 1.03794 0.6008808 0.7486477 1.0383056 0.88807344 1.047655
1.0613862 1.0048052 0.21510723 0.9530186 0.9801441 0.81520796 0.90032834 0.6946732
1.0340915 1.117827 0.93110055 1.0889283

embedder.emb_rnn.bias_hh_l0 f4 [60]
00000000: 131e 2ebe 28c0 32bd e55f 3cbb adc4 c73c
00000010: ff5d 8bbd b100 fc3c 3f21 0d3d 8543 2e3d
00000020: 5a1c 19be 56eb 86bc 4dce 2bbd d8a6 8e3d
00000030: bed8 e8bd d6af 123d 5a77 ba3d 5ae7 bcbc
00000040: 7be1 5e3d 3be1 e43d 6880 febb ff82 bb3d
00000050: b05e 02bf ea70 8cbe 7df0 89be e1e3 05bf
00000060: e0e3 cdbe d8bb a9be 503e 15bf be8b bbbe
00000070: 75e6 0dbe 57e5 bcbe 9001 c4bf 9ed4 a5be
00000080: ef7e af3c 8252 00bf 6a86 94bc 66ec 22be
00000090: 8c75 a7be bfaa bdbd 6f0e 5cbf 267d c3bd
000000a0: e80e 9d3d 675c 1e3d 6384 973d fdbb 08bf
000000b0: 1ad6 9abe 831a ae3d 8c8c 1fbe ccf9 3f3d
000000c0: 9730 113d 2725 e73c 3a56 4cbf 3c9d 7abd
000000d0: d387 6cbd 474d 37be 610e edbd b7c1 81be
000000e0: 2c2e df3e 4a0e fc3d 3d36 a9bd d668 b23d
-0.1700366 -0.043640286 -0.002874368 0.024385775 -0.06805038 0.030762048 0.034455534 0.04254486
-0.14952222 -0.016469639 -0.04194479 0.06965417 -0.11369465 0.03581222 0.09104796 -0.023059536
0.054414254 0.11175772 -0.007766772 0.09155845 -0.5092573 -0.27429897 -0.2694129 -0.5230084
-0.40212917 -0.33151126 -0.58298206 -0.36630052 -0.13857444 -0.36893722 -1.5312977 -0.32388777
0.021422831 -0.50125897 -0.0181305 -0.15910491 -0.3270687 -0.09261083 -0.85959524 -0.095453545
0.07668859 0.03866234 0.07398298 -0.5341185 -0.30241472 0.085011505 -0.15580958 0.046869084
0.03544673 0.028215958 -0.7981907 -0.061185107 -0.05774672 -0.17900573 -0.11575008 -0.25343105
0.43589914 0.12307413 -0.08262298 0.08711402

embedder.emb_rnn.weight_ih_l1 f4 [60, 20]
00000000: 0cc8 473e 66d7 b93d eb27 aebc 94e5 233d
00000010: 26ce 10be ca42 85bd 6ba8 093e 52d6 4abd
00000020: ae29 6f3e 3cea 4a3e e35b a1bd 3551 883e
00000030: feff 3bbd a7a4 da3d df6d cc3c 7277 f1bd
00000040: 050b 813d 73b4 f03d 89c3 64be dd83 8b3e
00000050: c769 2ebf 1585 17be 05bf de3d 8a4e 53be
00000060: b57f f13d 2505 153c 994c 12be 41d4 dfbc
00000070: 920f 663d 899a 12bf ca56 20bd b402 263e
00000080: 730a 35bd edc5 6c3e a227 6bbe 23fa 4cbe
00000090: 0e81 5ebe 6e8d 7bbe fd58 e8bc 8caa 53be
000000a0: 1102 813c 33c8 2c3e 075e b63c 1d51 4fbe
000000b0: 3856 64be a69a 453e ee85 acbd 88f5 2b3e
000000c0: 8ed3 ad3e 41e7 9abd 703f 1abe 1608 a4bc
000000d0: 6bba c53b 54f5 983e f058 463e 1ace 0b3e
000000e0: 89cc 7ebe 33e4 80bd 1394 aebd e4a4 413d
000000f0: 261d 1a3f 4ea5 ac3d 4a84 0ebe 4fd8 0abd
00000100: fd79 d2be 7bc8 fabd c9f5 633d a9d1 72bc
00000110: 6445 143f 03b3 38be 38e7 bd3c 8702 2fbd
00000120: ae27 243f 26e9 133e 21b7 a4bd ef31 693d
00000130: 6658 80be 4733 bdbc 5a32 82be 392b fbbc
00000140: 60a9 4f3e 4b1c c13d 1565 acbd bf9d 34bd
00000150: 9af9 0f3e 6238 c9bc f46a 48be b513 98bd
00000160: c033 883c 12c7 05bf 0d94 e73d 66f3 a13e
00000170: fb73 3fbe 5735 c43e cff4 b3bd a97e 2abd
00000180: 185d 2cbe aacd 393e 8f4e 9fbe 14fd 1a3e
00000190: d384 a53d 6459 443e 5d10 853d 6ba3 393e
000001a0: 3740 7abe 0b4a 66be db56 9f3e 1253 17be
000001b0: fb1b 7abe 80b3 353e 8ae3 963e 37da 29be
000001c0: cbf6 b9be 19ce 07be d75e d53e 73ff 6b3e
000001d0: 54e1 c93d 2f86 153e f4a8 d63d 2afc 0ebd
000001e0: 247d 473e 7e7e 72be 0794 8fbe 94b2 1dbe
000001f0: 8c6a afbe 24a0 113e df5e 18be d679 ffbd
00000200: 8758 8fbe c9dd edbd 8696 4f3e 3b88 40bd
00000210: e30f 00bf a218 973d 019a 60b9 83aa 203e
00000220: 93ea 313e ae88 ea3d 1db8 903e 8d93 cebd
00000230: 3cfd 23be 6494 fd3d 8314 24be a7df bf3d
00000240: e83a 7cbe 0315 a7be 0621 1a3e ba49 233d
00000250: a003 98bd bceb 8fbe 1547 6abe 3996 bc3d
00000260: b1a6 c83e f1a7 e53c 05d4 bdbe 9854 35be
00000270: 21b3 003e b720 babd 0554 9cbd a4a8 a4bc
00000280: aaad 153f eb30 a73e 14ba 5b3d 262b 343e
00000290: fa9e e03d aa84 803d 7228 4cbe 592d 423e
000002a0: 0445 cfbd f873 9a3d 03bd 10be cc6c 993d
000002b0: c4e7 a83d 2a23 8f3e 69c2 5d3e 0c0c 8c3c
000002c0: 0c05 8d3e 2da9 153e c124 89be 84af 703e
000002d0: 97ee 0cbf 16d9 283e 24a0 65be 43fc ebbd
000002e0: a678 3d3e 9c2f 6ebe fd32 243e 3263 ae3d
000002f0: d7d0 c4be ad84 993d cd23 b9be 443f 383e
00000300: a0cb c83c 1d46 1cbf 11a6 743b 7401 743e
00000310: 27a2 48bd f789 e1bd 90f5 02be 306c 10be
00000320: b0a3 b03e 8a21 14bd d6da 22be 6d70 8d3e
00000330: 1dc5 e83e 644c e43a 2a3c 903e 6615 20be
00000340: db0b 973d fe5d a5be bf14 e8be 57eb 543e
00000350: 502f b6be e45e b6bd 6537 d33e e312 853c
00000360: ceed 083b 5d53 283d f8f0 f03d d7bc fabd
00000370: 4d88 493e 9c7c dd3c 710c 6bbe 28ba 1e3e
00000380: 012a 013a 4e55 e33d cc03 a8bd d526 183e
00000390: e121 013f d8a2 90be 2da1 df3e 7fa3 c53e
000003a0: d648 3ebf 6437 1a3e 8de0 11be f08f b53d
000003b0: acfa 6abe 5800 ce3d ba42 8d3f 27cc ef3d
000003c0: 2999 3a3e c104 54bd 51c1 a03e 16f2 59bd
000003d0: a83f 85bc d21b 5b3e 0af9 0b3e b821 7d3d
000003e0: 3227 893d c2dc a6bd 94ef 39bd 7d37 813e
000003f0: 5339 b5bd 5303 48be 049a 2bbd 2c5e 17be
0.19509906 0.09074287 -0.021259269 0.040013865 -0.1414114 -0.0650688 0.13443153 -0.049520798
0.23355743 0.19815916 -0.07878854 0.26624456 -0.04589843 0.10675936 0.024954734 -0.117903605
0.0630093 0.11753168 -0.22340216 0.2724904 -0.68130153 -0.1479686 0.10876278 -0.20635429
0.11791936 0.009095465 -0.14287032 -0.02732289 0.056167193 -0.5726705 -0.03914527 0.16211969
-0.04419942 0.23122378 -0.22964337 -0.20017295 -0.21728918 -0.2456567 -0.028362745 -0.20670527
0.015748056 0.16873245 0.022261633 -0.20245786 -0.22298515 0.19297275 -0.084239826 0.16792881
0.33950466 -0.075636394 -0.15063262 -0.020023387 0.0060341856 0.2987467 0.19369864 0.1365284
-0.24882711 -0.062935255 -0.08524337 0.047276393 0.60200727 0.08429967 -0.13917652 -0.033897694
-0.41108695 -0.1224527 0.05565432 -0.014820495 0.5791838 -0.18037038 0.023181543 -0.04272702
0.64123046 0.14444408 -0.080427416 0.056932386 -0.25067443 -0.02309574 -0.2542904 -0.030660259
0.20279455 0.094292246 -0.08417717 -0.04409575 0.14060059 -0.024563018 -0.1957205 -0.07425634
0.016626239 -0.5225688 0.11307535 0.3163101 -0.18696587 0.38321945 -0.08786928 -0.0416247
-0.16832387 0.18144861 -0.31114623 0.15135604 0.08081975 0.19174725 0.06497262 0.18128745
-0.24438559 -0.22489183 0.31120953 -0.14777783 -0.24424736 0.17744255 0.29470474 -0.16587149
-0.363211 -0.13262214 0.4167392 0.23046665 0.09857431 0.14601968 0.10481444 -0.03490845
0.19481331 -0.23681065 -0.28042623 -0.15400153 -0.34260976 0.14221245 -0.1487994 -0.1247441
-0.27997229 -0.11614568 0.20272264 -0.04700492 -0.5002424 0.07377745 -0.00021419676 0.15690045
0.17374639 0.11451851 0.28265467 -0.10086737 -0.1601457 0.12381819 -0.1602345 0.0936883
-0.24631846 -0.32633218 0.1505166 0.039865233 -0.074225664 -0.2810954 -0.22878678 0.0920834
0.39189675 0.028034182 -0.3707582 -0.17708051 0.12568332 -0.09088271 -0.07633213 -0.020099945
0.58468115 0.3265451 0.053644255 0.17594585 0.109678224 0.06275304 -0.19937304 0.18962611
-0.101205856 0.075416505 -0.14134602 0.074914545 0.08247331 0.27956516 0.21656193 0.017095588
0.27542913 0.14615317 -0.26785854 0.23504454 -0.5505156 0.16489062 -0.2242437 -0.115227245
0.18503055 -0.23260349 0.16035075 0.08515014 -0.38440582 0.07496009 -0.36160126 0.17992884
0.024511158 -0.61044484 0.0037330429 0.2382868 -0.048982766 -0.11012643 -0.12788987 -0.1410377
0.34499884 -0.036164798 -0.15903792 0.27624837 0.45462885 0.0017417786 0.28170902 -0.15633163
0.07375308 -0.32298273 -0.45328328 0.207929 -0.35582972 -0.08904818 0.412532 0.016244357
0.0020893696 0.041095126 0.11764711 -0.122430496 0.19680901 0.027036957 -0.22953965 0.155007
0.00049272185 0.11100255 -0.08203849 0.14858563 0.5044232 -0.2824924 0.43677655 0.386013
-0.7432989 0.15060192 -0.14245816 0.088653445 -0.22947186 0.10058659 1.1035988 0.11708861
0.18222488 -0.051762346 0.3139749 -0.053209387 -0.016265705 0.21397331 0.1366922 0.061799735
0.06696929 -0.08147575 -0.045394495 0.25237647 -0.08848824 -0.19532518 -0.041894928 -0.14782017

embedder.emb_rnn.weight_hh_l1 f4 [60, 20]
00000000: b80b 07bc ced8 1abe 0ee6 8b3c e435 173e
00000010: d58b 563e 0733 0d3e e69c eabd 30bb 4f3e
00000020: bdf5 783c 4ff6 563d 5403 023e 9433 9a3e
00000030: fcb1 613e 6572 923e 48d0 ca3d e7b4 823e
00000040: e80e 17be 9433 503e 86fe 17be ca63 393e
00000050: cb2a dd3d ffd5 33be a0f1 643e c00b 143e
00000060: 3007 493c d335 f9bd fdbc 19be caf5 a9bd
00000070: 2248 453d 1900 aabe 7e45 133e 85d6 3dbd
00000080: c556 9cbc b242 9d3e 2642 e23d e1e3 8abe
00000090: d944 c1bd f627 eabd 113f ca3d 753f 0e3e
000000a0: d276 1e3e c150 50bd 6bc5 973e 6abd 8dbe
000000b0: 5fb4 9f3d 05aa 0a3e e22b adbd af7c 88bd
000000c0: 76dc c13e 1a1e 153e 451b 693c 0c27 5cbc
000000d0: 0013 7bbe 7f79 193e 4a5f 76be 0216 46be
000000e0: 51ff 1a3e efa0 6e3e 798b 1bbd 8975 1dbd
000000f0: a08f fabb 104c b4be 00da d53e 16cc 1fbc
00000100: 2a03 bb3d 2bb1 a73d 6512 463e 5d26 e0bd
00000110: acbb e03e e97f e93d 0632 f43d 89e0 8cbd
00000120: b7b7 bfbe e4ff 28be fe9a ddbd 6dfa 22bc
00000130: 3603 0a3f c341 8cbd 676c 02be f89b 57be
00000140: e7bd a6bd e812 0dbe edf6 63be c425 51bc
00000150: d3a6 3fbd b944 19be f5d8 64be 82bb 79bd
00000160: c2f6 92bc 6dfc 37be 4875 46bd b8bb 9b3d
00000170: e5ac ac3d bc69 6cbe b77b 133e 36c7 633e
00000180: c087 553d f8f0 48bd 4ac2 73be 3d30 3c3e
00000190: 152c 77be 305f 99bc a80e a93e 9b92 d23d
000001a0: d982 023e 352f 4e3d fe78 ce3d fd61 9dbd
000001b0: a334 18bb 96f7 a0bd 3d84 283e 405c ca3c
000001c0: 09ec 4a3e 889c 8b3c 76d4 86be 237c 063e
000001d0: bc06 91bc ca3c 843e 8201 36be 2047 31bd
000001e0: 15de 8c3d 1f63 cc3d 6594 4b3e 9605 e6be
000001f0: 15f0 183e 6f85 7b3e 040f dbbd 49c3 4f3d
00000200: 2449 423e 4f62 543e 9a2d 4e3e 3a64 a5be
00000210: a786 233e 3061 d43e 45a1 66be 8c1c e53d
00000220: 06b8 e5be d48e 323e bb74 7b3c 1f21 b5be
00000230: db0c 31be 0944 2a3e c4ff cf3b 2f50 29be
00000240: fa06 52bd 404b b13e c9e9 c03e 6a91 043e
00000250: 025a 9bbd a3bf 733d e3df 84be 5af1 173d
00000260: dbcf 873d 6b94 d43e 8f2a 043e 7a5b 6dbe
00000270: 79a7 103e 490f 113d befc 8b3d 1336 a1be
00000280: c1a5 57be 1ae4 cebc 6f30 39be 1d81 5d3c
00000290: fcf8 46be fbdd ccbd 59d9 a6bd 582f 643e
000002a0: 0ed3 43be fb0c f63c 9867 10be 4837 823e
000002b0: 0c2b 333e 0f98 923e bd72 693e 756d c03d
000002c0: b0a6 49be fde4 ddbd 913f 4d3e b562 983e
000002d0: c1d4 b9bc 53ae e0bd 648d cdbd fe1b 673e
000002e0: 0840 033e af26 9fbc 215a 803d ac40 a9be
000002f0: a8bf 883e 13e3 263e 5208 a1be d8fe a53c
00000300: a7bb 593e 8cba 05bd 6935 b8be 7cfe c53c
00000310: 7e7e 4a3e bc36 a3bd 11b6 d33d 7876 1cbe
00000320: cb3b 63be 1220 5ebd 7b46 18bf abb3 33bd
00000330: f312 b23e cad4 933d 58ef 6e3e 7cd3 fabd
00000340: 300f 6a3e 3db0 cbbd 0e12 f0bd fe0f aa3e
00000350: 9078 683e 5d13 6dbd 883f dabe 54f9 1fbe
00000360: f366 2f3b 0565 86be 30e7 443e e412 cfbe
00000370: bcd3 0bbe b49e be3e 7f35 91be 1644 f73d
00000380: 1acf a5be 8060 373e 992e f73d b858 4e3d
00000390: 1061 c03e 2043 1f3e 3ff1 64bd c5dc 9a3e
000003a0: 0f68 e23d b53e a03e dd62 24be 26d8 1d3e
000003b0: 20a5 c6be fcd1 9bbe 6600 5e3d 351f 2ebe
000003c0: 9cb2 44be 7317 123e 036d c9bd 31f9 dd3d
000003d0: 2beb 053f 5272 3c3d f291 30be 84eb c5bd
000003e0: 1cbb eebd 0ac6 94be 10a8 f0bc 6aba 66be
000003f0: 7f0a 673e bbb4 febd 8ab7 35bd 4ebd 8f3e
-0.00824254 -0.15121767 0.017077472 0.14766651 0.20951779 0.13788997 -0.11455707 0.2028625
0.015195307 0.052480992 0.12696582 0.30117476 0.22040552 0.286029 0.09903008 0.25528643
-0.1475178 0.20332175 -0.14843187 0.18104473 0.10799178 -0.17562102 0.22357798 0.14457607
0.01226978 -0.12168469 -0.150135 -0.08298834 0.048164494 -0.332032 0.14381978 -0.04634716
-0.019084344 0.30714947 0.11047773 -0.27126983 -0.0943696 -0.11433403 0.0987531 0.13891394
0.15475014 -0.050858263 0.29642805 -0.27683574 0.07798075 0.1354142 -0.084556356 -0.066644065
0.3786351 0.14562264 0.014227693 -0.013437044 -0.24518967 0.14987753 -0.24059787 -0.19344333
0.15136458 0.23303579 -0.03797481 -0.03844217 -0.007646516 -0.3521428 0.41767883 -0.009753248
0.09131463 0.08188089 0.19342954 -0.10944817 0.43893182 0.1140135 0.11923604 -0.06878764
-0.3744485 -0.16503865 -0.10820578 -0.0099474015 0.5391115 -0.068484806 -0.12736665 -0.21055591
-0.0814169 -0.13776743 -0.22262163 -0.012765352 -0.046789955 -0.14967622 -0.22348388 -0.060969837
-0.017939929 -0.17967387 -0.048451692 0.07604164 0.084314145 -0.2308721 0.14402662 0.22243962
0.052131414 -0.04905793 -0.23804584 0.18377776 -0.2413791 -0.018722147 0.33018994 0.10281869
0.12745227 0.05033799 0.10081671 -0.076847054 -0.0023224733 -0.07859723 0.16456695 0.024702191
0.19816603 0.017042413 -0.2633397 0.13133292 -0.017703407 0.25827628 -0.17774013 -0.04328072
0.06878296 0.09979843 0.19880827 -0.44926137 0.14935334 0.2456262 -0.106962234 0.050723348
0.18973213 0.20740627 0.20134583 -0.3230303 0.15969335 0.41480398 -0.22522457 0.111870855
-0.4486696 0.17437297 0.015347655 -0.35376832 -0.1729006 0.16627516 0.0063476283 -0.16534494
-0.051276185 0.34627724 0.37678364 0.12946096 -0.07585527 0.05950893 -0.25952062 0.037095405
0.06631442 0.41519484 0.1290686 -0.23179427 0.14126386 0.035414968 0.06835316 -0.31486568
-0.21059324 -0.025255252 -0.18084882 0.013519553 -0.19430918 -0.10003277 -0.081469245 0.22283685
-0.1912348 0.030035486 -0.14102018 0.254328 0.1749689 0.28631637 0.22797675 0.09395877
-0.19692492 -0.10834692 0.2004378 0.29762807 -0.022684457 -0.1097075 -0.10036734 0.22569272
0.12817395 -0.019427625 0.06267191 -0.33057153 0.26708722 0.1629756 -0.3145166 0.02026312
0.2126299 -0.032648608 -0.3597825 0.0241692 0.19774815 -0.07969424 0.10337461 -0.15279567
-0.22190778 -0.054229803 -0.59482545 -0.043872517 0.34780082 0.07218321 0.2333349 -0.12247369
0.22857356 -0.09945724 -0.11722194 0.33215326 0.22702241 -0.057879794 -0.42626595 -0.15622455
0.0026764243 -0.26248947 0.19228816 -0.404441 -0.13654989 0.37230456 -0.28361127 0.12073533
-0.32384568 0.17907906 0.12069435 0.050377578 0.37574053 0.1555295 -0.055894133 0.3024656
0.11055004 0.31297842 -0.16053338 0.15414485 -0.38797855 -0.30433643 0.0541996 -0.17004092
-0.19208759 0.14266758 -0.098352455 0.10838545 0.5231196 0.04600746 -0.17243174 -0.09664062
-0.11656782 -0.29057342 -0.029377013 -0.22532049 0.22562598 -0.12436815 -0.04436449 0.28074116

embedder.emb_rnn.bias_ih_l1 f4 [60]
00000000: 19f7 843f 88c3 7a3f 1f00 773f cd6b 5e3f
00000010: 847e 813f 8111 883f 3f51 803f f93f 7a3f
00000020: e17c 903f 3d10 6d3f b8a7 7b3f 77b1 883f
00000030: 0b22 8c3f 0ccc 8b3f f41f 6e3f 9b8c 6b3f
00000040: bb2e 6e3f 6c71 883f 0b38 763f c60e 6c3f
00000050: 1b50 283f 70b5 303e effa 163f e962 94be
00000060: c7d6 023f 3b8b ee3e 55b3 c63d 2232 b13e
00000070: 1010 503f 1199 a43e 0321 013f 645d fe3e
00000080: eeca 433f 502a 053f 4219 323f 1a95 163f
00000090: a783 713d 94d9 303f 0451 6e3f aa6d 613f
000000a0: bdd4 8d3f 9219 6c3f 90ec 713f b695 793f
000000b0: 233f 5e3f 1e89 643f e1b7 573f 4d13 823f
000000c0: e148 603f e01f 5e3f 0f47 713f c4cd 573f
000000d0: becc 833f b964 5a3f d981 7a3f 3327 843f
000000e0: e5b9 713f b6f5 9f3f 13d2 7c3f 5f7e 8c3f
1.0387908 0.97954607 0.9648456 0.8688324 1.0116735 1.0630342 1.0024794 0.97753865
1.128811 0.926029 0.98302794 1.0679158 1.0947889 1.0921645 0.93017507 0.9201142
0.93040055 1.0659614 0.96179265 0.9221004 0.6574723 0.17256713 0.58976644 -0.28981712
0.51108974 0.465906 0.097021736 0.3460856 0.8127451 0.3214803 0.50440997 0.49680626
0.7648152 0.5201769 0.6956979 0.5882126 0.058963444 0.69082 0.9309237 0.8805796
1.1080548 0.9222652 0.9450159 0.97494066 0.8681509 0.89271724 0.8426495 1.016214
0.87611204 0.8676739 0.9424905 0.8429835 1.0296857 0.8530994 0.9785438 1.0324463
0.9442428 1.249686 0.9875805 1.0976065

embedder.emb_rnn.bias_hh_l1 f4 [60]
00000000: 66e7 1e3d f68d a7bc 0afc 0fbd b650 06be
00000010: a23e 3f3c f019 813d 26c4 223b 4d00 b8bc
00000020: d2e8 033e 887e 97bd a505 8bbc ee16 8b3d
00000030: 3221 c23d 43c3 bc3d e300 8fbd 749b a3bd
00000040: 8888 8ebd f014 873d 9b82 1cbd 318b 9fbd
00000050: d85f afbe acd2 53bf db09 d2be c518 a5bf
00000060: 4252 fabe 44ba 08bf d529 67bf b266 27bf
00000070: c1be 3fbe 8ab3 2dbf 44be fdbe a4d1 00bf
00000080: 19d4 70be 5bab f5be 64cd 9bbe 79d5 d2be
00000090: b1e7 70bf 104d 9ebe 2678 8dbd 5b90 f4bd
000000a0: 5e8c cd3d ea06 69bd 074e 36bd 6d8e 413c
000000b0: 4a13 06be cbfa e0bd a35f 0abe 42cf 363d
000000c0: 371d 23be 0784 92be 6323 b8bc 9ed5 26be
000000d0: c67d ea3c cd3d 15be d18f f23d 6038 d33d
000000e0: 0b19 f639 4042 843e 21b5 eabc 2711 7dbe
0.038794897 -0.020453434 -0.035152473 -0.13116726 0.011672648 0.06303775 0.0024836152 -0.02246108
0.12881783 -0.07397181 -0.016970465 0.06791483 0.09478988 0.09216931 -0.06982591 -0.07988635
-0.06959635 0.065957904 -0.038210493 -0.077902205 -0.3425281 -0.82743335 -0.41023144 -1.2898184
-0.48890883 -0.5340922 -0.90298206 -0.65391076 -0.1872511 -0.6785208 -0.49559224 -0.50319886
-0.23518409 -0.47982296 -0.30430138 -0.41178492 -0.94103533 -0.3091817 -0.06907682 -0.11941596
0.100365385 -0.05689136 -0.044508006 0.011813742 -0.13093296 -0.10985335 -0.13513045 0.04463125
-0.15929113 -0.28616354 -0.022477811 -0.16292426 0.028624427 -0.14574356 0.11843837 0.10313487
0.00046939435 0.25831795 -0.028650822 -0.24713574

embedder.emb_rnn.weight_ih_l2 f4 [60, 20]
00000000: 50b8 f8bd c916 933d f163 15be fc5a a83d
00000010: 5ba7 353e 59df 7f3e 2fda 85be 7462 8c3e
00000020: f2a1 90bd 5e75 583d 5c02 833e 49aa 5f3e
00000030: 709f dbbc 808f ffbd f483 3d3e 4021 393e
00000040: 1b36 e23d d1c0 273e 172d e1bc 36c4 cfbc
00000050: ff09 bc3d 85d3 88be e8b9 063f 49dd 7fbe
00000060: ace1 053e 3cd6 253e c3cb 803e 6190 8cbe
00000070: 0ba7 0b3e ddd0 4bbe c3bc 58be dad4 ed3c
00000080: 470d edbd 72d6 7ebc 26f7 d3bc aa65 813e
00000090: 835f ca3e 8642 80bd e3d3 9f3a 65d4 703d
000000a0: 83ea c1bb 7a9e c83e 662f a0bf 15c0 473d
000000b0: 87a1 c4bd 393d 88bd 30cd a53e efd3 7d3e
000000c0: 6edd 163e 1d48 82bd 4fba 593e 3279 133e
000000d0: 8c34 0b3d c9f4 47be e585 723e 5571 5b3e
000000e0: 058d 2cbf af86 09be ae5f 73be 142f 44be
000000f0: 633c 4c3b 7a26 a4be b0a9 41bf 1369 733f
00000100: 6567 02bf cf00 94be a2ce 013e 988d 913e
00000110: 4edf 273e 80ca 9fbe 3400 cdbd 9258 d73c
00000120: 7c63 653e 1cd7 843e abba 5fbe 28f9 273e
00000130: 646d 05bf 3a29 ebbd 8bee 57be f7ec 00bd
00000140: a6e3 983e 6cba c4be a9a7 4bbe f7e3 083e
00000150: b64a a83e 5480 9abe 712a 453e fe5c 2ebe
00000160: fe61 6bbd 54f1 7abd a957 393e be67 ea3d
00000170: 892f 333d c131 bb3c 492c ae3e 704f 543e
00000180: 8c3f 663e ce73 02be 46f2 753e 972f 8fbd
00000190: 057b d4bd c19a 553f cb37 823e ecca 543c
000001a0: 8375 b5be 36fc 983f 12db 273f 1705 283d
000001b0: 3d98 323e ed0e 8c3f ee18 c5be aee2 263f
000001c0: 2968 a4be 1bf8 8cbe 2353 493d 863e 82bd
000001d0: 28f5 233e 7eed 45be bbaf e73e 2ea5 bb3c
000001e0: 894c df3d d978 303f 1b02 d3bd 2411 0bbf
000001f0: a9be d03e 6770 963e fa46 1cbd e57b b2bc
00000200: 5c68 c03e dfcf d43e 001c 95bc 33ba 52bc
00000210: 66b1 c7be 1131 19be 1f31 483d 8970 95be
00000220: 9f6b a1be 2baf 97be db16 45be 0c64 923c
00000230: 7a77 1d3d 481f 2dbc 0b37 c83e 020e bc3e
00000240: 97cc 82bd f606 2f3e 8c98 ddbd 92f1 57be
00000250: 3c2f c0be 4221 5a3d 4a85 e7bd 54e8 60bd
00000260: 6259 6ebe ffc8 9c3d 45fd c73d eea9 92bd
00000270: af93 133f ce01 143e 0a3b 90bd 6c73 94be
00000280: 811a 183d e330 1d3e 92da 293e e7f3 933c
00000290: b0cd 0dbe c237 fb3e 456e 3abe e10f 05bc
000002a0: cb52 6e3e b959 db3b 19f5 34be 0468 ef3d
000002b0: 8498 683b e749 26be 189d 0fbe 3924 e43d
000002c0: 1f27 053f c752 2f3e cb77 4e3e 695b debb
000002d0: b3b8 733d 112d 193f 4052 78be 9b43 a83c
000002e0: a0f9 b6bc d22b 893e e890 393e b280 983e
000002f0: 6919 3e3e 3ad6 4bbd 675f b8bd c71c a4bd
00000300: 93e1 7c3e e8c7 21bd e86e 1d3d 174d 2cbe
00000310: d59a 57be b1e1 17bd 9545 61be 54e0 d3bc
00000320: d699 533e 97da dd3e 2989 c23c c7ba e4be
00000330: 2329 de3d dea4 773d c0ed 5cbe f36d 07bd
00000340: 3b0b 39bd bb61 b63e 5cdf 713d d6c3 0cbe
00000350: 7f86 b63d c82d f4bd aaaf b5be 7807 9fbe
00000360: cc01 49bb 4326 85be 1c11 b83d e574 283e
00000370: 72f4 d6bc 5b24 23bf d97a a23f 1155 b53e
00000380: 1e3b fe3e 0183 bd3e d825 863d 0bb6 e7bd
00000390: 0044 e43e 650c 5a3e 6a2e 1d3e 786e 913e
000003a0: 569d 483e 9e44 363f 742e 54bd 5e12 253d
000003b0: 7a42 a73f 38e1 003e d5ea fbbd e614 98be
000003c0: 3172 2cbe 0281 793e 87c2 9a3c bac2 ebbe
000003d0: c146 c23e caf5 edbc 06b6 9fbe acc5 74be
000003e0: b6c0 433e 90ea 523e 4c95 eb3c ad97 44bd
000003f0: a588 d4bd c4e9 923e c472 01be a404 84be
-0.1214453 0.0718208 -0.14588906 0.08220479 0.17739622 0.24987544 -0.26143023 0.27418864
-0.070621386 0.052846305 0.25587738 0.21842302 -0.026809424 -0.12478542 0.18507367 0.1807909
0.11045476 0.16382147 -0.02748732 -0.025362115 0.09181594 -0.26723877 0.5262742 -0.24986757
0.13074368 0.16195005 0.25155458 -0.27453902 0.1363794 -0.19903894 -0.21165757 0.02903216
-0.11574798 -0.015554057 -0.025874685 0.25272876 0.39525995 -0.06262688 0.0012193884 0.058796305
-0.0059178486 0.39183408 -1.2514465 0.048767168 -0.096011214 -0.06652302 0.32383108 0.24787878
0.14732906 -0.06361411 0.21262477 0.14401701 0.03398566 -0.19526972 0.23683889 0.21429951
-0.6740268 -0.13430284 -0.23766968 -0.19158584 0.0031163923 -0.32060605 -0.7564955 0.95082206
-0.5093902 -0.28906867 0.1267648 0.2842834 0.16393778 -0.31209183 -0.10009804 0.02628735
0.22401232 0.25945365 -0.21848552 0.1640364 -0.5212004 -0.11482473 -0.2108709 -0.031475987
0.29861182 -0.3842348 -0.19888176 0.13368212 0.328695 -0.30176032 0.19254471 -0.17027661
-0.0574665 -0.061265305 0.18099846 0.114455685 0.043746505 0.022850873 0.34018162 0.20733428
0.22485179 -0.12739488 0.24018201 -0.06991499 -0.103750266 0.8343926 0.25433192 0.0129878335
-0.35441217 1.1951969 0.6556865 0.04102048 0.17440887 1.0942055 -0.38495582 0.65189636
-0.32110718 -0.2753304 0.04915155 -0.06359582 0.16011488 -0.19328877 0.4525126 0.022905912
0.1090327 0.689344 -0.10303136 -0.5432303 0.40770462 0.2938263 -0.038153626 -0.021787593
0.3757962 0.41564843 -0.018201828 -0.012861776 -0.39002532 -0.14960124 0.04887497 -0.2918742
-0.3152742 -0.2962583 -0.19247 0.017869972 0.03844402 -0.01056654 0.39104494 0.36729437
-0.06386679 0.17092499 -0.10820112 -0.21088246 -0.37536037 0.053254373 -0.1130472 -0.054909065
-0.23276284 0.076555245 0.09765104 -0.07161318 0.5764722 0.14453813 -0.07042511 -0.2899431
0.03713465 0.1535068 0.16587284 0.018060638 -0.13847995 0.49065977 -0.18206127 -0.008121462
0.2327377 0.0066940454 -0.17671622 0.11689761 0.0035491297 -0.16239129 -0.1402477 0.111397214
0.5201282 0.17121421 0.20162885 -0.0067857993 0.059502315 0.5983439 -0.24250126 0.02054005
-0.022335827 0.26791245 0.18121684 0.29785687 0.1856438 -0.04976485 -0.090025716 -0.08013301
0.24695425 -0.039497286 0.038435847 -0.16826282 -0.21055157 -0.03708047 -0.219992 -0.025863804
0.20664153 0.43330833 0.023747044 -0.4467375 0.1084769 0.060459964 -0.2157507 -0.03306384
-0.045176726 0.35621437 0.059050903 -0.1374658 0.08912372 -0.119227946 -0.35485584 -0.31060386
-0.0030671237 -0.26005754 0.08987638 0.16450842 -0.026239607 -0.6372735 1.269374 0.35416463
0.49654478 0.3701401 0.06550187 -0.11314019 0.4458313 0.2129379 0.15349737 0.28404593
0.19591269 0.7119845 -0.051802114 0.04030072 1.3067162 0.12585914 -0.1230065 -0.29703444
-0.16840436 0.24365619 0.018891586 -0.46047002 0.37944606 -0.029047865 -0.3119356 -0.23903531
0.19116482 0.20597291 0.028757714 -0.04799621 -0.103776254 0.28693974 -0.12641436 -0.2578479

embedder.emb_rnn.weight_hh_l2 f4 [60, 20]
00000000: eccd bbbd 1990 84be 9569 bfbd abf6 1ebe
00000010: 8e85 d73d bbe9 8a3d 8950 153c e1aa cebd
00000020: 2e0f 2fbe 0a89 78be ce7d a63e 07ac 93bd
00000030: 9d9c b2bc 3f72 38be 12f2 95bd c1f5 a03d
00000040: fae9 7b3e 0dff 3c3e 77ca 193d 9edb 683e
00000050: 45bf 543e f0e2 6ebd 0be5 063d 7fe0 c03e
00000060: 70a8 e2bd cb91 973d 0f46 a5be 0b9e 5abc
00000070: 4911 1ebe b852 8abd 1e9f 483d 76d2 853e
00000080: 84bf 60be 1ede 56be fc28 993c 84c5 2d3d
00000090: 43dc 6d3e 499a 283e a95d 01be 7806 863d
000000a0: f0fb 9cbe 1891 06bf d764 d7bd 4d6a 50be
000000b0: 3eca ad3d 1553 57be 9042 1e3f 79a8 3dbe
000000c0: 89e1 bbbd d853 3abd 0392 dfbd 5ba8 0a3e
000000d0: 997b 82bc 47d7 a03e 5476 65be f46b 5abe
000000e0: 7df6 56bc e613 d6bd 830d d6bc e99c bcbd
000000f0: c704 16be 3c1e d6be a011 023f 16f1 193f
00000100: 0950 74be 2b6b 5c3c 4915 cabd 132c ea3e
00000110: e79e 813e 1c84 b03c 151c 78be e79e eb3e
00000120: 9ca5 1c3e fbd9 ee3d e161 da3e 90a9 a53e
00000130: 54ce e23d a2fa a5be e5a8 0bbe bc52 acbd
00000140: db0d 5abd 1c8d 23be 2902 cebc e3e0 cb3d
00000150: a0d6 04be 7f06 1fbf b046 8f3e d2a6 013e
00000160: 1723 1ebd efd6 a2bc 759b f7bd e093 54bd
00000170: 8f58 8f3e 0bfa 62be fd9b 613d bb53 1e3e
00000180: 48fa 3c3e 4d30 b6bd 33dc ca3e 355d d7bd
00000190: bb41 ea3e c950 eabe 8e30 99be b956 393c
000001a0: 2272 903e 845b 9abe 850a 163d 8026 aebe
000001b0: 47a9 fd3c 15b3 d83e 5033 db3d 7fcd 143e
000001c0: cf39 06bf 1c5c 93bd 617b 8b3e 691a c1be
000001d0: 31fc 3fbf cf0a 513d 8cd0 913e e1e0 5dbc
000001e0: 184e 4d3e 5983 33be 0599 033c 403e cc3c
000001f0: b1d9 973e 2653 fe3d a568 42be 5183 bfbe
00000200: 7f3c 9d3e f9c3 67bc 9f14 23be 859c bcbd
00000210: 012e d0be fb86 ea3d 6661 17be 75c6 c8bd
00000220: df50 aa3c 069f af3c a8b9 863e 8cdb c1be
00000230: e6bc 773d 6090 6e3e 93a3 febd cdb9 afbd
00000240: 74ef 6abe 4013 0c3e d102 0fbe 7ee2 66bc
00000250: ccd3 6f3d 0109 6fbe 6444 48be aa89 87bd
00000260: de9d 3b3e 6897 4ebe 7d01 213e 1f93 9a3d
00000270: ca00 723e 7d45 8cbe 1436 d1bd 9385 313e
00000280: 1674 3c3c 8eae 22be 9ad6 96be 4630 18be
00000290: 4a74 fb3d 5876 eebb d889 533f ab7d 21be
000002a0: 492c e0be 2705 cabb d6fa e83c ce8e 04bc
000002b0: d7be 03be 4447 0fbe 285e 4c3e 6907 94bd
000002c0: d13c 04bf 5406 9bbe b9d2 f9bc c601 1bbe
000002d0: 81d8 273e 1670 7cbe 3085 74be fd41 71be
000002e0: 8145 653c cb0d 97be 2fc0 1d3e f074 7ebe
000002f0: 8fe0 8dbd 6df2 5f3e 80af 05bd 79ce c7bd
00000300: b399 2f3e c49f 6a3e a0dc 45be 8898 6e3e
00000310: 99a4 05bf 5925 2a3e 2a45 a23d b729 143d
00000320: 0110 0f3d fef4 debe 4ff0 14be 2792 c83e
00000330: 27ed 97be 7161 ddbd b826 acbd 5b36 39be
00000340: 0608 62bd 0584 933e 9341 60be ee15 863e
00000350: 6b0a c3bd 4ecf 58be 8972 7f3d 706d 3cbe
00000360: 3e36 983c 15eb d5bd f1dc 52bd 54b6 eb3d
00000370: 820b eb3e 7956 9ebe abb4 a7bd 42b8 a5be
00000380: e6cb c53e 6718 c13d ac7d f03d 4081 9cbe
00000390: 176f 2e3e 5e19 843e e8d3 e43c 0876 92bd
000003a0: dcaf 173e 6371 babe 0f4f d1be d4b4 1c3e
000003b0: 5e46 b1bc e47b 583e bd31 82bd c571 bebd
000003c0: 6257 99be 2ccd 093e b367 203e 0953 0bbe
000003d0: b45b 0a3e ebac 73bd a72b 17be 480f d43a
000003e0: 314a 433a bea6 5bbe 50e1 76bd 6dd7 243d
000003f0: 177f 50be f320 2d3e dc7e 633b bd39 b5bc
-0.09170136 -0.25891188 -0.0934631 -0.15523784 0.105235204 0.06782862 0.009113439 -0.10091186
-0.17095634 -0.24271026 0.32517856 -0.07210546 -0.021803195 -0.18012331 -0.07321562 0.07859374
0.24600974 0.18456669 0.0375466 0.22740027 0.20776089 -0.058321893 0.032933276 0.37671277
-0.11067283 0.07400855 -0.32280013 -0.013343344 -0.15436281 -0.067540586 0.04897987 0.2613713
-0.21948057 -0.20983168 0.0186963 0.042424694 0.23228554 0.16465105 -0.12633385 0.065442026
-0.30660963 -0.52565145 -0.105172805 -0.2035305 0.0848584 -0.21027787 0.61820316 -0.18521298
-0.09173877 -0.045490116 -0.109165214 0.13540785 -0.015928077 0.31414244 -0.2240842 -0.21330243
-0.013120291 -0.10453014 -0.02612949 -0.09209616 -0.1465026 -0.41819942 0.50808144 0.6013349
-0.23858656 0.013453285 -0.09867341 0.4573675 0.25316545 0.02154737 -0.24229462 0.4601967
0.1529755 0.1166267 0.426528 0.32355928 0.1107451 -0.3241778 -0.13638647 -0.08414218
-0.05323587 -0.15971798 -0.025147514 0.09955003 -0.12972498 -0.6211929 0.27983618 0.12661293
-0.038607683 -0.019877879 -0.12090198 -0.051898837 0.27997252 -0.22165696 0.055080403 0.15461628
0.1845485 -0.088959314 0.39621124 -0.10515825 0.45753273 -0.4576476 -0.29919857 0.01131218
0.28212076 -0.30147946 0.036631126 -0.34013748 0.030964507 0.4232413 0.107031465 0.14531516
-0.5243196 -0.07195303 0.27242568 -0.37715462 -0.7499419 0.0510357 0.2847942 -0.013542385
0.20049322 -0.17530574 0.008032088 0.024932027 0.29658273 0.12418203 -0.18985231 -0.37404874
0.30710217 -0.014145845 -0.15925835 -0.09209541 -0.40660098 0.11451527 -0.14783248 -0.09803478
0.020790515 0.021438133 0.2631352 -0.37862813 0.060482882 0.23297262 -0.12433543 -0.085803606
-0.22942907 0.13679218 -0.13965918 -0.014092086 0.058551595 -0.23343278 -0.19557339 -0.06618054
0.1832194 -0.20174944 0.15723224 0.07547592 0.23633114 -0.27396765 -0.10215393 0.17336111
0.011502286 -0.158869 -0.29460603 -0.14862165 0.1227804 -0.0072772913 0.8263221 -0.15770595
-0.43783787 -0.006165165 0.02843992 -0.008090688 -0.12865768 -0.1399203 0.19957793 -0.07227976
-0.516553 -0.30278265 -0.030495988 -0.15137395 0.16391183 -0.24652132 -0.23878932 -0.23560329
0.013993622 -0.2950271 0.15405343 -0.24849296 -0.06927597 0.21869822 -0.032638073 -0.097561784
0.17148475 0.22912508 -0.19322443 0.23300374 -0.5220428 0.1661581 0.07923348 0.036172595
0.034927372 -0.4354629 -0.14544795 0.39174005 -0.2967312 -0.10809601 -0.084058225 -0.18087141
-0.055183433 0.2881166 -0.21900015 0.26188606 -0.095234714 -0.2117283 0.06236509 -0.18401122
0.018580552 -0.10445229 -0.051480237 0.11509386 0.45907217 -0.30925348 -0.081887566 -0.3236714
0.38632125 0.094284825 0.1174272 -0.3056736 0.17034565 0.25800604 0.027933076 -0.07151419
0.14813179 -0.36414632 -0.4088063 0.15303355 -0.021639999 0.2114101 -0.06357143 -0.092990436
-0.2994948 0.13457173 0.15664558 -0.13605894 0.13511544 -0.05949108 -0.14762746 0.001617887
0.0007449715 -0.21450326 -0.06027347 0.04024451 -0.20360981 0.169071 0.0034713065 -0.022122258

embedder.emb_rnn.bias_ih_l2 f4 [60]
00000000: 5c3d 8a3f 3b08 7e3f 098c 7c3f 0327 853f
00000010: 6f60 893f 4a49 843f cbd1 5e3f 6d7a 813f
00000020: b1b7 8a3f fb93 863f 631a 703f 345f 843f
00000030: 4b68 7a3f 922f 823f a998 7a3f 2835 753f
00000040: fe58 893f 2abc 8c3f 7e69 753f 34ac 783f
00000050: b74e 9f3e 65eb 693f 9c7a 363f 4879 583f
00000060: a56a 543f 7896 353f f6ee 07be 5a76 243f
00000070: f26d 123f da23 483f 8b4a 603f 8d1a 4cbe
00000080: 0b69 363f c54f 683f eaf2 6c3f f7bd 1b3f
00000090: 66f8 013f 7596 e43e b387 253f 0cc3 2a3f
000000a0: 153e 6a3f 181f 723f 2779 813f c816 433f
000000b0: e2cc 5a3f df64 5e3f c529 803f 6364 7f3f
000000c0: b62e 533f 2c64 6a3f 3298 7d3f 97d6 6b3f
000000d0: 1d00 6d3f 939d 803f 953a 773f 4156 713f
000000e0: 75a8 6e3f 95e6 553f 67f8 6e3f 7baf 823f
1.0799975 0.9923131 0.98651177 1.040253 1.0732554 1.0334866 0.8703887 1.0115486
1.0837308 1.051391 0.9379026 1.0341554 0.9781539 1.0170767 0.9788919 0.95784235
1.0730283 1.0994923 0.95864093 0.9713776 0.31114742 0.9137481 0.7128084 0.8456006
0.82975227 0.7093272 -0.1327475 0.6424309 0.57199013 0.78179705 0.87613744 -0.19932003
0.7125403 0.9074672 0.9255816 0.6083674 0.5076965 0.4464604 0.64660186 0.6670387
0.9150098 0.94578695 1.0115098 0.76206636 0.85468876 0.8687267 1.0012747 0.9976255
0.8249315 0.915591 0.99060357 0.92124313 0.925783 1.0048088 0.96573764 0.9427224
0.93225795 0.83554965 0.9334778 1.0209802

embedder.emb_rnn.bias_hh_l2 f4 [60]
00000000: 26d5 a33d 94ec fbbb 4ffa 5cbc d3e7 243d
00000010: 7208 963d c527 093d 19b9 04be 7128 3d3c
00000020: a776 ab3d 677f 523d 205a 7ebd dee6 0b3d
00000030: d4f8 b2bc 62d5 8b3c 05e6 acbc 0fad 2cbd
00000040: da91 953d fdbf cb3d a467 29bd 6178 eabc
00000050: 9858 30bf e2a5 b0bd 460a 93be d11a 1ebe
00000060: b455 2ebe 2bd3 94be f2fd 90bf 5713 b7be
00000070: cb24 dbbe 4670 5fbe eda9 fdbd 5183 99bf
00000080: 092e 93be 1b81 bdbd 5269 98bd 6984 c8be
00000090: d60e fcbe d5b4 0dbf ddf0 b4be 9879 aabe
000000a0: 754a aebd 7ea1 96bd 259f 393e cf1a 73be
000000b0: fbc8 2ebe 2e1d d5bf b27a a5bd 5e3b 03bd
000000c0: ecb8 31bd 7b04 dbbd ef0f c0bd 3b36 1dbf
000000d0: e895 c9bd d8a4 d63a 73c5 f8bc b628 7bbd
000000e0: f0c0 78bd 1bef 31be 18ff c2bd e199 843c
0.07999639 -0.0076881144 -0.013487413 0.040260147 0.073258296 0.033485193 -0.12961234 0.0115452865
0.083722405 0.05139103 -0.06209767 0.03415572 -0.021847166 0.017069522 -0.021105776 -0.04215723
0.073032096 0.09948728 -0.041358605 -0.028621854 -0.68885183 -0.0862539 -0.28718776 -0.15439917
-0.1702488 -0.29067358 -1.1327498 -0.35756943 -0.42801508 -0.21820173 -0.123859264 -1.19932
-0.2874606 -0.092531405 -0.07441963 -0.3916352 -0.4923007 -0.5535405 -0.35340014 -0.33295894
-0.08510295 -0.07355021 0.18127115 -0.23740695 -0.17068855 -1.664953 -0.08080043 -0.03203904
-0.043389246 -0.10694214 -0.09378039 -0.61410874 -0.098430455 0.0016376032 -0.030367589 -0.06131812
-0.060730875 -0.17376368 -0.095213115 0.016186656
