output/quick_test/model.pt (torch, 153208 bytes, 65 tensors)

embedder.emb_rnn.weight_ih_l0 f4 [60, 10]
0.16970551 0.33910865 0.23621301 -0.09432936 0.11785016 0.14026582 -0.042180542 0.002619924
0.14333236 0.23174982 -0.06929905 0.19811893 0.34069172 0.034443755 0.048552025 -0.14052598
-0.039875045 0.37389418 0.18100414 -0.07048332 0.1394188 -0.040448137 -0.24384774 -0.08669853
-0.07228495 -0.20987831 0.2751654 -0.16360323 0.16555813 -0.04053553 -0.14787872 0.10394318
-0.09774948 0.09136463 0.43588835 0.33945018 0.3713776 0.44914663 0.16896099 0.17461362
0.09610328 0.35802466 0.2368804 0.22358665 0.25301054 0.11672719 0.30505937 0.16530417
-0.14883506 0.27650934 0.45264953 -0.37041286 -0.28618106 -0.1396995 -0.3045349 -0.44535974
0.18692337 -0.19335243 -0.20858902 -0.014298436 0.17065002 -0.0015375856 -0.0061998037 0.039331127
0.2432604 -0.006982545 -0.23945034 -0.1433053 0.17846711 0.044701073 0.17430606 0.091287576
0.030761503 -0.056563195 0.44251263 0.011075933 0.18586797 0.17481193 -0.02278902 0.1939474
0.23011442 -0.070209846 -0.03831362 0.20708106 0.14674623 -0.07885848 -0.066435 0.14066023
0.13644479 0.048641812 -0.078532375 0.12261624 0.26795694 0.17651974 0.08498391 -0.16396351
-0.15894784 0.1471238 -0.012328776 -0.011960447 -0.17993051 -0.44194728 -0.16503756 -0.052303776
-0.22744997 -0.21381393 -0.4871441 -0.36490667 -0.23962997 -0.35488373 0.21832184 0.31766072
-0.22232004 0.28825444 -0.19685876 -0.1178315 0.19482367 0.123180315 0.11692937 -0.07774564
0.16610095 -0.2848481 0.12971129 0.15067784 0.23243745 -0.21197814 0.28297162 0.31245503
0.47111794 0.3159768 -0.560311 0.05251732 -0.007883975 0.06294431 0.04299247 0.09799347
0.23105152 -0.15556975 -0.18497564 0.115747035 -0.12727411 0.2925039 0.19434926 0.22107968
-0.11843457 0.2700886 -0.09899883 0.07259798 0.080592915 -0.011785797 -0.2014884 0.1772124
0.10264772 0.052995667 0.1980572 0.26695514 0.047174484 0.2355165 0.037983622 0.084169604
-0.31060153 -0.22754613 -0.21974766 -0.2567814 -0.36444426 -0.24276006 -0.17500274 -0.5823649
-0.16223548 -0.5233362 -0.39603543 -0.22356409 -0.034129787 0.0975363 0.20230308 -0.11623974
-0.04908842 -0.10808427 -0.29653138 -0.1935291 -0.18147874 0.13104655 0.08153366 -0.12676604
0.298176 0.13500175 0.05922396 -0.13938802 0.33605474 -0.005053964 0.36847463 0.1873674
-0.19647597 -0.20776649 0.25257653 0.025098477 0.28690866 0.19979475 -0.039090686 -0.04848527
-0.131527 -0.39086753 -0.4191472 -0.38237664 0.00053529127 -0.5031153 -0.61665326 -0.6813699
-0.31709385 -0.2700954 0.9036757 0.4153602 0.11474419 -0.13022444 0.4296007 0.5497219
-0.35078934 -0.3465248 -0.27175498 -0.71790487 -0.93478614 0.16489154 -0.18946858 -0.079810984
0.17078087 -0.20849992 -0.7542241 -0.5444272 -0.73707914 -0.3313886 0.9471531 0.16542968
0.08470837 0.1463942 0.18824345 0.0541819 -0.55568314 -0.13777936 -0.42821607 -0.3045464
0.9799254 0.48788098 0.22436984 0.06193264 -0.12819839 0.3460013 -0.49445578 -0.4864989
-0.35951388 -0.18127033 -0.7379814 -0.4233252 -0.6456124 -0.48815343 -0.36927125 -0.30110624
00000000: 48c7 2d3e a69f ad3e d3e1 713e c02f c1bd
00000010: 6d5b f13d d8a1 0f3e 81c5 2cbd 08b3 2b3b
00000020: b8c5 123e d34f 6d3e a9ec 8dbd b0df 4a3e
00000030: 256f ae3e e514 0d3d 7dde 463d 0be6 0fbe
00000040: 0454 23bd 0f6f bf3e 2659 393e 8f59 90bd
00000050: cdc3 0e3e f2ac 25bd 39b3 79be 008f b1bd
00000060: 220a 94bd 57ea 56be 7be2 8c3e 9b87 27be
00000070: 1288 293e 9508 26bd 856d 17be 29e0 d43d
00000080: e130 c8bd 611d bb3d c22c df3e 6acc ad3e
00000090: 3425 be3e 8cf6 e53e 1c04 2d3e eacd 323e
000000a0: ccd1 c43d 024f b73e c790 723e e6f3 643e
000000b0: 998a 813e aa0e ef3d be30 9c3e 7f45 293e
000000c0: 3868 18be a292 8d3e aec1 e73e c1a6 bdbe
000000d0: 5386 92be 630d 0fbe 00ec 9bbe 3106 e4be
000000e0: d768 3f3e 2efe 45be 5c98 55be fd43 6abc
000000f0: e1be 2e3e d088 c9ba b927 cbbb ad19 213d
00000100: 4119 793e d5cd e4bb 7832 75be a0be 12be
00000110: 15c0 363e 7918 373d 4a7d 323e fbf4 ba3d
00000120: 8cff fb3c cfae 67bd 0491 e23e d577 353c
00000130: 2c54 3e3e e601 333e 0ab0 babc 269a 463e
00000140: 1da3 6b3e 2eca 8fbd beee 1cbd 0f0d 543e
00000150: a544 163e 8e80 a1bd 130f 88bd 3c09 103e
00000160: 2fb8 0b3e a33c 473d 95d5 a0bd 391e fb3d
00000170: a731 893e 97c1 343e 0b0c ae3d 0de6 27be
00000180: 39c3 22be 9fa7 163e a2fe 49bc c0f5 43bc
00000190: b43f 38be ea46 e2be 9bff 28be 7c3c 56bd
000001a0: a5e8 68be 0af2 5abe f46a f9be 0cd5 babe
000001b0: 8f61 75be 52b3 b5be c38f 5f3e 6da4 a23e
000001c0: dda7 63be 1696 933e 5895 49be a451 f1bd
000001d0: db7f 473e f645 fc3d aa78 ef3d 1b39 9fbd
000001e0: 5e16 2a3e 9cd7 91be 09d3 043e 4b4b 1a3e
000001f0: 1504 6e3e cc10 59be a8e1 903e 1bfa 9f3e
00000200: 5f36 f13e b6c7 a13e 8b70 0fbf 671c 573d
00000210: ca2b 01bc f2e8 803d df18 303d cdb0 c83d
00000220: c598 6c3e ad4d 1fbe 416a 3dbe c80c ed3d
00000230: 2554 02be 12c3 953e 7e03 473e b662 623e
00000240: d38d f2bd 0e49 8a3e e6bf cabd 40ae 943d
00000250: e60d a53d 3719 41bc fa52 4ebe 2b77 353e
00000260: f838 d23d fc11 593d 82cf 4a3e 58ae 883e
00000270: 083a 413d 3d2b 713e b794 1b3d 1d61 ac3d
00000280: 2a07 9fbe da01 69be 8805 61be da78 83be
00000290: 7098 babe 1896 78be eb33 33be de15 15bf
000002a0: 0f21 26be 5cf9 05bf 28c5 cabe fced 64be
000002b0: adcb 0bbd 1dc1 c73d 8a28 4f3e 1a0f eebd
000002c0: f010 49bd 495b ddbd f6d2 97be 7e2c 46be
000002d0: 90d5 39be 1131 063e 1ffb a63d f5ce 01be
000002e0: 86aa 983e e63d 0a3e d394 723d bcbb 0ebe
000002f0: 5e0f ac3e b99b a5bb b5a8 bc3e 3ddd 3f3e
00000300: ff30 49be bdc0 54be b651 813e 529b cd3c
00000310: b1e5 923e ff96 4c3e 8e1d 20bd 7e98 46bd
00000320: 04af 06be ca1f c8be 769a d6be dfc6 c3be
00000330: ca52 0c3a 2acc 00bf fddc 1dbf 426e 2ebf
00000340: 205a a2be f249 8abe 4a57 673f 18aa d43e
00000350: 00ff ea3d 8e59 05be 9ff4 db3e 93ba 0c3f
00000360: a99a b3be b36b b1be 7823 8bbe 9dc8 37bf
00000370: 254e 6fbf 54d9 283e 0d04 42be f173 a3bd
00000380: 2ee1 2e3e 0181 55be d514 41bf 955f 0bbf
00000390: 38b1 3cbf c4ab a9be a078 723f 6666 293e
000003a0: 957b ad3d 5ce8 153e e4c2 403e d7ed 5d3d
000003b0: 4041 0ebf 0816 0dbe 233f dbbe 81ed 9bbe
000003c0: 64dc 7a3f 89cb f93e 35c1 653e 14ad 7d3d
000003d0: 7046 03be 1527 b13e 4f29 fdbe 6216 f9be
000003e0: 3412 b8be ee9e 39be 59ec 3cbf 15be d8be
000003f0: db46 25bf 3fef f9be 1f11 bdbe 992a 9abe

embedder.emb_rnn.weight_hh_l0 f4 [60, 20]
-0.4456602 0.16584046 -0.00882134 -0.08458611 0.105426766 0.052162934 0.027753843 0.091482535
-0.122584976 -0.2990268 -0.21181352 0.0686571 -0.19887424 0.048225705 -0.034598142 -0.1512579
-0.24559738 0.39328825 0.16709936 -0.05610322 -0.48390412 0.23065722 -0.07184383 -0.2570778
0.28372112 0.004366401 0.18961756 0.24068841 -0.0065463064 -0.12121893 0.27324224 -0.2142661
-0.17583771 0.026301458 0.06695258 -0.017067654 -0.13486691 -0.17515062 -0.07443377 0.27388686
0.4698679 0.08903555 0.31998858 -0.13287951 0.21586579 -0.056439575 0.19839977 0.22280517
-0.0037725773 -0.18136255 -0.0037424308 0.15792525 -0.23679666 0.20077999 -0.21106285 0.22320476
0.20671539 0.30276722 0.06857783 -0.08978093 0.044190284 0.20544615 -0.044243455 0.26411888
-0.029562505 -0.15164204 0.20660274 0.09653025 -0.17357706 0.106127165 0.058065586 -0.09306011
0.30549186 0.18622099 0.29411468 -0.1657934 -0.13490099 0.31377414 0.052990846 0.015469139
-0.34653974 -0.14556694 0.10267569 0.015626648 -0.23066415 -0.35006994 0.14216486 -0.1910177
-0.108313665 -0.09500996 -0.23865111 -0.03614001 -0.1793226 -0.12616129 -0.24563856 0.04162234
-0.1035008 0.05586059 -0.25386944 0.19391747 0.23644398 -0.20055103 0.0966704 0.0084158555
-0.32168916 0.11298665 -0.03309915 0.138169 0.19115219 -0.085239284 -0.2351818 -0.112186864
0.27299199 0.17905955 -0.23724249 0.16239405 -0.20653817 0.07967179 0.17499787 -0.037278954
0.28850883 -0.15142499 0.005206653 0.16718556 -0.048530452 0.013933457 -0.16819891 -0.24098036
0.034486692 0.13986307 0.24497196 -0.102309644 -0.20223808 0.1616906 0.14883903 -0.18194929
-0.14762384 0.06605864 -0.18944634 0.06987063 -0.17014931 0.32290944 -0.10129579 0.06488206
-0.037118413 -0.22413683 0.26891002 0.1776597 0.31920117 0.18509464 0.12893257 0.28312537
-0.12734278 0.08533182 0.03697339 -0.10468666 0.26155785 -0.18796092 0.0040372014 0.23320432
-0.16919023 -0.1535383 -0.019844119 -0.14481997 0.26350778 -0.28394765 -0.15760745 0.16208622
0.048773926 -0.21128902 -0.09302057 -0.054697704 0.13417782 -0.24568528 0.2408159 0.006919849
0.23700537 -0.15894663 0.17647095 0.27852413 -0.41199964 0.23303787 -0.051522855 -0.2639694
-0.112123795 -0.36235934 -0.07439233 0.16578704 -0.13683206 0.055766113 0.14249308 0.08967685
-0.3354138 -0.23538908 -0.2764771 -0.14399625 -0.36542943 -0.028656987 0.00451346 -0.20064142
0.19269878 -0.0061437124 -0.14517103 -0.061632514 -0.08218353 -0.1190647 0.03067475 0.016326455
-0.054003704 0.10388055 0.22902326 0.47577783 -0.2759256 -0.08651608 -0.18916209 0.10035154
0.13353209 -0.18426266 0.02225531 0.07033991 0.18278709 -0.102468304 0.16144253 -0.20781295
0.14865714 -0.15715091 0.23296444 0.042082656 0.28977183 -0.16408849 0.049778357 0.10595529
-0.055774976 0.17145434 0.3136929 -0.10544127 0.2621593 0.3160548 0.21373573 0.1145454
0.21936643 -0.20128295 0.13650699 0.114808604 0.059406962 0.19687077 -0.16685547 -0.14716329
-0.33267623 0.16447638 -0.057218377 0.0021466983 0.20592533 0.15395397 0.048917074 -0.4054702
00000000: 932d e4be 15d2 293e 6287 10bc 7c3b adbd
00000010: fde9 d73d cda8 553d 075c e33c 325b bb3d
00000020: d50d fbbd 0a1a 99be a5e5 58be 189c 8c3d
00000030: b0a5 4bbe 5188 453d c8b6 0dbd 5ae3 1abe
00000040: e17d 7bbe 145d c93e 181c 2b3e 7dcc 65bd
00000050: 48c2 f7be 6831 6c3e dc22 93bd b49f 83be
00000060: e543 913e 0714 8f3b 1b2b 423e 0677 763e
00000070: 6682 d6bb a141 f8bd 68e6 8b3e 9368 5bbe
00000080: cd0e 34be 2876 d73c 6f1e 893d 77d1 8bbc
00000090: 8d1a 0abe af5a 33be bb70 98bd e63a 8c3e
000000a0: 8692 f03e 4558 b63d 8bd5 a33e 9111 08be
000000b0: ec0b 5d3e 2f2d 67bd 4f29 4b3e 0a27 643e
000000c0: 583d 77bb 1bb7 39be 9243 75bb 28b7 213e
000000d0: d37a 72be 4599 4d3e dc20 58be ca8f 643e
000000e0: 33ad 533e 4e04 9b3e 8972 8c3d 10df b7bd
000000f0: df00 353d 7a60 523e a038 35bd 973a 873e
00000100: 112d f2bc 0d48 1bbe ab8f 533e a7b1 c53d
00000110: 2fbe 31be 3359 d93d 2ed6 6d3d 4d96 bebd
00000120: 6e69 9c3e b7b0 3e3e 3396 963e bfc5 29be
00000130: 7c23 0abe 01a7 a03e ee0c 593d 4672 7d3c
00000140: a86d b1be 800f 15be a247 d23d 7503 803c
00000150: 3933 6cbe 5e3c b3be aa93 113e 259a 43be
00000160: 8ed3 ddbd 9594 c2bd f560 74be 8c07 14bd
00000170: 58a0 37be 6d30 01be ad88 7bbe 307c 2a3d
00000180: 3af8 d3bd 13ce 643d 2dfb 81be 4d92 463e
00000190: 5f1e 723e 405d 4dbe 21fb c53d a8e2 093c
000001a0: 71b4 a4be 8b65 e73d f992 07bd 2d7c 0d3e
000001b0: 66bd 433e ef91 aebd 7fd3 70be 3ac2 e5bd
000001c0: 9bc5 8b3e 635b 373e b2ef 72be a04a 263e
000001d0: be7e 53be f72a a33d a432 333e d1b1 18bd
000001e0: 6eb7 933e 270f 1bbe 929c aa3b b132 2b3e
000001f0: dec7 46bd 2849 643c 563c 2cbe 8ec3 76be
00000200: eb41 0d3d 4438 0f3e eed9 7a3e b887 d1bd
00000210: 8017 4fbe 3892 253e 4269 183e ea50 3abe
00000220: b42a 17be c149 873d 39fe 41be 5518 8f3d
00000230: 9f3b 2ebe 6354 a53e 2b74 cfbd e3e0 843d
00000240: 7a09 18bd 2084 65be 93ae 893e 6dec 353e
00000250: 566e a33e 7389 3d3e e606 043e cff5 903e
00000260: 2566 02be 73c2 ae3d 6971 173d f665 d6bd
00000270: e9ea 853e d478 40be 804a 843b 1dcd 6e3e
00000280: 3440 2dbe 2539 1dbe 2290 a2bc b04b 14be
00000290: 7eea 863e 9661 91be d963 21be eef9 253e
000002a0: 2bc7 473d 265c 58be 9281 bebd b30a 60bd
000002b0: e965 093e ec94 7bbe 7198 763e e7bf e23b
000002c0: 89b1 723e e8c2 22be cdb4 343e b79a 8e3e
000002d0: 9ef1 d2be 7ba1 6e3e a109 53bd ff26 87be
000002e0: 29a1 e5bd 2a87 b9be 025b 98bd 14c4 293e
000002f0: b41d 0cbe 026b 643d b5e9 113e 7fa8 b73d
00000300: 5cbb abbe d609 71be 688e 8dbe c173 13be
00000310: 9119 bbbe 0fc2 eabc a6e5 933b f274 4dbe
00000320: d452 453e 3251 c9bb b7a7 14be 6072 7cbd
00000330: d74f a8bd 32d8 f3bd 9d49 fb3c 0fbf 853c
00000340: fd32 5dbd 53bf d43d 1385 6a3e 2799 f33e
00000350: 1f46 8dbe 582f b1bd b5b3 41be 1c85 cd3d
00000360: a3bc 083e 5aaf 3cbe c550 b63c 5f0e 903d
00000370: 8a2c 3b3e e7da d1bd 3151 253e ebcc 54be
00000380: 9439 183e 2bec 20be 3b8e 6e3e dd5e 2c3d
00000390: f95c 943e d006 28be 64e4 4b3d 16ff d83d
000003a0: 4d74 64bd ba91 2f3e 5b9c a03e 98f1 d7bd
000003b0: be39 863e efd1 a13e 8add 5a3e c796 ea3d
000003c0: 98a1 603e 1e1d 4ebe 7dc8 0b3e c620 eb3d
000003d0: b754 733d 7e98 493e 29dc 2abe f9b1 16be
000003e0: 8a54 aabe 7f6c 283e d15d 6abd 9faf 0c3b
000003f0: 17de 523e 1ca6 1d3e 455d 483d ca99 cfbe

embedder.emb_rnn.bias_ih_l0 f4 [60]
0.94353414 1.018713 1.0438718 1.0805178 0.9741509 0.9068614 1.0262873 1.1361215
1.0690941 0.9582877 1.0571424 1.0703331 0.8627378 0.92126846 1.0555892 1.0166022
0.96512073 1.0164771 1.1324482 1.1925104 0.13484088 0.9953991 0.19325364 0.8419714
0.98386985 0.18653503 0.77552027 0.44576728 0.47318962 0.7314671 0.3308977 1.1212134
0.0755125 0.5765749 0.7199823 0.23781997 -0.0587351 0.6391184 0.91136944 -0.028896997
0.9897023 0.9632502 1.0094645 0.99332875 0.9638072 0.8098519 1.0602674 0.99386305
1.0427301 0.9679712 0.8631555 0.9858294 1.0096351 0.8831691 1.0172318 1.1284578
1.0428376 0.8905702 0.8872116 1.3118778
00000000: 748b 713f 3065 823f 979d 853f 684e 8a3f
00000010: f461 793f 1228 683f 625d 833f 6e6c 913f
00000020: 13d8 883f 5852 753f 7150 873f ad00 893f
00000030: 62dc 5c3f 40d8 6b3f 8c1d 873f 0520 823f
00000040: 2712 773f ec1b 823f 10f4 903f 2ea4 983f
00000050: ba13 0a3e 7ad2 7e3f 48e4 453e 708b 573f
00000060: e5de 7b3f 0a03 3f3e 7f88 463f 9c3b e43e
00000070: e945 f23e 6e41 3b3f 6c6b a93e ec83 8f3f
00000080: 4ca6 9a3d 6a9a 133f c350 383f 1487 733e
00000090: 3794 70bd 439d 233f 824f 693f 65b9 ecbc
000000a0: 215d 7d3f 9197 763f 2236 813f cb4a 7e3f
000000b0: 12bc 763f 7452 4f3f d8b6 873f cf6d 7e3f
000000c0: 2e78 853f f6cc 773f c2f7 5c3f 515f 7c3f
000000d0: b93b 813f 5f17 623f a734 823f 4e71 903f
000000e0: b47b 853f 69fc 633f 4d20 633f 9deb a73f

embedder.emb_rnn.bias_hh_l0 f4 [60]
-0.056466185 0.018714705 0.043872844 0.08051692 -0.025848748 -0.09313783 0.026287714 0.13612123
0.06909289 -0.04171188 0.057142507 0.07033162 -0.13726221 -0.07873083 0.05558971 0.016600026
-0.034879856 0.016474005 0.13244842 0.19250792 -0.8651589 -0.0046007936 -0.8067455 -0.1580286
-0.016130831 -0.8134663 -0.22447997 -0.55423164 -0.5268096 -0.26853406 -0.6691006 0.12121364
-0.9244881 -0.42342356 -0.2800165 -0.7621801 -1.0587344 -0.36088237 -0.08863081 -1.028897
-0.013658134 -0.032169525 0.008736953 0.0013029207 -0.018887768 -0.11857688 0.036538128 -0.013365396
0.0354427 -0.028037436 -0.19261955 -0.0128221 -0.013698832 -0.11041464 0.01736015 0.120341554
0.1383657 -0.13649912 -0.11432086 0.30867225
00000000: 1649 67bd 954f 993c 03b4 333d 0ee6 a43d
00000010: c1c0 d3bc 0cbf bebd 5559 d73c 5d63 0b3e
00000020: 9380 8d3d 14da 2abd 430e 6a3d 060a 903d
00000030: 778e 0cbe a13d a1bd 09b2 633d c7fc 873c
00000040: 2ede 0ebd 7ef4 863c 8fa0 073e cc20 453e
00000050: 0e7b 5dbf 41c2 96bb e086 4ebf 40d2 21be
00000060: ce24 84bc 543f 50bf 14de 65be 20e2 0dbf
00000070: fedc 06bf 4c7d 89be 2d4a 2bbf db3e f83d
00000080: 41ab 6cbf f9ca d8be 535e 8fbe 3c1e 43bf
00000090: 9c84 87bf 93c5 b8be 1284 b5bd e6b2 83bf
000000a0: 5ec6 5fbc 31c4 03bd 7025 0f3c c4c6 aa3a
000000b0: 85ba 9abc 6fd8 f2bd 01a9 153d 89fa 5abc
000000c0: 5d2c 113d c4ae e5bc 0f3e 45be c913 52bc
000000d0: 1171 60bc 1221 e2bd e036 8e3c a275 f63d
000000e0: bdaf 0d3e 6dc6 0bbe 0e21 eabd 4a0a 9e3e

embedder.emb_rnn.weight_ih_l1 f4 [60, 20]
0.01276331 0.1002362 0.00953187 0.035475515 0.00951693 -0.1003684 0.13758396 -0.10072352
0.23102348 0.07504126 -0.08419397 0.20108287 -0.117768236 0.004368589 -0.059003454 -0.09893126
0.10087743 0.10808114 -0.06762053 0.24730226 -0.12635809 -0.13159643 0.25862566 -0.21080723
0.013568799 -0.050655674 -0.12512177 0.16441664 0.1868437 0.10853126 0.068410814 0.29620937
-0.114568785 0.20018779 -0.07270112 -0.10805076 -0.1100784 -0.14643434 -0.06615722 -0.07372977
0.009413121 0.1848407 -0.105350666 -0.23335475 -0.28875753 0.20879623 -0.08580747 0.11887321
-0.27809942 -0.19728318 -0.14834882 0.109398745 -0.2540094 0.16898133 0.043544956 0.11164248
-0.21396929 -0.17311396 0.259364 0.038761046 -0.41625437 0.31850484 -0.026590358 0.07292777
-0.11762516 0.08519031 0.19078359 0.25474498 -0.12587216 -0.07739381 0.20156974 -0.014192907
0.3882683 0.011054908 -0.15472297 0.2225235 -0.22124486 0.6659434 -0.11144846 0.10940885
-0.13598113 0.0061204475 -0.17021058 -0.08175754 0.1787648 0.06219522 -0.28272614 -0.05200177
0.073592104 -0.19556896 0.13225688 0.013231477 -0.30902264 0.3029294 -0.23351374 -0.08644094
-0.21880887 0.25813013 0.24677396 0.04896376 0.24085417 0.10529357 0.08414635 0.06763078
-0.15838392 -0.18609169 0.2137032 -0.103708096 -0.27162343 0.3119309 0.24776705 -0.25947618
-0.362164 0.10914632 0.2908148 0.14867891 -0.0070829215 -0.06686288 0.27652666 -0.12301025
0.20548119 -0.321717 -0.22622538 -0.23249632 -0.10679913 -0.033203937 -0.17231293 -0.031801887
-0.09608268 0.08683675 0.20046656 -0.2995988 0.03182148 0.2353678 0.16648102 0.16410357
0.18318126 0.044072304 0.050940596 -0.08227506 -0.74858123 0.2924457 0.30430666 0.11601455
-0.018073082 -0.2601564 0.303387 0.22165905 0.25301036 -0.12526649 -0.043277875 0.18891291
0.3618112 -0.19965781 -0.14976093 0.0053706085 0.19794416 0.5249771 0.15624414 0.19074506
0.12666795 0.26735592 -0.018238237 0.13220266 0.20800617 -0.25648633 -0.0027201853 0.1323105
-0.104055986 -0.13640843 -0.082859986 0.028117005 -0.43464565 -0.08663744 0.19112994 0.00690193
0.20495366 0.16072705 0.063831285 0.09555198 -0.46964177 0.16961975 -0.13931446 -0.10374651
0.15483254 -0.17475422 -0.082457945 0.12113615 -0.3126163 0.09666121 -0.3347144 -0.04553038
-0.016288698 -0.3687789 -0.3566544 0.21372816 -0.08321286 0.058090456 0.007700112 -0.20511255
0.29923436 -0.14393674 0.011093734 0.026625758 0.28110644 -0.09354679 0.05940172 0.024343736
0.0519174 0.010128298 -0.15375198 0.2133622 -0.39176053 -0.096733436 0.07477761 0.13988514
-0.018828882 0.21935365 0.05190173 -0.0022634899 -0.015369852 0.060805432 -0.21076559 0.06576258
-0.106483266 0.013988609 -0.16068757 0.16701348 0.22129656 -0.29028997 0.29868147 0.11010561
-0.36012936 0.24019757 -0.22751614 0.15822512 -0.21594486 0.16541757 0.3239051 0.2043424
-0.20896892 -0.13086183 0.19069104 -0.114487454 -0.06278581 -0.4091796 0.098171085 -0.0109876655
-0.025264874 -0.20784254 0.012408407 0.40902218 -0.49212524 -0.584459 -0.28452677 -0.20926175
00000000: 341d 513c a348 cd3d 8f2b 1c3c c64e 113d
00000010: e6ec 1b3c f38d cdbd cfe2 0c3e 2248 cebd
00000020: 6b91 6c3e 3baf 993d e36d acbd abe8 4d3e
00000030: 7930 f1bd 6126 8f3b 9bad 71bd 799c cabd
00000040: d398 ce3d a559 dd3d a27c 8abd ce3c 7d3e
00000050: 0464 01be 37c1 06be 956a 843e dadd 57be
00000060: ab4f 5e3c 537c 4fbd ec1f 00be d65c 283e
00000070: f453 3f3e a345 de3d f81a 8c3d c1a8 973e
00000080: 0aa3 eabd 07fe 4c3e 53e4 94bd b849 ddbd
00000090: c970 e1bd e2f2 15be 707d 87bd a2ff 96bd
000000a0: 7e39 1a3c e146 3d3e 17c2 d7bd 8cf4 6ebe
000000b0: 07d8 93be aece 553e d4bb afbd cc73 f33d
000000c0: 0c63 8ebe 9a04 4abe c1e8 17be 730c e03d
000000d0: 850d 82be 7109 2d3e 325c 323d d0a4 e43d
000000e0: c41a 5bbe c944 31be 5ccb 843e e7c3 1e3d
000000f0: 4b1f d5be 1113 a33e 06d4 d9bc 285b 953d
00000100: 76e5 f0bd 4278 ae3d c65c 433e ef6d 823e
00000110: a2e4 00be a580 9ebd 4c68 4e3e 5e89 68bc
00000120: 1acb c63e a51f 353c b36f 1ebe 33dd 633e
00000130: 038e 62be 447b 2a3f 173f e4bd bf11 e03d
00000140: a33e 0bbe 098e c83b af4b 2ebe 7f70 a7bd
00000150: 1f0e 373e 6ac0 7e3d 7bc1 90be cfff 54bd
00000160: 75b7 963d 3b43 48be 596e 073e d6c8 583c
00000170: 3738 9ebe 9019 9b3e 3a1e 6fbe f307 b1bd
00000180: 6f0f 60be a229 843e 50b2 7c3e 398e 483d
00000190: 7aa2 763e 28a4 d73d ec54 ac3d 0282 8a3d
000001a0: 652f 22be d28e 3ebe 03d5 5a3e e964 d4bd
000001b0: 3a12 8bbe 68b5 9f3e a5b6 7d3e 10da 84be
000001c0: 8f6d b9be 1b88 df3d ade5 943e 493f 183e
000001d0: da17 e8bb 68ef 88bd e794 8d3e ccec fbbd
000001e0: a969 523e 17b8 a4be a0a7 67be 8413 6ebe
000001f0: 81b9 dabd da00 08bd cd72 30be b242 02bd
00000200: ffc6 c4bd 77d7 b13d 1b47 4d3e 0465 99be
00000210: 3d57 023d 4204 713e 007a 2a3e c40a 283e
00000220: de93 3b3e 2985 343d 16a7 503d d47f a8bd
00000230: 05a3 3fbf 71bb 953e 15ce 9b3e 0999 ed3d
00000240: 000e 94bc 3833 85be 8a55 9b3e 97fa 623e
00000250: 938a 813e dc45 00be 2444 31bd 6372 413e
00000260: 513f b93e 1973 4cbe ee5a 19be eefb af3b
00000270: e0b1 4a3e e664 063f 77fe 1f3e ac52 433e
00000280: 3eb5 013e e0e2 883e 5b68 95bc 2260 073e
00000290: 92ff 543e 2d52 83be 2345 32bb 677c 073e
000002a0: 4e1b d5bd a7ae 0bbe 7fb2 a9bd a255 e63c
000002b0: e089 debe f86e b1bd 91b7 433e 9629 e23b
000002c0: 5fdf 513e a295 243e fab9 823d c2b0 c33d
000002d0: e374 f0be cdb0 2d3e 73a8 0ebe 0d79 d4bd
000002e0: 6c8c 1e3e c5f2 32be b6df a8bd 3b16 f83d
000002f0: 3e0f a0be 50f6 c53d b05f abbe 107e 3abd
00000300: e06f 85bc 97d0 bcbe 689b b6be 8edb 5a3e
00000310: 816b aabd 42f0 6d3d 3951 fc3b 0609 52be
00000320: 3f35 993e 2764 13be 7ec2 353c 431e da3c
00000330: 2fed 8f3e 7695 bfbd 384f 733d 846c c73c
00000340: 57a7 543d 29f1 253c 2971 1dbe 9f7b 5a3e
00000350: d694 c8be 2e1c c6bd 0125 993d 0d3e 0f3e
00000360: 073f 9abc 3e9e 603e e996 543d 0f57 14bb
00000370: d5d1 7bbc 1e0f 793d efd2 57be 88ae 863d
00000380: e613 dabd 7b30 653c 488b 24be 9505 2b3e
00000390: 919b 623e e3a0 94be c7ec 983e 0d7f e13d
000003a0: e062 b8be 5af6 753e fef9 68be c405 223e
000003b0: a620 5dbe 3963 293e e4d6 a53e 223f 513e
000003c0: f3fb 55be a500 06be 8344 433e 6678 eabd
000003d0: d995 80bd fd7f d1be ec0d c93d 9c05 34bc
000003e0: 48f8 cebc add4 54be a24c 4b3c 5b6b d13e
000003f0: d7f7 fbbe 1b9f 15bf 7ead 91be b648 56be

embedder.emb_rnn.weight_hh_l1 f4 [60, 20]
-0.019004025 -0.23381442 0.041732576 0.12727246 0.28455752 0.007450711 -0.13552672 0.17474331
0.0021490844 -0.09931974 0.31667218 0.23200735 0.12241538 0.22960366 0.2314354 0.24614885
-0.17095211 0.23890315 -0.0030469906 0.1731131 0.30045003 -0.34259635 0.37971494 0.41068405
0.23374908 0.008362017 -0.2468555 0.12578563 -0.06628883 -0.12163428 0.25853986 0.05762145
0.035883352 0.24597593 0.056603268 -0.14342007 -0.1806424 0.0036573627 -0.059597313 0.2269638
0.2190278 0.1748117 -0.005811833 -0.27809453 -0.0993382 0.030330563 -0.05107176 0.059061863
0.3429692 0.12800449 -0.026475372 -0.11074987 -0.11237094 0.03580647 -0.23984502 -0.13402084
-0.22966684 0.20421769 -0.06961093 -0.112599045 0.14889081 -0.19850363 0.120586455 -0.0069703227
-0.0710114 -0.11054208 0.07247647 0.0028848797 0.1555268 -0.3176488 0.16169146 -0.15968598
-0.24642514 -0.35674667 -0.097932205 -0.01376224 -0.008680065 0.024126545 0.1960453 -0.045801878
-0.24985194 0.07717929 -0.36668926 0.0050109997 -0.3562839 -0.16692853 -0.06231936 -0.04681412
-0.009721825 -0.09225918 -0.35048854 0.20509169 0.20781213 -0.26534167 0.13455117 0.19338363
-0.07649185 -0.11956821 -0.24988326 0.015397177 -0.18247534 0.17493777 0.1679719 -0.026511183
-0.017595861 0.1014468 0.15634578 0.004064748 0.0024592245 0.00030801608 0.03498345 0.041966405
0.2046467 -0.018812707 -0.385566 0.029250998 -0.278899 0.15178952 -0.30876565 -0.15592015
0.17747225 0.17076272 0.25179324 -0.28150073 -0.062908396 0.13557634 -0.0555641 0.16074947
0.28342167 0.33495173 0.23363115 -0.19364215 -0.008594558 0.1277521 -0.27862123 0.16038305
-0.12040625 0.10495432 -0.15453272 -0.27780306 -0.13929678 0.13902922 -0.20905249 0.06326152
-0.18192628 0.35457242 0.27729365 0.31652397 -0.2711226 0.037485022 -0.064622246 0.11712656
0.20480444 0.24134378 0.5577122 -0.022584775 0.06426905 0.11544826 0.30387264 -0.08789874
-0.37107846 -0.15537797 -0.33429676 -0.11599059 0.09251019 -0.0731133 0.0806777 0.08927352
-0.15113112 -0.008904947 -0.053356893 0.25122172 0.04083039 0.3005937 0.2643233 0.037678014
-0.33772495 -0.13182157 0.23488966 0.25643373 -0.105236895 0.019575179 -0.24012294 0.11286947
0.24510014 -0.16055804 0.06408982 -0.3273112 0.23386373 -0.23257403 -0.18049073 -0.01950887
0.34116778 -0.24856493 -0.35521322 -0.034945127 0.01826417 -0.07885794 0.21999432 -0.017592067
-0.18959408 -0.07466363 -0.27410096 -0.06404507 0.23960805 0.107339025 0.18566933 -0.11756414
0.028105294 -0.2659922 -0.10572902 -0.17481512 0.180208 -0.15124905 0.49457085 -0.075284
0.038851988 -0.2310257 0.20846497 -0.16896924 -0.11467118 0.2667754 -0.17778271 0.16509457
-0.06880966 -0.0148701845 -0.11447659 0.14815281 0.28979477 0.21636675 0.14362405 0.2383413
0.30166337 0.26567012 -0.042490654 0.16746281 -0.30845088 -0.19168574 0.25514707 0.0064645614
-0.18303531 0.3216344 0.0034318906 0.17040291 0.19143638 0.047607254 -0.095333 -0.023484495
0.02565737 -0.0658955 -0.1701938 -0.05005779 0.2118774 -0.15776974 -0.19653782 0.23289539
00000000: 54ae 9bbc 0c6d 6fbe c7ef 2a3d b653 023e
00000010: 86b1 913e 1825 f43b 84c7 0abe e9ef 323e
00000020: a7d7 0c3b 2668 cbbd db22 a23e 5693 6d3e
00000030: eab4 fa3d 391d 6b3e 67fd 6c3e 720e 7c3e
00000040: 120e 2fbe 07a3 743e 05b0 47bb 8f44 313e
00000050: 96d4 993e ca68 afbe ff69 c23e 2e45 d23e
00000060: eb5b 6f3e d700 093c b0c7 7cbe f3cd 003e
00000070: 70c2 87bd 651b f9bd 565f 843e 7804 6c3d
00000080: 6cfa 123d 1de1 7b3e d4d8 673d b6dc 12be
00000090: 52fa 38be 5db0 6f3b 501c 74bd 3369 683e
000000a0: d348 603e d701 333e 3071 bebb 6862 8ebe
000000b0: d471 cbbd cd77 f83c 9f30 51bd daea 713d
000000c0: a999 af3e 9c13 033e e1e2 d8bc d4d0 e2bd
000000d0: bc22 e6bd cea9 123d ef99 75be c23c 09be
000000e0: c92d 6bbe 711e 513e 2d90 8ebd 549a e6bd
000000f0: d576 183e 8944 4bbe 08f6 f63d 4e67 e4bb
00000100: 6d6e 91bd e363 e2bd 8b6e 943d 4010 3d3b
00000110: 6b42 1f3e dda2 a2be 7292 253e b984 23be
00000120: df56 7cbe 80a7 b6be ae90 c8bd 057b 61bc
00000130: d536 0ebc 08a5 c53c 19c0 483e c09a 3bbd
00000140: 30d9 7fbe 2d10 9e3d b2be bbbe 5033 a43b
00000150: d86a b6be 50ef 2abe 9642 7fbd 2ac0 3fbd
00000160: 4a48 1fbc 62f2 bcbd 3c73 b3be 8e03 523e
00000170: b4cc 543e ddda 87be c8c7 093e 5c06 463e
00000180: c2a7 9cbd 2de0 f4bd 66e1 7fbe 7144 7c3c
00000190: d1da 3abe e322 333e d300 2c3e fb2d d9bc
000001a0: 3225 90bc 57c3 cf3d 1c19 203e 9431 853b
000001b0: f12a 213b 387d a139 ce4a 0f3d f7e4 2b3d
000001c0: e88e 513e 1b1d 9abc e868 c5be ca9f ef3c
000001d0: dacb 8ebe b66e 1b3e 8816 9ebe 88a9 1fbe
000001e0: 49bb 353e 6cdc 2e3e 0beb 803e dd20 90be
000001f0: 1ed6 80bd 86d4 0a3e 2f97 63bd 829b 243e
00000200: a51c 913e cb7e ab3e 013d 6f3e 214a 46be
00000210: 30d0 0cbc 72d1 023e 71a7 8ebe 743b 243e
00000220: 8d97 f6bd 4af2 d63d d33d 1ebe 343c 8ebe
00000230: d1a3 0ebe ad5d 0e3e db11 56be 418f 813d
00000240: e24a 3abe 848a b53e 6ff9 8d3e 6e0f a23e
00000250: 95d0 8abe e589 193d ab58 84bd 0de0 ef3d
00000260: 41b8 513e d322 773e 3ac6 0e3f b503 b9bc
00000270: 7e9f 833d 2370 ec3d 3295 9b3e 4104 b4bd
00000280: fffd bdbe 671b 1fbe f228 abbe 798c edbd
00000290: fc75 bd3d 6dbc 95bd 5a3a a53d 09d5 b63d
000002a0: 1ec2 1abe 0ee6 11bc c28c 5abd 22a0 803e
000002b0: c43d 273d 6be7 993e 6255 873e 4354 1a3d
000002c0: 49ea acbe 3cfc 06be ea86 703e 484b 833e
000002d0: 7186 d7bd 205c a03c cae2 75be 1c28 e73d
000002e0: 88fb 7a3e 5469 24be 8641 833d 5595 a7be
000002f0: f979 6f3e e327 6ebe 90d2 38be 11d1 9fbc
00000300: 8bad ae3e ce87 7ebe 82de b5be 9f22 0fbd
00000310: be9e 953c 4680 a1bd 3146 613e 3d1d 90bc
00000320: f324 42be 3fe9 98bd f656 8cbe 102a 83bd
00000330: d05b 753e 90d4 db3d 1a20 3e3e 78c5 f0bd
00000340: 133d e63c 2130 88be 7588 d8bd bc02 33be
00000350: 7288 383e 08e1 1abe 6438 fd3e 7f2e 9abd
00000360: 4323 1f3d 0092 6cbe d777 553e 4606 2dbe
00000370: b9d8 eabd c996 883e ac0c 36be 8d0e 293e
00000380: 14ec 8cbd 13a2 73bc b472 eabd 5fb5 173e
00000390: fb5f 943e 3f8f 5d3e 2f12 133e be0f 743e
000003a0: 9f73 9a3e ea05 883e ae0a 2ebd 5f7b 2b3e
000003b0: 46ed 9dbe 4449 44be a3a2 823e acd4 d33b
000003c0: 9c6d 3bbe 44ad a43e 92e9 603b 1a7e 2e3e
000003d0: e607 443e d3ff 423d f33d c3bd 8e62 c0bc
000003e0: 682f d23c 38f4 86bd 4947 2ebe 6609 4dbd
000003f0: 64f6 583e 648e 21be 3641 49be 217c 6e3e

embedder.emb_rnn.bias_ih_l1 f4 [60]
1.0362686 1.0680563 0.9426587 1.0351954 0.93531716 0.98757565 1.04345 1.1158019
1.0916886 0.92191726 1.0887933 1.0434583 1.004962 1.0426908 1.0094187 1.0250094
1.0243258 1.1432159 1.056734 0.99279267 1.1044556 0.49822384 0.69476503 0.43891507
0.6888707 0.59846824 0.4034851 0.6050927 0.4966758 0.646351 0.44747967 0.3798877
0.32148528 0.9783314 0.53460217 0.7785857 0.49672294 0.36534178 0.6350587 0.8620337
1.037049 0.8962943 1.0315497 1.0436682 0.96824765 0.9835309 0.7305422 0.92770404
0.89245224 0.94757426 0.84902793 0.95151114 0.8533334 1.0631258 0.9142019 1.0906953
0.96051 1.0075971 0.9467721 0.98930174
00000000: 73a4 843f 12b6 883f 1552 713f 4881 843f
00000010: f270 6f3f c2d1 7c3f c58f 853f 99d2 8e3f
00000020: 74bc 8b3f c502 6c3f 945d 8b3f 0b90 853f
00000030: 98a2 803f e476 853f a234 813f 8233 833f
00000040: 1c1d 833f e654 923f 0f43 873f a927 7e3f
00000050: cd5e 8d3f 3217 ff3e 1fdc 313f 7ab9 e03e
00000060: d559 303f 3735 193f 9995 ce3e 5be7 1a3f
00000070: 4a4c fe3e 4277 253f 0e1c e53e a480 c23e
00000080: b899 a43e ed73 7a3f b0db 083f 6451 473f
00000090: 7852 fe3e 140e bb3e 3593 223f 3eae 5c3f
000000a0: 06be 843f 8b73 653f d209 843f eb96 853f
000000b0: 14df 773f aec8 7b3f d004 3b3f 037e 6d3f
000000c0: c077 643f 3a94 723f e559 593f 3c96 733f
000000d0: 0f74 5a3f 8214 883f 2309 6a3f e79b 8b3f
000000e0: fce3 753f f1f8 803f a85f 723f e142 7d3f

embedder.emb_rnn.bias_hh_l1 f4 [60]
0.036269948 0.06805704 -0.057341192 0.035197422 -0.064683326 -0.012424224 0.04345063 0.11580124
0.09168866 -0.07808299 0.088793166 0.043459237 0.004962824 0.04269136 0.009420512 0.025008693
0.024326852 0.14321657 0.05673418 -0.0072081145 0.10445531 -0.50177777 -0.30523485 -0.56108546
-0.3111303 -0.40153196 -0.5965142 -0.39490643 -0.503325 -0.3536492 -0.5525206 -0.6201121
-0.67851305 -0.021670297 -0.46539667 -0.22141472 -0.5032769 -0.6346585 -0.36494237 -0.13796595
0.03780286 -0.08606885 0.0066921734 0.044746503 -0.027661894 -0.02138804 -0.35959315 -0.08085416
-0.1139694 -0.115993954 -0.24508856 -0.057887435 -0.27567652 0.033057675 -0.06567402 0.09548908
-0.013627688 0.010784414 -0.07011101 -0.017147616
00000000: cc8f 143d 7d61 8b3d 99de 6abd 2c2b 103d
00000010: b178 84bd f98e 4bbc 4af9 313d 3329 ed3d
00000020: 44c7 bb3d fae9 9fbd 31d9 b53d 5002 323d
00000030: 2f9f a23b 23dd 2e3d 7e58 1a3c 08df cc3c
00000040: 1b49 c73c 5da7 123e 1962 683d 0c32 ecbb
00000050: aaec d53d 8274 00bf be47 9cbe 4ca3 0fbf
00000060: 784c 9fbe 9995 cdbe 28b5 18bf 2d31 cabe
00000070: e8d9 00bf 8211 b5be fd71 0dbf abbf 1ebf
00000080: 08b3 2dbf e885 b1bc 7948 eebe 8aba 62be
00000090: c1d6 00bf fb78 22bf bad9 babe f246 0dbe
000000a0: 2cd7 1a3d dd44 b0bd 054a db3b 1c48 373d
000000b0: 329b e2bc f935 afbc 981c b8be de96 a5bd
000000c0: ca68 e9bd 3d8e edbd 7ff8 7abe 601b 6dbd
000000d0: 7925 8dbe 7c67 073d 1a80 86bd c78f c33d
000000e0: ab46 5fbc 1cb1 303c 5c96 8fbd 2879 8cbc

embedder.emb_rnn.weight_ih_l2 f4 [60, 20]
-0.27978593 -0.2154611 -0.09183868 0.056630805 0.050136972 0.02734702 -0.18655008 0.050019924
-0.1792899 -0.19707826 0.4488786 0.01992836 -0.18903658 -0.167215 0.3384808 0.14232771
-0.014308742 0.14338991 0.13746387 0.014779879 0.13029066 0.061387893 0.13208482 -0.18998799
-0.0070350934 0.16598876 0.20527862 -0.17719145 0.0770299 -0.06338292 -0.32355735 0.05998418
-0.18552457 -0.03870081 -0.2817897 0.2514219 0.14510137 -0.06651026 -0.0180552 0.039228473
0.034853376 -0.024925606 -0.15914387 -0.12022294 -0.037690274 -0.16389936 0.27688825 0.25066993
0.24255995 -0.1419041 0.35527092 0.15695971 -0.015074024 0.028181445 0.30814028 0.27704024
-0.19736996 -0.08403366 -0.24384415 -0.2695505 -0.032434393 -0.059481982 -0.12219148 0.16410324
0.17345208 -0.21048987 0.3186186 0.014077321 0.38175005 -0.37493286 -0.45919266 0.14000426
0.21857117 0.13003547 -0.21983434 -0.3920282 -0.32589814 -0.23964582 -0.09921464 -0.11615597
0.20420757 -0.09500355 -0.2512103 0.15656975 0.13839447 -0.14742662 0.2593605 -0.030493543
-0.10299412 0.437422 0.060944 0.32163262 0.04769244 0.0369655 0.09021264 0.23210512
0.06640929 -0.17705621 0.1510285 -0.18290797 0.15136509 0.08813721 0.26135537 -0.037102547
0.053553913 0.09175523 -0.30318266 -0.029978007 -0.08720521 -0.02657772 -0.15219927 -0.015398142
-0.36092132 -0.073195234 -0.082160816 -0.09379698 0.3616775 -0.07171101 0.13966997 0.14294255
0.2767062 -0.060896024 -0.24553815 -0.136236 0.22791812 0.1952741 -0.20480256 0.23968442
0.1321764 0.3445182 -0.013650414 -0.16973469 -0.17967805 -0.17138846 0.17298819 0.07209618
-0.27826366 -0.10491869 -0.13834323 0.09208197 -0.015369694 0.20871098 0.09625168 0.05532511
0.09774079 0.08628648 -0.054070912 -0.3553553 -0.19608593 -0.1978112 -0.231675 -0.17603755
-0.2834143 0.11130869 0.13371715 -0.2619847 0.250347 0.03099345 0.0005540692 -0.3277936
-0.09567117 0.16526417 -0.021765532 -0.091440335 -0.14530735 -0.024723541 -0.077970326 -0.061550755
0.24132955 -0.034096576 0.006889619 0.037200127 -0.41974285 0.03264795 -0.15810628 0.04992278
0.17111984 0.048896726 0.0922706 0.16887149 0.07943583 0.2865645 -0.22494972 -0.019658493
0.039735153 0.12919267 0.13687395 0.3013777 0.24478436 -0.10013087 0.06064403 -0.05752461
0.25983572 -0.051739708 0.1080759 -0.2127107 -0.13008206 -0.07120967 -0.1894199 -0.21106996
0.2621228 0.40775928 0.16621263 -0.23093705 -0.23585986 0.18937255 -0.2390445 0.016427143
-0.0176084 0.34854797 -0.009492109 0.08389919 0.28945023 -0.10275246 -0.49183464 -0.18450004
0.21052574 -0.2133073 -0.09224873 0.121311165 -0.07838929 -0.19036324 0.12028384 0.18552858
0.28078204 0.19639428 -0.046172332 -0.32485932 0.184186 -0.3565291 0.014189657 -0.0071464144
0.3008338 0.15049928 0.2947654 -0.09639286 -0.04932512 0.11615913 0.16945013 -0.16678928
-0.16696374 0.30354026 -0.24032083 -0.3011962 0.13221022 0.015072959 -0.27332437 -0.23022664
0.10276454 0.28408176 -0.12765454 -0.01512018 -0.100315936 0.16689277 -0.27639285 -0.10282468
00000000: 1a40 8fbe d6a1 5cbe eb15 bcbd b4f5 673d
00000010: 6d5c 4d3d dc06 e03c fc06 3fbe b1e1 4c3d
00000020: c697 37be e2ce 49be 6ad3 e53e cd40 a33c
00000030: ce92 41be 693a 2bbe 5b4d ad3e 5bbe 113e
00000040: 376f 6abc ced4 123e 54c3 0c3e 4e27 723c
00000050: ea6a 053e df71 7b3d 3e41 073e 368c 42be
00000060: a486 e6bb f5f8 293e 8f34 523e ad71 35be
00000070: dac1 9d3d e8ce 81bd 4fa9 a5be f9b1 753d
00000080: 27fa 3dbe be84 1ebd bd46 90be 5fba 803e
00000090: 7495 143e 8836 88bd 80e8 93bc 09ae 203d
000000a0: 6ac2 0e3d c930 ccbc 9cf6 22be 7237 f6bd
000000b0: 1e61 1abd 3cd5 27be 4cc4 8d3e cf57 803e
000000c0: a361 783e 4f4f 11be 12e6 b53e 0cba 203e
000000d0: 0af9 76bc c6dc e63c 90c4 9d3e 38d8 8d3e
000000e0: 5a1b 4abe d719 acbd 48b2 79be 8602 8abe
000000f0: edd9 04bd 61a3 73bd 873f fabd ae0a 283e
00000100: 6c9d 313e a88a 57be fa21 a33e 90a4 663c
00000110: be74 c33e 33f7 bfbe 4d1b ebbe 475d 0f3e
00000120: 1fd1 5f3e 0528 053e 411c 61be ecb7 c8be
00000130: 1fdc a6be b765 75be 0c31 cbbd 2ee3 edbd
00000140: ca1b 513e 3991 c2bd a39e 80be d253 203e
00000150: 48b7 0d3e 01f7 16be e6ca 843e 98cd f9bc
00000160: 95ee d2bd c7f5 df3e 6aa0 793d 08ad a43e
00000170: 2659 433d 2369 173d 68c1 b83d f7ac 6d3e
00000180: 9801 883d 394e 35be 37a7 1a3e 3a4c 3bbe
00000190: 73ff 1a3e 4881 b43d 5fd0 853e d7f8 17bd
000001a0: 595b 5b3d 2bea bb3d c23a 9bbe 7094 f5bc
000001b0: a598 b2bd 85b9 d9bc 20da 1bbe 7d48 7cbc
000001c0: aeca b8be 62e7 95bd ee43 a8bd a218 c0bd
000001d0: cb2d b93e 39dd 92bd a505 0f3e 885f 123e
000001e0: 6fac 8d3e 1c6e 79bd 5a6e 7bbe 7381 0bbe
000001f0: 5e63 693e eff5 473e c3b7 51be d56f 753e
00000200: 4059 073e b164 b03e fca5 5fbc eece 2dbe
00000210: 86fd 37be 7580 2fbe d123 313e 29a7 933d
00000220: 9378 8ebe 9cdf d6bd d9a9 0dbe 7995 bc3d
00000230: 2bd1 7bbc 55b8 553e 9a1f c53d 959c 623d
00000240: 532c c83d f7b6 b03d 7679 5dbd 21f1 b5be
00000250: c0ca 48be 058f 4abe 363c 6dbe 3043 34be
00000260: ae1b 91be cff5 e33d 26ed 083e dc22 86be
00000270: 7b2d 803e fae5 fd3c f43e 113a 90d4 a7be
00000280: 3fef c3bd 033b 293e a14d b2bc 1245 bbbd
00000290: 73cb 14be 0689 cabc e8ae 9fbd a51c 7cbd
000002a0: 181f 773e daa8 0bbd 50c2 e13b 295f 183d
000002b0: 89e8 d6be dbb9 053d 9de6 21be d47b 4c3d
000002c0: 0a3a 2f3e ef47 483d 5ef8 bc3d a6ec 2c3e
000002d0: 41af a23d 95b8 923e 3859 66be d90a a1bc
000002e0: 54c1 223d 154b 043e af28 0c3e 2e4e 9a3e
000002f0: c0a8 7a3e 6a11 cdbd e065 783d ed9e 6bbd
00000300: 3009 853e 04ed 53bd e656 dd3d d5d0 59be
00000310: 3b34 05be 60d6 91bd 4af7 41be b922 58be
00000320: f634 863e d3c5 d03e a533 2a3e c37a 6cbe
00000330: 3f85 71be e1ea 413e 15c8 74be 3792 863c
00000340: 7e3f 90bc e174 b23e ca84 1bbc 57d3 ab3d
00000350: d232 943e e26f d2bd c0d1 fbbe 94ed 3cbe
00000360: 0f94 573e 3b6d 5abe e7ec bcbd fd71 f83d
00000370: 908a a0bd 95ee 42be 6057 f63d 34fb 3d3e
00000380: aac2 8f3e 951b 493e 331f 3dbd f653 a6be
00000390: 419b 3c3e fb8a b6be bc7b 683c 782c eabb
000003a0: e306 9a3e 7c1c 1a3e 7eeb 963e 9f69 c5bd
000003b0: 2309 4abd d7e4 ed3d 5684 2d3e cfca 2abe
000003c0: 8bf8 2abe a169 9b3e aa16 76be 6336 9abe
000003d0: 1e62 073e 92f4 763c 2cf1 8bbe 88c0 6bbe
000003e0: 3776 d23d 2a73 913e dfb7 02be a2ba 77bc
000003f0: 7172 cdbd f0e5 2a3e 5d83 8dbe bf95 d2bd

embedder.emb_rnn.weight_hh_l2 f4 [60, 20]
0.031474546 -0.0043839733 -0.1188848 0.13345154 0.13140401 0.17317382 -0.0840499 -0.08073857
0.002922408 -0.15757148 0.31988454 -0.048288208 0.00030656205 -0.37126592 -0.15844157 0.07014027
0.20128752 -0.0074064354 -0.04041249 0.3241629 0.08266632 -0.17301358 -0.007603085 0.16095507
-0.15825377 0.009452798 -0.21982786 -0.1113632 -0.28060818 -0.060559183 0.02859625 0.124340855
-0.21435629 -0.24131255 0.018241866 -0.09791332 0.12859312 0.13446862 -0.16212028 -0.13354887
-0.23456867 0.2539799 -0.0395935 0.10675448 0.034221537 -0.2446186 0.23620239 -0.1484012
-0.0602331 0.0026937714 -0.090547435 -0.05113647 -0.061829776 0.21281177 -0.18943225 -0.14973235
0.15305565 -0.050828878 -0.097514 -0.028161528 -0.08495654 -0.16934215 0.0026314652 0.010513391
-0.12625167 0.20867506 -0.091771185 0.046457015 0.2146445 0.030766957 -0.41738218 -0.13432503
0.12971318 -0.1308179 0.1238861 0.26594877 0.1318812 -0.08887115 -0.1893675 -0.389777
0.05550077 -0.37579557 -0.019085119 0.07862014 -0.15707237 -0.21882285 0.22907674 0.1654711
-0.05387211 0.09567805 -0.0872347 0.072209634 0.2901864 -0.17943409 0.07545499 -0.041020613
0.15448034 -0.26646417 0.24965228 -0.21502858 -0.14899543 -0.18591031 -0.120936275 0.16121769
0.14955904 0.03830913 0.21759492 -0.08509601 -0.036041994 0.19021916 0.22477306 0.06606831
-0.28369233 0.031664576 0.12142281 0.11920347 0.08827729 -0.29613143 0.17574103 0.21373697
0.16409197 -0.1296405 0.15180647 0.19910513 0.20083767 0.1802922 0.06492791 -0.14130722
0.30655026 0.056926973 -0.034344297 -0.09910834 -0.23158 0.25429776 -0.07232184 -0.11498769
0.26694572 -0.3208706 0.18562749 -0.24282013 0.09020088 0.22624165 -0.22723047 0.20348719
-0.120504156 0.040834498 -0.2635896 -0.2518804 0.14940856 -0.28288552 -0.28708035 -0.38914493
0.00017223922 -0.2814319 0.123677105 0.12416136 0.10281114 0.16273938 -0.26377138 -0.019833269
-0.17276704 -0.15600646 -0.263293 -0.004670303 0.16157548 -0.0960231 0.21993436 -0.0319153
-0.08489641 -0.02630684 -0.10769629 -0.13869578 -0.27070382 -0.18693927 0.092319354 -0.13392797
-0.27130827 -0.26688784 -0.20461828 -0.044494193 0.10278827 -0.19676743 -0.22503442 -0.02904684
0.06490253 -0.16863501 0.14163281 -0.20743223 -0.11739017 0.10391842 -0.11105075 -0.038767297
0.25793383 0.073189184 -0.24294825 0.24988614 -0.17695111 -0.010260116 0.15049416 0.08194041
-0.03535532 -0.02595974 -0.23642012 0.032913603 -0.16668633 0.05424611 0.21914953 -0.23962289
-0.1706677 0.28818834 -0.17065348 0.14282535 0.009404262 -0.08061188 0.20557672 -0.30048835
0.1646136 0.036525548 -0.1334099 0.23773491 0.21010579 -0.08918997 0.044576157 -0.1196605
0.24049863 0.12670542 -0.0016424101 -0.2741627 0.12304746 0.26766214 0.14677899 -0.16702263
0.22341186 -0.1514456 -0.15001215 0.15829931 -0.117105104 0.6386325 -0.13262801 0.1261394
-0.26381776 0.07819348 0.1573163 0.10234347 0.17058004 -0.03662956 -0.22325242 0.038869333
0.012120592 -0.25232452 -0.1072328 -0.009526329 -0.1885518 0.1830748 -0.017973712 -0.022239897
00000000: 74eb 003d 6fa7 8fbb e079 f3bd 85a7 083e
00000010: c68e 063e 7a54 313e 5b22 acbd 435a a5bd
00000020: df85 3f3b 6b5a 21be e8c7 a33e dbc9 45bd
00000030: 10ba a039 9116 bebe 823e 22be b4a5 8f3d
00000040: 511e 4e3e afb1 f2bb 9187 25bd aef8 a53e
00000050: f64c a93d 792a 31be 4d23 f9bb 68d1 243e
00000060: 470d 22be e9df 1a3c 8e1a 61be 6412 e4bd
00000070: e0ab 8fbe e80c 78bd af42 ea3c 6ba6 fe3d
00000080: 3780 5bbe a31a 77be f76f 953c c786 c8bd
00000090: eaad 033e 24b2 093e dc02 26be 09c1 08be
000000a0: c532 70be a709 823e cb2c 22bd 18a2 da3d
000000b0: e22b 0c3d 4c7d 7abe 0adf 713e 7cf6 17be
000000c0: fcb6 76bd fc89 303b ef70 b9bd 7a74 51bd
000000d0: 3841 7dbd 54eb 593e 87fa 41be 7053 19be
000000e0: 9fba 1c3e f131 50bd 6cb5 c7bd 01b3 e6bc
000000f0: b2fd adbd 0768 2dbe a974 2c3b 5c40 2c3c
00000100: 1e48 01be eaae 553e 88f2 bbbd b649 3e3d
00000110: c5cb 5b3e fc0a fc3c 1eb3 d5be 808c 09be
00000120: 88d3 043e 21f5 05be ffb7 fd3d 702a 883e
00000130: de0b 073e 1402 b6bd 8ee9 41be da90 c7be
00000140: c754 633d 4768 c0be 6558 9cbc 9903 a13d
00000150: 94d7 20be 1913 60be 1893 6a3e 4271 293e
00000160: 00a9 5cbd daf2 c33d 1ba8 b2bd a5e2 933d
00000170: 5093 943e 92bd 37be 2588 9a3d 3b05 28bd
00000180: 1830 1e3e fe6d 88be d9a4 7f3e 7430 5cbe
00000190: 4292 18be 465f 3ebe 70ad f7bd 4016 253e
000001a0: 0126 193e 09ea 1c3d 34d1 5e3e d146 aebd
000001b0: c5a0 13bd d0c8 423e e92a 663e d24e 873d
000001c0: 1f40 91be b7b2 013d 86ac f83d f320 f43d
000001d0: b9ca b43d 8a9e 97be 75f5 333e dddd 5a3e
000001e0: ba07 283e 7bc0 04be 2873 1b3e 37e2 4b3e
000001f0: 64a8 4d3e 859e 383e edf8 843d d7b2 10be
00000200: 28f4 9c3e 422c 693d 9bac 0cbd 50f9 cabd
00000210: 4f23 6dbe 5133 823e 791d 94bd aa7e ebbd
00000220: 1cad 883e 2749 a4be 2215 3e3e d7a5 78be
00000230: 3dbb b83d e4ab 673e 1baf 68be f25e 503e
00000240: e2ca f6bd 1342 273d 37f5 86be 78f6 80be
00000250: 8ffe 183e 5fd6 90be 32fc 92be 013e c7be
00000260: 1d9b 3439 d817 90be 6c4a fd3d 5048 fe3d
00000270: a68e d23d 27a5 263e 0b0d 87be 6179 a2bc
00000280: d8e9 30be 28c0 1fbe 57ce 86be 5709 99bb
00000290: 0b74 253e c2a7 c4bd 7936 613e 9eb9 02bd
000002a0: 2bde adbd 7181 d7bc df8f dcbd 4406 0ebe
000002b0: b199 8abe 026d 3fbe ee11 bd3d 6a24 09be
000002c0: ebe8 8abe 86a5 88be 7487 51be 8b3f 36bd
000002d0: a882 d23d 677d 49be 6c6f 66be a3f3 edbc
000002e0: 9eeb 843d a8ae 2cbe 3108 113e 1d69 54be
000002f0: 426a f0bd 2ed3 d43d 936e e3bd 75ca 1ebd
00000300: e70f 843e 36e4 953d 6dc7 78be 27e2 7f3e
00000310: ac32 35be 0c1a 28bc 241b 1a3e 60d0 a73d
00000320: bdd0 10bd 85a9 d4bc 1e18 72be 6ad0 063d
00000330: d2af 2abe 2b31 5e3d bc68 603e b45f 75be
00000340: 83c3 2ebe 6c8d 933e c9bf 2ebe cf40 123e
00000350: 5514 1a3c d717 a5bd b482 523e 9cd9 99be
00000360: 7890 283e d09b 153d 9b9c 08be c870 733e
00000370: f925 573e 3ba9 b6bd 7d95 363d 9010 f5bd
00000380: 4645 763e 11bf 013e 2346 d7ba 0e5f 8cbe
00000390: 4f00 fc3d 030b 893e 3b4d 163e fb07 2bbe
000003a0: 14c6 643e 8e14 1bbe c99c 19be 3719 223e
000003b0: cdd4 efbd 6b7d 233f a3cf 07be b02a 013e
000003c0: 1f13 87be e723 a03d 8617 213e 7499 d13d
000003d0: 89ac 2e3e e108 16bd 489c 64be 7335 1f3d
000003e0: 7395 463c ae30 81be df9c dbbd 5214 1cbc
000003f0: b913 41be f677 3b3e 9b3d 93bc 7230 b6bc

embedder.emb_rnn.bias_ih_l2 f4 [60]
1.0387152 0.9808458 1.0295572 0.88255984 1.0843488 0.96951723 1.0417223 0.9075075
0.96783173 1.0134616 0.98246294 1.0153178 0.9543795 1.054193 1.0118736 0.90267116
1.0114404 1.0178632 0.9897219 1.1509104 0.49017054 0.71230763 0.9014048 0.5851972
1.1969739 0.5811279 0.44631436 0.8240998 0.40097025 0.775153 0.796791 0.46634376
1.195191 1.070619 0.7060034 0.5486356 0.44976392 0.61957455 0.46552494 0.6686652
0.89657336 0.9322893 1.0339733 0.86556965 0.90739405 0.88713527 1.0992717 1.0574619
0.9276261 0.9563401 0.9773675 1.0004001 1.000496 1.0309508 0.9361731 0.91647303
0.96131825 0.92977995 0.9799318 0.9894658
00000000: 9ff4 843f b618 7b3f 88c8 833f 71ef 613f
00000010: f1cb 8a3f 4832 783f 2857 853f 6952 683f
00000020: d2c3 773f 1cb9 813f b182 7b3f eff5 813f
00000030: 3752 743f ccef 863f 1385 813f 7515 673f
00000040: e176 813f 5749 823f 6a5e 7d3f 0851 933f
00000050: a2f7 fa3e cb59 363f 77c2 663f 7ccf 153f
00000060: 7136 993f ccc4 143f 5183 e43e 34f8 523f
00000070: f94b cd3e 6d70 463f 7ffa 4b3f 9cc4 ee3e
00000080: 05fc 983f 0b0a 893f a4bc 343f 6273 0c3f
00000090: 7547 e63e 709c 1e3f 4959 ee3e a42d 2b3f
000000a0: d585 653f 83aa 6e3f 3d59 843f f995 5d3f
000000b0: fa4a 683f 4c1b 633f efb4 8c3f e95a 873f
000000c0: e778 6d3f b4d2 743f c234 7a3f 1c0d 803f
000000d0: 4110 803f 32f6 833f 0aa9 6f3f fa9d 6a3f
000000e0: f418 763f 0f06 6e3f cfdc 7a3f a14d 7d3f

embedder.emb_rnn.bias_hh_l2 f4 [60]
0.03871606 -0.019154793 0.029557576 -0.117439814 0.084347524 -0.030482478 0.04172077 -0.09249349
-0.03216792 0.013463646 -0.017536972 0.015318683 -0.04562047 0.054191872 0.011875489 -0.097329505
0.011440589 0.017862216 -0.010276884 0.15090783 -0.5098292 -0.28769332 -0.098596945 -0.41480327
0.19697419 -0.41887182 -0.5536863 -0.17589965 -0.59902865 -0.22484714 -0.20320834 -0.53365606
0.19519104 0.07061675 -0.29399735 -0.451364 -0.5502375 -0.38042647 -0.53447455 -0.3313339
-0.12243752 -0.056514975 0.03420549 -0.16216476 -0.10972107 -0.09205486 0.10716289 0.031343803
-0.0634016 -0.070181414 -0.032131605 -0.012663908 -0.0049389633 0.024655232 -0.07309669 -0.073947914
-0.034518804 -0.08255497 -0.028592413 -0.011377927
00000000: bb94 1e3d 83ea 9cbc bb22 f23c 4984 f0bd
00000010: 65be ac3d 64b6 f9bc 66e3 2a3d 3a6d bdbd
00000020: 82c2 03bd a096 5c3c b2a9 8fbc 37fb 7a3c
00000030: 88dc 3abd 4cf8 5d3d 6991 423c b154 c7bd
00000040: 4f71 3b3c c853 923c 6060 28bc 9587 1a3e
00000050: 2b84 02bf 8a4c 93be 32ed c9bd 1861 d4be
00000060: 9ab3 493e 5e76 d6be 63be 0dbf 0a1f 34be
00000070: f159 19bf 543e 66be d915 50be af9d 08bf
00000080: 29e0 473e 849f 903d d286 96be 2f19 e7be
00000090: 5ddc 0cbf 42c7 c2be 53d3 08bf 99a4 a9be
000000a0: 86c0 fabd 3f7c 67bd 0e1b 0c3d 850e 26be
000000b0: 71b5 e0bd 4287 bcbd 3878 db3d 5c62 003d
000000c0: b3d8 81bd 46bb 8fbd 6e9c 03bd 487c 4fbc
000000d0: 07d7 a1bb c5f9 c93c b8b3 95bd 0172 97bd
000000e0: 9763 0dbd 9512 a9bd a33a eabc 7c6a 3abc
