output/Tennessee_Eastman_30/model.pt (torch, 178616 bytes, 65 tensors)

embedder.emb_rnn.weight_ih_l0 f4 [60, 55]
00000000: 6b18 a93f 3b85 063e 12c7 013f 1e85 383f
00000010: 2d05 f4bc de4d 4dbe d3cb d4be c565 01bf
00000020: e616 02bf 3a41 0dbf 7acf a2be 30a8 cebd
00000030: d0a9 a1bf 53fe ebbe 432e 35be 1615 afbe
00000040: f5b9 ab3e 0c64 fcbe ec9e 5abf 7533 4ebd
00000050: 0236 b7be 5cbb d7be 0644 0cbe d4a4 23be
00000060: 43ef babe c437 0dbc d180 233d 3ee1 81be
00000070: a064 adbe 56ee 873b c327 db3e 130d c3be
00000080: 10e3 0a3e fd53 93be 0eca 13bf 0008 423e
00000090: 3dff 183f 2e5f 1c3d c206 a5be ef6b 8fbc
000000a0: bcca 923d a387 093f a372 323e a169 32bf
000000b0: 2823 c5be 398f 00bd c876 2bc0 21a6 1cbf
000000c0: 95d9 01bf 08f8 4bbe a8f7 b9bd 993f 90be
000000d0: b016 c43e 400d b33e 6a96 4c3f c731 943f
000000e0: 9bf7 123f fe89 20c0 8807 94bf 5f38 263f
000000f0: bdd5 2abe 3ffd 903e aa9f 333d de56 c13e
00000100: 0dcc 803e 59ad 25bf 4211 12be 9b61 203e
00000110: 6083 e4bd 0b5f 1abf a805 8bbe eae9 243f
00000120: 015e 9a3e fee7 443f 8288 35bf 2ee0 c43e
00000130: 6c15 1d3f 8da2 37be 41f9 46bf 6807 863e
00000140: 3030 b23e cddd 443f c018 b93b ec50 3fbe
00000150: 55cb dcbd 22f0 d43c 85bb c63d db0f 823f
00000160: ddb8 b33d e903 b6be 0a8f 0abe 278d a43d
00000170: 2cc3 bebe 9254 45be 430a 89bf 183f 9bbe
00000180: 3556 e43e c05f 8d3f 8aaf e1be 212b 6cbf
00000190: d665 03bf d013 903f dbaf 3cbf b257 c5be
000001a0: 50a0 843f 4985 00bf 3f61 243f 0855 893f
000001b0: 2978 65bd b67e 523e 5717 a5c0 a51c bc3d
000001c0: 87df de3e f46e 47c0 d83a f83e 02ee eebd
000001d0: 057d 07bf 093b 44bf edff 77bf 8492 c93f
000001e0: 5141 ea3d 7d40 dcbc 0bfa b5bf 6f4c afbf
000001f0: 36d5 fbbd 7200 c23f 54a5 ea3e 58d9 fe3e
00000200: 664f 9b3f dd91 32bf a9fc 42bf 6cc0 473f
00000210: 131b 3cbf f094 9dbf 2b01 4dbf 12ab 45bd
00000220: 4a51 f9be 0a4f 823f e0b5 aa3e d34e d7be
00000230: 2d6e 40be 4ed1 84be d715 2fbf 8208 d63f
00000240: c4aa 8dbe 713c 65bf 6911 81bd a6ec 91bf
00000250: cf73 58bf b99f 843e c114 953e f9a2 043f
00000260: 9e77 6d3f 6298 13be dac6 183f 8f31 063d
00000270: 8373 1a3f 15c7 d73e 48fc dbbd 74d8 d5bf
00000280: 5490 86bd 2c08 ae3e 976f 0d40 934e 473f
00000290: 99b1 30bc 3695 9840 e4b2 bbbd d4b5 a4bd
000002a0: 20c2 03bf 4a7a 913d 0716 8bbe 6cb2 3e3f
000002b0: 50b3 17be d945 c43e a8ee 423f d2c5 c1be
000002c0: 9f09 e8be 8f9c 003f cd60 8cbe 3ee5 813e
000002d0: 4544 b33e 6043 6c3e 27e9 a7be c903 943f
000002e0: c1d6 2a3e d1ee b5bd 32c8 013f 1252 17bf
000002f0: 5c45 4d3f 4f69 53be ed3b 8dbd ccbd e13d
00000300: bbe2 ba3e 11a5 2cbd fd41 c7bd 53b7 52bf
00000310: 0aed 5fbe 9a97 523d 3c30 c83e 8289 623d
00000320: 07f5 b1bd 0718 0abf 37f5 b4be a62a 54be
00000330: bf42 b5be d4cc c93e 7981 93be 8bca e23c
00000340: c7e2 28bf 6a63 41bf df7e 0ebe 75b5 0e3e
00000350: f1e0 a9be 7801 4dbf 73dd 0f3f 960c 823e
00000360: 6dc4 86be 10a3 e33e e60b 59bf 1052 10bf
00000370: f9c7 143e 6ad4 b7bd 1a27 243f 9778 c73e
00000380: 1ca8 8dbe 3764 a2be 0815 7f3e ed1a 0a3f
00000390: c5cb d73e fd1c d9be a15c d7be 338a ae3c
000003a0: 6c7c 3c3e 9da6 3e3e e871 28bf 86e6 aebe
000003b0: 9893 e8bf feaf 2b3f 59a0 a6be 401f b4bf
000003c0: f445 7a3e ec49 1e3f 1068 40bf af7b 8b3b
000003d0: fc28 a23d 0b20 f93e 776d c4be bc85 1abf
000003e0: fbae c7be 6c57 e5be 20d0 82be 4fc4 1ebe
000003f0: ece5 d7be 3a25 72bf 86cd 95bd 0e13 d0be
1.3210577 0.13136761 0.5069438 0.7207812 -0.029787624 -0.20049235 -0.41561756 -0.50545913
-0.5081619 -0.5517765 -0.31798917 -0.10090673 -1.2629948 -0.4609247 -0.17693429 -0.34195775
0.3354031 -0.4929508 -0.85398746 -0.050342042 -0.35783392 -0.4213513 -0.13697824 -0.15980846
-0.36510667 -0.008619253 0.03991777 -0.2536716 -0.33865833 0.004148285 0.42803773 -0.38095912
0.1356318 -0.28775015 -0.57730186 0.18948364 0.5976446 0.038176708 -0.32231718 -0.017507521
0.07167575 0.5372259 0.17426543 -0.69692427 -0.38503385 -0.031386588 -2.6791248 -0.6119099
-0.5072263 -0.19918835 -0.0908044 -0.2817352 0.3829856 0.34971046 0.79917014 1.1577691
0.57409066 -2.5084224 -1.1564798 0.64929765 -0.16683097 0.2831821 0.04385344 0.37761587
0.25155678 -0.6471763 -0.14264396 0.15662234 -0.1115787 -0.60301274 -0.27152753 0.64419425
0.30149844 0.7691649 -0.7091142 0.38452286 0.6136081 -0.17933102 -0.7772408 0.26177526
0.3480239 0.7690094 0.0056487024 -0.18683213 -0.1078097 0.02599341 0.09703735 1.0161089
0.08775494 -0.35549858 -0.13531128 0.08034735 -0.3725828 -0.19270542 -1.0706257 -0.30321574
0.4459702 1.1044846 -0.44079238 -0.9225331 -0.51327264 1.1256046 -0.73705834 -0.3854347
1.0361423 -0.50203377 0.64210886 1.0729074 -0.056022797 0.20556149 -5.159099 0.09185151
0.43529913 -3.116147 0.48482394 -0.1166649 -0.5292514 -0.7665258 -0.96874887 1.5747838
0.11438239 -0.02688622 -1.4216932 -1.3695201 -0.12296526 1.5156386 0.4582926 0.49775195
1.2133605 -0.6975382 -0.7616678 0.7802799 -0.7347881 -1.2311077 -0.8007991 -0.04825885
-0.4869483 1.0180371 0.33341885 -0.42052326 -0.18792029 -0.25940937 -0.683927 1.6721346
-0.27669346 -0.8954535 -0.06302149 -1.1400344 -0.8455171 0.2590311 0.29117396 0.51811177
0.92760646 -0.14413598 0.59678423 0.032762107 0.60332507 0.42144075 -0.10741478 -1.6706681
-0.06570497 0.3399061 2.209936 0.7785427 -0.01078453 4.768214 -0.0916498 -0.080424935
-0.51468086 0.07103403 -0.27165243 0.74491 -0.14814496 0.3833454 0.7614541 -0.37846237
-0.4531984 0.5023889 -0.27417603 0.2537021 0.35013023 0.23072577 -0.3279507 1.1563655
0.16683485 -0.08883441 0.506961 -0.59109604 0.8018396 -0.20645641 -0.068961956 0.11022529
0.36501107 -0.042149607 -0.09729383 -0.8231098 -0.21867767 0.05141411 0.390993 0.05530692
-0.086893134 -0.5394291 -0.35343334 -0.20719394 -0.35402486 0.39414084 -0.28809717 0.02768447
-0.65971035 -0.7554232 -0.13915585 0.13936408 -0.3317943 -0.80080366 0.5619728 0.25400227
-0.26321736 0.44460344 -0.8478378 -0.5637522 0.14529409 -0.08976062 0.64122164 0.3895919
-0.2766732 -0.31717083 0.24910367 0.53947335 0.4214765 -0.4240493 -0.42062858 0.021306133
0.18406838 0.18618245 -0.6579881 -0.3416025 -1.8170042 0.6706542 -0.3254421 -1.4072037
0.24440747 0.61831546 -0.75158787 0.0042566876 0.079179734 0.4865726 -0.38364765 -0.6036031
-0.39000687 -0.4479326 -0.25549412 -0.15504573 -0.42167604 -0.94588053 -0.07314591 -0.40639538

embedder.emb_rnn.weight_hh_l0 f4 [60, 20]
00000000: 085d 7e3f f727 a3bf effb 753f c5f7 15bf
00000010: 5403 5cbf 90b1 7abf 6e39 7e3e f094 b8bc
00000020: f285 2c3e d5a2 c9be b51a 8c3f 4aea 74bf
00000030: e243 f03f 518b cc3e d2ab 50bf 0d21 3ebf
00000040: 6ee9 9d3f 25b3 47bf 6e7a 52be 6774 e33f
00000050: 62bf 63c0 acf3 2e41 17e4 fcbe 8b05 22c0
00000060: 6057 cfbf a141 16be cdc1 0040 a494 3f3f
00000070: 971f 0e40 3ddc 85c0 ab64 6c3f fc61 34bf
00000080: 08a8 a23f 8b12 9bbf d853 c340 5710 5cc0
00000090: 29a3 0f40 8b03 0abf d9be 2c40 11a5 9cbf
000000a0: bced 45bf 8645 b6bf b66b e73d db51 10bf
000000b0: 4938 493f fadc 7f3e fb4a 91bf 87a8 d3bf
000000c0: 5699 f4bf 7b50 be3f 046e 12bd 22fe a53f
000000d0: 9043 b6be aabb 22bf f0d2 e7bf 947c 223f
000000e0: 01f5 0f3f d2db babe 2c5c b4bf 708c 7f3f
000000f0: 4327 2abf d35b a4bf a0b0 183f 5c1d 9f40
00000100: a52c c23d f0ea 883f e869 5c40 b9e0 6d3f
00000110: 0045 86bf 7be1 3fbe 2a4f 2e40 f48c 9840
00000120: 6ce3 ac3d efe6 bf3f 0e07 3e3e 7dca b83f
00000130: 4f35 2d3f ecb9 703e ed75 22c0 5f94 833f
00000140: 9cb2 90bf 2002 a3bf 59f0 2bbf a5fb be3f
00000150: 54f3 4640 c01c ecbd e178 30bf ad7c 893f
00000160: 5f78 1ebf 8e40 8dbf a5e4 08bf 0d80 683d
00000170: 9971 31bf 6aff cd3e ea80 42bf 300b 9c3f
00000180: c0e9 b33f f3dc 8e3e 4891 623f 50dc 27be
00000190: 860a f4bc bc9c 043f f756 5b3e 7f8d 3dc0
000001a0: b334 7a3f cac7 4ebb aa4a ab3f 7b34 e23f
000001b0: 5198 bb3f 7605 5e3f 2230 90bf 6fb0 a43e
000001c0: 601e acbf 0af1 dabd e91e 94be 6af5 633f
000001d0: e4ea 2f3e 2509 96bf 6522 87c0 cdc7 9abf
000001e0: f81e 6fbf 43cd 4b40 4184 6fbf 83f5 c1bf
000001f0: 1c1a bb3f bcea 563f a04c 7f3f 0fa3 b43f
00000200: 2ac0 973f 2c70 a8bf 8bda b63f 662c 8a3f
00000210: 2d07 04bf a91a 36c0 d433 c9be 0851 19c0
00000220: f49c e7bf e334 3340 8f59 7240 1869 1940
00000230: 65b2 06bf 8d84 bcbf 154d 093f 39ae 26c0
00000240: 2141 963f ea3a 86bd c4a2 1940 a9e6 9a3f
00000250: d95c c03f 598a d03f 1244 a13e b972 40c0
00000260: cc4c 373f 88b4 943e e3c6 58bf 0d0e b53e
00000270: 6e89 08c0 9f4b a13e f030 f1be 136e bdbe
00000280: 7dfb 143f 090a b03e 07b4 15bf 1488 983e
00000290: b3e9 ccbe 8c53 ed3e 7e06 923e e8ad 85be
000002a0: a7b6 f9be 9a61 763e d120 babe 9fcf cabe
000002b0: f6ec 01bf 4048 67bf c006 00bf 809f 8fbe
000002c0: 8795 ad3d ccde 1b3f 5d6d 793c 6c81 4fbf
000002d0: efe9 053e 6469 d8bf e0d8 b13f dcb1 2040
000002e0: 3448 a8bf b7af e2be 347b 063f 7edd d4bf
000002f0: 0cbc ccbf 193c 03bf f8a5 a3bf 55bd 3340
00000300: 6feb f9be 52b7 f63f d63b bfbf dd17 d73f
00000310: ecb9 3e3f 31ed 613f 096b 3ec0 ea3d 913e
00000320: 71a0 49bd 2194 dfbf 2a5c dfbd b155 69c0
00000330: b04f 84be 181a 10bf 9e5f c9bf 9f46 dabe
00000340: 6c46 723f d7cb 4ebf 96fa 913f be4e 0ac0
00000350: 403f f0bd 6a69 1abf 1aa1 0440 1ff6 d8be
00000360: 6be6 dcbf 8560 e53e 59e7 a2bf c8ef ae3e
00000370: 2543 ca3f de99 7bbf 0007 213d ee86 08c0
00000380: 5da6 ae3f 41ee c63e a00b 2ac0 ccf5 0e40
00000390: 9d99 02bf d94e 4e40 6a0d e33f c781 8ac0
000003a0: 91f9 6d3f 7383 1c40 9628 e9be 9f93 b1be
000003b0: 8c45 ccbf c079 cf3e 84e1 82c0 75e7 f43f
000003c0: c9be 30c0 8f25 8040 1f3d 5abe b66b 9440
000003d0: 4b30 d0c0 5dc6 bdbf 95b2 0d40 6b79 10c0
000003e0: b520 d03f cfdb e93f ee55 ddbf 0935 23c0
000003f0: 2701 0e40 5f9e b13f f750 2740 4d9c f2bf
0.99360704 -1.2746571 0.96087545 -0.5858119 -0.8594258 -0.9792719 0.24826595 -0.022531956
0.16847971 -0.39382043 1.094565 -0.95669997 1.8770716 0.3995004 -0.81512177 -0.7426918
1.2336862 -0.7800773 -0.20554516 1.7769898 -3.558556 10.93449 -0.4939277 -2.5315883
-1.619854 -0.14673473 2.0118287 0.7483618 2.220678 -4.1831346 0.9234111 -0.7046201
1.2707529 -1.2115034 6.103985 -3.4384973 2.2443335 -0.53911656 2.6991484 -1.2237874
-0.7731588 -1.4239967 0.11299841 -0.563749 0.7860151 0.2498664 -1.1351007 -1.6535805
-1.9109294 1.4868311 -0.03574945 1.296818 -0.3559842 -0.635676 -1.8111248 0.6347134
0.5623322 -0.36495835 -1.4090629 0.99823666 -0.6646616 -1.2840523 0.5964451 4.972334
0.094811715 1.0696697 3.443964 0.92921025 -1.0489807 -0.18738358 2.7235818 4.767206
0.08441815 1.499235 0.18557379 1.4436795 0.6765947 0.23508424 -2.5384476 1.0279654
-1.1304507 -1.2735023 -0.67163616 1.4920546 3.1086016 -0.11528921 -0.68934447 1.0741173
-0.6190242 -1.1035326 -0.53473884 0.056762744 -0.6931396 0.40233928 -0.7597796 1.2190914
1.405571 0.27902946 0.8850293 -0.16392636 -0.029790174 0.5180166 0.21419893 -2.9617612
0.9773666 -0.003155219 1.3382161 1.7672266 1.4655858 0.8672708 -1.1264689 0.32165858
-1.344677 -0.10690506 -0.28929833 0.8904635 0.17179447 -1.1721541 -4.2229486 -1.2092224
-0.9340663 3.1844032 -0.9356118 -1.5153049 1.4617343 0.83951926 0.99726295 1.4112262
1.1855519 -1.3159232 1.4285444 1.0794799 -0.5157345 -2.8453772 -0.39297354 -2.3955708
-1.8094773 2.800103 3.7867162 2.3970394 -0.5261596 -1.4727951 0.5363324 -2.6043837
1.1738626 -0.06554206 2.4005594 1.2101642 1.5028335 1.629222 0.31497246 -3.007002
0.7160156 0.29043984 -0.8467848 0.35362282 -2.133388 0.31503007 -0.4710765 -0.36998042
0.5819624 0.34382656 -0.58477825 0.2979132 -0.40022048 0.46352804 0.28520578 -0.26109242
-0.48772165 0.2406067 -0.36353162 -0.39611527 -0.507522 -0.9034462 -0.500103 -0.28051376
0.08475786 0.60886836 0.015223828 -0.8105686 0.1307752 -1.6907163 1.389431 2.5108557
-1.3147035 -0.44274685 0.52531743 -1.6630094 -1.5994887 -0.51263577 -1.2785025 2.808431
-0.48812434 1.9274695 -1.4940135 1.6804157 0.74502444 0.8825255 -2.975283 0.2836755
-0.049225274 -1.746708 -0.10906251 -3.6458552 -0.25842047 -0.56289816 -1.5732305 -0.42632005
0.94638705 -0.80779785 1.1404598 -2.161056 -0.11730814 -0.603171 2.0723329 -0.42375275
-1.7257818 0.448002 -1.2726852 0.34167314 1.5801741 -0.9828166 0.039313316 -2.1332355
1.364452 0.38853648 -2.6569595 2.2337523 -0.51015645 3.2235625 1.7738469 -4.328342
0.92958933 2.445523 -0.45538777 -0.34682938 -1.5958724 0.40522575 -4.090029 1.9133135
-2.7616446 4.004585 -0.21312378 4.6381483 -6.505895 -1.4826161 2.2140248 -2.2574108
1.6259981 1.8270205 -1.7291849 -2.550112 2.2188203 1.3876456 2.6143167 -1.8953949

embedder.emb_rnn.bias_ih_l0 f4 [60]
00000000: 0a43 973f bd1e b63f 5ba1 e3bf 1287 3b3f
00000010: 4239 d83e a408 c63f 3707 afbe b6c0 803f
00000020: abaa d03e 9698 593f 9fb9 28bf 3524 ac3f
00000030: 0d56 2240 5a83 8d3f 67d9 d63e c72e 2d3f
00000040: ae3d d43f 72ab f43f 7b30 a83e e87f 2f3f
00000050: 41ee 973f 0a0f 953f 4ea8 763f f0db 873f
00000060: 7cd8 7a3f 1245 2c3f bbd5 8b3f 9646 b53f
00000070: ba51 873f 31d6 1a3f 063b 983f c3f5 a13f
00000080: cf89 073f 2ead 933f aa2d 913f 835d 4c3f
00000090: fc99 493f 4771 1f3f 13e4 933f 48b1 893f
000000a0: e71c 2b3f 1cac 2d3f 489c df3f 03d3 333f
000000b0: 4854 8e3f d2e2 bd3e 2b79 cb3f 2312 823f
000000c0: 7903 8b3f f193 803f 398e 913f 9960 893f
000000d0: 486b c43f 6f5a f3bd f9ec 933f 1950 a83f
000000e0: e719 dc3e a6d3 893c 8105 d8be f476 ac3f
1.1817334 1.422813 -1.7783617 0.73252976 0.42231184 1.5471387 -0.34185192 1.0058811
0.4075521 0.8499845 -0.65908235 1.344855 2.5365021 1.105571 0.4196274 0.676495
1.6581323 1.9114821 0.32849488 0.68554544 1.1869584 1.1645215 0.9635056 1.0613995
0.9798658 0.6729289 1.09246 1.4162166 1.0571816 0.6048308 1.1893013 1.2653126
0.52944654 1.1537225 1.134206 0.7983019 0.78750587 0.6228222 1.1553978 1.0757227
0.66840976 0.67840743 1.7469568 0.70243853 1.1119471 0.37087113 1.5896353 1.0161785
1.0860435 1.0045148 1.1371528 1.0732604 1.534524 -0.11882483 1.1556693 1.3149444
0.42988512 0.016824555 -0.421917 1.3473802

embedder.emb_rnn.bias_hh_l0 f4 [60]
00000000: fe13 3a3e 7e7a d83e 4acf 31c0 7ff1 88be
00000010: 94e6 13bf e312 0c3f f9c2 abbf d6eb c03b
00000020: 18ad 17bf 669b 19be 925c d4bf c794 b03e
00000030: 98ae c43f a637 d83d b892 14bf f5a2 a5be
00000040: 8877 283f 2952 693f 93e7 2bbf e7fd a0be
00000050: 3371 3f3e 6988 283e 5c7f 15bd 7d75 7b3d
00000060: aef7 a4bc 7775 a7be 5f6e bd3d 9122 d53e
00000070: 131d 6a3d 5753 cabe 28e3 413e d4dd 873e
00000080: 52ee f0be e678 1d3e 1761 093e 9e89 4ebe
00000090: be93 59be 9821 c1be 121b 1f3e cf11 9b3d
000000a0: 0777 e4bf 20d8 81bf 8a1a ecbf bc2b 64bf
000000b0: 4d25 b6bf 329b 0cbf 2ede 2fc0 77d8 82bf
000000c0: 73bf eb3d af0b 5d3e 5e9d 22c0 1605 cd3e
000000d0: 2a51 1540 2a6a 0540 5b02 7abf aabf 8fbf
000000e0: 05d9 2ebf 6369 1bc0 315f 893f 59f8 ddbe
0.18171689 0.42280954 -2.778277 -0.26746747 -0.5777371 0.5471632 -1.3418876 0.005887489
-0.59248495 -0.15000686 -1.659075 0.34488508 1.5365782 0.10557489 -0.58036375 -0.3235089
0.6580739 0.9114099 -0.6715023 -0.31443712 0.18695526 0.16458286 -0.036498412 0.061391342
-0.020137634 -0.32706806 0.09249567 0.41627935 0.057156634 -0.39516708 0.1893431 0.2653643
-0.47056824 0.1537815 0.13415943 -0.20169684 -0.21247765 -0.37720942 0.1553767 0.07571756
-1.7848824 -1.0144081 -1.8445599 -0.89129233 -1.4230133 -0.5492431 -2.7479358 -1.022231
0.115111254 0.21586488 -2.540855 0.40042943 2.3330789 2.0846047 -0.97659844 -1.1230366
-0.68299896 -2.4283073 1.0732175 -0.43353537

embedder.emb_rnn.weight_ih_l1 f4 [60, 20]
00000000: db52 47be dd5e bf3f 7dca 34bf 9098 bfbd
00000010: f498 27be 5950 81be b941 02bf ba75 3ebe
00000020: 40a7 813e 0cf0 7ac0 edd5 d5bf 3fa4 c13e
00000030: bddf f6bc 29f5 eabe afa3 9e3e 223b 50bf
00000040: 7946 f23f 04ef 6fbf da04 76c0 24dd 103e
00000050: 99c9 55be 7f15 89bf 7e05 91be 19f9 423f
00000060: 046d 90bf 385b 0fbf 5ae9 ad3e 8380 223e
00000070: 8d71 0dbd 178c 223f e933 d53e 69d1 b03e
00000080: 8fe4 483f 524f d13f 7ebc fcbd 93a8 383f
00000090: 8dda 103f 1538 913d cc5f 0440 80fe cd3e
000000a0: 32bb 3a3e e0c3 a3bc 0707 30bf c475 d53e
000000b0: 25f8 a0be 5991 57be 5e2b a83f 3720 d6be
000000c0: 1071 bd3c 50cb 86bf 10f8 523f 5f6e cb3f
000000d0: 8ae0 45bf 4409 0ebf 4173 8ebe 5f7f 293f
000000e0: c20d 0240 4c1b 863f 76b6 813f 6ff0 073f
000000f0: 1167 40be fb76 af3f 1cab 083f bc8d 8f3f
00000100: d855 0abf 769a c8bd aebb 42be 70b5 e5be
00000110: e3b9 6d3e eb98 003f 5d4a ccbe 451c f8be
00000120: 270e e93e 8681 ffbe d244 5abf de41 89be
00000130: 81a7 203f 8330 953d 2ca5 923d 1131 bdbe
00000140: 5253 8cbe f772 f8be 767d 99be 5bd8 9fbe
00000150: 9c29 9fbe 15c2 52be b549 bcbe 1c00 8fbf
00000160: 3f0f 00bf 4552 a3bf 487a 06bf 7997 e6be
00000170: e6f7 913e d467 533f b8fb dc3e 768b 3d3f
00000180: 5e9f 32bf 086f 33bf 6e40 523f a09e 933e
00000190: 2969 9d3d f9a6 e5bd d630 b1bd ac36 0fbf
000001a0: 13b0 7d3e 155d a53e 31a1 bd3f 6cb2 75bf
000001b0: 9bc3 3d3f 5351 b7bf 344e 893f 7839 20bf
000001c0: b8ec 1a3f 8f5f 9d3f 58be 273f 68e6 0dbe
000001d0: d67b 4dbf f1e3 d03f e2a4 d7bf c50f 0d3f
000001e0: 23cb 313e 0f36 5fbf 2548 a33f 2ded b23f
000001f0: 78a8 c4bd 32a4 873d 2306 833e 0099 0c3e
00000200: fbed 87be f882 1abf 9645 04bf 471c 97be
00000210: 7c1b ecbc c44d 383f f80a febd bdfb 823d
00000220: 10bf e33e 8b03 fbbe 0f0c b2bd 3714 9abc
00000230: 9f1b ef3d 3558 8a3e e84a 813c 059b 433f
00000240: 4819 0a3f edde dd3e 2dd2 92bd 65a4 0a3d
00000250: 6f9d f73e d67f 1cbd c09c b23e f70d 163f
00000260: 250f 243e 82cf d43e 4f99 a1be 42dd 2e3f
00000270: d898 6fbf 1970 d63e 9d25 50bf a756 93be
00000280: 5840 da3e 6002 2b3e 9c9e 9b3d b6ec 0f3f
00000290: bb76 8abe 7148 83be 977f 1cbf 103d 06bf
000002a0: 7124 bdbd d221 aa3e eb54 b7be 0b04 aabe
000002b0: 6f97 093f e244 d6bd 9b14 a73e 2e16 eabe
000002c0: a84d bfbf 4ea8 bcbe 960d 93bf 812b a93e
000002d0: 789d 813e e4df 843f 5473 24be 2765 fabb
000002e0: 5133 813b d6d8 f53e 1268 6b3f 3693 1ebe
000002f0: b962 20bf 663d 86be 6774 8bbf 00fa aabd
00000300: fa27 72bf a6c7 a9be 3d7d 0fbf 6812 9e3e
00000310: eb4c 1440 2be0 63bf e345 8b3e 5fcc 31bf
00000320: 1706 ae3e 3690 933e 7707 65be 09b9 743f
00000330: 36b6 38bf 6759 cabe ff0e a1be f356 b3be
00000340: c0f2 2b3f 6964 1a3f 161f 693d f798 783f
00000350: ac89 af3f 3314 8abd 8722 e9bd 75fe 24bf
00000360: 22a5 85bf 40f0 cebe 1e3d 513e 7d61 663e
00000370: 0e4e 1b40 f4d0 23bf 314c 713f 5e53 7f3f
00000380: 0f97 ac3f c842 b03f fabf d83f 918a 283f
00000390: 5ba5 a9bf 4410 9abf 11ba 13c0 c20a fcbe
000003a0: b221 24c0 d22c 293f ce9a 513f 7891 24be
000003b0: b91d 1540 5c95 f83e a7ae 8fbf fa5b fbbf
000003c0: bd24 0e3f b2c9 7ebf bd90 8c3d fd36 123f
000003d0: cca2 dd3e 89f4 acbe e828 093f 4c0c a53e
000003e0: c314 a5bf 850f 6e3e 6bef ecbe 36d4 33bd
000003f0: 60ca c3bd e1ff 84be 673c ef3e c081 85be
-0.194652 1.4950825 -0.7062147 -0.09355271 -0.1636694 -0.25256613 -0.50881535 -0.18599597
0.25322914 -3.9209013 -1.670591 0.37820622 -0.030135984 -0.45890167 0.30984256 -0.8134023
1.8927757 -0.93724084 -3.844046 0.14146858 -0.20877685 -1.0709685 -0.28324503 0.7616134
-1.1283269 -0.55998564 0.33967096 0.15869336 -0.03453212 0.6349501 0.41641167 0.34534767
0.7847375 1.6352332 -0.123406395 0.72132224 0.5658348 0.07090775 2.068347 0.4023323
0.18235472 -0.019990861 -0.6876072 0.4169141 -0.3143932 -0.2105154 1.3138235 -0.41821453
0.023125201 -1.0530796 0.82409763 1.5893058 -0.77295744 -0.5548289 -0.27822307 0.6620998
2.0320897 1.047708 1.0133808 0.5310125 -0.18789317 1.3708185 0.5338609 1.1215129
-0.5403724 -0.09795086 -0.19016907 -0.44864988 0.23215441 0.50233334 -0.39900485 -0.48459068
0.4551861 -0.49903506 -0.8526126 -0.26808065 0.6275559 0.072846435 0.0716041 -0.36951497
-0.27407318 -0.4852521 -0.29978532 -0.31219754 -0.31086433 -0.20581849 -0.36774984 -1.1171908
-0.50023264 -1.2759482 -0.52530336 -0.4503744 0.28509444 0.82580304 0.43160796 0.74040926
-0.69774425 -0.70091295 0.8212956 0.2883196 0.07686073 -0.11213488 -0.08651893 -0.559428
0.24774198 0.32297578 1.4814817 -0.95975375 0.74126595 -1.4321693 1.0726991 -0.6258769
0.60517454 1.2294787 0.65524817 -0.13857424 -0.80267084 1.6319562 -1.6847193 0.5510219
0.17362647 -0.8719186 1.2756392 1.397863 -0.09602445 0.06623115 0.2559062 0.1373024
-0.26548752 -0.6035609 -0.5166868 -0.2951376 -0.0288217 0.7199366 -0.12404436 0.063956715
0.44481707 -0.4902614 -0.08693706 -0.018808467 0.1167519 0.27020422 0.015782788 0.76408416
0.53944826 0.4333414 -0.07168994 0.033848185 0.483623 -0.03820785 0.34885216 0.5861506
0.16021402 0.41564566 -0.31562278 0.6830636 -0.93592596 0.418824 -0.81307393 -0.28777048
0.42627215 0.16700125 0.07598612 0.5622057 -0.2704371 -0.25641206 -0.61132187 -0.52436924
-0.09235466 0.33228928 -0.35806975 -0.3320621 0.53746694 -0.10462357 0.32632908 -0.45720047
-1.4945574 -0.36847156 -1.1488521 0.33041003 0.25315452 1.0380826 -0.16059619 -0.007641453
0.003942885 0.48016995 0.91955674 -0.15485844 -0.6265064 -0.26218718 -1.0894898 -0.08348465
-0.9459225 -0.33160132 -0.56050473 0.30873418 2.3171947 -0.8901393 0.27201757 -0.6945247
0.3398902 0.28820962 -0.22366129 0.9559484 -0.7215303 -0.39521334 -0.31456754 -0.35027274
0.6716728 0.60309464 0.05691441 0.97108406 1.3713889 -0.06742134 -0.11383539 -0.6445077
-1.044102 -0.4041767 0.2043347 0.22498126 2.426639 -0.6399071 0.94256884 0.99736583
1.34836 1.377038 1.6933587 0.65836436 -1.3253587 -1.2036214 -2.3082316 -0.49226958
-2.5645566 0.66084015 0.8187684 -0.16071117 2.3299391 0.48551452 -1.1225175 -1.9637444
0.5552481 -0.9952651 0.06863544 0.57115155 0.43288267 -0.33780316 0.53578043 0.32235944
-1.2896961 0.23248108 -0.4627641 -0.043903552 -0.09560084 -0.2597647 0.4672577 -0.26075554

embedder.emb_rnn.weight_hh_l1 f4 [60, 20]
00000000: 0849 0cbe 32ca 763f e27c 15bf 3457 15bf
00000010: 2cfb 103f efb1 08c0 42c4 0b3f 061b 2c3e
00000020: 6eb4 cf3f b68b 61bf c82f 70be 116e 373f
00000030: 5545 49bf 8ee9 2e3f f9b8 60bf 97fe f63d
00000040: 8ab3 f1bc b7e7 3c3e b731 2cbf e3e8 92bf
00000050: 1e78 3bbf 9139 123f 43c6 d53e dfd6 0bc0
00000060: bbfc b1be 9f94 f7bf 7935 98bf 6653 0fc0
00000070: 43ba ee3f 1c0e b03e 5a0b d6bf 2d66 50bf
00000080: f6f2 f93f e0ca 52c0 7498 9b3f 4c58 873e
00000090: 591c 44bf 74cc e2bf 6a66 db3f 0a44 0940
000000a0: 1d36 f63e 99f6 f2bf a6ee f2be 617d dabe
000000b0: 18a1 e33f f530 7cc0 c6d8 a240 2ca5 0740
000000c0: a4ab bac0 b0c2 1b40 17eb abbf 9ae3 1ebf
000000d0: db63 9740 6b71 0c40 705b 0240 39bc 803f
000000e0: 761c 5c40 480e 38bd 3528 d4be 38ca 05c0
000000f0: a239 1dbf 2481 533f 7b6f 8bbe f1b9 fa3d
00000100: 4f5f 4dbe ff1e 49bf eaf4 e2be b083 ff3e
00000110: 52a0 d63e de37 b0bd 3600 e63e 1326 49bf
00000120: b74c 24bf 24d9 a9bb f81c afbe aec0 22bf
00000130: 1431 6cbe 1f52 80be fc39 efbd c6f9 8b3e
00000140: 4bfb d93d 110e 663f e8fa a3be e53e 3ebf
00000150: 606d 1f3f e40a 1c3f 3d05 36bf 047b 45bf
00000160: b32f 6f3f 89e2 4b3f b2a3 2e3f 8594 813d
00000170: 7864 86be 6cff 9abc 3a84 55bf 4a6b 83be
00000180: dd49 553f 66f1 67bf 00ad 893e 960b 5e3d
00000190: 365f b6bf a7c7 45be 39d9 b83f aedf 90bf
000001a0: 57fa 01bf b1c4 9340 84ae 75bf ed0f 713b
000001b0: 5b34 c1bf dd1a 3040 8846 7c3f 50c1 a6bf
000001c0: 18f1 833f 867d 93bf e8ca 4bbf 5d8b c7bf
000001d0: 551f 0a40 2d55 d0be e70c d83f a710 b13f
000001e0: 2cc3 a6be 4c27 57be 712e 233f 71eb 39bf
000001f0: 61d3 07bf dfb7 183f 01a5 69bf 7318 b9bf
00000200: 514d ad3d 8b04 9d3f bd57 823f d98b e0bc
00000210: b295 05bf 335f 94bf 71bb 9d3e 5e8c 69be
00000220: 1512 5cbe d0a5 1ebf bf91 fc3e fe19 953f
00000230: 1e4d 15bf e38e a8bc 881b dc3e 8dbc 27bf
00000240: 2348 4dbf 2014 cb3e efd1 6fbf 99d3 7cbf
00000250: e6c2 7abe 12b5 1a3e bb40 713f f816 2bbe
00000260: 8660 a2bf 736b d2be 4147 b53e ca9d 7fbf
00000270: 82f2 d23e ad02 66bf f6c0 543f d64d 453f
00000280: b29e d3bf 3122 023f b872 a3be e6e0 bdbe
00000290: 975b 9c3c 9d10 383e e897 a43d 22e2 a0be
000002a0: 6fbc d43e bfb8 02be 95e7 f33e 5761 873f
000002b0: 73b2 b73d 4238 78be b9ce 313e cec2 513e
000002c0: 1d7f 123f 3712 3c3e 95fb ab3e 1cfe a4bf
000002d0: 088f a23f 0386 b9be 1230 b0bf 7b09 533f
000002e0: 5db5 0140 0937 84bf 440e cf3f 9465 cf3e
000002f0: cd3a b43e 7bbd 51bf 9556 d1bf bca1 8a3f
00000300: 2cc4 98bf 398b 2040 e769 1fbe 8ad8 61bd
00000310: 0b50 08bf f9dd 993e 5417 b0bf d5a7 873f
00000320: e061 6bbe f5c8 5bbf 6f3d 55bf f6bb 88bf
00000330: daa6 b4be c967 c6bf 58c8 81bf 6966 1a40
00000340: 14ce 3b3f d506 0e3f a5ea 393e 980a 05c0
00000350: 553d cb3d 4d3c 14bf 9402 bb3e 2173 823f
00000360: 2acc 31bf ea77 91be bbbc a23e e745 8e3d
00000370: aa83 d4bf c2d3 b43f c22a a0bf 6496 c4bf
00000380: 886f db3e c1b9 2fbf b0f7 8b40 9d08 49bf
00000390: 61b6 b8bf 6a27 59c0 c5cb 273f 19c8 893f
000003a0: f139 b4bf 5791 2fbe 676c 59bf b73c b53f
000003b0: 2cc1 cbbe 66f2 1c40 1e84 e8bf b165 063f
000003c0: 4623 8c3c d8fd 30bd b90f ebbe 5497 4bbb
000003d0: aefb 003c 2177 5bbf a6ed 5d3f e52b ffbe
000003e0: 195e b53f 1e17 76bf a4d6 43be 2457 5e3e
000003f0: e348 ad3d 4deb 5d3f 7c92 653e 0601 983e
-0.13699734 0.96402276 -0.5839368 -0.58336186 0.5663326 -2.1358602 0.5459634 0.16807184
1.6226938 -0.88103807 -0.23455727 0.71652323 -0.7862142 0.68325126 -0.87782246 0.12060278
-0.029504556 0.18447767 -0.6726336 -1.1477321 -0.7323016 0.5711909 0.41752824 -2.1849897
-0.3476313 -1.934223 -1.1891319 -2.2394652 1.8650593 0.34385765 -1.6722214 -0.8140591
1.9527271 -3.2936325 1.21559 0.26434553 -0.76605755 -1.7718644 1.7140629 2.1447778
0.4808816 -1.8981506 -0.474477 -0.42673782 1.7783537 -3.940488 5.0889616 2.1194563
-5.833452 2.4337578 -1.3431119 -0.6206604 4.7309394 2.1944225 2.036831 1.0057441
3.439237 -0.044935495 -0.41436926 -2.0904675 -0.61416066 0.8261893 -0.2723349 0.12242497
-0.20055889 -0.7856292 -0.4432748 0.49905157 0.4191919 -0.08604406 0.44922036 -0.7857372
-0.6417956 -0.005183356 -0.3420179 -0.63575256 -0.23065597 -0.25062653 -0.116809815 0.27339
0.106436335 0.89865214 -0.32027364 -0.7431472 0.6227627 0.6095412 -0.71101743 -0.7714083
0.9343216 0.7964254 0.6821853 0.06327156 -0.26248527 -0.018920623 -0.83404887 -0.25667793
0.8331583 -0.9060272 0.268898 0.054210268 -1.4247806 -0.19314443 1.4441291 -1.1318262
-0.50772613 4.61776 -0.95969415 0.0036783174 -1.5094103 2.7516396 0.9854512 -1.3027744
1.0307951 -1.1522682 -0.79606485 -1.5589405 2.1581624 -0.40689984 1.6878937 1.3833207
-0.3257078 -0.21011084 0.6374274 -0.7262488 -0.53056914 0.59655565 -0.912674 -1.4460586
0.084620126 1.2267011 1.0183026 -0.027410435 -0.5218154 -1.1591552 0.3080707 -0.22807452
-0.21491273 -0.6197176 0.49329945 1.1648557 -0.58320796 -0.020575946 0.42989755 -0.6552208
-0.80188197 0.39663792 -0.9367971 -0.9876037 -0.2448841 0.15108135 0.94239396 -0.1670798
-1.2685707 -0.41097602 0.35405925 -0.9985014 0.41200644 -0.8984783 0.83106935 0.77071893
-1.6532805 0.5083342 -0.3192346 -0.37085646 0.019086642 0.17975087 0.08036786 -0.31422526
0.41550013 -0.12765788 0.4763762 1.0576581 0.08969583 -0.2424021 0.17364015 0.20484468
0.5722521 0.18366323 0.3359038 -1.2890048 1.26999 -0.36235055 -1.376467 0.8243634
2.0266945 -1.0329295 1.6176229 0.40507185 0.3520111 -0.8192975 -1.6354548 1.0830607
-1.1934867 2.5084975 -0.15567742 -0.05513815 -0.53247136 0.30052164 -1.3757119 1.0598093
-0.22986555 -0.8585351 -0.83296865 -1.0682361 -0.35283548 -1.5500423 -1.0139265 2.4125006
0.73361325 0.55479175 0.18155916 -2.0787716 0.099238075 -0.5790451 0.36525404 1.0191385
-0.69452155 -0.284118 0.31784615 0.069469266 -1.6602681 1.4127123 -1.2513049 -1.5358396
0.4285853 -0.6864281 4.3739853 -0.7852877 -1.4430658 -3.3930306 0.655453 1.076419
-1.4080182 -0.17145287 -0.84931034 1.4159154 -0.39795816 2.4522948 -1.8165319 0.5249892
0.017106663 -0.043210834 -0.45910433 -0.003106554 0.007872505 -0.8572865 0.8669075 -0.49838176
1.4169341 -0.96129024 -0.19124848 0.21712929 0.08461168 0.86687165 0.2241916 0.2968828

embedder.emb_rnn.bias_ih_l1 f4 [60]
00000000: 0c80 503f e461 9d3f 954b 8d3f 8b56 4e3f
00000010: aaae 583f 04fe 7e3f 08d7 423f 6a55 783f
00000020: 56ea 943f 5b31 5b3f a49b a13f ac87 103f
00000030: 958e 0b3f eba9 433f 3000 6d3f 38b8 873f
00000040: 6095 753f e877 243f 8525 843f 19d8 d13e
00000050: 9225 543f 3ff6 83be 9388 5d3f 933e e03e
00000060: 680f 553f b303 b63e 1509 febd ff36 313f
00000070: 343a 753f 6b65 6d3f 23ab 5b3f b210 703f
00000080: 2d5a ca3e be00 123f df2e debe 2d06 263e
00000090: 3002 d63e 7b28 6a3f a8ba 4f3f 7f2a 383f
000000a0: cd0b 953f 1dc5 263f f30f 153f a5dd 4f3f
000000b0: 3fc1 6a3f cfab 253f 5855 653f 903e 403f
000000c0: 6f3e 383f b8b7 463f 5791 193f a9c7 a53f
000000d0: 0321 623f d2dd 5d3f 5bd0 573f 4fd5 513f
000000e0: b634 6a3f f800 663f 309d 263f 4018 743f
0.81445384 1.2295499 1.1038691 0.80600804 0.84641516 0.9960635 0.7610936 0.9700533
1.1634014 0.85622185 1.2625623 0.5645702 0.5451444 0.7643115 0.9257841 1.0603094
0.95931053 0.6424546 1.032395 0.40985182 0.8286983 -0.25773808 0.8653652 0.4379774
0.83226633 0.35549697 -0.12404076 0.6922454 0.95791936 0.92732877 0.8580801 0.93775475
0.39521924 0.5703238 -0.43395135 0.16213293 0.41798544 0.9146802 0.8114419 0.71939844
1.1644226 0.6514452 0.5822746 0.8119758 0.9170112 0.64715284 0.8958335 0.7509546
0.71970266 0.7762408 0.59987396 1.2951556 0.8833162 0.86666596 0.843023 0.8196611
0.9148668 0.8984523 0.650836 0.953495

embedder.emb_rnn.bias_hh_l1 f4 [60]
00000000: d8fc 3dbe e716 6b3e f5ae d43d 5cab 46be
00000010: 493e 1dbe 6496 80bb 359b 74be 3530 f5bc
00000020: b462 273e 643d 13be 1572 863e 61f5 debe
00000030: 08e2 e8be 8a55 71be 0312 98bd f226 773d
00000040: f598 26bd 7310 b7be 37ce 043d 7a14 17bf
00000050: 8d70 2fbe 00fe a0bf 4ed8 09be 5ce1 0fbf
00000060: bbc9 2bbe 48fd 24bf aae0 8fbf 9e96 9dbe
00000070: 895d 2cbd acca 94bd 6b52 11be aee4 7ebd
00000080: 68d1 1abf 1600 dcbe 3e8d b7bf 677d 56bf
00000090: 68fd 14bf abc2 aebd 6812 41be 65a9 8fbe
000000a0: da1d 36be 11dc b0be 3c50 0abf f1b7 65be
000000b0: 788f 09be 814b debe 388d 59be 1391 48be
000000c0: 4894 84be 164e ccbe fa8b 0cbf db64 a3bf
000000d0: 7d17 01be e43f 2abe 51ad 17be ebb9 2cbe
000000e0: b53a 21be 7f1e 3cbe e683 00bf ffe4 313e
-0.18553483 0.22957955 0.10384933 -0.19401306 -0.15355791 -0.003924178 -0.23887332 -0.029930213
0.16346246 -0.14378887 0.26258913 -0.43546584 -0.45484948 -0.23567787 -0.074253105 0.060339876
-0.040673215 -0.35754737 0.032423224 -0.5901562 -0.17132778 -1.2577515 -0.1346142 -0.56203246
-0.16776173 -0.64448977 -1.1240437 -0.30778974 -0.04208139 -0.07265219 -0.14191596 -0.062229805
-0.6047578 -0.42968816 -1.4339979 -0.837851 -0.5819917 -0.08533224 -0.18854678 -0.28058925
-0.17784825 -0.34542897 -0.5402868 -0.2243345 -0.13433635 -0.4341698 -0.21245277 -0.19586591
-0.2589438 -0.39903325 -0.5490109 -1.2765154 -0.12606616 -0.16625935 -0.14812209 -0.16867797
-0.15745051 -0.18371008 -0.5020126 0.17372511

embedder.emb_rnn.weight_ih_l2 f4 [60, 20]
00000000: f06a 603e 989c c6be 4db2 07bf afbc 4cbf
00000010: 14fa efbe 5ff4 0e3f 9281 013e f926 4c3f
00000020: 13a9 fcbf cdba c83f 23ec 623f 7069 e83e
00000030: 74b7 c2bd e0ed ddbf 4354 bf3d 73f9 03bf
00000040: d972 a83f feec 843e 0f38 a93e 877d 703f
00000050: 000f ab3f c640 4ebe be91 b9be d932 5b40
00000060: ef1f f0bf 9db3 3940 ad35 aa3f 28d4 5f3f
00000070: d901 2c41 76eb 1640 e863 26be ec5c 583e
00000080: 0fd5 a63f 9188 e0be 17bd 4b3f 47b9 ae3f
00000090: 019f b13f e6df 963e d549 a53e 0b29 4c3e
000000a0: 4f0b 92be a3e6 ebbe 2fc6 183e 78a1 7a3f
000000b0: 567c 063f dde3 703d a5b1 47c0 1c54 b53b
000000c0: e0f7 853f c814 243f 45ac f5bd 48d9 913e
000000d0: 51e0 b33f b99d 983d 6a88 a4bb ce92 8e3f
000000e0: f382 6a3f 7dd7 a7be 27cb eb3e 01e6 f93a
000000f0: b9ef 83bf 21f9 f9be 66dc 35bf e9c9 91be
00000100: f036 b93e f068 8240 8d0d a640 7ddc 8fbf
00000110: b7f8 1cbf c64e 0f40 d6e0 8a3e 67c9 7bbe
00000120: e6fe da3e f995 99bc 27ac 6c3f 5827 df3f
00000130: 2f42 88c0 c704 e83f 60f3 febf 8d8f 31c0
00000140: a5d4 e7bc e45f 0440 3813 023d 2fd3 ab3e
00000150: bed2 a83e 2284 993f 98be c13e 9621 63be
00000160: 14dd 9f3f 68b0 5c3f da41 853d 5a17 c63e
00000170: 6104 a8bf 6b68 113f b15f 3f3e 8ca5 0e3e
00000180: 0e3d 6dbe 05cd 3c3e 29e0 603e 6200 8b3f
00000190: 6c73 c03f 2dd9 4fbf bfe6 513e 0de2 cc40
000001a0: 1ae1 27bf 8957 38c0 06bb 1140 b726 9bbf
000001b0: 13e6 0740 edcc 1240 b5e4 43c0 0387 09c0
000001c0: d198 2640 6255 3b40 4a45 b8bf 0819 1b40
000001d0: 8c05 563f f626 3e40 82a0 e4be a072 65bc
000001e0: d723 03c0 060d 6cc0 8ae8 f4bf a7d0 bfbf
000001f0: d9c9 1540 2dc0 87bf 0524 e5bf f3b4 d740
00000200: 6e43 d5bf 9554 1ac0 88ce c2be 2f89 1d40
00000210: d3e5 813e b468 f03e 17e3 373f 9f35 c5bf
00000220: 980d ab3f c910 cfbe 1244 e83e b629 8840
00000230: 6dda 8cbf f4fb dabf b5d3 82bf f461 8340
00000240: 6f25 5fbf 45e0 ccc0 2922 22bf 0671 713e
00000250: 8bc2 f6c0 45cc 463f c975 28c0 3fcd 70bf
00000260: c4ec 65be 0f7b d03f dec2 92bf 39e6 0340
00000270: 3241 5dbf cf72 5640 fd4f 913f 96d9 11c0
00000280: 2e02 c9be b75b be3d 9793 17be d2cf 64be
00000290: edd5 99be 3ec2 c43e 9e4c 1ac0 c200 903e
000002a0: e733 cc3f 28a1 47bf c402 903e a145 6e3e
000002b0: d212 2dc0 68b7 c9bc c9a7 afbf a443 dc3e
000002c0: 1425 5cbf ddd7 163e 2d1a 9abe 3a6b 163e
000002d0: dfbf 76be e6dd 86bf 6471 bf3e 3500 483f
000002e0: 7aac 66bf 759c b33f 6b40 f03f e132 7fbf
000002f0: 3952 2fc1 7c9e 5cbf f2de b53e d611 ba3e
00000300: 4248 07be dc91 5dbf 1e62 433f 616d 10bf
00000310: 81a4 4c40 06fb 80bf 4b02 a73e 1018 1740
00000320: 46c3 72bf 8f90 823e 3d74 4d3d f5ba e23e
00000330: 7f93 41be 49b9 8b3f 745e 1940 aff2 813d
00000340: 94fb 01bf 4cdb ec3c e6a3 bf3e 60de b83e
00000350: ecb0 883e 9443 bc3e 1099 ba3e 3270 823f
00000360: d642 4bc0 ed5d d93f 871c 17bf 7e50 32c0
00000370: 30ad 1bbe 092d f6be 01ab 373f 7251 8bc0
00000380: d4f9 0dbf 5556 19c1 a369 4041 7542 32c0
00000390: 2cf0 3bc1 563a acc0 d3fe eb3f 9e01 ddbd
000003a0: c394 063f ff98 2dbf 41c2 723f 5491 89bf
000003b0: ac44 b240 7242 a3be 898b 7e3f 19c8 aa3e
000003c0: 96a4 9abf 00e4 d8bf 429f 813e b94e 2bc0
000003d0: 41cf 793d c633 9dbf 25ed 0cbf 1643 07bf
000003e0: 915d 0ebf d621 bbbf bf80 0d3f 8078 fdbe
000003f0: 1f31 47bf 3cf9 a0bc 4a88 1a3e 6652 b73e
0.21915793 -0.38791347 -0.5300644 -0.7997541 -0.46870482 0.5584163 0.12647083 0.7974697
-1.9739097 1.5682007 0.88641566 0.45392942 -0.09507647 -1.7338219 0.093422435 -0.51552504
1.3160049 0.2596206 0.33050582 0.9394154 1.3363953 -0.20141897 -0.36244005 3.4249785
-1.8759745 2.9015877 1.329763 0.874331 10.750451 2.3581214 -0.16249049 0.21129197
1.303377 -0.43854192 0.79585403 1.3650292 1.3876649 0.29467696 0.32282892 0.19937532
-0.28524253 -0.460744 0.14919351 0.9790263 0.5253347 0.058811057 -3.1202176 0.0055337083
1.046627 0.6409421 -0.119957484 0.28486085 1.4052831 0.07451958 -0.0050211446 1.1138551
0.9160606 -0.32781592 0.4605343 0.0019065739 -1.0307533 -0.48822883 -0.71039426 -0.28474358
0.36174726 4.0753098 5.189154 -1.1239163 -0.6131701 2.239183 0.2712466 -0.24588548
0.42772597 -0.01874827 0.92450184 1.7433882 -4.258079 1.8126458 -1.9918022 -2.7743866
-0.028299639 2.0683527 0.03175661 0.33559558 0.32973284 1.1993449 0.37840724 -0.22180781
1.2489343 0.86206675 0.06506701 0.3868969 -1.3126336 0.56799954 0.18688847 0.13930339
-0.23167822 0.18437584 0.2196051 1.0859492 1.5035224 -0.8119076 0.20498179 6.402594
-0.6557785 -2.8803427 2.27704 -1.212119 2.1234176 2.2937577 -3.0608342 -2.1488655
2.6030772 2.9270864 -1.4396145 2.4234028 0.83602214 2.971128 -0.44653708 -0.0140043795
-2.0490625 -3.688295 -1.9133465 -1.4985551 2.3404448 -1.0605522 -1.7901617 6.7408385
-1.6661203 -2.4114125 -0.38048196 2.461498 0.25370654 0.46954882 0.71830887 -1.5406989
1.3363523 -0.40442494 0.45364434 4.2550917 -1.1004158 -1.710814 -1.0220858 4.105707
-0.87166494 -6.4023767 -0.63333374 0.23578271 -7.711248 0.7765544 -2.632189 -0.9406318
-0.224536 1.6287555 -1.1465719 2.0609267 -0.86427605 3.3507574 1.1352535 -2.2789054
-0.39259475 0.09294837 -0.14802395 -0.22344902 -0.30046025 0.38429445 -2.4109263 0.28125578
1.5953339 -0.7798028 0.2812711 0.23268749 -2.7042737 -0.024623588 -1.3723079 0.43020356
-0.85994077 0.14730783 -0.30098096 0.14689341 -0.2409663 -1.0536468 0.37391198 0.78125316
-0.9010693 1.4032122 1.8769659 -0.9968701 -10.957574 -0.8617933 0.35521656 0.36341733
-0.13211158 -0.8655069 0.7632159 -0.564169 3.1975405 -1.0076606 0.32618937 2.3608437
-0.94829214 0.25500914 0.05015968 0.44283262 -0.18903922 1.091592 2.39639 0.06345116
-0.507745 0.028913163 0.37429732 0.3610716 0.2669748 0.36770308 0.36444902 1.0190489
-3.1759543 1.6981789 -0.59027904 -2.7861629 -0.15202785 -0.48081234 0.71745306 -4.353692
-0.5545933 -9.583577 12.02579 -2.7853062 -11.746136 -5.382121 1.8437141 -0.10791324
0.5257074 -0.6781158 0.9482766 -1.0747476 5.570883 -0.3188663 0.99431664 0.33355787
-1.2081478 -1.694458 0.25316817 -2.6766798 0.06098867 -1.2281425 -0.55049354 -0.5283674
-0.5561152 -1.4619701 0.55274576 -0.49505997 -0.7780933 -0.019650094 0.15091053 0.35805053

embedder.emb_rnn.weight_hh_l2 f4 [60, 20]
00000000: 4952 523e 5e4f f83e ea0a 2e3d 4645 0b3f
00000010: 4f73 513f efb8 19be fa95 61be 2f45 ddbd
00000020: 2a7e 6c3e 32de 363f 0315 093e 1ad0 6d3f
00000030: 4d7a 41bf 6bef 2b3f e7bb 983e 8baf 2abe
00000040: 32e8 d2be 442b 01be 3cd5 06be f44b 853d
00000050: 7567 a33f 75ef 8a3f bc58 39bf 1996 223f
00000060: 7822 b740 7e61 643f 81ed 0dbe 9872 86be
00000070: d079 1d40 455c c5be 55cb e0bf 3ef9 c53f
00000080: 7d76 6e3f 1082 c43f 970f c3be 7b99 dcbe
00000090: 030d 53bf 5b65 5b3f d0f2 0fbf cc73 07c0
000000a0: 82c3 c03e ebc9 28bf e4c3 0940 f9b1 593f
000000b0: dc17 673e 07a3 243e 9117 90bd 58d9 9f3d
000000c0: 1366 02bf a081 b43d e0ba c53e daca 1ebf
000000d0: 3169 1fbf 34c8 d4bd 0795 dbbe 3fee 9abc
000000e0: 5120 23be d6b5 debe a392 073e 0291 a8bc
000000f0: 7454 54bf 14d8 5fbf e664 a7bf 94c2 7840
00000100: ff0e 15c0 8faa c5bf d244 d3be e7fe 97bf
00000110: 2f6f 21c0 b5b4 6e3f 959d 56bf c3fa 0fc0
00000120: 437a e9bf a20e d7bf 4ef2 e9bf 781c dfbe
00000130: 7c7e 863f 7e3c 78bf d2ca a13f 87fa 203f
00000140: 38e5 0cbf 45a8 bdbe c258 19bd 5e98 803f
00000150: 5390 2d40 eece 5abf 768c 82bf f535 97bf
00000160: a997 953d 0e59 a1be 9753 a3bf af54 85be
00000170: 3fd1 b6bf 5b99 93bf 1bc2 afbf 044d 0ebf
00000180: d1bf 54be 2d47 76bf bdec 32be 0998 8c3d
00000190: 9f87 0940 55e0 c33f 1ef8 f4bf 2ee4 773f
000001a0: 46ea e6be 6b81 4ebf 7cdf be40 068d a940
000001b0: 05bc d9bf dca2 23c0 4a14 5a40 3bcc fdbf
000001c0: 0f12 0e40 d50c cc3d c6f5 1a40 da3d 2ebf
000001d0: 3a76 8ebf c8a6 063f ea9f 613f c400 c540
000001e0: d41a f3bf 0923 6e3b d08c 8a3f fb82 edbf
000001f0: 56ae 313f 6182 10c0 7d6a cfbf 3b81 82bf
00000200: 092b 21c0 818c 533f 1adc 2fbd 77b5 563f
00000210: 0487 60c0 5382 d9bf 8480 03c0 1777 cdbf
00000220: 7b90 fe3f 7dd4 c3bf a178 963f 21f9 80bc
00000230: 0122 c23f 729b 903e ef91 2abf 811c 9e3f
00000240: b679 973f 456b 043f 77e7 c5bf 034b 2c3d
00000250: 3555 00bf e9ca b240 bc9d 3040 ba84 9f3e
00000260: 3f57 b0be 8ebb 4a3f 384a 36bf 3570 543f
00000270: 945c aac0 47df e63f c97e da3f 0dfc 4b40
00000280: 9116 853f 5a96 203e 9fb3 10bd a324 ce3e
00000290: 78a2 4b3f a056 02be d760 173f be48 963f
000002a0: e233 083f 254a 84bd dc7d 92bf d560 c1bf
000002b0: 2a82 443f 97ab 843e 73ea c0be 0c1e 6a3f
000002c0: 544a 913e cf93 2abf 5775 453f c771 c93e
000002d0: dc18 64bf 59f0 c43f 42e4 06c0 d78c b9bf
000002e0: c575 7d3f 6be1 533e 8556 2e40 0bc8 3440
000002f0: 1e32 d73b 1995 8c40 e1e5 e8bf ec61 3a40
00000300: 1cde dbbf 36c8 2f3f 2990 8d3f 8a9b ca3f
00000310: c815 26c0 8f49 543e a859 f33f 01a8 b03f
00000320: f299 643f cc5a e9bd 97ba 03bf 2543 323f
00000330: fbf1 633f 9a5c 7e3f ae91 a5be b8d3 97bc
00000340: 5e1e 913e 61af 68bf 8e2b f63f b1e2 c03f
00000350: 7cd9 283f 947c 623f 4c8d e5be baa5 6fbe
00000360: 8626 2c3f ece6 563d a66a cdbd 6413 0a3e
00000370: 38c4 55bf 529e 94bf f7f8 a1c0 e5ed 5bbf
00000380: c3e3 4a40 52bb 4f40 fe20 25c0 5a99 71c0
00000390: d45e 5bbf 60a7 1a40 87f1 64bf 58bf 32c0
000003a0: a31d 3ec0 dd46 4ebf be54 17c0 26e3 69bf
000003b0: 2621 cbbf 5d79 89c0 52f0 0cbd b1d0 0440
000003c0: 407f 043f 82c9 7b3f da3f 033e 3035 0cc0
000003d0: f1d0 92c0 1ad2 743f 5cf5 a53f 979e a53f
000003e0: d105 a23f dfc2 24c0 7fa7 07c0 0ab0 67c0
000003f0: 7e8e 2ec0 93b5 a4bd dc28 853f b4f8 893f
0.20539202 0.48498052 0.042490877 0.5440258 0.8181657 -0.15011953 -0.22029868 -0.10804211
0.23095003 0.71432793 0.13386922 0.9289566 -0.7557724 0.671622 0.29830858 -0.16668527
-0.41192776 -0.12614161 -0.1316728 0.065086275 1.2765948 1.0854326 -0.7240102 0.6351028
5.7229576 0.8921126 -0.13860132 -0.26259303 2.4605598 -0.3854696 -1.7562052 1.5466688
0.9314955 1.5352192 -0.38097832 -0.43085846 -0.8244173 0.8570153 -0.5622988 -2.1164427
0.3764916 -0.659331 2.1525812 0.8503719 0.22567695 0.16077815 -0.07035745 0.07805127
-0.50937 0.088137865 0.38619137 -0.62028277 -0.62269884 -0.10389748 -0.42887136 -0.018912433
-0.15930296 -0.43498105 0.13239531 -0.020576958 -0.82941365 -0.87439084 -1.3077667 3.886876
-2.3290403 -1.5442675 -0.41263443 -1.1874665 -2.522411 0.9324449 -0.838342 -2.2496803
-1.8240436 -1.680134 -1.827707 -0.43576407 1.050735 -0.96967304 1.2640021 0.62882274
-0.5503726 -0.37042442 -0.03743816 1.0046499 2.7119339 -0.85472 -1.0199115 -1.1813341
0.073043175 -0.31513256 -1.2759885 -0.2604117 -1.4282607 -1.1531175 -1.3731111 -0.55586267
-0.20776297 -0.96202356 -0.17473121 0.06864936 2.1489027 1.5302836 -1.9138219 0.9683255
-0.4510061 -0.80666226 5.964781 5.298465 -1.7010504 -2.5568151 3.4074883 -1.9827951
2.2198522 0.09963385 2.4212508 -0.6806313 -1.112983 0.5259824 0.88134634 6.1563435
-1.8992562 0.00363368 1.0824223 -1.8555597 0.6940664 -2.2579577 -1.6204373 -1.0195688
-2.5182517 0.82636267 -0.042934515 0.83870643 -3.5082407 -1.6992897 -2.054719 -1.6051968
1.9887842 -1.5299221 1.1755563 -0.015743794 1.5166627 0.28243595 -0.66628927 1.2352449
1.1834018 0.5172618 -1.5461262 0.042063724 -0.50130016 5.5872693 2.7596273 0.3115595
-0.34441563 0.79192436 -0.71207 0.82983714 -5.323801 1.8036889 1.7069942 3.187259
1.0397512 0.15682355 -0.03532755 0.40262327 0.7954478 -0.12728357 0.5913214 1.1740949
0.53204167 -0.064594544 -1.1444659 -1.5107676 0.76761115 0.25912163 -0.3767887 0.914521
0.2837702 -0.6663179 0.7713217 0.39344618 -0.8910043 1.5385848 -2.1076818 -1.4496106
0.9900783 0.20691459 2.7240307 2.8247097 0.0065672537 4.3932004 -1.8195153 2.9122267
-1.7177157 0.6866487 1.1059619 1.5828717 -2.5950794 0.20731185 1.9011736 1.3801271
0.892974 -0.11394271 -0.5145659 0.69633704 0.8904111 0.9936005 -0.32337707 -0.018533573
0.2834348 -0.90892607 1.9232042 1.5069181 0.65956855 0.8847134 -0.44834363 -0.23403063
0.6724628 0.052466318 -0.10030107 0.1348396 -0.8350253 -1.1610816 -5.061641 -0.85909873
3.1701515 3.2458081 -2.5801387 -3.7749848 -0.8569157 2.4164658 -0.8943104 -2.7929287
-2.970559 -0.8057688 -2.3645473 -0.91362226 -1.5869491 -4.296065 -0.034408875 2.0752375
0.5175667 0.9835435 0.12817326 -2.1907463 -4.5880055 0.9563309 1.2965503 1.2939023
1.2658025 -2.574394 -2.1195982 -3.6201196 -2.727447 -0.08042445 1.0403094 1.0779023

embedder.emb_rnn.bias_ih_l2 f4 [60]
00000000: 5e4a e43e 6622 aa3f 7589 843f 915c b23f
00000010: d841 9a3f 61ab 843f d7d2 a03f 0e48 373f
00000020: ad0e 963f df8c 9d3f 740b 833f 0eee 36be
00000030: 55e2 113f b725 9b3e da8e 8b3f c888 fa3e
00000040: fe04 863f 6785 a03f d6c2 873f c9b6 883f
00000050: 4577 3f3f 47ca 2f3f 3590 213e 4729 f03e
00000060: a4ea 4dbe daf7 173f 747e 6a3f ca06 3d3f
00000070: 33be bf3e 9472 503f 23ef 133e 7be2 1e3f
00000080: c419 413f 7633 443f 69e2 c43e 5b87 3b3f
00000090: f5ec d93e 564f 353f bf99 363f d35a 073f
000000a0: 0f90 a53f 3e28 423f 74d7 473f 1120 4f3f
000000b0: 6767 3f3f 1a84 513f a60b 543f d5c5 473f
000000c0: da84 3f3f 61c7 203f 5168 373f d085 b43e
000000d0: 7444 7f3f 1107 713f 9f11 903f 1f29 9f3f
000000e0: db4a 293f a1be 1b3f 4451 ab3e 3749 3f3f
0.44587988 1.3291748 1.0354449 1.3934499 1.2051344 1.0364801 1.2564343 0.7159432
1.1723229 1.2308615 1.023787 -0.17864248 0.5698598 0.30302212 1.090297 0.4893248
1.0470273 1.2540711 1.0606334 1.0680782 0.74791366 0.68668026 0.15777667 0.46906492
-0.2010904 0.59362566 0.915992 0.73838484 0.37449798 0.8142483 0.14446692 0.6206433
0.7542994 0.76641023 0.38453987 0.7325341 0.42563596 0.7082418 0.7132835 0.5287296
1.2934588 0.75842655 0.7806313 0.80908304 0.74767154 0.81842196 0.82830274 0.7803624
0.7481209 0.6280423 0.7164355 0.3525834 0.99713826 0.9415141 1.1255378 1.2434424
0.66129845 0.6083775 0.33460438 0.7472109

embedder.emb_rnn.bias_hh_l2 f4 [60]
00000000: 3cdc 0dbf 578d a83e 9f3f 113d 3874 c93e
00000010: 2304 523e ef89 153d 9d4b 833e f86d 91be
00000020: ae76 303e 025f 6c3e 4816 c33c 87de 96bf
00000030: 9b3d dcbe f46c 32bf e0de b83d 9bbc 02bf
00000040: 4868 403d 4c1d 823e e875 783d dd52 8b3d
00000050: 1612 81be d16a a0be d89b 57bf 31ea 07bf
00000060: f8bc 99bf 9011 d0be 4209 acbd d0f0 85be
00000070: 8721 20bf 3e3b 3ebe cf05 5bbf 6b3c c2be
00000080: 5196 7bbe ff27 6fbe 9d8f 1dbf b2ef 88be
00000090: 8709 13bf d05b 95be d0ce 92be 9848 f1be
000000a0: 01db 553e 3ad1 ffbe 8982 98be f87f 9abe
000000b0: fa14 5bbe 945e 443f 152e 093f 9f84 6e3f
000000c0: 8cd0 95be ff81 44bf 52e5 cabe 493b 46bf
000000d0: 3f34 b6be 8c2c 74be 020f 383f b42d 84bd
000000e0: eeaa cdbe 8b51 fbbe 5d63 2c3f fe81 87be
-0.55414176 0.32920334 0.035461064 0.3934648 0.2050939 0.036508497 0.25643626 -0.28404212
0.17232773 0.23083118 0.023814335 -1.178666 -0.4301575 -0.696975 0.09026885 -0.5106904
0.04697445 0.25412977 0.06065932 0.06802914 -0.2520911 -0.31331494 -0.84222174 -0.5309172
-1.2010794 -0.406384 -0.08400203 -0.26160288 -0.6255116 -0.18577287 -0.8555574 -0.3793672
-0.2456906 -0.23355101 -0.6154726 -0.26745373 -0.5743641 -0.2917161 -0.2867341 -0.47125697
0.20884325 -0.49964315 -0.2978709 -0.30175757 -0.2139472 0.76706815 0.5358594 0.93171114
-0.2926067 -0.7676086 -0.39628083 -0.7743421 -0.35586736 -0.23845118 0.718979 -0.0645403
-0.40169472 -0.4908565 0.67339116 -0.26466364
