output/Tennessee_Eastman_30/model.pt (torch, 178616 bytes, 65 tensors)

embedder.emb_rnn.weight_ih_l0 f4 [60, 55]
00000000: 1927 debe e214 6abe 7c3e 00be cde1 afbd
00000010: fcb4 833e 7a9a 5b3e 50d0 f9bd 28b0 87bd
00000020: 9fb3 cbbe 7f60 983e dc8a 32bd 0dd9 52bd
00000030: 21da e3be 90d9 773d b0b4 b3be eb11 723e
00000040: f623 76be 0db6 43be 7985 b1bd 6840 1fbf
00000050: 896f 6b3d cd28 8e3d 0c20 a33e e83e eebc
00000060: 5d46 27bd 7501 3b3f 89b7 dbbd 0167 3fbc
00000070: 670e cdbd 0bfc 7cbe f9eb 93be e58c fb3e
00000080: 8edf 1cbe 858e 00be c7d6 04bf 097f 61be
00000090: 898e b5bc 87d4 c53d 2f1d fdbd 0c6e 5b3e
000000a0: 1a04 b9be 3fad b1bd 5cc0 d2be 3ec3 9abe
000000b0: f8bd 62be 9c33 593e ddfe 32bf 06bd 9f3e
000000c0: 27cf 8c3e 07b2 023f 8e49 87be 71c6 a33c
000000d0: 8ff0 3a3e 97ba a13e b8d6 c53e 10f2 243f
000000e0: 3348 2c3f a8e2 883e 892d 923c 5f41 c0bd
000000f0: beae 943d 269b 19bc c61f dabd c20d 873d
00000100: 5406 86be 9588 a13d eead eb3d db84 263e
00000110: f005 543e 8452 f6be e135 1fbf b4be 28be
00000120: 4513 34be 19bc 99be ba5f f53e b27f ec3e
00000130: 8f50 e93e a137 86be 34ba 84bd b7f0 bb3c
00000140: 66f3 133f 50eb f53e 9704 76be 6ad9 21bd
00000150: 6803 e9bd bc23 b13e d601 013f c240 053f
00000160: d3dd 9bbe f6a4 2ebe e131 fc3d 51e7 c63e
00000170: e1a2 af3e d8cd 353e 6306 b5bd a418 08be
00000180: 68c8 883d 83b2 b9be 4521 d53d df9d 99be
00000190: d017 8bbd 6648 67bf 020e ddbe 212d 823e
000001a0: d8a5 db3e 0e35 c3be 66b0 283e 8c88 003f
000001b0: 59d7 cabe d086 7e3e fd9e 47bf 2317 a13e
000001c0: 387b 5b3f e774 f0be 052c 473b 16a6 aabe
000001d0: 5eb5 7e3d 0e5d a0bc 0c02 aebe 56e7 a6bd
000001e0: 56fc 5fbc 4a5b 16be 7423 0cbe fc27 313e
000001f0: dcc3 33be 80dc febd d798 443d c3f0 c9bd
00000200: c748 a2bd c31f 33bd 440c 52be 7ff3 87bc
00000210: 417c ce3c 4be6 833d 99e8 863e 1c28 d6bd
00000220: 311b 86bd c1ae 88bd 472f 77bb 806e 05bc
00000230: 9ff2 873e 7194 b3bd 90e1 05be 5a01 1b3e
00000240: 74cc 4abd 0e1f 583e 0159 7b3e c722 95be
00000250: 637c 1cbe 12f5 f13e 5f70 913d 4fb7 6b3e
00000260: 4855 9fbd bce7 98be 59cd 3a3b 0365 74bd
00000270: 36cd 54be 26c1 653e 22c2 a6be 7e40 2bbd
00000280: a589 f1bd ba45 87be 2974 393d 6107 723d
00000290: 2fae 893e 2d96 98bf 79d1 763f 24c3 42be
000002a0: b0d0 d53d 64f3 d3bd 3166 8b3d c8b8 403e
000002b0: 8cf3 b8bb 7d7b adbe 1e40 4dbe d24d 6c3e
000002c0: 3651 29be 8b2a 3bbe 8974 ae3e 8913 71bd
000002d0: a603 bdbe b629 77be a745 7cbe 90b3 96be
000002e0: c310 903e 3576 d4bc cbb2 71be 257f 643d
000002f0: 5bbb cb3e c697 cb3d b558 203e 782c fabe
00000300: 68bb 63be a2f4 20be 0e46 4a3e ddcd 68be
00000310: 1907 293d caa3 f8bc a1d0 41be b2fe bebe
00000320: 694f e73e 840f 043d 1898 ab3e 3923 243e
00000330: b06c 433e ebba 9abe 5c93 aebe 912d aabd
00000340: aef8 593d 4728 bc3e ee08 4b3f 9c70 afbd
00000350: 3fb4 8d3d c631 313f cdb8 96be f1e3 6fbd
00000360: 35af 39be 8015 49bf 88f3 273d 06cf b73e
00000370: 371f cd3e c5d2 23bd 3034 063d ff2a bb3e
00000380: 8d19 c8bd dc90 7abe c748 93bc d1ed 3dbe
00000390: 9688 50be bdc0 d0bc 4c40 e1be 65d9 813d
000003a0: fa15 1e3e 3038 8ebe 324b 1dbf b967 ff3c
000003b0: 3d63 f03d 57db fd3d 794f d8bd 904f a8be
000003c0: d141 3fbe ca82 9b3e c91c 31bc 9022 83bd
000003d0: 5351 023e 1e39 173e 1340 983e f4b0 80be
000003e0: 41aa 9c3d 616e 1bbe 742a bfbe ec70 01bf
000003f0: e0a2 683d 5921 33be 1bdd 64be 8bdd cf3c
-0.43389204 -0.22859529 -0.12523836 -0.0858799 0.25724018 0.21445647 -0.121979356 -0.06625396
-0.39785478 0.2976112 -0.043589458 -0.051476527 -0.44502357 0.06051022 -0.3509879 0.23639648
-0.24037156 -0.19112416 -0.08668036 -0.6220765 0.057479415 0.06941376 0.31860387 -0.02908273
-0.040838588 0.730491 -0.10728366 -0.011682273 -0.10012513 -0.24705522 -0.2889097 0.49130931
-0.15319654 -0.12554367 -0.51890224 -0.22021116 -0.022162693 0.09659677 -0.12359082 0.21428698
-0.36135942 -0.08675622 -0.41162384 -0.30227083 -0.2214278 0.21211094 -0.6992014 0.311989
0.27501795 0.510529 -0.26423305 0.019992085 0.18255828 0.3158767 0.3864038 0.6443186
0.6729767 0.26735425 0.017843978 -0.093874685 0.07259892 -0.009375369 -0.106505916 0.06594421
-0.26176703 0.07887379 0.11507784 0.16261618 0.2070539 -0.4810983 -0.6219159 -0.16478997
-0.17585476 -0.3002632 0.47924596 0.46191174 0.45569274 -0.26214316 -0.06480828 0.02294193
0.5779327 0.48031092 -0.24025188 -0.039513983 -0.11377603 0.34597576 0.50393426 0.5205194
-0.30442676 -0.17055115 0.12314201 0.38848355 0.34303954 0.17754304 -0.08839109 -0.1329065
0.066788495 -0.36269006 0.10406736 -0.3000326 -0.06791651 -0.90344846 -0.4317475 0.25425056
0.42899966 -0.38126415 0.1647354 0.50208354 -0.39617422 0.24856114 -0.7797697 0.31462964
0.8573489 -0.4696419 0.0030391228 -0.3332984 0.062184684 -0.019575622 -0.33985937 -0.081495926
-0.013671001 -0.14683262 -0.136854 0.17300409 -0.17555183 -0.12444401 0.047997322 -0.09860375
-0.079240374 -0.043731462 -0.20512491 -0.0165956 0.025205733 0.06440409 0.26349333 -0.10456869
-0.06548155 -0.06673957 -0.0037717388 -0.008144021 0.26552293 -0.08768547 -0.13074327 0.15137234
-0.049511388 0.21105596 0.24545671 -0.29128096 -0.15281825 0.47257286 0.07101511 0.23019145
-0.07779938 -0.298643 0.0028503744 -0.059666645 -0.20781407 0.22436962 -0.32569987 -0.04180955
-0.11793832 -0.26420385 0.045276795 0.05908907 0.26890704 -1.192083 0.9641338 -0.19019753
0.104401946 -0.103491575 0.06806601 0.18820488 -0.0056442674 -0.33883277 -0.2004399 0.23076561
-0.16534886 -0.18277948 0.34073284 -0.05885652 -0.36916846 -0.24137005 -0.24635945 -0.2943387
0.28137788 -0.025935272 -0.2360336 0.055785317 0.39791378 0.09941058 0.15658839 -0.48862052
-0.22239459 -0.1571832 0.19753286 -0.2273478 0.041266534 -0.030351538 -0.18927242 -0.37303692
0.45177773 0.03224136 0.33514476 0.16029061 0.1908443 -0.30220732 -0.340968 -0.08309472
0.053215675 0.3674948 0.793105 -0.085664004 0.06919145 0.69216573 -0.29437867 -0.05856699
-0.18133242 -0.7854843 0.041003734 0.35900134 0.40062878 -0.039995927 0.032764614 0.3655624
-0.097704984 -0.24469322 -0.017979039 -0.18547751 -0.20364603 -0.02548253 -0.43994367 0.06340293
0.15438071 -0.27777243 -0.61442864 0.031177389 0.11737678 0.123953514 -0.10562033 -0.328732
-0.1867745 0.30373222 -0.010810086 -0.06403077 0.12726335 0.14767882 0.29736385 -0.25135005
0.07649661 -0.15178825 -0.37337077 -0.5056293 0.056795955 -0.1749319 -0.2234997 0.025374195

embedder.emb_rnn.weight_hh_l0 f4 [60, 20]
00000000: ca28 45bf f5d5 8f3e 5b8b 23bf 2d91 b0be
00000010: 7cbc 6c3f 86a4 2ebf 85bc 6a3e 801d fc3d
00000020: 29bc 0d3f 2cd0 9dbf 3da5 d8be 52f4 2f3e
00000030: 9567 d93d e440 cebe 7d08 afbe 3742 fc3e
00000040: d170 06bf c0a9 463d 4fd2 14bf cf42 b5be
00000050: 4bba 0f3e b448 a43f ee5a 29be b327 f4bd
00000060: 9632 2bbf a360 34be dfa5 3b3d 9adb 06bf
00000070: d840 9cbe ca11 0bbe a814 02be af48 41be
00000080: 5079 00bf d70f 573f 9c80 1dbe 1637 9dbe
00000090: de65 f83d bd54 b73e e116 893e 2385 bcbe
000000a0: d8ad e23d 615c 2a3f 76cc 9b3c b348 30bf
000000b0: 529a 21be 35c0 6e3e 3446 3cbf 61e4 dfbe
000000c0: 3939 893e d286 273f 8731 fa3d 3d48 8a3b
000000d0: 63e1 cc3d 393e dd3e f9a0 22bf 2a37 7d3f
000000e0: 116b 623f 89eb 593f ddfe 6c3e b462 a23e
000000f0: 84a6 91bd 3024 bb3e 5a73 8bbf 0ae3 b8bd
00000100: e3dc 0fbf 819e cfbf ad58 8d3f 7fc2 07be
00000110: b9a3 d13e 18f4 a03e eb9d 06bf aa42 113c
00000120: fdf9 1cbe b2a8 443e 541a 2cbe 0895 163e
00000130: ea90 2c3e ca5e 7ebd 863e 3fbe 32ca 90be
00000140: 1fe5 cdbe 8019 923d 1da4 963e 014b 89be
00000150: 8d1f 8c3e a8e5 483e 3586 a03c a3b5 52bd
00000160: 3f18 e73e 91bc 983e 8267 45be 31fe 043e
00000170: 8391 a43e 9faa 81be 743f e0bc 7826 37be
00000180: ffad 80be 4dd2 4cbe 694e 63be 8d82 be3e
00000190: 957b 76be 502f 363f 2adc 14bf b6b4 5abe
000001a0: 2a2f 683e f081 a23d dff6 be3c 2334 11bd
000001b0: 7622 183e cfbc 033f 2472 733e c847 5b3d
000001c0: 6dca a23e df04 4bbf c179 c8be 0c61 3d3d
000001d0: d387 9f3d 004d 053f 0a3d 343e 2d84 e1be
000001e0: d620 b6be 04eb 083f 2a50 56bf 084c 513e
000001f0: d315 68be 399c 2abf 1633 f23f e546 e93e
00000200: 09f3 9f3f 2400 e5bf 83eb 76be 5c42 003f
00000210: 2b37 8f3e 8405 8e3f 70d6 ce3d 4183 aabe
00000220: b144 40bf 6432 75bf fbe3 1fbf 93bd 24be
00000230: e36c a0bc b096 8a3e 6a6c 1bbe 983a bdbd
00000240: 7b1a a03e 54b8 073e ade6 193e d58f 5b3e
00000250: 4d78 fd3e 398e 13bd cee4 acbe afae d6bd
00000260: 3925 cf3e 2f9f 3f3f 43f0 d93d ed81 be3d
00000270: bb33 8dbd 29ec 86bd 52a6 963e 6266 713c
00000280: 0ec4 c6be 66a5 2bbd 1d87 383d 94d8 7fbc
00000290: af7e 3e3f a451 323f 0a59 0c40 668e c33d
000002a0: 3b5e 623f f6ee 85bf 0d2c 693f a5c9 1b3f
000002b0: 6ebc bd3d da41 c7bf 65d3 003f 0783 1b3f
000002c0: 23e5 64bf 655f 2bbe cec0 1ebf 961f 483f
000002d0: ecb4 a23e 2419 c4bd f267 a0bd 8ed2 23bc
000002e0: ac6b 2f3e 2d95 a8bd f6bc 883e 79ac 49bd
000002f0: 0576 7fbe 15b3 07bf de4d 9c3d 930b 913e
00000300: 11b0 31be 5149 143e 624c dd3d e96d adbe
00000310: 89f0 0e3f b735 bbbd e562 ae3e 7074 2abe
00000320: 3b96 82be 47a6 063e ef44 863e 5eac aebd
00000330: 5514 e93e be33 a03f c0f7 a73e bfb2 b2bd
00000340: 0ad1 0c3f 995d 293f 932d f63e ff5c 0d3e
00000350: 9400 333e e285 08c0 3962 103f 9cae 8f3e
00000360: e45b 40bf 465a 36bd 7851 36bf 80e2 cb3e
00000370: a859 ee3d b7d7 053f 1dba f6be af0d 263e
00000380: 0584 743e 2f10 0b3e 5c18 84bf a035 18bf
00000390: 1438 4e3d 3407 633f 90b5 04be 04fc 11bf
000003a0: be5d adbc d713 6a3e bb96 58be 95bf 833e
000003b0: f0b6 123f dd6e a6bd be89 8d3e 76af 99bd
000003c0: d2cc 2c3e e442 52bf 2045 833f 91e4 453f
000003d0: a8df c7be 1e77 203e 50bc 5bbf 8179 08be
000003e0: cc5c 12bf d412 093f fb3a f93d 0ba5 413f
000003f0: 7dd3 b9bd e70e be3f b7e6 093f 1e96 23bf
-0.77015364 0.28092924 -0.63884515 -0.3448576 0.92475104 -0.6821979 0.22923477 0.12310314
0.55365235 -1.2329154 -0.42313567 0.17183045 0.1061546 -0.40283883 -0.34186164 0.49269268
-0.52515894 0.04850173 -0.58133405 -0.35402533 0.14035909 1.2834687 -0.16538593 -0.119216345
-0.66874063 -0.17614989 0.045812484 -0.52678835 -0.30518222 -0.13581005 -0.12703192 -0.18875383
-0.5018511 0.84008545 -0.15381092 -0.3070609 0.121288046 0.35806838 0.26775268 -0.36820325
0.11068314 0.6654721 0.019018393 -0.6886093 -0.15781525 0.23315509 -0.7354462 -0.43728927
0.2680147 0.65440094 0.12216478 0.0042200373 0.100039266 0.43211535 -0.63526875 0.989123
0.8844462 0.85125023 0.23144098 0.3171593 -0.071118385 0.36551046 -1.0894578 -0.09027679
-0.5619642 -1.6220247 1.1042687 -0.13257788 0.40945223 0.3143623 -0.52584714 0.008865992
-0.15329738 0.19204977 -0.16806918 0.14705288 0.16852155 -0.062102117 -0.18676195 -0.28279263
-0.40213868 0.0713377 0.29422083 -0.26815036 0.2736782 0.19618857 0.019595245 -0.051442754
0.45135686 0.29831365 -0.19277766 0.12987591 0.32142267 -0.25325486 -0.027374007 -0.17885768
-0.25132748 -0.20002098 -0.2219788 0.37208977 -0.2407058 0.71165943 -0.58148444 -0.21357998
0.22674242 0.0793494 0.023311077 -0.035450112 0.14856896 0.51459974 0.2377401 0.053535253
0.31795064 -0.7930431 -0.3915539 0.04623513 0.07789578 0.5207062 0.1760141 -0.44046155
-0.35571927 0.53483605 -0.8371607 0.2043916 -0.22664575 -0.66644627 1.892184 0.455619
1.2496043 -1.7890668 -0.24113278 0.50101256 0.27971777 1.1095433 0.100994945 -0.33303264
-0.75104815 -0.95780015 -0.62457246 -0.16087942 -0.019583171 0.2706809 -0.15178075 -0.092396915
0.31270203 0.1325391 0.15029402 0.21441586 0.49505845 -0.036024306 -0.33768314 -0.10482537
0.40458086 0.7485227 0.106415294 0.09302125 -0.068946324 -0.06588013 0.29423767 0.014733883
-0.38821453 -0.041905783 0.04505073 -0.015615601 0.74412054 0.69655824 2.1929345 0.09548645
0.88425034 -1.046355 0.9108284 0.6085456 0.09264456 -1.5566971 0.5032256 0.60746807
-0.89412135 -0.16735609 -0.62012947 0.78173196 0.31778657 -0.09575108 -0.07832326 -0.009998931
0.17130917 -0.08231578 0.26706666 -0.04923675 -0.24947365 -0.5300763 0.076320395 0.28329143
-0.1735232 0.14481093 0.108055845 -0.33872917 0.5583578 -0.09141105 0.34059826 -0.1664598
-0.25505242 0.13149367 0.26224467 -0.0852897 0.45523325 1.251579 0.32806206 -0.08725499
0.5500647 0.66158444 0.48081645 0.13805006 0.1748069 -2.1331716 0.56399876 0.28062904
-0.75140214 -0.044519685 -0.7121806 0.39821243 0.11638194 0.5228228 -0.48188868 0.16216157
0.23878486 0.13580392 -1.0319934 -0.59456825 0.05034645 0.88682866 -0.12959886 -0.5702517
-0.021162864 0.22859131 -0.21151249 0.25732103 0.5731039 -0.08126614 0.2764415 -0.0750417
0.16875008 -0.82133317 1.025547 0.7730189 -0.39037824 0.1567044 -0.8583422 -0.133276
-0.57172847 0.53544354 0.12169453 0.7564246 -0.09073541 1.4848298 0.5386767 -0.63900936

embedder.emb_rnn.bias_ih_l0 f4 [60]
00000000: 4baa 913f 1b92 903f c067 8f3f a20e a73f
00000010: e0ce 823f b290 8a3f 46ee 763f 2d4c 843f
00000020: db3e 6f3f 3d35 863f 52d6 533f b976 5a3f
00000030: 6ab0 b33f b388 903f fc9f 913f fd44 7d3f
00000040: 138d 883f 279f 933f 702a 313f 4156 1f3f
00000050: 4a8c 7a3f 962f 813f b9e1 723f 950c 6e3f
00000060: e53d 853f dfbb 4b3f 2155 913f 6ab8 843f
00000070: d1ae 813f 3ce5 643f c93d 7e3f 6717 773f
00000080: 888a 513f eee9 ab3f 6361 7b3f d657 853f
00000090: e7eb 723f b179 683f 2f43 8a3f ca45 6f3f
000000a0: 3191 163f c893 613f 6aac 563f 5164 053f
000000b0: a329 703f 470f 653f e7ce 4f3f a4d0 6e3f
000000c0: 284f 813f 077a 893f 1d26 763f b71b 7d3f
000000d0: 24f2 a73f 9f7b 593f b1fd 6c3f 59ab 653f
000000e0: b6bc 4d3f c91a 2c3f 73be 013f 514f 903f
1.1380094 1.1294588 1.1203537 1.305134 1.0219383 1.0825408 0.96457326 1.0335747
0.93455285 1.0484997 0.827489 0.85337406 1.4038212 1.1291717 1.1376948 0.9893339
1.0668052 1.1532944 0.6920538 0.6224099 0.97870314 1.0092647 0.94875675 0.9298795
1.0409514 0.79583544 1.1354104 1.0368779 1.0131475 0.89412284 0.99313027 0.96520084
0.81852007 1.3430765 0.98195475 1.041743 0.9489121 0.90810686 1.0801753 0.93465865
0.58815295 0.8811612 0.83856833 0.52106196 0.9381353 0.89476436 0.8117508 0.9328711
1.0102282 1.0740365 0.96151906 0.98870414 1.312077 0.84954256 0.925746 0.8971458
0.80366075 0.6722837 0.5068123 1.1274205

embedder.emb_rnn.bias_hh_l0 f4 [60]
00000000: 3650 0d3e 9890 043e 137c f63d 713c 9c3e
00000010: bcb0 b33c 4506 a93d b615 11bd 178e 093d
00000020: c404 86bd 9ca8 463d 6aa5 30be a724 16be
00000030: 03c4 ce3e 3b4a 043e 70fd 0c3e 9fc6 2ebc
00000040: 15cf 883d 60f6 1c3e 72ab 9dbe 3e53 c1be
00000050: 9873 aebc 3ed1 173c 79e7 51bd f796 8fbd
00000060: c8b4 273d be0e 51be 2aa8 0a3e 8706 173d
00000070: 5e59 573c 9fda d8bd 424d e1bb 1986 0ebd
00000080: 49d7 39be 59a7 af3e 58db 93bc 7f0e 2b3d
00000090: c237 51bd 3435 bcbd a034 a43d 12d3 85bd
000000a0: b178 3cbf 5448 62be 96f2 f2be b6ec 1bbf
000000b0: 87d3 9abe 59d3 86be d6dd 80bf 0361 93bd
000000c0: 8416 1dbf 7148 423e 992f bdbc aaee 86be
000000d0: 5301 383f 1857 95be c11a 33bb ed9a fdbe
000000e0: 109b 9bbe f1a2 7bbf a04c 613f 6125 fcbf
0.1380013 0.12945783 0.12035384 0.30514863 0.02193486 0.08253149 -0.035421096 0.033582773
-0.06543878 0.048500642 -0.172506 -0.1466242 0.4038392 0.12918942 0.13768554 -0.010667472
0.06680123 0.1532836 -0.30794865 -0.3775882 -0.021295354 0.009266196 -0.05124614 -0.07011216
0.04094389 -0.2041578 0.13540712 0.03687146 0.013143865 -0.10588574 -0.006875665 -0.034795854
-0.18148531 0.34307364 -0.018048927 0.04176187 -0.051078565 -0.09189835 0.0801785 -0.06534399
-0.7362166 -0.22097903 -0.47450703 -0.6090807 -0.30239508 -0.2633312 -1.0067699 -0.07196238
-0.6136248 0.18972947 -0.023093985 -0.2635396 0.7187702 -0.2916801 -0.002732918 -0.49532261
-0.3039174 -0.98295504 0.88007545 -1.9698907

embedder.emb_rnn.weight_ih_l1 f4 [60, 20]
00000000: a729 9a3c bb4f 0e3f 3c4e 5c3d 5365 81be
00000010: 3539 883f 006a 9ac0 9764 a73f fa77 5dbe
00000020: 3c1d 013e 4029 18bf 04af 01bf 6bb7 873e
00000030: 7a76 e53e 0b79 33c0 3baa 86bd b00a 0f3f
00000040: e85f eebe e7a8 2d3f f50f 1b3e 289b ca3e
00000050: 10d7 183e f464 463e cf1c 9e3d 1ba8 edbe
00000060: b51f 823d e9f0 8fbe c412 f83e 8c68 0dbe
00000070: fa7d 6fbd 6c6e af3e 3ea4 cb3d 4daf c53e
00000080: a9c8 153e 43ed 953f 72dc 5a3e 9e5a f33e
00000090: a8ef ee3d f074 863e c31a 953e f189 483e
000000a0: 2882 56be be55 07bf aa84 b9bf b271 ad3e
000000b0: e3d6 273d d244 c3bf 1639 1c3f e662 6bbf
000000c0: 7bb2 8cbe f63f 2d3f dab7 3bbe f802 ed3d
000000d0: a7f2 693e 7ab9 d03f ca90 e23e 1d6d 2e3e
000000e0: d054 9ebd 627e d3be c236 3f3c 1684 1d3e
000000f0: 4746 09be 8d72 a9bd 14b1 d1bd feea 123e
00000100: 9a1b 193f 8851 b8be 9686 87be 660f 08bf
00000110: 13ef 0dbe befe 5ebe 7b27 6dbf cf0d abbe
00000120: 2368 93be 85dc 83bf 6ab7 b0be 342f abbd
00000130: 308e 1b3e f393 66be 98e9 ec3e 7342 c0be
00000140: f631 1a3e 6a1b 04bd e6e7 1dbf 780c ef3e
00000150: a487 4f3e aea3 0040 08fc 023f 9160 08bf
00000160: cab2 32be cb2b 71be d747 e1be 0eba a1be
00000170: e423 b83d 4944 2bbe 0c0f c3be 369f 67bd
00000180: 3476 0fbe 3932 0ebe 9fb3 7abd 2a4c cf3d
00000190: 7ed6 78bd 4545 6e3e 6477 d5bd 1051 2fbe
000001a0: a882 463d 9e01 a9bf 5b87 00be f9b9 bf3d
000001b0: 5b14 153e 71c8 533e 1a88 133e 7e05 6f3e
000001c0: bd7d 4bbd b43d db3e 1a48 a03e 2e71 873c
000001d0: fdd6 e2bd 4163 85be 6a04 3ebe 88c2 c4be
000001e0: aa89 a43e 72a3 0cbf c810 2fbd 14dd f93e
000001f0: 4d18 783d f20e c7bf 8470 da3e 0757 2dbf
00000200: ba86 99be 3afb 8f3e f1f8 6bbf a96c 0dbe
00000210: 4078 18bf 59dc 0abe af13 fc3e 48a2 29bf
00000220: 2a6a a2be 82f0 c23d 9a24 34be 6cf9 e63e
00000230: 76c8 a33e 517b 643f e6f7 23bd a003 343e
00000240: 8295 73be d69c eb3f a8e0 203f 8447 adbd
00000250: 8edf 5a3e 9627 4abf 847e 2e3e b012 5b3e
00000260: ae8d 9c3d db97 1840 9c2e be3e 9940 51bc
00000270: d9ce 97be 507f 5639 8723 56be 2bfa 393e
00000280: 51ff 5ebe 1dc7 d23d 85a8 713d 54f5 b5bb
00000290: 8968 bbbd 88f3 a8bf cc5b 0fbe 7b50 b3bd
000002a0: 9a94 ac3d 8977 f53e 1291 893d dc59 80be
000002b0: 0d7f 1b3e bc24 dc3e 04cc d73e 49b1 083e
000002c0: 9294 ac3d 5104 8abe 66c3 c03d 7b87 e3bd
000002d0: e594 39be a647 513e ade5 d4bd 2650 1a3b
000002e0: ab9f e03d eafc fcbe 97b5 b43d f1c2 5abe
000002f0: ac33 b3be efcb 773f d848 06bf 11ba 0cbe
00000300: 8eaf 86be 87b2 53bf 70a1 3dbf d79e 153f
00000310: c8f4 0e3e 55cf 99be 0bca 67be f623 bdbe
00000320: ab4e 123e 4785 2c3f c985 c13e 23bd d13d
00000330: 7e71 e7be c241 c7bf 989d c4be aa55 933e
00000340: 4f28 683d 7a20 c9be 0386 84bd 25e9 593f
00000350: 53a5 c13c c94e 5d40 0f9c 213f f6c1 9cbf
00000360: 87e4 72be 25a5 27bf e58d a13c 665f fa3e
00000370: c139 12be d4ca 9bbd fa50 883e 9e23 cd3e
00000380: fcb0 083e 3e30 cd3e 1803 763e 8cbb 0a3e
00000390: 5ab1 a43e 70fd 38be 2e7b c9bc 5314 87be
000003a0: a562 42be c4e8 53bf 9dcd ac3e cbee 65be
000003b0: 4b16 743c c59a d3bb bba0 25be 9064 bdbc
000003c0: 7a51 a93d b151 43be 402c 90bf 0e03 5fbc
000003d0: 2ce8 c7bd 5097 30c0 8944 063f bcc4 8abe
000003e0: d2bd 4ebd 2e0d edbd af4f 23bf cbf0 1f3e
000003f0: 3b39 ecbe 9cb4 a63e c712 ad3d b797 33be
0.01881869 0.5559041 0.053785548 -0.25272617 1.0642458 -4.8254395 1.3077573 -0.21627799
0.12608808 -0.5943794 -0.5065768 0.26507124 0.44816953 -2.8042629 -0.06575438 0.5587568
-0.46557546 0.6783585 0.15142806 0.395715 0.1492579 0.19374448 0.077203386 -0.46417317
0.06353704 -0.28113487 0.48451817 -0.13809413 -0.05846975 0.34263933 0.09943436 0.38610306
0.14627327 1.1713032 0.21373156 0.47530073 0.116668046 0.2626109 0.2912198 0.1958387
-0.20948088 -0.5286521 -1.4493611 0.33875805 0.040976416 -1.5255377 0.61024606 -0.9194778
-0.2747992 0.6767572 -0.18331853 0.11572832 0.22846471 1.6306603 0.4425109 0.17033811
-0.077310205 -0.4130736 0.01167077 0.15382418 -0.13405715 -0.08273802 -0.10238853 0.14347455
0.5980774 -0.35999703 -0.26469868 -0.53148496 -0.13860731 -0.21776864 -0.9263837 -0.33408973
-0.28790388 -1.0301672 -0.34514934 -0.08358613 0.15190959 -0.22517376 0.46271968 -0.37550697
0.15058121 -0.032252707 -0.61681974 0.466892 0.20266587 2.0099902 0.5116582 -0.5327235
-0.17451015 -0.23551862 -0.44000122 -0.3158726 0.089912206 -0.16725267 -0.38097417 -0.05654832
-0.14009935 -0.13886346 -0.061206456 0.10121949 -0.06075143 0.23268612 -0.104231626 -0.17120767
0.048464447 -1.3203619 -0.12551634 0.09361643 0.14558546 0.20681931 0.14407387 0.23341939
-0.04968046 0.42820513 0.3130501 0.01653346 -0.11076162 -0.26052287 -0.18556371 -0.38429666
0.3213628 -0.549369 -0.042740613 0.48801482 0.06057005 -1.5551436 0.42663968 -0.6771092
-0.299856 0.28121358 -0.9217673 -0.13810982 -0.59558487 -0.13560618 0.49233767 -0.66263247
-0.31721622 0.095185295 -0.17592087 0.4511217 0.31988877 0.89250666 -0.040031336 0.17579508
-0.23787501 1.8407238 0.628428 -0.08460906 0.21374342 -0.78966653 0.1704045 0.21393847
0.07644211 2.3842685 0.37144935 -0.012771749 -0.2965 0.00020456058 -0.2091199 0.18161838
-0.21777083 0.10291884 0.058998603 -0.005552927 -0.09150798 -1.319932 -0.13999861 -0.08755585
0.08426781 0.4794276 0.06717123 -0.25068557 0.15185185 0.42996776 0.4214784 0.13348879
0.08426775 -0.26956418 0.09412269 -0.11109825 -0.18123205 0.20437488 -0.1039537 0.0023546307
0.10967954 -0.49411708 0.08823698 -0.21363427 -0.3500036 0.9679555 -0.524549 -0.13742854
-0.26305813 -0.82694286 -0.7407446 0.58445495 0.13960564 -0.30040994 -0.22635667 -0.369415
0.14287822 0.67390865 0.37797382 0.10241153 -0.45203775 -1.5566943 -0.38401484 0.28776294
0.056679066 -0.3928259 -0.06470873 0.85121375 0.023638403 3.4579337 0.6312875 -1.2246692
-0.23719989 -0.65486366 0.01972098 0.48900908 -0.14279844 -0.07607046 0.2662428 0.40066236
0.13348764 0.40075868 0.24024618 0.13548106 0.32166559 -0.18065429 -0.02459487 -0.26382694
-0.18982942 -0.8277705 0.3375062 -0.22454374 0.014897893 -0.006457659 -0.16174595 -0.023119241
0.082674935 -0.19074132 -1.1263504 -0.013611568 -0.0976108 -2.7592354 0.52448326 -0.2710322
-0.050473996 -0.115747795 -0.6379346 0.15619199 -0.46137413 0.3255967 0.08450847 -0.17538343

embedder.emb_rnn.weight_hh_l1 f4 [60, 20]
00000000: 15bc d8be f4cb eabd 3432 383e 5b6c ecbe
00000010: d2b8 b5bc d010 84be b0d1 fcbe 8d38 c4bf
00000020: a5c9 01bf 7edb 573e 268f df3d 91ec 6cbd
00000030: 8914 ddbe d500 1cbf d1b9 93bf 7714 f53f
00000040: 113b 3b3f f69f 983f 8582 3dbe d85a d13e
00000050: c738 9c3d 07c6 f03d 12c3 0f3f 947c 90be
00000060: d16a f6be 61c2 81be 6629 b4be 4201 de3c
00000070: c568 c0bd 45bd 07be bc4c 273f e4f9 8cbc
00000080: 597c 2abe 64d1 1ebf 036e 2c3f d265 443f
00000090: 3145 10bf a8c4 a0bc 2721 453f 6ab3 2fbf
000000a0: 7332 963e 84f2 cbbb f7eb 83be 0868 bbbd
000000b0: 3710 4c3d ac2c 69be 346b 673e 9ecd 163f
000000c0: b1a2 283e 38b8 99be fa58 02bd 2179 a0be
000000d0: 851f 473c 5622 b1bd 326b fabd 3b1f 303f
000000e0: 6ba2 2f3f a71d 0dbe c83b 26be 9f35 ba3e
000000f0: 745c ecbd 9a4c 87be beea 48bf fa9c 413f
00000100: 2053 4b3f dfa1 ef3e aa9a ba3d e9ae b4bf
00000110: 0cdd 16bf f896 223f 62b8 fbbe 128d 113e
00000120: 53aa 223f 0104 603f 2b08 96be bf75 ef3e
00000130: f498 ca3e 4850 133f 7ffe 77be 869f 98be
00000140: 08c5 043e af13 7dbd c179 62be f950 fbbd
00000150: dc97 af3e 56ed 8ebe 3d05 95be 1e36 e13c
00000160: fb55 82be 71e0 dbbc 1b74 113e 9f13 ae3e
00000170: 1951 57bc 1781 ae3c e107 9bbe 962f b23e
00000180: a772 e63e bc1c b13e 30e1 2dbe 7787 c43e
00000190: e825 74be 1c6f 183f fdb4 973e 4c1b 93be
000001a0: c445 3ebf f9f7 dabd 1f31 74be d4e9 a03e
000001b0: b794 373f 31d8 90bd 5610 1d3e 9994 86be
000001c0: ccc8 12bf 96ab 13bf 0a24 103f 912a fabe
000001d0: f987 26bf 7f30 15bf 7cc7 833e 90f6 1cbf
000001e0: 9fd3 b3be c3d8 a33e 5bd1 b8bd 4886 c13c
000001f0: 6099 cb3c f194 053e ec50 d6be a1ca ec3e
00000200: ea76 7b3e 8c90 9e3e 84b8 d73d eafb 3cbd
00000210: 5d14 373e 9ae6 a23e a7b1 b23c 2d82 0e3f
00000220: 4da5 9cbc c9e5 05be 029b 613e 564e de3d
00000230: 3c0f 2e3e e170 3a3e 4b26 1e3e 7c05 54be
00000240: 7445 efbe 044b 17bf de4d 17bf 7a04 1cbf
00000250: 9ef8 1ebe c618 b8be 075c 123f 68c2 2ebd
00000260: 09bc 02bf 2a4a 00bf 65c1 d83e cade 8d3f
00000270: 8686 38bc 4dba a53f 56a8 d63e 674f 60be
00000280: 4f76 8e3d 6ac2 0cbf f480 a5bc 3c54 89bd
00000290: d58b 70be 5c5a 61be 0c05 f8bd 9c8c 95be
000002a0: 7049 4fbf d231 afbe a8a6 af3e c530 70be
000002b0: b720 85be 971c d5be 033c f33e d049 4fbd
000002c0: eca8 11bf c99f 17bf b9a5 d23c 0333 52bd
000002d0: 08a6 26be 8b58 90be a1b2 4f3e 2e29 c03d
000002e0: e264 18bd 30f6 bc3d a154 d93d 4fd7 c43e
000002f0: 4718 c7be 1903 0a3e 7048 26be 7648 e6bd
00000300: ddcd 193e 08dd 00be febb 30be 335a cebe
00000310: 14de 5dbe 4583 65bf 9333 febd 3149 363e
00000320: 6747 eebe f074 60bd 8b59 ffbe d05d 103f
00000330: 5b0a 123e 079c 133e 8033 2a3e f667 c83c
00000340: b104 03be 2b0a 8a3e aeb0 acbd ceb3 253f
00000350: 4c88 dc3e fb51 9e3c 85a3 0dbd bd00 6abc
00000360: ce0c a13d 0f66 a43e 5c7d 6dbe dc4b f6bc
00000370: 82a2 3fbf 46c7 993d 6e61 483e c9f0 18be
00000380: 2021 e0bd 0a1f 2fbf 2e18 aa3e d808 3abe
00000390: 672d 813d fa4b 86be 9f59 d13e 3921 2c3e
000003a0: e462 d2be 0b60 96bd 681f 22bf add9 f7bd
000003b0: a217 19be c5a4 b4bd 2edb 263d 2540 9bbe
000003c0: bafc b0be 9bbf a03e e3a9 f93d 777a 1b3e
000003d0: 90e0 a93d c6a4 efbe 205b 153e 8d9c 003f
000003e0: 6f33 1bbf 09f0 1c3c 59fe 8dbc 6e86 fc3c
000003f0: 7600 013e c893 5a3d 1405 0c3f 30b8 3dbe
-0.42330995 -0.11464682 0.17987901 -0.4617642 -0.022182856 -0.25794077 -0.4937873 -1.5329758
-0.5069831 0.21079823 0.10915975 -0.057842795 -0.4317973 -0.6093877 -1.1541082 1.914687
0.73137003 1.1923816 -0.1850682 0.4088962 0.07628017 0.11756521 0.5615703 -0.28220046
-0.4812837 -0.25343612 -0.35187835 0.02710021 -0.09394983 -0.13255794 0.6535146 -0.017209
-0.16648997 -0.62038255 0.67355365 0.76717865 -0.5635558 -0.019625023 0.7700371 -0.6863314
0.29335365 -0.0062239785 -0.25765964 -0.09150702 0.04982015 -0.22770947 0.22599488 0.58907497
0.16468312 -0.3002336 -0.031823136 -0.31342414 0.012153511 -0.08649127 -0.12227477 0.68797654
0.68607205 -0.13780843 -0.16233742 0.36369035 -0.115410715 -0.2642563 -0.7848319 0.7563015
0.79423714 0.46803185 0.09111531 -1.4115878 -0.5893104 0.6351161 -0.4916411 0.1421397
0.63541144 0.8750611 -0.29303107 0.4676952 0.3956982 0.57544374 -0.24218176 -0.29809207
0.12965786 -0.06178635 -0.22116758 -0.12271304 0.34295547 -0.27915448 -0.2910556 0.027491625
-0.25456223 -0.02684042 0.14204447 0.33999345 -0.013141894 0.02130179 -0.3027945 0.3480193
0.45009348 0.34592235 -0.16980433 0.383846 -0.23842585 0.5954454 0.2963027 -0.28731763
-0.74325204 -0.10691828 -0.23846863 0.31428397 0.71711296 -0.07072485 0.15338263 -0.26285246
-0.5733764 -0.57683694 0.5630499 -0.488606 -0.6505123 -0.58277124 0.25738132 -0.61313725
-0.35122392 0.32001314 -0.090243064 0.0236236 0.024853408 0.13045098 -0.41858613 0.46248344
0.24557081 0.30969656 0.105332404 -0.04613868 0.17878862 0.3181656 0.021813227 0.5566738
-0.01912179 -0.13075937 0.22031787 0.10854785 0.16997999 0.18207122 0.15444295 -0.20705217
-0.46732676 -0.5909884 -0.5910319 -0.6094433 -0.15524527 -0.359564 0.5717167 -0.04266587
-0.5106817 -0.50113165 0.42335048 1.1083615 -0.011262542 1.294748 0.41925305 -0.2190529
0.06956159 -0.5498415 -0.020203091 -0.067055196 -0.23490842 -0.22007126 -0.121103376 -0.2920884
-0.8097143 -0.34217697 0.34306836 -0.23456104 -0.26001522 -0.41623375 0.47506723 -0.050607502
-0.5689838 -0.5922819 0.025713788 -0.05131818 -0.16274273 -0.28192553 0.20282985 0.093828544
-0.037205584 0.09226644 0.10611845 0.38445517 -0.3888571 0.13477744 -0.1623857 -0.112442896
0.15019937 -0.12584317 -0.17259213 -0.40303192 -0.21666747 -0.89653426 -0.12412181 0.17801358
-0.4653885 -0.05479902 -0.49873003 0.56393147 0.14261763 0.14414988 0.16621208 0.024463635
-0.12794758 0.26960883 -0.084321365 0.64727485 0.43072736 0.0193262 -0.034579773 -0.014282403
0.078637704 0.32109115 -0.23192352 -0.03006547 -0.7485734 0.075087115 0.19568416 -0.14935602
-0.10943818 -0.68406737 0.33221573 -0.18167436 0.06307488 -0.2622984 0.40888688 0.16809548
-0.41091073 -0.073425375 -0.6332917 -0.12102065 -0.14950421 -0.0882049 0.04073637 -0.30322376
-0.34567815 0.31396183 0.121906064 0.15183435 0.08294785 -0.468054 0.14585543 0.5023888
-0.60625356 0.009578713 -0.017333196 0.03082582 0.12597832 0.05336359 0.5469525 -0.18527293

embedder.emb_rnn.bias_ih_l1 f4 [60]
00000000: 2114 643f fd44 8b3f 9c7d 5f3f 780d 5d3f
00000010: bd02 503f 5f3b 893f dda3 143f 7f59 803f
00000020: 34f1 8f3f 92de 4a3f 2ec7 9a3f 245e 833f
00000030: 19b6 403f b2b8 783f 9add 8b3f 309d 8f3f
00000040: bf16 753f b07b 813f f0bf 8b3f 01b8 433f
00000050: 45e6 f73e e376 ca3e 0889 2f3f 7a5f 303f
00000060: 14a1 463f 0b90 283f 7fff 1d3f 6ceb e63e
00000070: 7b4d 473f 2b7b 173f 624c 583f 0268 2d3f
00000080: bdfa 503f 0487 0f3f 8109 4c3f 42e6 303e
00000090: b6d8 0c3f 935d 443f 087f 213f 7423 013f
000000a0: c62d 633f 7024 4c3f 23df 263f 9110 853f
000000b0: 3bca 783f 87d3 533f b779 833f 8ead 5b3f
000000c0: 7a20 4e3f 9d62 7b3f 1b81 0e3f 3826 523f
000000d0: d416 863f 6dc2 693f 5ed7 553f 9354 4c3f
000000e0: 5654 6c3f 569f 593f 7bc9 553f b45b 713f
0.89093214 1.0880429 0.8730104 0.86348677 0.8125418 1.0721244 0.58062536 1.0027312
1.1245484 0.79245865 1.2092035 1.0263104 0.7527786 0.9715682 1.0927002 1.1219845
0.9573783 1.0115871 1.091795 0.7645264 0.4841787 0.39543828 0.6856847 0.68895686
0.77589536 0.6584479 0.6171798 0.45101488 0.778526 0.59172314 0.8449155 0.6773683
0.81632596 0.5606539 0.79702 0.17275336 0.55018175 0.7670528 0.6308446 0.5044472
0.8874172 0.797431 0.6518423 1.0395681 0.9718358 0.8274464 1.027152 0.858117
0.80518305 0.98197347 0.5566575 0.8208957 1.0475717 0.91312295 0.8353175 0.7981655
0.92316186 0.8500875 0.8351056 0.9428055

embedder.emb_rnn.bias_hh_l1 f4 [60]
00000000: 7f5b dfbd 614e b43d 7c0a 02be e9ca 0bbe
00000010: 8ef6 3fbe 15b9 933d 41b9 d6be 20de 333b
00000020: 510d ff3d fc83 54be 4b38 563e 3a9a d73c
00000030: 7528 7dbe 34e4 e8bc 05d5 bd3d 5cd6 f93d
00000040: 129a 2ebd 5ae7 3d3c b1fd bb3d 1320 71be
00000050: aa0c 04bf 6bc4 1abf d3ed a0be a841 9fbe
00000060: 977a 65be 95df aebe 0b01 c4be 1e8a 0cbf
00000070: afcc 62be de08 d1be adcd 1ebe e22f a5be
00000080: fd12 3cbe 4df0 e0be 61da 4fbe 23c7 53bf
00000090: 224d e6be 7d89 6ebe aa01 bdbe 37b9 fdbe
000000a0: 3fef d3be 9ad8 51be 684e dabe 8268 c6bd
000000b0: fd42 05bd 6540 2ebe e197 1f3d 41c4 4bbe
000000c0: dab8 48be a9ce a2bd f94f fdbe 3b78 50be
000000d0: d74b e73d 0e7e 8bbd 5e0d 33be 0850 70be
000000e0: edae 9bbd b905 14be 25c5 2bbe ee77 fcbd
-0.10906123 0.08804012 -0.12699312 -0.13651623 -0.18746397 0.07213036 -0.41938213 0.002744563
0.12453712 -0.20753473 0.20919912 0.026318658 -0.24722464 -0.028429128 0.09269146 0.12199089
-0.0426274 0.011590803 0.09179247 -0.23547392 -0.51581824 -0.6045596 -0.31431445 -0.3110478
-0.22410046 -0.34154955 -0.38282046 -0.5489825 -0.22148393 -0.40827078 -0.15508147 -0.32263094
-0.18366618 -0.43933335 -0.20298149 -0.82725734 -0.44980723 -0.23294635 -0.36915332 -0.4955537
-0.41393468 -0.20492783 -0.42637944 -0.09687902 -0.032534588 -0.17016752 0.038963202 -0.19899084
-0.19601765 -0.079495735 -0.49475077 -0.20358364 0.11293762 -0.068111524 -0.17485568 -0.2346803
-0.07601724 -0.14455308 -0.16774423 -0.12327562

embedder.emb_rnn.weight_ih_l2 f4 [60, 20]
00000000: 6477 7cbe 1598 e5be 6566 bbbe 702e e03e
00000010: fccc 9cbe cc14 dbbd 35c0 fdbe ef91 673f
00000020: 04a7 e13e 2f45 833e 635d ac3d 8e4c 0a3e
00000030: 716b d5bc fbd0 8ebe 5ecc a0bf b8bd 2f40
00000040: 1b40 83bf 8d2d d3bf 4ec0 f93d d698 dabf
00000050: a2f1 1c3b 81fb e0bd 2bf9 85bd fe98 ee3e
00000060: 7502 923c 3fc3 383e 2022 1abf d7d0 873f
00000070: 8531 0c3f 03b6 393f 100d f9bc ed1d e43d
00000080: edfe 5f3e 4930 353f 6715 013f a2fc 6a3f
00000090: cdc1 8d3e 0840 f63e 0bb3 843d 2b8f d03d
000000a0: 5f01 e03d c62f 7d3e 406f f73c 5d73 e23e
000000b0: 7658 3f3e ff95 863e 425c 95be af93 e43e
000000c0: 261c 593f 8b95 623f 1ddc 7b3d f225 9b3e
000000d0: 7dc1 bb3e 9212 bb3e 3256 4a3f b025 43bf
000000e0: 6ada bd3e ad7a 603f 99dd 643e aac4 863f
000000f0: 39e6 50be 426e 87bf c815 a53d d52b 8d3e
00000100: 70c5 b23e 2636 a63e a712 fbbe 2ba4 d8bf
00000110: 7873 aebf 1694 2e3f fef5 ccbe c890 3a3f
00000120: 57df 083f eece 9fbe 6027 263f 574e 8bbe
00000130: c905 77be 27de 8c3e 5b55 debe acc9 1b3f
00000140: 9921 883a 7376 bd3d 4b5f 433e d8fc 393e
00000150: af13 ec3d 6d62 8a3b e5ca 29bf 2651 3d3e
00000160: 5d08 8b3e 6bd4 223e e564 61bd 0a70 713e
00000170: 668a dabc 7895 8a3d d57c aabe cc95 86bb
00000180: 0f63 213f 15f5 6dbe 32c6 ba3d 8eec 053d
00000190: 6d6e ccbd 6f30 a73d 4b01 b63e 796d 723c
000001a0: 397d 65bc c8f4 123f 0cb2 1abf 363e 62bf
000001b0: f1a0 e33e c8db 023f 57e3 1cbc 742a d1be
000001c0: 032f a5be d104 2b3e 55f4 963e e1bc 1e3f
000001d0: af51 fdbe 04f2 053f cf24 133e 2168 09be
000001e0: c699 e8bd ce56 32bf 2755 c1be 2183 0d40
000001f0: 11b4 d6bf 38ed f83f 3fad ef3e ace5 9bc0
00000200: ce12 083b b9b2 6640 b2c5 32bf 9f15 0a3f
00000210: be3f bb3d fbdb 1441 0fb7 5b3f 979c 74bf
00000220: cbc3 acc0 8d3d b73e 1961 4abe 43a5 a4bf
00000230: 1da7 3f3e 6c67 ccbe 0c68 213e ed52 c3be
00000240: ac68 153e 1f4c c23e 0297 49be 041c 7dbf
00000250: d95c 2cbd 28b6 a2bc 3dc0 90bd f7d8 21be
00000260: 15ee a53d c8cb 5dbe 2774 febd e2bb 0ebe
00000270: 8662 01bf e3dc d8bd 88d6 61bd c9ee 5a3e
00000280: 553c 9bbc e4b5 dcbe 1eee 103d 66ce dabd
00000290: d1ac 6abe f31d a8be b1d3 2e3f 71c2 a13d
000002a0: 4d39 7d3e 4f88 b0bd c23e 803e 87df 913e
000002b0: 31a4 cabe f4f7 813d 0383 a33d 0c9f acbd
000002c0: 6f64 3a3d 702e 8e3e beb1 3cbe ff59 77be
000002d0: c8a8 1c3f 48d2 2cbf c78c 0f3e 5c98 1dbf
000002e0: 1fc2 46be a5d5 a2bf f98e 933d a6f3 25bf
000002f0: 277a d4bf 74fb d3bc 0553 3b3e a74e 093e
00000300: 55b9 853e 42c0 febe bf5f a63e e1da 3f3f
00000310: 91e6 263f 2acf c6be a7c1 a23e 848b a43e
00000320: e4aa 3ebe 0ff1 273f bb7c b63d a112 563e
00000330: 3039 873e b00e 05bf 2e62 c03e b5a8 1d40
00000340: 6cfd 9f3f d390 e03e abc5 8ebe 449d 53bf
00000350: f1d2 c13e 47b0 5c3f ed74 7b3e a8fe ae3f
00000360: 4961 813f f2d1 17bf 86ac 603e 6754 3f3f
00000370: ab90 b93d 4d1a c3be b154 2e3e 3e1d 91bb
00000380: bc48 9dbe 4d1b 68bf 5bb5 293f 30c4 69bf
00000390: 471f a7bd fe5f 913d 973c ed3c 329d 06bf
000003a0: 5a88 71be 547c a43e 9416 21be 317a f6be
000003b0: 1f21 2d3f 9896 66be d13f a6bd a57f 3abe
000003c0: c50f 5abd 38d5 f73d a82c b93d 73e0 b0bd
000003d0: 8ba9 2bbf ccfd b0be dfd2 aabc 061a 3d3f
000003e0: 6179 933f 9899 f0be df90 ec3d a59e fa3e
000003f0: 4a3c 35be 3fe7 02bf f698 5d3e 28d2 093f
-0.24654919 -0.44842592 -0.36601558 0.4378543 -0.3062514 -0.10697326 -0.49560705 0.9045705
0.44072735 0.2563872 0.084162496 0.13505766 -0.026052209 -0.27893814 -1.2562368 2.7459545
-1.0253938 -1.6498276 0.12194882 -1.7077892 0.0023947735 -0.109854706 -0.06541666 0.466011
0.017823437 0.1804323 -0.6020832 1.0610608 0.5476306 0.7254335 -0.030401736 0.111385204
0.2187459 0.707768 0.5042328 0.9179174 0.2768692 0.48095727 0.06479462 0.10183557
0.109377615 0.24725255 0.030204415 0.4422864 0.18686089 0.26286313 -0.2917195 0.44643924
0.84808576 0.88509434 0.061489213 0.30302387 0.36671057 0.36537606 0.79037774 -0.7622938
0.370807 0.8768719 0.22350158 1.0528767 -0.20400323 -1.0580523 0.08060795 0.27572504
0.34916258 0.32463187 -0.49037668 -1.69251 -1.3628988 0.6819471 -0.40031427 0.7287717
0.5346579 -0.31212562 0.6490383 -0.27208206 -0.241233 0.2751324 -0.43424496 0.608546
0.001038599 0.09251108 0.1907932 0.18162858 0.11527192 0.004223159 -0.6632522 0.18487987
0.27154818 0.15901344 -0.05502786 0.23577896 -0.026677322 0.0676679 -0.33298364 -0.0041072126
0.63041776 -0.23238023 0.09119834 0.0326963 -0.099819995 0.08163535 0.3554786 0.014796608
-0.014006906 0.57404757 -0.6042793 -0.88376176 0.44458726 0.5111661 -0.009575686 -0.40852702
-0.3226243 0.16701056 0.29483286 0.62006956 -0.49476382 0.5232241 0.1436951 -0.13418628
-0.11357455 -0.69663703 -0.3776028 2.2111285 -1.6773702 1.9447393 0.46811864 -4.871786
0.0020763162 3.6046584 -0.6983291 0.5393924 0.09143017 9.303706 0.858262 -0.9555144
-5.3989005 0.35789147 -0.19763602 -1.2862934 0.18716092 -0.39922655 0.15762347 -0.38149205
0.1459071 0.379487 -0.19686511 -0.98870873 -0.042080734 -0.01986225 -0.070679165 -0.15805422
0.08102051 -0.21659768 -0.12424498 -0.13938859 -0.5054096 -0.10589006 -0.055136234 0.21380152
-0.018949667 -0.43107522 0.035383336 -0.10683899 -0.22917487 -0.3283535 0.68291765 0.07898415
0.2472889 -0.08619749 0.2504788 0.2849085 -0.39578393 0.063461214 0.07983973 -0.08428773
0.045505937 0.27769804 -0.18427178 -0.24155425 0.6119504 -0.67508364 0.14018546 -0.61560607
-0.19409989 -1.2721449 0.07205004 -0.64824903 -1.6599778 -0.025876738 0.18293388 0.1340891
0.2611796 -0.49756056 0.32494923 0.7494336 0.65195566 -0.3882993 0.3178837 0.32137692
-0.18619877 0.656022 0.08910509 0.20905544 0.26410818 -0.51975536 0.37574905 2.463422
1.2499213 0.43860492 -0.27885184 -0.82661843 0.37856248 0.8620648 0.24556322 1.3671465
1.0107814 -0.59304726 0.21940812 0.7473816 0.09060796 -0.38106003 0.17024495 -0.004428535
-0.30719554 -0.9066666 0.6629235 -0.91314983 -0.081602626 0.07098387 0.028959556 -0.5258361
-0.2358717 0.32126105 -0.15731269 -0.481401 0.67628664 -0.22518384 -0.08117641 -0.18212755
-0.053237695 0.12101215 0.09041721 -0.0863656 -0.6705558 -0.34568632 -0.020852504 0.73867834
1.1521417 -0.46992183 0.115510695 0.4894916 -0.1769878 -0.51134104 0.21640381 0.538363

embedder.emb_rnn.weight_hh_l2 f4 [60, 20]
00000000: a995 e2be 468b 813f 81c6 0f3f 594a 27bf
00000010: 591a 54bf bd62 523e 72ca 883f d310 e83f
00000020: dda5 20bf 6e19 183f 64ec 483e 6275 f43e
00000030: 489f efbd 1459 753f dd49 913f b0bc 933e
00000040: cc5c 413f 5a3a b13e 1fc5 6a3f b4f4 553e
00000050: ec9d 23bd bbb9 643e 7d8c 063e 52d4 163e
00000060: 56e6 51bf 4e27 63be 6b8b 1a3b 4a97 60bd
00000070: c2f5 68be 8ddc 14bf 2360 693f 3e1a 15be
00000080: 9987 323c 1856 5abe 42a5 bfbe ca25 e6be
00000090: afbf 8fbe b314 6bbd 4607 34be 7b40 91be
000000a0: ddd9 8fbd 55e3 14bd cfa1 183f 3f5b 613e
000000b0: 5800 31bf c640 3dbe d874 deba 8b33 bc3e
000000c0: eb3e 17c0 80fe 2dbe 856b 233d 958c dcbe
000000d0: 108d 0ebd 1eaa 52be cdb0 68bc e380 343e
000000e0: 7f5a 723d 826b e33e cb7a 0ebe 4e9d 19be
000000f0: a16c d3be b9c7 8c3e 9546 b43e 43f9 bb3d
00000100: 6607 1dbf 66f4 55bf a93e 02be d89d cabe
00000110: e01e 6fbe df29 07bd 69c8 6c3f ae97 86be
00000120: af50 60bb a049 a5be ec25 8bbd edf9 ed3d
00000130: fc7e c7be 4ade 8ebd 13bd 18bf d5e2 3a3f
00000140: 4071 0abf 5c90 33be f87a 2b3f 7855 63be
00000150: 5c34 93bf a785 003f a070 97bd c339 e2be
00000160: 5ac9 01bf ad6f 71be 0023 d13e b911 fcbe
00000170: 0a21 c0be 3964 a7bd 9480 a3be 96e2 2bbf
00000180: d6cd 3a3e ddfe 79bf 596d 57bc 7438 683e
00000190: 6648 193e 78d2 7c3e 482a 123f 4e10 8d3d
000001a0: 786c fe3d 48de 21bf 2d7e ac3e cc3c b7bd
000001b0: 3469 ccbf eb8f 833e af96 203f 1025 65be
000001c0: 48c5 173d 3885 37be bd45 ff3e 33cc 41bf
000001d0: d101 483f b6fb 34be 4bee a6be 39ea 0abf
000001e0: 8c76 62bd cb52 9b3f 44cb 683f 1711 d23e
000001f0: c640 1a40 462a 843d 8f3c ecbe 57f0 c93b
00000200: 48aa 703d 4ceb f6be 92ac 3f3f c10d 27bf
00000210: 9882 32bd 5a8a 9ebd 5ab0 203e ec4c 763e
00000220: d889 2fbf 970e f9be ef4f 8d3e cfd6 1dbf
00000230: faa0 46be 3f83 55bf 16a3 12bf ab40 ccbe
00000240: 4ef4 33bf eda0 1ebf 5cd1 6e3d da0c cc3e
00000250: e406 a1bf f787 3b3f f5d7 5abe 1640 113d
00000260: f9bc 8dbe 2ced 09bc 3dd5 32bf ef32 2d3e
00000270: abd0 a0bd 0baa 6abf d50d 64be 5f8c 01be
00000280: ec64 843e 944b 36be 8c6e 44be ad3c aabe
00000290: e8e9 e63e 0841 aabe fbfd 8c3e d47d 0d3e
000002a0: d9df ce3f 2eef 3f3e 15b1 943f 497c a93e
000002b0: c9d7 863e 1a1a 54bc 8088 f5bd 9bf0 41bc
000002c0: 05df 4d3f bdbe b13c 8ab4 d3bd ace0 c53e
000002d0: b6bd 7fbd 6e15 79bf 1f5d 12bf 5e83 11bf
000002e0: f44f fe3f f147 a73f c650 cf3e 458a f13e
000002f0: fbaf 38be 5123 1d3e 65f9 073f d8b1 863e
00000300: 5ec1 e1be 4d00 143f 7bb0 583e 941a a73e
00000310: c38f be3e 904f 1d3d 1ca5 22bd 16c6 41bf
00000320: 2dec 2bbf 8cfb 913f c86c 723e 7ea7 da3d
00000330: 9e0b 383f d5d1 eb3e 7d5f 9e3e fdb7 743e
00000340: f98b 45bf 63ae 853e 4632 923f 4805 27bf
00000350: a2b9 8cbe 0c0b 71be 71b3 40bd 7b96 a03e
00000360: 00ed 3abf 2305 d0be 71a2 aebd 808a 1bbf
00000370: 2e35 d03e b1b4 1840 71ba c4bd 9f9f b73e
00000380: 4787 dd3f e6c4 7f3f e42e 21bf 2916 c1be
00000390: 7d01 39c0 86ae 97be 9c5a 61bd 8b8f 3abe
000003a0: 971d 7b3d fb51 b93d 00bb 1abe b814 423e
000003b0: a841 89bd 6221 813e 80a0 bc3d 9d8e 07bf
000003c0: 60a3 053f 6af3 89bc 38f0 24be 9971 743e
000003d0: c7b6 8cbe a2f3 783d 24eb 3e3e 4c02 6c3e
000003e0: c8be c8be 7b0e f7be 67f3 453f fb07 48be
000003f0: 5687 1e3f 3d29 703e 95f4 0cbe 9a12 433f
-0.44254807 1.0120628 0.5616227 -0.6534782 -0.82852703 0.20545478 1.0686781 1.8130134
-0.6275309 0.594138 0.19621426 0.47745806 -0.11700302 0.9583905 1.1350666 0.28854895
0.7553222 0.3461483 0.9170703 0.20894128 -0.039945528 0.22336476 0.1313953 0.14729431
-0.8199209 -0.22182962 0.0023581635 -0.05483178 -0.22749999 -0.58149034 0.9116232 -0.14560792
0.010896587 -0.21321905 -0.3743077 -0.44950706 -0.2807593 -0.057392787 -0.175809 -0.28369507
-0.07023976 -0.036349613 0.596219 0.22007464 -0.6914115 -0.1848174 -0.0016972078 0.36758074
-2.3632152 -0.16991615 0.03989746 -0.43076006 -0.034802496 -0.20572707 -0.014202309 0.17627291
0.059168335 0.4441796 -0.1391403 -0.15001413 -0.41293815 0.27496126 0.352101 0.09178402
-0.61339414 -0.8357605 -0.12719215 -0.3957355 -0.23351622 -0.032998916 0.924933 -0.26287597
-0.0034227779 -0.32282734 -0.067943424 0.11619935 -0.3896407 -0.06975992 -0.59663504 0.7300237
-0.54079056 -0.17535537 0.6698451 -0.22200572 -1.1500354 0.5020394 -0.073945284 -0.44184694
-0.50697863 -0.23577757 0.40847015 -0.4923227 -0.37525207 -0.08173413 -0.31934035 -0.6714262
0.18242583 -0.97654516 -0.013148629 0.22677785 0.14969024 0.24689662 0.57095766 0.068878755
0.124230325 -0.632298 0.33690014 -0.08947143 -1.5969605 0.25695738 0.62729925 -0.2237742
0.037053376 -0.17921913 0.49857894 -0.7570221 0.7812777 -0.17674145 -0.32603678 -0.54263645
-0.055288836 1.2134641 0.9093516 0.41028664 2.4102035 0.064533755 -0.46139953 0.006162684
0.058756143 -0.48226392 0.74872696 -0.6525536 -0.043581575 -0.07741232 0.15692273 0.24052781
-0.6856971 -0.48643944 0.27600047 -0.61655897 -0.19397345 -0.8340339 -0.572801 -0.39893088
-0.70294654 -0.61964303 0.05830513 0.39853555 -1.2580228 0.7325434 -0.21371444 0.035461508
-0.27683237 -0.008418363 -0.69856626 0.16913961 -0.078523 -0.91665715 -0.22270902 -0.12651204
0.25858247 -0.17802268 -0.19182795 -0.33249417 0.4510033 -0.3325274 0.27537522 0.13817531
1.6162063 0.18743584 1.1616541 0.33102635 0.26336506 -0.012945676 -0.11988926 -0.01183715
0.80418426 0.021697396 -0.103371695 0.38647974 -0.06243678 -0.97298324 -0.5717334 -0.56841075
1.986815 1.306883 0.40491313 0.47175804 -0.18035881 0.15345503 0.5311492 0.2630756
-0.4409284 0.5781296 0.21161072 0.32637465 0.37219056 0.038405955 -0.03970824 -0.7569288
-0.6715725 1.1404891 0.23674309 0.10676478 0.71892726 0.46058527 0.30932227 0.23898311
-0.77166706 0.2610961 1.1421592 -0.65242434 -0.27485377 -0.2353937 -0.04704613 0.31364807
-0.73017883 -0.4062892 -0.08527077 -0.6075821 0.40665573 2.3860285 -0.096058734 0.3586397
1.7306908 0.9990982 -0.62962174 -0.3771222 -2.8907158 -0.29625338 -0.055018052 -0.1821882
0.061307516 0.0904884 -0.15110397 0.18953216 -0.06701976 0.25220782 0.092103004 -0.52951986
0.52202415 -0.016839702 -0.16107261 0.23871459 -0.27483198 0.06077922 0.18644387 0.23047751
-0.39208055 -0.48253235 0.7732453 -0.19534294 0.61925256 0.23453231 -0.13765176 0.7620026

embedder.emb_rnn.bias_ih_l2 f4 [60]
00000000: dc73 733f 9bc2 6d3f 5908 873f db01 8c3f
00000010: 6467 813f 5ee7 543f 0f78 c53f 3ab4 473f
00000020: a230 8c3f 6b80 823f 6f33 943f 3acb 813f
00000030: f865 703f 97e0 613f c7ae 473f e40d 823f
00000040: a937 823f 2005 813f 848e a93f 6a50 883f
00000050: 5b2a 7a3f 11cf 533f 010e 153f 0e37 1a3f
00000060: feb1 723e b18a 153f 8698 463f c85c 143f
00000070: 4abe 763e 1389 673f 6da4 ea3e c57f 4a3f
00000080: 1d09 613f 05bd 2e3f 77b6 2a3f f222 403f
00000090: 6887 3d3f 3923 773f eb8b 4e3f 9171 3c3f
000000a0: 5d75 793f 6c83 373f 2b19 593f f368 553f
000000b0: 72c2 683f 93fa 7c3f 064f 9f3f 4bd2 793f
000000c0: d1b3 513f 1687 433f d459 333f 314f 523f
000000d0: 6e9f 7a3f 61ba 7a3f a5dc 693f 7c16 313f
000000e0: 181d 6f3f 1688 6a3f 9572 2b3f de04 603f
0.9509866 0.9287507 1.0549423 1.0938066 1.0109677 0.8316554 1.5427264 0.7800938
1.0952342 1.019544 1.1578196 1.0140145 0.9390559 0.8823332 0.78001064 1.0160489
1.0173236 1.0079689 1.3246617 1.064954 0.9772088 0.82737833 0.58224493 0.60240257
0.23700711 0.5841475 0.7757648 0.5795407 0.24096027 0.90443534 0.45828572 0.7910121
0.8790453 0.6825717 0.6668467 0.7505332 0.7403474 0.9653812 0.8068225 0.7361079
0.9744471 0.7168491 0.8480403 0.83363265 0.909217 0.98819846 1.2445991 0.97586507
0.81915003 0.76378 0.7005894 0.82152086 0.9789952 0.9794064 0.913523 0.69174933
0.9340377 0.916139 0.66971713 0.87507427

embedder.emb_rnn.bias_hh_l2 f4 [60]
00000000: 43c0 48bd c5eb 91bd 0415 613d c21f c03d
00000010: 7637 333c c463 2cbe 67ef 0a3f 142f 61be
00000020: 2a12 c33d 8b03 a03c 269b 213e 54e0 653c
00000030: 7a97 79bd 80fe f0bd e146 61be 3285 833c
00000040: 02d7 8d3c 76b5 023c 5b38 a63e 9304 853d
00000050: cbb6 babc 8ac4 30be ede3 d5be f38f cbbe
00000060: 8f53 43bf 73e9 d4be e699 65be 7944 d7be
00000070: 1d50 42bf 99b8 c3bd c2ad 0abf f8fe 55be
00000080: ddb5 f7bd d885 a2be ed90 aabe 7472 7fbe
00000090: aff0 84be f0c4 0dbd b6ce 45be c91b 87be
000000a0: b203 283e a570 54be 99ba 5fbe ef38 78be
000000b0: 9ab8 cabd fe1b dc3c b6bd 5e3f 67a2 abbd
000000c0: 21e4 5ebe 73a1 e9be 3eab aebe 88fd 63be
000000d0: 321d 5cbd 1e8b 4ebd b382 943f 6b2a ddbe
000000e0: 26be 34be 733f 0abe e4a8 2940 8089 59be
-0.04901148 -0.071250476 0.054951683 0.09381057 0.010938516 -0.16834933 0.5427155 -0.21990615
0.09524949 0.01953294 0.1578184 0.014030535 -0.060935475 -0.11767292 -0.21999694 0.016054723
0.017314438 0.007977834 0.3246487 0.06495013 -0.02279224 -0.17262474 -0.41775456 -0.39758262
-0.76299375 -0.41584358 -0.22421989 -0.42044428 -0.75903493 -0.095566936 -0.54171383 -0.20898044
-0.120952345 -0.3174274 -0.33313695 -0.24946004 -0.25964877 -0.034611642 -0.19317135 -0.26388386
0.1640766 -0.20746095 -0.21848525 -0.24240468 -0.09898491 0.026868816 0.87008226 -0.08380585
-0.21766712 -0.45630988 -0.34115022 -0.22264683 -0.05373878 -0.05042564 1.1602386 -0.43196425
-0.17650661 -0.13500766 2.6509333 -0.21243858
