output/FEM_GAN_60/model.pt (torch, 153208 bytes, 65 tensors)

embedder.emb_rnn.weight_ih_l0 f4 [60, 10]
0.06293557 0.26293975 0.14755549 -0.15686387 0.054808684 0.09555026 0.15865284 0.22011456
0.2943015 0.3766502 -0.2744917 0.2889165 0.518867 0.23008238 0.22908986 -0.0091980165
-0.27650684 0.1462654 -0.081883796 -0.34213328 0.027350115 -0.16436332 -0.62910575 -0.39082667
-0.353375 -0.5217645 0.23875363 -0.17199473 0.106271826 -0.10217474 -0.320425 0.03771307
-0.26395163 -0.039571147 0.30786762 0.22817042 0.29796395 0.3957741 0.06339114 0.06742388
0.056421395 0.4559139 0.35585925 0.32819116 0.35714033 0.19919963 0.0624584 -0.09106195
-0.4082185 0.0063088425 0.42021456 2.1024716 2.364648 2.4856932 2.2676625 1.933173
1.6077412 1.2157065 1.2252644 1.414614 -0.3857713 -0.170807 0.037890133 0.06812611
0.25019372 0.62273854 -0.7854389 -0.7769532 -0.3512192 -0.48780343 0.36811936 -0.18123393
-0.20067456 -0.28672263 0.2001028 -0.20725806 0.058106467 0.044242404 -0.12995422 0.09145025
0.33056796 -0.021136334 -0.061593197 0.21810257 0.15194346 -0.080733076 -0.018027171 0.1990204
0.16026954 0.069704905 -0.25594035 0.10830708 0.28363204 0.18354045 0.08802538 -0.17817308
-0.16499737 0.13927639 -0.029135777 -0.032769237 -0.07426553 -0.06794452 0.30273783 0.39166418
0.20465676 0.23973396 -0.45387045 -0.3460709 -0.22340101 -0.34729454 0.07951986 0.31444874
-0.23371466 0.27717695 -0.20764433 -0.13120164 0.25793862 0.185941 0.17700334 -0.019324431
0.2120239 -0.100514166 0.28862482 0.27962026 0.36762726 -0.06933025 0.16293068 0.17556651
0.38216734 0.2301453 -0.18120822 0.25409403 -0.06505631 0.066380784 0.07087241 0.2188739
0.2495913 -0.1107802 -0.20862876 0.09286248 -0.19499809 0.26619795 0.24097195 0.2489276
-0.1041022 0.20729087 -0.26880312 -0.109474525 -0.12344759 -0.23100609 -0.48670262 0.018097533
0.25227213 0.1342203 0.24373694 0.23504832 0.010410529 0.1502646 0.03715922 0.075939715
-0.3040058 -0.0012126681 -0.14068437 -0.119924836 -0.23393573 -0.2666831 0.3659677 -0.012935475
0.37180763 0.011456801 -0.34497947 -0.24977948 -0.06624819 0.065920606 0.17264453 -0.17213114
-0.12853877 -0.18853295 -0.40520322 -0.31115374 -0.21354383 0.11869543 0.06184086 -0.1483309
0.28519988 0.058834717 -0.0744459 -0.2779079 0.18918437 -0.1607408 0.3032377 -0.15367092
-0.75003624 -0.6943315 -0.20006122 -0.2222942 0.27684227 0.23973726 -0.09970743 -0.102268435
0.31437582 0.12465428 0.083838984 0.13473389 0.54962885 0.22836775 -0.4320902 -0.43919483
-0.15616283 -0.09724201 1.0076717 0.5747883 -0.03481918 -0.30793276 0.28200668 0.3123104
-0.47829533 -0.48297462 -0.4328502 -0.88427323 -0.83104897 0.38824022 -0.052408192 0.078807704
0.32760018 -0.22119339 -0.4290143 -0.20504442 -0.39763302 0.005941744 0.3434981 0.6140339
0.33390018 0.40220734 0.48433354 0.3265711 -0.6766564 -0.28137267 -0.567912 -0.44880065
-0.99885267 0.61277384 0.26403025 0.11888695 -0.06266175 0.29936317 -0.641969 -0.63975114
-0.52437276 -0.35289916 1.0289215 0.6147975 0.04003226 0.20438874 0.40179473 0.4181817
00000000: 5de4 803d 0aa0 863e c918 173e eca0 20be
00000010: 127f 603d dbaf c33d e475 223e b665 613e
00000020: b0ae 963e 4cd8 c03e 2d8a 8cbe ddec 933e
00000030: 78d4 043f b79a 6b3e 8896 6a3e 47b3 16bc
00000040: 4e92 8dbe 99c6 153e b1b2 a7bd 182c afbe
00000050: 590d e03c dc4e 28be 130d 21bf 6f1a c8be
00000060: 91ed b4be 5c92 05bf d57b 743e 631f 30be
00000070: 0ba5 d93d fd40 d1bd bf0e a4be 0579 1a3d
00000080: ab24 87be 5b15 22bd d3a0 9d3e 82a5 693e
00000090: bb8e 983e e7a2 ca3e 37d3 813d 8815 8a3d
000000a0: 1f1a 673d 8c6d e93e 2f33 b63e ac08 a83e
000000b0: 19db b63e fdfa 4b3e 61d4 7f3d b07e babd
000000c0: 0402 d1be 68ba ce3b 5d26 d73e e58e 0640
000000d0: 6556 1740 9915 1f40 6221 1140 3672 f73f
000000e0: 77ca cd3f 459c 9b3f 77d5 9c3f 1212 b53f
000000f0: d183 c5be 08e8 2ebe af32 1b3d b485 8b3d
00000100: 6419 803e cb6b 1f3f 8612 49bf 68e6 46bf
00000110: 01d3 b3be 5fc1 f9be 247a bc3e 6395 39be
00000120: a27d 4dbe 4fcd 92be c0e7 4c3e 753b 54be
00000130: 0c01 6e3d 8637 353d b812 05be 454a bb3d
00000140: 3440 a93e 1b26 adbc 2649 7cbd 4856 5f3e
00000150: 1197 1b3e 6257 a5bd b8ad 93bc 01cc 4b3e
00000160: b31d 243e 72c1 8e3d 9d0a 83be 1ad0 dd3d
00000170: 3838 913e 07f2 3b3e a746 b43d 0173 36be
00000180: 12f5 28be 789e 0e3e 27ae eebc 0939 06bd
00000190: 8718 98bd 7f26 8bbd 7400 9b3e 3588 c83e
000001a0: 8b91 513e d27c 753e b561 e8be 3430 b1be
000001b0: 3cc3 64be 97d0 b1be 4fdb a23d 6dff a03e
000001c0: e552 6fbe 23ea 8d3e b7a0 54be b959 06be
000001d0: 8810 843e 5167 3e3e 5d40 353e 454e 9ebc
000001e0: cb1c 593e 5fda cdbd a2c6 933e 632a 8f3e
000001f0: a439 bc3e 05fd 8dbd 4dd7 263e b5c7 333e
00000200: 70ab c33e 36ab 6b3e a68e 39be 9d18 823e
00000210: 3e3c 85bd a6f2 873d 8e25 913d 7b20 603e
00000220: dd94 7f3e bbe0 e2bd c7a2 55be af2e be3d
00000230: 94ad 47be 194b 883e 5ac1 763e e0e6 7e3e
00000240: 8933 d5bd 0f44 543e 90a0 89be 2e34 e0bd
00000250: 17d2 fcbd dc8c 6cbe 1631 f9be 4741 943c
00000260: d029 813e 0c71 093e 2d96 793e 82b0 703e
00000270: ec90 2a3c f7de 193e 4434 183d 4886 9b3d
00000280: a6a6 9bbe 64f2 9eba 900f 10be 279b f5bd
00000290: d98c 6fbe b08a 88be 1e60 bb3e 51ef 53bc
000002a0: 925d be3e 4eb5 3b3c 26a1 b0be 31c6 7fbe
000002b0: 22ad 87bd 6201 873d bac9 303e 2543 30be
000002c0: ab9f 03be c80e 41be cc76 cfbe 8b4f 9fbe
000002d0: 3cab 5abe 9716 f33d d74c 7d3d 0ee4 17be
000002e0: b805 923e acfc 703d 1877 98bd f249 8ebe
000002f0: 8cb9 413e 3c99 24be f941 9b3e e95b 1dbe
00000300: 6002 40bf b6bf 31bf d9dc 4cbe 17a1 63be
00000310: 45be 8d3e af7d 753e 6933 ccbd 1d72 d1bd
00000320: def5 a03e be4a ff3d c6b3 ab3d aef7 093e
00000330: 7ab4 0c3f 3cd9 693e ed3a ddbe 25de e0be
00000340: 26e9 1fbe d226 c7bd 63fb 803f 5325 133f
00000350: 8e9e 0ebd 5da9 9dbe 2e63 903e 26e7 9f3e
00000360: 20e3 f4be 7348 f7be 8b9e ddbe bb5f 62bf
00000370: a0bf 54bf 6cc7 c63e f9a9 56bd ef65 a13d
00000380: 36bb a73e 8580 62be c3a7 dbbe 2af7 51be
00000390: 8e96 cbbe f6b2 c23b fcde af3e 5331 1d3f
000003a0: f7f4 aa3e 1fee cd3e 91fa f73e 5434 a73e
000003b0: 5b39 2dbf 1410 90be ae62 11bf 33c9 e5be
000003c0: cfb4 7fbf bfde 1c3f f92e 873e 007b f33d
000003d0: ce54 80bd 2146 993e 1558 24bf bbc6 23bf
000003e0: 4b3d 06bf 33af b4be b3b3 833f 5e63 1d3f
000003f0: def8 233d 484b 513e 0ab8 cd3e e91b d63e

embedder.emb_rnn.weight_hh_l0 f4 [60, 20]
-0.24920778 0.20036697 0.09652198 0.017183453 0.20018148 0.08085727 0.08996075 0.1761574
-0.026973803 -0.23565212 -0.24159577 0.21897635 -0.12990473 0.030546065 0.12702525 -0.0716846
-0.038743947 0.20138939 0.25915295 0.013661505 0.0019711799 -0.032380935 -0.26457492 -0.29754877
0.2509682 0.12255216 0.04829986 0.2453201 -0.04568993 -0.21337415 0.2714371 -0.27528986
-0.18804179 0.44763124 0.09081071 -0.19846795 -0.10757782 -0.21377534 0.36155698 0.21740884
0.1568871 0.08999646 0.094388686 -0.26618513 0.07005119 0.11793297 0.21655011 -0.038973894
-0.2585013 -0.45702454 0.04812499 0.061050396 0.1576847 -0.14134629 -0.32364136 0.05755331
0.20588161 -0.117156416 -0.040062297 -0.26146132 0.08832821 0.2465872 -0.18803994 0.11700361
-0.24036825 -0.046405487 0.051488146 -0.004984225 -0.3513698 -0.024659023 -0.12709376 -0.21828641
0.21542695 0.0001215053 0.10965315 -0.30451518 -0.43281275 0.047936905 0.13316166 -0.1770151
-0.24693932 -0.09141186 0.28305513 -0.05582763 -0.24968384 -0.2898297 0.029907813 -0.23673414
-0.18872711 -0.061628055 -0.24680287 -0.24902457 -0.2995426 -0.19081059 -0.32006338 -0.026035817
-0.31669873 -0.06672583 0.2069383 0.08943638 0.27927518 -0.09732368 -0.14037424 0.015660737
-0.5166703 0.37001055 -0.090378284 0.083062164 0.08859353 -0.18201357 -0.111426406 -0.15244944
0.24283668 -0.029887728 -0.21998353 0.020548211 -0.20357434 -0.2145632 0.021431966 -0.079877965
0.1657237 -0.12816685 0.21390209 0.107587025 -0.115701124 0.20987193 -0.18383902 -0.2915583
-0.042633906 -0.118181124 0.18597972 -0.21397854 -0.18025081 0.018783877 0.038221307 -0.19929399
-0.2062926 0.09073031 -0.17043331 0.017860668 -0.082109116 0.1934286 0.022555511 -0.08331095
-0.1757813 -0.05460165 0.052951235 0.0058742566 0.1602796 0.24409054 -0.20877506 0.119142994
-0.12684566 0.12842514 -0.1959597 -0.26639408 0.116128094 -0.21107803 0.08995154 0.071382344
-0.012226221 -0.15704806 -0.09310744 -0.121835016 0.2936118 -0.2723728 -0.11890445 0.18018188
0.027720671 -0.18669142 0.35827446 -0.0737518 0.0766051 -0.31431928 0.21241155 0.0106673315
0.30542734 -0.21524216 -0.077347696 0.2643168 -0.15777174 0.384828 0.12162174 -0.2017961
-0.055206105 -0.2919965 -0.04090327 0.24962996 -0.024152162 0.14275418 0.13952386 0.11654517
-0.20438734 0.3675179 -0.20523378 -0.070339024 -0.35493588 -0.11515118 0.16361204 -0.12991697
0.1244781 0.23117758 -0.22710888 -0.14316283 -0.11922165 -0.0821319 -0.08983159 0.056020807
-0.059106566 0.18829696 -0.0120982155 0.1879442 -0.3418114 -0.263672 -0.2591086 0.06296087
-0.040281806 0.4088222 0.10973189 0.018156135 0.18228278 -0.021953741 0.15532835 -0.2249685
0.12541121 -0.25228435 0.15916699 0.014958107 0.26787272 -0.2509745 -0.17766394 0.089513436
-0.056082442 0.645648 0.30544385 -0.10023714 0.22853884 0.12591854 0.286015 0.08111387
0.21985544 -0.11202494 -0.0016104402 0.22094817 0.17313723 0.04673128 -0.051107496 -0.1610064
-0.21350217 0.33904037 0.028302798 0.074489295 -0.23277539 0.029988566 0.14071867 -0.2767552
00000000: 5330 7fbe 002d 4d3e 51ad c53d 50c4 8c3c
00000010: 60fc 4c3e 7f98 a53d 573d b83d 9b62 343e
00000020: 2af8 dcbc ca4e 71be e264 77be 563b 603e
00000030: bf05 05be be3b fa3c e812 023e 60cf 92bd
00000040: f9b1 1ebd 0539 4e3e b2af 843e 81d4 5f3c
00000050: e92e 013b dfa1 04bd 5d76 87be 5058 98be
00000060: e77e 803e a0fc fa3d 13d6 453d 3135 7b3e
00000070: 5d25 3bbd c17e 5abe cef9 8a3e cbf2 8cbe
00000080: 078e 40be ec2f e53e f7fa b93d 2f3b 4bbe
00000090: c351 dcbd ece7 5abe ff1d b93e 6ca0 5e3e
000000a0: 03a7 203e 1050 b83d db4e c13d 6b49 88be
000000b0: 0077 8f3d d786 f13d 50bf 5d3e 17a3 1fbd
000000c0: 485a 84be 1fff e9be b61e 453d fb0f 7a3d
000000d0: 1978 213e 15bd 10be 52b4 a5be 05bd 6b3d
000000e0: a1d2 523e b4ef efbd 5d18 24bd 42de 85be
000000f0: 6ce5 b43d 5b81 7c3e 8b8d 40be 979f ef3d
00000100: 1823 76be ae13 3ebd 3ce5 523d b652 a3bb
00000110: bee6 b3be b801 cabc de24 02be 7986 5fbe
00000120: e298 5c3e a9d0 fe38 d591 e03d 6ae9 9bbe
00000130: a299 ddbe 7d59 443d 885b 083e 7243 35be
00000140: a9dd 7cbe 2436 bbbd 9aec 903e 83ab 64bd
00000150: 1fad 7fbe 8f64 94be 3b01 f53c 6f6a 72be
00000160: ae41 41be b36d 7cbd e4b9 7cbe 4c00 7fbe
00000170: a65d 99be da63 43be 59df a3be 1149 d5bc
00000180: 5626 a2be 8da7 88bd a2e7 533e 6c2a b73d
00000190: 28fd 8e3e a351 c7bd 44be 0fbe f24a 803c
000001a0: 8144 04bf 0672 bd3e 4018 b9bd 7f1c aa3d
000001b0: 8670 b53d c461 3abe 8733 e4bd b51b 1cbe
000001c0: 2eaa 783e 1cd7 f4bc 5d43 61be b954 a83c
000001d0: cb75 50be 75b6 5bbe 1792 af3c 0f97 a3bd
000001e0: 79b3 293e 2c3e 03be 2609 5b3e 9656 dc3d
000001f0: b6f4 ecbd abe8 563e 4c40 3cbe 2147 95be
00000200: e4a0 2ebd f208 f2bd 7871 3e3e 311d 5bbe
00000210: ab93 38be a5e0 993c f28d 1c3d b913 4cbe
00000220: 5e3e 53be d0d0 b93d 1286 2ebe 8950 923c
00000230: d328 a8bd 2612 463e 56c6 b83c ee9e aabd
00000240: 0300 34be fba5 5fbd 65e3 583d d67c c03b
00000250: 5620 243e dff2 793e 21c9 55be 3e01 f43d
00000260: d4e3 01be e181 033e a9a9 48be ce64 88be
00000270: 91d4 ed3d d724 58be 8338 b83d e830 923d
00000280: 7d50 48bc 35d1 20be 1daf bebd a384 f9bd
00000290: 4954 963e 7374 8bbe 2d84 f3bd 9981 383e
000002a0: 7616 e33c 092c 3fbe c06f b73e 2f0b 97bd
000002b0: 22e3 9c3d 75ee a0be 6a82 593e 08c6 2e3c
000002c0: f960 9c3e 7168 5cbe 7868 9ebd 8854 873e
000002d0: ea8e 21be 2d08 c53e d214 f93d a3a3 4ebe
000002e0: cc1f 62bd 9180 95be 308a 27bd ff9e 7f3e
000002f0: c1da c5bc 272e 123e 58df 0e3e 3caf ee3d
00000300: ea4a 51be 4e2b bc3e ce28 52be e80d 90bd
00000310: 28ba b5be 62d4 ebbd ea89 273e f408 05be
00000320: 60ee fe3d d1b9 6c3e 3b8f 68be 4799 12be
00000330: 7b2a f4bd c534 a8bd a0f9 b7bd 1376 653d
00000340: ba19 72bd ebd0 403e 9837 46bc 7274 403e
00000350: e701 afbe 0400 87be e2a9 84be a1f1 803d
00000360: 89fe 24bd 2551 d13e 1dbb e03d 2dbc 943c
00000370: 56a8 3a3e 55d8 b3bc 650e 1f3e 245e 66be
00000380: cc6b 003e 6a2b 81be acfc 223e d912 753c
00000390: 9d26 893e bb7f 80be 89ed 35be d252 b73d
000003a0: b4b6 65bd 3049 253f 2363 9c3e 2149 cdbd
000003b0: 1606 6a3e caf0 003e 8f70 923e 071f a63d
000003c0: c921 613e 556d e5bd 6815 d3ba 3d40 623e
000003d0: e34a 313e 4c69 3f3d 1856 51bd ddde 24be
000003e0: 50a0 5abe b396 ad3e 45db e73c d88d 983d
000003f0: ac5c 6ebe 95aa f53c 8e18 103e dcb2 8dbe

embedder.emb_rnn.bias_ih_l0 f4 [60]
1.0080359 0.9835784 0.8691445 0.91351676 0.8965677 0.84494835 0.9846498 0.9617893
1.0562031 1.0022385 1.0203688 1.040433 0.9831307 1.0161763 0.9657905 0.95105344
1.101298 1.0140005 1.0400506 0.9988382 0.50634754 0.86115277 0.31825173 0.97805667
0.63690925 0.26597232 0.2737956 0.8029962 0.8820239 0.8997845 0.8563203 0.950777
0.7556531 0.67468077 0.50055486 0.4252429 0.9068152 1.1088196 1.4444379 0.15997593
1.0591506 0.7887765 1.0083159 0.9252899 0.893242 0.933052 0.9540493 1.0358498
1.0917778 0.9683477 0.72389436 1.0111071 0.9999997 1.0053482 1.0304629 1.0661097
1.0450665 0.8948486 0.8754136 1.1263912
00000000: 5207 813f cbcb 7b3f 4180 5e3f 3cdc 693f
00000010: 7685 653f 894e 583f 0212 7c3f d337 763f
00000020: aa31 873f 5a49 803f 729b 823f e92c 853f
00000030: 74ae 7b3f 1112 823f 0c3e 773f 3d78 733f
00000040: 55f7 8c3f c5ca 813f 6120 853f dcb3 7f3f
00000050: fe9f 013f 8274 5c3f e4f1 a23e ec61 7a3f
00000060: 7c0c 233f 862d 883e f02e 8c3e 2991 4d3f
00000070: 51cc 613f 4758 663f cf37 5b3f 1f66 733f
00000080: 7b72 413f e1b7 2c3f 5d24 003f 70b9 d93e
00000090: 0a25 683f cded 8d3f 57e3 b83f bbd0 233e
000000a0: 3f92 873f 42ed 493f 7f10 813f cddf 6c3f
000000b0: 82ab 643f 7fdc 6e3f 933c 743f ba96 843f
000000c0: 60bf 8b3f a3e5 773f 2451 393f f56b 813f
000000d0: fbff 7f3f 40af 803f 35e6 833f 4876 883f
000000e0: bdc4 853f cc14 653f 1b1b 603f 962d 903f

embedder.emb_rnn.bias_hh_l0 f4 [60]
0.008033588 -0.016423902 -0.13085635 -0.086480886 -0.103432015 -0.15505177 -0.015358045 -0.03821081
0.056205273 0.0022341837 0.020370645 0.04042934 -0.016869942 0.016175542 -0.034208596 -0.048943613
0.10129854 0.014005731 0.04004613 -0.0011607719 -0.49364948 -0.13884765 -0.6817488 -0.021938303
-0.3630905 -0.7340286 -0.7262034 -0.19699995 -0.117977284 -0.10021679 -0.14368053 -0.049222052
-0.24434714 -0.32532224 -0.49944508 -0.57475513 -0.093182705 0.10881292 0.44443506 -0.8400219
0.048588082 -0.21050641 0.056048386 -0.06299341 -0.10762752 0.0145219425 -0.17505713 0.030919475
0.09216402 -0.022679094 -0.33642334 0.0130418185 -0.013381427 0.0043861223 0.05845737 0.045213565
0.049120553 -0.13832118 -0.12443518 0.23625138
00000000: 4f9f 033c 6b8b 86bc 35ff 05be e41c b1bd
00000010: 2ad4 d3bd e4c5 1ebe 4fa0 7bbc f082 1cbd
00000020: 8037 663d 626b 123b 57e0 a63c 3c99 253d
00000030: d532 8abc 9282 843c 501e 0cbd 1979 48bd
00000040: 9c75 cf3d 4b78 653c 6907 243d 0b25 98ba
00000050: a0bf fcbe 142e 0ebe 1787 2ebf f5b7 b3bc
00000060: ffe6 b9be 4ce9 3bbf 77e8 39bf 5bba 49be
00000070: 139e f1bd 763e cdbd fd20 13be 109d 49bd
00000080: 2336 7abe a390 a6be 44b7 ffbe 2723 13bf
00000090: 93d6 bebd 4fd9 de3d fe8c e33e ad0b 57bf
000000a0: 4c04 473d fe8e 57be fe92 653d b002 81bd
000000b0: d16b dcbd 71ed 6d3c 2d42 33be d74a fd3c
000000c0: 7dc0 bc3d 82c9 b9bc ae3f acbe 5aad 553c
000000d0: c63d 5bbc 76b9 8f3b ff70 6f3d dc31 393d
000000e0: a232 493d 11a4 0dbe dfd7 febd e2eb 713e

embedder.emb_rnn.weight_ih_l1 f4 [60, 20]
0.11270377 0.18498534 0.14212559 0.04262604 0.030717457 -0.10254014 0.13765293 -0.11577565
0.20270468 0.019875508 -0.11779931 0.21237619 -0.14571972 0.1281058 -0.0690597 -0.043429315
0.1329908 0.15145428 -0.07924366 0.2638326 -0.31802338 0.19989343 0.16590448 -0.1654068
0.07508464 -0.13154632 -0.27470085 0.06533364 0.11679993 0.0080674095 0.05445098 0.23529662
-0.0124776615 0.269735 -0.17749846 -0.13380623 -0.23194084 -0.26373926 0.18554801 -0.1608729
-0.008632358 0.14581387 -0.16471101 -0.21852103 -0.29216453 0.12684461 -0.004513017 0.1365042
-0.29084006 -0.21900895 0.0926731 0.04480359 -0.7432516 -0.15523593 0.062099732 0.16483495
-0.1552329 -0.09496161 0.18183114 0.041895494 0.024929855 0.19595551 -0.10958792 0.026644241
-0.16692185 0.30498794 0.08950321 0.044957478 -0.20398134 -0.22140683 0.15104964 0.0827489
0.6121789 -0.8327936 -0.2592301 0.18368699 0.0030818165 0.10342401 -0.09004576 0.06151545
-0.049510166 0.03000498 -0.08026726 -0.062611654 0.16471699 0.13304281 -0.40413868 -0.045472432
0.078817725 -0.10679571 -0.18001336 0.063737504 -0.2385099 0.38201976 -0.23306385 -0.123692356
-0.1618213 0.030666603 0.22277562 0.057620887 0.08198441 0.2511184 -0.04085318 0.023455147
-0.17313315 -0.19264491 0.17164057 -0.118636474 -0.3009871 0.29197297 0.4319482 -0.30959502
-0.1302318 -0.49017596 0.25150084 0.1705917 -0.034817196 0.13215385 0.14351532 -0.16331643
-0.023356682 -0.09709877 -0.4696941 -0.23246828 -0.18063214 -0.13115613 -0.31799486 -0.06213024
-0.13985515 0.06773993 0.19566733 -0.390952 0.045182098 -0.10372613 0.15477529 0.009966383
-0.23091745 0.06592936 -0.31107584 -0.16035554 -0.13017316 0.27224815 0.34722075 0.05737291
-0.11647323 -0.14151634 0.1841378 0.054424014 0.13868372 -0.30176616 -0.34852195 0.09895992
0.4017277 -0.04005379 -0.28947875 -0.08346228 0.25823084 -0.12285013 0.23594882 0.08493807
0.056690518 -0.4728084 -0.4067608 0.13059409 0.015791303 -0.7337709 0.009752492 0.035537522
-0.2244757 -0.08924524 0.15745379 0.10316925 -1.0164045 -0.2011897 0.12668528 -0.35460907
0.06584607 -0.0592227 -0.51907754 -0.022613186 -0.5769385 0.13335334 -0.36559632 -0.15027489
0.101778075 -0.20012058 -0.10597294 0.027321614 -0.31769443 0.056281626 -0.36798352 -0.05187604
-0.06797145 -0.87749887 -0.34515524 0.15113401 -0.15065648 -0.01991274 -0.11990586 -0.25677162
0.07062067 -0.22033076 -0.19537196 -0.09859271 0.13922001 0.05683337 0.16919196 -0.264614
-0.15503915 -0.12534663 -0.26376352 0.106034204 -0.32005405 -0.16619535 -0.12996341 -0.07817352
-0.03688568 -0.13192561 0.12892835 -0.10054879 -0.021951975 0.044301476 -0.1297393 0.011408561
-0.13233697 -0.08275561 -0.19980574 0.12540318 0.15824312 -0.3033346 0.17112078 0.05948863
-0.4600566 0.3482086 -0.30947906 0.115052834 -0.2037764 0.26426727 0.5323173 0.14570566
-0.083041556 -0.14055093 0.20224112 -0.11882098 -0.055112675 -0.42299876 0.14606707 0.035087895
0.013465645 -0.16237067 0.021761227 0.21706834 -0.4602561 -0.28897876 -0.17969652 -0.15925798
00000000: 3cd1 e63d cc6c 3d3e 5f89 113e a498 2e3d
00000010: 2da3 fb3c 9100 d2bd e4f4 0c3e c91b edbd
00000020: d191 4f3e f6d1 a23c c440 f1bd 2579 593e
00000030: 8d37 15be 2b2e 033e 2c6f 8dbd f0e2 31bd
00000040: be2e 083e d516 1b3e 804a a2bd 1115 873e
00000050: f6d3 a2be ddb0 4c3e dde2 293e 6660 29be
00000060: fac5 993d 14b4 06be 97a5 8cbe a5cd 853d
00000070: cd34 ef3d 2b2d 043c fe07 5f3d 99f1 703e
00000080: 1b6f 4cbc b51a 8a3e 28c2 35be 8004 09be
00000090: e681 6dbe d508 87be 4c00 3e3e debb 24be
000000a0: bc6e 0dbc 3b50 153e 01aa 28be fac3 5fbe
000000b0: 9796 95be 8ee3 013e eee1 93bb c2c7 0b3e
000000c0: fde8 94be e243 60be 65cb bd3d f883 373d
000000d0: bd45 3ebf 2bf6 1ebe 4a5c 7e3d 7eca 283e
000000e0: 60f5 1ebe 3c7b c2bd f131 3a3e 9c9a 2b3d
000000f0: b239 cc3c 90a8 483e a26f e0bd 0645 da3c
00000100: 90ed 2abe 6127 9c3e 754d b73d 5525 383d
00000110: 7ce0 50be 79b8 62be c2ac 1a3e 4178 a93d
00000120: c2b7 1c3f f631 55bf cfb9 84be 7118 3c3e
00000130: 4df8 493b f8cf d33d e969 b8bd a0f7 7b3d
00000140: 2ccb 4abd 01cd f53c 2963 a4bd 8a3a 80bd
00000150: 92ab 283e 603c 083e 44eb cebe 4d41 3abd
00000160: 306b a13d b6b7 dabd 6c55 38be cf88 823d
00000170: f03b 74be 1898 c33e 4aa8 6ebe 6b52 fdbd
00000180: 7cb4 25be 8738 fb3c 4b1f 643e e103 6c3d
00000190: 71e7 a73d 9792 803e aa55 27bd 0225 c03c
000001a0: d149 31be b544 45be 8cc2 2f3e aef7 f2bd
000001b0: fb1a 9abe 7b7d 953e 5128 dd3e 3d83 9ebe
000001c0: 7c5b 05be 58f8 fabe b8c4 803e 97af 2e3e
000001d0: 7a9c 0ebd 5753 073e aef5 123e 6c3c 27be
000001e0: 8356 bfbc b8db c6bd bf7b f0be 2a0c 6ebe
000001f0: a2f7 38be cb4d 06be 39d0 a2be 477c 7ebd
00000200: 3036 0fbe 3bbb 8a3d 045d 483e dc2a c8be
00000210: dd10 393d 5e6e d4bd 6a7d 1e3e 0a4a 233c
00000220: a075 6cbe f905 873d 5545 9fbe 3e34 24be
00000230: 1d4c 05be 1c64 8b3e ebc6 b13e dbff 6a3d
00000240: 8489 eebd a9e9 10be 9f8e 3c3e b7eb 5e3d
00000250: 1b03 0e3e 1881 9abe 7871 b2be 80ab ca3d
00000260: 41af cd3e 710f 24bd 8f36 94be 46ee aabd
00000270: d536 843e d998 fbbd 919c 713e 03f4 ad3d
00000280: 5134 683d f113 f2be f442 d0be 75ba 053e
00000290: c35c 813c 69d8 3bbf ebc8 1f3c cb8f 113d
000002a0: f5dc 65be 35c6 b6bd 913b 213e 664a d33d
000002b0: 8b19 82bf ac04 4ebe c9b9 013e 528f b5be
000002c0: 4eda 863d 8093 72bd 44e2 04bf 4a3f b9bc
000002d0: 3eb2 13bf c78d 083e 712f bbbe a9e1 19be
000002e0: 0671 d03d 69ec 4cbe 5708 d9bd 94d1 df3c
000002f0: d8a8 a2be 9087 663d 5668 bcbe f87b 54bd
00000300: 9e34 8bbd c4a3 60bf 30b8 b0be e0c2 1a3e
00000310: b145 1abe 0b20 a3bc 3491 f5bd 9277 83be
00000320: 92a1 903d 639e 61be 960f 48be faea c9bd
00000330: b18f 0e3e 1cca 683d a840 2d3e 7c7b 87be
00000340: 95c2 1ebe de5a 00be 030c 87be 7628 d93d
00000350: 20de a3be 1d2f 2abe 2115 05be 7019 a0bd
00000360: 7015 17bd 8217 07be cb05 043e 86ec cdbd
00000370: a1d4 b3bc 7775 353d 61da 04be f9ea 3a3c
00000380: 5883 07be c67b a9bd e099 4cbe b169 003e
00000390: 7c0a 223e ac4e 9bbe 493a 2f3e 5aaa 733d
000003a0: 8a8c ebbe 6648 b23e 0a74 9ebe d2a0 eb3d
000003b0: c3aa 50be 0a4e 873e f245 083f dd33 153e
000003c0: b111 aabd 95ec 0fbe 4c18 4f3e 6a58 f3bd
000003d0: d4bd 61bd 4b93 d8be 9b92 153e 53b8 0f3d
000003e0: 029f 5c3c 7f44 26be 9a44 b23c 2a47 5e3e
000003f0: b0a6 ebbe 06f5 93be 5d02 38be 8614 23be

embedder.emb_rnn.weight_hh_l1 f4 [60, 20]
-0.006030792 -0.2661752 0.034552447 0.10683393 0.33814594 -0.026270386 -0.08929835 0.11217054
-0.041413836 -0.16082734 0.33435676 0.0855016 0.10789959 0.22796501 0.21305497 0.24419774
-0.13180792 0.23271012 0.0066576167 0.17785217 0.25254008 -0.3860908 0.2618607 0.26208776
0.009509613 -0.06812951 -0.15062517 -0.025817089 0.064160794 -0.22786157 0.054057308 0.037583712
-0.0037227853 0.17066659 0.090977214 -0.192286 -0.25827572 -0.08052067 0.0349863 0.080264345
0.110872895 0.14089961 0.004136572 -0.30911225 0.06760074 -0.00034954207 -0.06433524 -0.04085825
0.34823748 0.02532771 -0.03820785 -0.1093984 -0.024026256 0.015366737 -0.07803707 -0.12913127
-0.20691405 0.22002988 0.020015853 -0.09909524 0.019877082 -0.16572137 -0.03936817 -0.12245085
0.015881116 -0.28992543 -0.021586213 0.034754936 0.33082584 -0.1849695 -0.11577579 -0.58132553
-0.061233915 -0.34269822 0.21129493 -0.10057778 -0.28789452 0.0066974126 0.16748084 -0.23589139
-0.23685683 0.06619927 -0.39272648 0.015655363 -0.40922207 -0.13075356 -0.13701801 -0.07660473
-0.020617919 -0.1852806 -0.4850158 -0.040338453 0.28714743 -0.24488933 -0.005863251 0.1929576
-0.11248385 -0.12027437 -0.3107995 -0.023453156 -0.26909387 0.11457145 0.17338322 -0.0567866
0.16378982 0.027761703 0.20322217 -0.09769745 0.061687086 -0.083525926 0.114432015 -0.12695077
0.19818552 -0.06998139 -0.11116631 -0.004088744 -0.245961 0.17024364 -0.12778181 -0.16669098
0.23079702 0.113566376 0.20637636 -0.31416827 -0.1911134 0.1811016 -0.122245096 0.06308058
0.2216454 0.24152257 0.23715429 -0.3438284 -0.021304248 0.14449997 -0.13354759 0.1732085
-0.13986535 0.06976068 0.034423344 -0.35865957 -0.24820343 0.1395427 -0.29286918 -0.017055899
-0.08596692 0.15627193 0.3729427 0.119430296 -0.17283332 -0.12392715 -0.17109714 -0.32073826
0.25220597 0.19388111 0.43715057 -0.12335467 -0.0025123465 0.11323107 0.42763084 -0.17542188
-0.3100798 0.047087852 -0.36697784 -0.22817916 0.092542894 -0.1346678 0.5253603 0.009287012
-0.33738056 -0.06808854 0.16950093 0.54683423 0.3077308 0.27262366 0.25044042 -0.043636374
-0.31611723 -0.2895121 0.23236427 0.11711094 -0.05943126 0.057550833 -0.22116688 0.08457249
0.12706031 -0.24243867 0.07504464 -0.32123423 0.28274313 -0.17567016 -0.16023092 -0.07094124
0.28476548 -0.2670864 -0.38333142 -0.070414715 0.04286711 -0.097357675 0.095482975 -0.009886825
-0.27279776 -0.81561136 -0.4024376 -0.1640742 0.46556053 0.00536943 0.2479962 -0.21897487
0.1863388 -0.19671208 0.2018831 -0.16210218 0.288668 -0.24188489 -0.12224574 -0.18386507
-0.053620055 -0.24391922 -0.0453795 -0.22638589 -0.13553926 0.28651816 -0.22249772 0.114052646
-0.07964216 -0.07527322 -0.07280839 0.033034556 0.38577095 -0.08822408 0.11097651 -0.05284055
0.37803683 0.21682878 -0.07558286 0.10364121 -0.3554742 -0.24156098 0.25839517 -0.07548774
-0.26540413 0.30764365 -0.017992461 0.19622743 0.2864836 0.13336404 -0.15883653 -0.17402098
0.03607321 -0.18983656 -0.12172942 -0.15129846 0.3173153 -0.15451853 -0.2280317 0.25523782
00000000: f39d c5bb 1e48 88be de86 0d3d bfcb da3d
00000010: 7721 ad3e fe34 d7bc 0ee2 b6bd abb9 e53d
00000020: 8ea1 29bd ecaf 24be cf30 ab3e 761b af3d
00000030: 76fa dc3d a96f 693e 152b 5a3e f90e 7a3e
00000040: a8f8 06be 904b 6e3e 2328 da3b e11e 363e
00000050: ef4c 813e b1ad c5be 9b12 863e 5e30 863e
00000060: 35ce 1b3c 7c87 8bbd 7c3d 1abe 5c7e d3bc
00000070: bc66 833d 8b54 69be 326b 5d3d 61f1 193d
00000080: f9f9 73bb 39c3 2e3e 4352 ba3d 9fe6 44be
00000090: b73c 84be 05e8 a4bd cb4d 0f3d a261 a43d
000000a0: 5411 e33d fd47 103e 158c 873b f643 9ebe
000000b0: 4272 8a3d be42 b7b9 32c2 83bd fb5a 27bd
000000c0: 2f4c b23e 0f7c cf3c d67f 1cbd 450c e0bd
000000d0: b6d2 c4bc c4c4 7b3c e6d1 9fbd fd3a 04be
000000e0: 47e1 53be 834f 613e 49f8 a33c 72f2 cabd
000000f0: 43d5 a23c ddb2 29be 8540 21bd 83c7 fabd
00000100: 1d19 823c 1b71 94be 92d5 b0bc 315b 0e3d
00000110: 0162 a93e a568 3dbe db1b edbd c0d1 14bf
00000120: 6ad0 7abd 2476 afbe b35d 583e b9fb cdbd
00000130: e966 93be f875 db3b 1980 2b3e 838d 71be
00000140: 998a 72be 7c93 873d 7213 c9be ad3f 803c
00000150: 8e85 d1be 43e4 05be 734e 0cbe f1e2 9cbd
00000160: e9e6 a8bc 33ba 3dbe fe53 f8be ef39 25bd
00000170: fd04 933e 45c4 7abe 8420 c0bb ad96 453e
00000180: ef5d e6bd 6952 f6bd 1d21 9fbe d520 c0bc
00000190: acc6 89be 70a4 ea3d 5f8b 313e 1199 68bd
000001a0: 85b8 273e 836c e33c 7919 503e 9a15 c8bd
000001b0: 99ab 7c3d a40f abbd 555b ea3d 62ff 01be
000001c0: 25f1 4a3e 6752 8fbd 2aab e3bd dffa 85bb
000001d0: 33dd 7bbe 5954 2e3e 3cd9 02be 0ab1 2abe
000001e0: 0e56 6c3e 7d95 e83d 5354 533e aada a0be
000001f0: 3bb3 43be b372 393e a35b fabd 6430 813d
00000200: 03f7 623e b151 773e 93d8 723e 470a b0be
00000210: 3f86 aebc cdf7 133e b3c0 08be 925d 313e
00000220: dd38 0fbe b0de 8e3d 7eff 0c3d 3aa2 b7be
00000230: 0a29 7ebe 48e4 0e3e f3f2 95be d0b8 8bbc
00000240: 6d0f b0bd c005 203e 58f2 be3e df97 f43d
00000250: 38fb 30be 85cd fdbd 1734 2fbe ce37 a4be
00000260: 2421 813e c588 463e 33d2 df3e 60a1 fcbd
00000270: 2ea6 24bb b1e5 e73d 6ef2 da3e cba1 33be
00000280: c8c2 9ebe 31df 403d 85e4 bbbe cca7 69be
00000290: 2187 bd3d 5be6 09be 037e 063f 8d28 183c
000002a0: 25bd acbe 0172 8bbd a791 2d3e 54fd 0b3f
000002b0: e48e 9d3e 5495 8b3e ba39 803e 0ebc 32bd
000002c0: 1eda a1be ee3a 94be e6f0 6d3e dcd7 ef3d
000002d0: 316e 73bd 6cba 6b3d 9279 62be 5734 ad3d
000002e0: 191c 023e d841 78be 01b1 993d d078 a4be
000002f0: b5c3 903e e1e2 33be 9313 24be a449 91bd
00000300: c8cc 913e 8cbf 88be 0444 c4be 9735 90bd
00000310: 6c95 2f3d 7663 c7bd 948c c33d 5afc 21bc
00000320: 26ac 8bbe e8cb 50bf 4d0c cebe 1103 28be
00000330: f35d ee3e 0bf2 af3b b7f2 7d3e f33a 60be
00000340: 99cf 3e3e e46e 49be 72ba 4e3e 1dfe 25be
00000350: 4bcc 933e acb0 77be f95b fabd 2047 3cbe
00000360: b4a0 5bbd f6c5 79be dbdf 39bd b4d1 67be
00000370: ceca 0abe 82b2 923e 71d6 63be 6f94 e93d
00000380: 6e1b a3bd d928 9abd 911c 95bd 3e4f 073d
00000390: c583 c53e d4ae b4bd a747 e33d 556f 58bd
000003a0: 0b8e c13e 5d08 5e3e 30cb 9abd d841 d43d
000003b0: b700 b6be c35b 77be 5f4c 843e 5199 9abd
000003c0: 0de3 87be 7883 9d3e ed64 93bc d8ef 483e
000003d0: faad 923e 9590 083e 0ba6 22be 8e32 32be
000003e0: 81c1 133d 8464 42be 464d f9bd fced 1abe
000003f0: 2777 a23e 1b3a 1ebe 2481 69be 88ae 823e

embedder.emb_rnn.bias_ih_l1 f4 [60]
1.0631317 1.014447 0.94502664 0.99084723 0.9402064 0.95052075 0.9581386 1.0088831
0.9782088 0.8859273 0.8789141 0.97805464 1.0465646 0.95159036 0.92853683 1.0469491
1.0049992 0.9241096 1.0528404 0.9842856 0.56110036 0.60276663 0.8308763 0.58778685
0.46364933 0.66976374 0.3398166 0.7282947 -0.26261166 0.65996957 0.5251427 -0.1133708
-0.014402905 0.81504977 -0.0014938904 0.59364074 0.34430182 0.7145368 0.8895664 0.819296
1.1030439 0.92795914 1.02703 1.0587679 0.9175396 0.98049474 0.8725341 0.95903033
0.89848757 0.98050946 0.93729573 0.9635298 0.7749305 1.0515764 0.8930315 1.2913917
0.941999 1.0181857 0.9452424 0.9648098
00000000: b314 883f 66d9 813f 44ed 713f 2aa8 7d3f
00000010: 5eb1 703f 5455 733f 9248 753f 1523 813f
00000020: e46b 7a3f 22cc 623f 8400 613f ca61 7a3f
00000030: d4f5 853f 6d9b 733f 97b4 6d3f 6e02 863f
00000040: d0a3 803f 7292 6c3f 79c3 863f 24fa 7b3f
00000050: 46a4 0f3f ea4e 1a3f 4fb4 543f 3379 163f
00000060: 7263 ed3e a375 2b3f 71fc ad3e 8571 3a3f
00000070: 0975 86be c4f3 283f c16f 063f f32e e8bd
00000080: 29fa 6bbc 1aa7 503f a5ce c3ba d7f8 173f
00000090: 5448 b03e e2eb 363f a0ba 633f 62bd 513f
000000a0: 8b30 8d3f bb8e 6d3f b875 833f b585 873f
000000b0: e0e3 6a3f b401 7b3f 655e 5f3f 0383 753f
000000c0: 4803 663f ab02 7b3f 9df2 6f3f e4a9 763f
000000d0: d861 463f 0e9a 863f b69d 643f 534c a53f
000000e0: d926 713f e953 823f 68fb 713f c6fd 763f

embedder.emb_rnn.bias_hh_l1 f4 [60]
0.06312036 0.014450321 -0.05497475 -0.009159141 -0.059796885 -0.04947923 -0.04185999 0.008880011
-0.021793086 -0.11407129 -0.12108982 -0.021949975 0.046567556 -0.048408855 -0.07146598 0.04694645
0.005005876 -0.07588638 0.052846253 -0.01571201 -0.43890226 -0.3972361 -0.169122 -0.41221273
-0.53634703 -0.3302312 -0.6601847 -0.27170563 -1.2626135 -0.3400304 -0.47485754 -1.1133717
-1.0144 -0.18494773 -1.0014955 -0.40635872 -0.6556978 -0.2854669 -0.11043512 -0.18070498
0.095713355 -0.077849515 -0.0007656106 0.09919078 -0.1005027 -0.04755831 -0.09541457 -0.036750007
-0.19874002 -0.120154336 -0.101655 -0.028958986 -0.23947395 0.01765474 -0.07558325 0.3759783
-0.038256966 0.053440925 -0.06389415 -0.05534777
00000000: 3f45 813d 0ac1 6c3c 342d 61bd 3910 16bc
00000010: 94ed 74bd bcaa 4abd 6275 2bbd 777d 113c
00000020: 6a87 b2bc 359e e9bd f1fd f7bd 6fd0 b3bc
00000030: 9fbd 3e3d 5d48 46bd c15c 92bd ec4a 403d
00000040: 5508 a43b 526a 9bbd 5075 583d 79b6 80bc
00000050: ccb7 e0be 8862 cbbe 512e 2dbe 8c0d d3be
00000060: 0a4e 09bf 1014 a9be dd01 29bf 001d 8bbe
00000070: 529d a1bf 7718 aebe 8720 f3be f782 8ebf
00000080: dcd7 81bf f062 3dbe 0131 80bf 400e d0be
00000090: d0db 27bf b828 92be cf2b e2bd ba0a 39be
000000a0: 5d05 c43d 916f 9fbd 42b3 48ba 8924 cb3d
000000b0: 5cd4 cdbd 81cc 42bd b768 c3bd 2d87 16bd
000000c0: 8182 4bbe 7a13 f6bd 7f30 d0bd 653b edbc
000000d0: a938 75be aca0 903c 64cb 9abd 3a80 c03e
000000e0: 56b3 1cbd dfe4 5a3d f0da 82bd 58b4 62bd

embedder.emb_rnn.weight_ih_l2 f4 [60, 20]
-0.24222922 -0.210964 -0.069617495 0.05965768 -0.10953595 0.042726755 -0.15463778 0.08705034
-0.17923146 -0.14167508 0.41666925 0.592606 -0.1131906 -0.17068711 0.25456256 0.16363032
-0.017731812 0.13990222 0.09075216 -0.025047222 0.09725434 0.10592139 0.11458059 -0.21466489
-0.10900262 0.16415542 0.30605525 -0.236373 0.09579445 -0.1588065 -0.26721382 0.5262194
-0.1265052 -0.05417745 0.0039798664 0.2415833 0.1362306 -0.097405516 0.097902454 0.014685469
0.053259883 -0.054602526 -0.16799761 -0.14908914 -0.16110677 -0.1735313 0.33790168 0.27250618
0.24332961 -0.07916271 0.3431707 0.2504614 -0.02446498 0.034442585 0.2929581 0.27215043
-0.20124137 -0.10079249 -0.2333241 -0.29887167 -0.05194227 -0.23768802 -0.137453 0.15813354
0.29674906 -0.31758603 0.19151624 -0.08218816 0.37703106 -0.39454168 -0.38276312 -0.3794227
0.17330988 0.047226746 -0.013810274 -0.3875431 -0.591362 -0.2553481 -0.20262143 -0.10455212
0.12300953 -0.041815843 -0.2942708 0.11786877 -0.002055248 -0.20162258 0.3887421 -0.11275251
-0.14091447 0.28279978 0.15381742 0.7355708 -0.015201874 -0.05425109 0.31590638 0.18025455
0.04779005 -0.23562749 0.3925088 -0.25008222 0.08816368 0.23819076 0.17765582 -0.1456241
-0.14444731 0.005627886 -0.10555827 -0.00775343 0.0219117 -0.018873988 -0.2562829 0.31485438
-0.27773926 -0.1695016 -0.12729114 -0.17935249 0.23814967 -0.17999175 0.20230065 0.024871103
0.28336388 -0.30899584 -0.27163914 -0.17258108 0.35458317 0.18569875 -0.6906007 0.12546194
0.106971554 0.2506356 0.057134625 -0.9230825 -0.21615729 -0.2103261 0.14908908 0.037820872
-0.32178774 -0.10607716 -0.05569007 0.17549634 -0.12188918 0.031945433 0.043125402 -0.008361186
0.49060524 0.039482746 -0.09737771 -0.5747028 -0.23816074 -0.3657243 -0.33731857 -1.6438587
-0.36353123 0.13676213 0.28657427 -0.31256798 0.18758018 0.0018038407 0.08269837 -0.37514517
-0.06268896 0.13843645 -0.13099125 -0.11370173 -0.2773972 -0.023130424 -0.16262124 -0.070518665
0.21522193 -0.045154046 -0.04394318 -0.348522 -0.17309019 0.0061258716 -0.2574458 0.04346998
0.19250385 0.047838695 0.07815366 0.041859932 0.011326351 0.47455415 -0.32348785 -0.04496796
-0.060743082 0.119519345 0.19787507 0.25954956 0.34556046 -0.14226708 -0.15749414 -0.021938812
0.39162263 -0.08733713 0.033413734 -0.25654006 -0.2761866 -0.10007753 -0.21025968 -0.23379864
0.37772912 0.33761984 0.24711905 -0.15956545 -0.054911382 0.18709442 -0.31398812 0.06478508
-0.10932495 0.31642294 0.09410623 0.12594901 0.22824118 -0.105232574 -0.3614606 -0.105166376
0.26327455 -0.13906938 -0.08437569 0.18109223 -0.16278116 -0.1091623 0.023590421 0.11943329
0.1356068 0.09803493 0.057716537 -0.23699449 0.29513285 -0.013377598 -0.11614244 0.29168004
0.41189668 0.07157969 0.031027077 -0.18281074 -0.15530403 0.047596592 0.11745135 -0.27223277
-0.17779446 0.3097909 -0.2399283 -0.29590976 0.08481762 0.06722316 -0.3063543 -0.21321541
0.053558532 0.25286278 -0.09875666 -0.056971125 -0.11074377 0.17787655 -0.18359762 -0.08943691
00000000: f00a 78be f206 58be 9e93 8ebd 9d5b 743d
00000010: 6254 e0bd 4002 2f3d 5e59 1ebe 7347 b23d
00000020: 7488 37be 4613 11be ac55 d53e 07b5 173f
00000030: 79d0 e7bd 9ac8 2ebe 0656 823e b58e 273e
00000040: 4e42 91bc 8742 0f3e 45dc b93d d52f cdbc
00000050: 492d c73d 50ed d83d 3aa9 ea3d 1dd1 5bbe
00000060: c43c dfbd 5c18 283e 46b3 9c3e c40b 72be
00000070: e12f c43d 2c9e 22be 40d0 88be 51b6 063f
00000080: 948a 01be 2ce9 5dbd 8a69 823b 9d61 773e
00000090: 0980 0b3e 8b7c c7bd 1581 c83d 529b 703c
000000a0: 0927 5a3d e6a6 5fbd 9107 2cbe d3aa 18be
000000b0: 2cf9 24be 30b2 31be 7301 ad3e ee85 8b3e
000000c0: 662b 793e 0f20 a2bd 12b4 af3e 7a3c 803e
000000d0: c86a c8bc ab13 0d3d 9bfe 953e 4d57 8b3e
000000e0: 3812 4ebe 4b6c cebd 83ec 6ebe b505 99be
000000f0: 6bc1 54bd 7d64 73be 7bc0 0cbe c2ed 213e
00000100: 7eef 973e a39a a2be d51c 443e 4452 a8bd
00000110: 370a c13e 5e01 cabe 87f9 c3be b143 c2be
00000120: 2578 313e d570 413d 7d44 62bc 0d6c c6be
00000130: 8063 17bf fcbc 82be fe7b 4fbe 6c1f d6bd
00000140: 6cec fb3d 1747 2bbd aaaa 96be 2f65 f13d
00000150: 57b1 06bb 2676 4ebe 3409 c73e caea e6bd
00000160: e24b 10be 22cb 903e 5082 1d3e 5e4e 3c3f
00000170: 4811 79bc 6436 5ebd 7bbe a13e a694 383e
00000180: 80bf 433d 5548 71be eaf6 c83e c70a 80be
00000190: 298f b43d 47e8 733e 68eb 353e 7c1e 15be
000001a0: ffe9 13be 216a b83b ef2e d8bd 7c10 febb
000001b0: 2a80 b33c 9f9d 9abc 8337 83be 9834 a13e
000001c0: d733 8ebe d491 2dbe 9c58 02be 2ea8 37be
000001d0: 82dd 733e c24f 38be e727 4f3e 7cbe cb3c
000001e0: 1215 913e b434 9ebe 4914 8bbe 18b9 30be
000001f0: ed8b b53e d027 3e3e 35cb 30bf 1879 003e
00000200: e713 db3d 4f53 803e ff05 6a3d 224f 6cbf
00000210: 5658 5dbe ba5f 57be cfaa 183e 0fea 1a3d
00000220: 5dc1 a4be fb3e d9bd 451b 64bd 50b5 333e
00000230: 09a1 f9bd 37d9 023d 43a4 303d 5bfd 08bc
00000240: 9c30 fb3e a9b8 213d f76d c7bd b91f 13bf
00000250: 69e0 73be 3740 bbbe 05b5 acbe f669 d2bf
00000260: c420 babe 5f0b 0c3e ddb9 923e e908 a0be
00000270: 0515 403e da6e ec3a c35d a93d 0713 c0be
00000280: 1263 80bd 49c2 0d3e 9222 06be 74dc e8bd
00000290: 0107 8ebe 047c bdbc 2f86 26be 176c 90bd
000002a0: 2363 5c3e 73f3 38bd c4fd 33bd 7a71 b2be
000002b0: 8e3e 31be 89bb c83b f0cf 83be 940d 323d
000002c0: bb1f 453e 82f2 433d 070f a03d 5275 2b3d
000002d0: 2992 393c c3f8 f23e 33a0 a5be 5330 38bd
000002e0: bdcd 78bd 8fc6 f43d c39f 4a3e aee3 843e
000002f0: 4ded b03e 76ae 11be 2546 21be 06b9 b3bc
00000300: c382 c83e cfdd b2bd d7dc 083d 3859 83be
00000310: 5468 8dbe 73f5 ccbd 504e 57be e968 6fbe
00000320: b665 c13e 82dc ac3e c70c 7d3e 2065 23be
00000330: c2ea 60bd ae95 3f3e 0dc3 a0be 0aae 843d
00000340: c2e5 dfbd 3002 a23e c4ba c03d c7f8 003e
00000350: 0eb8 693e 2d84 d7bd 5d11 b9be 7861 d7bd
00000360: eccb 863e 3468 0ebe 29cd acbd 3e70 393e
00000370: 1bb0 26be 7c90 dfbd b340 c13c 7199 f43d
00000380: 82dc 0a3e 8ac6 c83d 2d68 6c3d afae 72be
00000390: a71b 973e b62d 5bbc 16dc edbd 1657 953e
000003a0: 1fe4 d23e 5f98 923d 7f2c fe3c bd32 3bbe
000003b0: 0508 1fbe a5f4 423d 558a f03d 1862 8bbe
000003c0: c00f 36be ea9c 9e3e c4af 75be 7c81 97be
000003d0: dcb4 ad3d 4cac 893d 79da 9cbe 2455 5abe
000003e0: 3160 5b3d 3b77 813e ef40 cabd 8e5a 69bd
000003f0: a1cd e2bd 4525 363e 0401 3cbe b32a b7bd

embedder.emb_rnn.weight_hh_l2 f4 [60, 20]
-0.07631977 -0.0947465 -0.07722448 0.12622781 0.10858847 0.035306983 -0.06578195 -0.080792174
-0.11510049 -0.09285015 0.3298859 -0.03795331 0.019172389 -0.20435576 -0.13592738 0.02153703
0.16551101 -0.036444187 0.020460006 0.24113531 0.28393817 0.2562137 -0.010614021 0.1333055
-0.098044544 -0.049835436 -0.16598 -0.26380733 -0.24731955 -0.08410577 0.02632752 0.102445714
-0.23867327 -0.22445408 -0.030230979 -0.09684818 0.092357695 0.23975189 -0.2277894 0.10942194
0.023428923 0.39860168 -0.075084575 -0.024459131 0.20703112 -0.16933595 0.213426 -0.08028719
-0.0097647095 -0.009169833 -0.10707405 -0.027289342 -0.09079067 0.23301972 -0.19493373 -0.12518358
0.19635008 -0.10970257 0.022349527 -0.123184755 0.09799773 0.03163009 0.29028064 -0.28003663
-0.0057998123 0.17602564 -0.13518141 0.012764654 0.41054899 -0.22933163 -0.7943239 -0.2201485
-0.3830685 -0.54137135 -0.112275206 0.4369865 0.07909937 -0.24351566 -0.2304954 0.116325825
0.1677395 -0.35206726 -0.056999043 0.47630143 -0.021776224 -0.35396215 0.21499303 0.056342673
-0.10146345 0.056313254 -0.14945711 -0.053382576 0.20257479 -0.21715443 0.054985516 -0.044478476
0.028052244 -0.044830978 0.23967482 -0.09902093 0.11194783 -0.31671107 -0.25424513 0.15771568
0.11834561 -0.113653906 0.21267375 -0.19191046 -0.001829479 0.10537891 0.1408879 0.018152226
-0.34475324 -0.031870004 0.06643685 0.22016077 -0.043392416 -0.2944555 0.19556707 0.21145353
-0.57004935 0.061020102 0.17069307 1.0481786 0.22604875 0.05793168 0.27339518 -0.07864815
0.24958912 0.06884147 -0.06490417 -0.188426 -0.22981386 0.28547448 -0.07071523 -0.14202644
0.07492719 -0.04316354 0.053570222 -0.2945057 -0.14961609 -0.27292272 -0.15367284 0.27652222
-0.30204058 0.12255641 -0.1154933 -0.012086725 -0.019934157 -0.24082725 -0.31461746 -0.36227846
0.05567927 -0.29797208 0.11301804 0.054492205 0.09410231 -0.047593836 -0.11985346 0.36979446
-0.13250418 -0.110451035 -0.23954657 0.17342678 0.18147464 -0.12469241 0.2954425 -0.056178156
-0.21424599 0.031408127 -0.13725118 -0.16454552 -0.24491574 -0.13920993 0.038569096 -0.14361906
-0.3270151 -0.23772083 -0.25344232 0.070091605 -0.40059242 -0.2484726 -0.22662382 0.18095385
0.018784516 -0.29543173 0.11406687 -0.1363958 -0.31263438 0.11345774 -0.1525305 -0.113981925
0.15837723 0.16400242 -0.2360566 0.14278942 -0.3077742 0.11765335 0.11123729 -0.0439353
0.0022413721 -0.0031207113 -0.06430631 0.0040357877 -0.3439372 0.30226573 0.387324 -0.14941056
-0.17850485 0.24075668 -0.1847811 0.2448153 -0.013354646 -0.18573657 0.08592895 -0.26638427
0.37037048 -0.21638773 0.118191995 0.1744367 0.4548781 -0.14163579 -0.07246171 -0.34471413
0.0648589 -0.036711402 -0.014748822 -0.09681221 0.25144717 0.13325843 0.05310557 -0.19960007
0.14199613 -0.28062183 -0.26866043 0.30185583 -0.001396346 0.36620232 -0.038052242 0.024054987
-0.13143803 0.3663373 0.18074836 0.023101851 0.1707673 -0.14622995 -0.2767292 0.10426331
-0.040465467 -0.24511331 -0.08060091 0.024288485 -0.1808675 0.19272208 -0.04079394 -0.0519641
00000000: 8a4d 9cbd 740a c2bd de27 9ebd dd41 013e
00000010: a263 de3d 0e9e 103d b0b8 86bd 5e76 a5bd
00000020: ceb9 ebbd 3828 bebd cee6 a83e ee74 1bbd
00000030: 6a0f 9d3c a342 51be 8c30 0bbe 6d6e b03c
00000040: b87b 293e 8046 15bd be9b a73c 2dec 763e
00000050: 5860 913e 712e 833e 6ee6 2dbc 3d81 083e
00000060: 94cb c8bd 3e20 4cbd a9f6 29be c111 87be
00000070: 5641 7dbe a53f acbd d0ac d73c 0fcf d13d
00000080: c466 74be 4ad7 65be f5a6 f7bc 5758 c6bd
00000090: 0826 bd3d 8581 753e a041 69be 9c18 e03d
000000a0: 03ee bf3c 8515 cc3e f1c5 99bd 845e c8bc
000000b0: f7ff 533e 6766 2dbe 588c 5a3e 9c6d a4bd
000000c0: 29fc 1fbc 113d 16bc a449 dbbd e68d dfbc
000000d0: 75f0 b9bd b99c 6e3e b59c 47be 2030 00be
000000e0: ff0f 493e beab e0bd 5b16 b73c 4a48 fcbd
000000f0: 09b3 c83d 8e8e 013d aa9f 943e f660 8fbe
00000100: 5a0c bebb 1140 343e ff6c 0abe d722 513c
00000110: 7a33 d23e e9d5 6abe d058 4bbf 9c6e 61be
00000120: 8e21 c4be 5097 0abf 8bf0 e5bd b2bc df3e
00000130: dafe a13d 2b5c 79be fc06 6cbe 3c3c ee3d
00000140: e7c3 2b3e 2942 b4be d477 69bd c8dd f33e
00000150: 0d64 b2bc 873a b5be 2227 5c3e 93c7 663d
00000160: 12cc cfbd baa8 663d 490b 19be b0a7 5abd
00000170: c46f 4f3e bb5d 5ebe 7e38 613d 102f 36bd
00000180: d2cd e53c b0a0 37bd 516d 753e 7ccb cabd
00000190: e744 e53d f427 a2be 6b2c 82be 3880 213e
000001a0: 2f5f f23d 61c3 e8bd 26c7 593e 2d84 44be
000001b0: 21cb efba e6d0 d73d eb44 103e fab3 943c
000001c0: 7f83 b0be 1f8a 02bd 0b10 883d d371 613e
000001d0: 3fbc 31bd dfc2 96be bc42 483e 4687 583e
000001e0: c1ee 11bf 37f0 793d 2aca 2e3e b72a 863f
000001f0: 5379 673e c549 6d3d 74fa 8b3e 4812 a1bd
00000200: 4a94 7f3e c2fc 8c3d 7aec 84bd bff2 40be
00000210: 5354 6bbe b629 923e 26d3 90bd 616f 11be
00000220: 6d73 993d 41cc 30bd 736c 5b3d 73c9 96be
00000230: f634 19be 87bc 8bbe 6a5c 1dbe 5294 8d3e
00000240: 10a5 9abe dbfe fa3d c087 ecbd 6607 46bc
00000250: f54c a3bc 6b9b 76be 8a15 a1be 907c b9be
00000260: f20f 643d cc8f 98be 0176 e73d 3833 5f3d
00000270: b6b8 c03d c1f1 42bd bb75 f5bd b355 bd3e
00000280: 2daf 07be 2734 e2bd b24b 75be ca96 313e
00000290: 7dd4 393e bc5e ffbd 3d44 973e 111b 66bd
000002a0: 4d63 5bbe cfa5 003d 938b 0cbe 9f7e 28be
000002b0: 31cb 7abe 0c8d 0ebe a1fa 1d3d e010 13be
000002c0: 866e a7be 176d 73be 31c3 81be 308c 8f3d
000002d0: 731a cdbe 9a6f 7ebe 1310 68be f74b 393e
000002e0: fce1 993c d442 97be e49b e93d 57ab 0bbe
000002f0: 9d11 a0be 885c e83d f530 1cbe 5b6f e9bd
00000300: a42d 223e 40f0 273e d2b8 71be 6437 123e
00000310: 9494 9dbe 3df4 f03d 60d0 e33d 80f5 33bd
00000320: fce3 123b d984 4cbb 07b3 83bd a43e 843b
00000330: 8918 b0be 93c2 9a3e 554f c63e 15ff 18be
00000340: fac9 36be eb88 763e 4237 3dbe ddb0 7a3e
00000350: 72cd 5abc ba31 3ebe 84fb af3d 8563 88be
00000360: 33a1 bd3e bf94 5dbe a50e f23d 899f 323e
00000370: c8e5 e83e f908 11be ce66 94bd 5f7e b0be
00000380: bed4 843d b25e 16bd 0ba5 71bc 7b45 c6bd
00000390: afbd 803e e674 083e 3a85 593d f663 4cbe
000003a0: 6f67 113e aaad 8fbe dc8d 89be d98c 9a3e
000003b0: 9905 b7ba df7e bb3e abdc 1bbd f70e c53c
000003c0: b197 06be 9090 bb3e 1916 393e 1840 bd3c
000003d0: a0dd 2e3e 4ebd 15be 73af 8dbe 0188 d53d
000003e0: 1ebf 25bd fcfe 7abe 1712 a5bd a5f8 c63c
000003f0: 5435 39be f058 453e 8c17 27bd 4fd8 54bd

embedder.emb_rnn.bias_ih_l2 f4 [60]
1.0603343 0.97143143 1.0242752 0.8935556 1.0336044 0.88882416 1.0105709 0.86110413
0.96521056 0.9702669 1.061262 0.93028843 0.9703898 0.9633993 0.9949255 0.89785933
0.9849658 0.9776406 0.90006423 1.0191331 0.22251953 0.3972234 0.9255141 0.5785992
0.9778521 0.6310322 0.15552773 0.62815493 0.46605456 0.6121002 0.8159967 0.5851394
1.1301012 0.7262451 0.80032337 0.4657125 0.58812636 0.07447314 0.43957567 0.2807683
0.8985596 0.9028479 0.9627553 0.8321033 0.94716036 0.9218031 1.0019289 1.0745233
0.89736325 0.95679945 0.9928106 0.974396 0.9789179 1.0730774 0.947439 0.8784561
0.95566756 0.9134354 0.97661877 0.9596158
00000000: 09b9 873f bbaf 783f 731b 833f 0fc0 643f
00000010: 264d 843f fb89 633f 635a 813f 5271 5c3f
00000020: 0a18 773f 6963 783f 6fd7 873f 6227 6e3f
00000030: 776b 783f 56a1 763f 70b3 7e3f 1cda 653f
00000040: b826 7c3f a846 7a3f 9c6a 663f f472 823f
00000050: 29dc 633e de60 cb3e 7eee 6c3f 141f 143f
00000060: 8454 7a3f 548b 213f a942 1f3e c3ce 203f
00000070: b49e ee3e 99b2 1c3f 29e5 503f b2cb 153f
00000080: 28a7 903f 33eb 393f fee1 4c3f de71 ee3e
00000090: 738f 163f 6085 983d 1010 e13e ddc0 8f3e
000000a0: 0008 663f 0a21 673f 2277 763f b904 553f
000000b0: 1a79 723f 4afb 6b3f 353f 803f fb89 893f
000000c0: 99b9 653f cff0 743f d628 7e3f 0472 793f
000000d0: 5d9a 7a3f 9a5a 893f 5d8b 723f 80e2 603f
000000e0: a1a6 743f e7d6 693f b003 7a3f 62a9 753f

embedder.emb_rnn.bias_hh_l2 f4 [60]
0.060340084 -0.02856717 0.024283126 -0.10644455 0.033607952 -0.11117567 0.01057024 -0.138898
-0.0347908 -0.029732274 0.061266396 -0.0697086 -0.029609876 -0.03660395 -0.0050707418 -0.10214398
-0.01503625 -0.022362076 -0.09993743 0.019134458 -0.77748054 -0.6027776 -0.07448733 -0.42140004
-0.022150144 -0.3689682 -0.8444705 -0.37184834 -0.5339478 -0.3879007 -0.18400037 -0.41486162
0.13010252 -0.2737573 -0.19967644 -0.53428805 -0.41187695 -0.92553484 -0.56042737 -0.7192313
-0.11056282 -0.09113985 -0.011113394 -0.21271028 -0.10731553 -0.06192118 -0.0639084 -0.12488031
-0.09215002 -0.1954331 -0.012266066 -0.026840005 -0.016677408 0.06548075 -0.060039077 -0.10607182
-0.03927064 -0.10675623 -0.046808925 -0.04373427
00000000: 2a27 773d b305 eabc 68ed c63c 9aff d9bd
00000010: 7ea8 093d 12b0 e3bd cd2e 2d3c 473b 0ebe
00000020: cc80 0ebd 1991 f3bc 79f2 7a3d 62c3 8ebd
00000030: 6990 f2bc 06ee 15bd 7728 a6bb dd30 d1bd
00000040: 9b5a 76bc ac30 b7bc ffab ccbd debf 9c3c
00000050: f708 47bf a24f 1abf d08c 98bd bfc1 d7be
00000060: 3874 b5bc 66e9 bcbe 382f 58bf e862 bebe
00000070: ceb0 08bf ec9a c6be 986a 3cbe be68 d4be
00000080: 9839 053e eb29 8cbe fb77 4cbe 1ac7 08bf
00000090: 89e1 d2be daef 6cbf 2b78 0fbf 8b1f 38bf
000000a0: c36e e2bd 88a7 babd f414 36bc b9d0 59be
000000b0: 3fc8 dbbd 10a1 7dbd 68e2 82bd 3fc1 ffbd
000000c0: 26b9 bcbd 9d1f 48be 9cf7 48bc 92df dbbc
000000d0: 0f9f 88bc c51a 863d 89eb 75bd 2f3c d9bd
000000e0: 40da 20bd 03a3 dabd b7ba 3fbd b522 33bd
