output/Tennessee_Eastman_10/model.pt (torch, 178616 bytes, 65 tensors)

embedder.emb_rnn.weight_ih_l0 f4 [60, 55]
-0.36680317 -0.31860054 0.32338408 -0.16088022 0.29481903 0.42057517 -0.033128995 0.28493264
0.026660133 0.39857078 0.11866195 -0.015431018 0.062289402 0.15186515 -0.009298184 0.29099074
-0.1165925 -0.09027834 0.1268914 0.07877642 -0.010917447 0.040857766 0.060531944 0.045181025
-0.09157675 0.12074295 -0.15183958 0.3495715 0.17352475 0.104595535 -0.0830084 0.07723183
0.23857746 0.078018636 -0.04105147 0.10925559 0.03176432 0.121949196 0.34158048 -0.0037543224
0.16942991 0.06421119 -0.03781742 0.048387386 0.092630535 0.108511284 -0.09931025 0.081953034
0.17433316 0.27953154 0.077378474 0.12114592 0.28643042 0.10873688 0.1809182 0.014209053
0.4541663 -0.38499653 0.6511585 -0.27056617 0.017534386 -0.029095178 -0.23924129 0.31882307
-0.034845006 0.10866117 0.08882405 -0.23354176 -0.104129896 -0.17536141 -0.30255544 -0.013486387
0.12578508 0.043399647 -0.0816916 0.2353164 0.4002745 -0.17067517 -0.07932616 0.19594334
0.2009354 -0.114352606 0.29656985 -0.40427953 0.02356443 0.32452706 0.112551674 -0.24998966
0.2400289 -0.21331045 0.1769456 0.32118383 0.12359875 -0.027831038 0.40365064 0.09013464
0.27559626 -0.15702452 -0.03598977 -0.606545 -0.6546434 0.38041267 -0.3129965 -0.29626614
0.09249938 -0.07569444 0.46636206 0.49351472 -0.828388 0.06742241 -0.3005431 -0.238333
0.42392525 0.36004293 -0.31794697 -0.6405165 -0.22645296 -0.10084162 -0.42569664 -0.056169838
-0.35586265 -0.3828635 -0.24962641 -0.35134453 0.3065256 -0.17209415 -0.32067162 0.0007865982
0.07188178 -0.23954672 -0.1855921 0.18102269 -0.46643865 -0.09985312 -0.024394006 -0.33053955
0.13391192 -0.12647788 -0.5319487 -0.4060021 0.06603313 -0.60931164 -0.30658063 0.06375213
-0.44008824 -0.23839505 -0.120069735 -0.9000494 -0.686955 0.07622271 -0.2518978 0.08374094
-0.30647066 -0.5326461 -0.010335595 0.7767456 1.1239458 -0.43835315 -0.13181864 -0.2702779
0.3641376 -0.16468835 0.6627802 0.9247507 -0.23012519 -0.15729 0.5957748 -0.009924142
0.6823702 -0.019568218 0.23654564 -0.03751515 0.047970336 -0.28986192 -0.014585085 0.5233055
-0.10284179 -0.16402021 0.36172962 -0.26347318 -0.29109734 -0.066168085 0.12226593 -0.18007322
-0.3851734 0.038113464 -0.22513647 0.1524486 0.3075337 0.14305489 0.3001393 -0.47062448
-0.16673453 -0.24569799 0.101386115 0.08934384 0.26517627 -0.069627106 -0.18825607 -0.4965172
0.44422367 0.29344782 0.29082397 0.03338969 0.13757949 -0.17380054 -0.16737948 -0.122265466
0.07281536 -0.056054983 0.21970786 -0.60756683 0.000702766 0.0074328897 -0.1300792 -0.26322237
0.1872918 -0.36750072 -0.16204253 0.061949093 0.3647822 -0.24906604 0.6607594 -0.038354658
-0.2820153 0.036098298 -0.12594287 -0.097985364 -0.40015247 -0.0067516835 -0.063280225 0.07738675
-0.25320643 -0.08959903 -0.50078386 -0.075037636 0.16179709 0.20395045 -0.14217359 -0.14231168
-0.30341166 -0.05872565 -0.0049349284 0.15727988 0.070226595 0.076360285 0.2590407 0.05423623
0.2840682 -0.0049604154 -0.1361571 -0.43802586 0.022896698 0.14589463 0.103419065 0.16864935
00000000: a0cd bbbe 9c1f a3be 9992 a53e c9bd 24be
00000010: 85f2 963e a155 d73e 45b2 07bd b1e2 913e
00000020: 5a66 da3c 7811 cc3e 0905 f33d 61d2 7cbc
00000030: 2c23 7f3d 8a82 1b3e 6957 18bc bdfc 943e
00000040: 0cc8 eebd dae3 b8bd d2ef 013e 8855 a13d
00000050: 17df 32bc 795a 273d 58f0 773d bd0f 393d
00000060: 978c bbbd 1448 f73d d67b 1bbe 09fb b23e
00000070: 79b0 313e 2f36 d63d 4f00 aabd b92b 9e3d
00000080: a64d 743e 3cc8 9f3d 9625 28bd 65c1 df3d
00000090: 4e1b 023d 80c0 f93d a3e3 ae3e 140b 76bb
000000a0: 097f 2d3e 2881 833d 70e6 1abd da31 463d
000000b0: 14b5 bd3d 2a3b de3d 2c63 cbbd fed6 a73d
000000c0: 6484 323e c21e 8f3e 9b78 9e3d 5a1b f83d
000000d0: 02a7 923e 71b1 de3d 9f42 393e 16cd 683c
000000e0: 7c88 e83e 441e c5be 53b2 263f a687 8abe
000000f0: 46a4 8f3c 0359 eebc abfb 74be c73c a33e
00000100: a3b9 0ebd bf89 de3d 62e9 b53d 9225 6fbe
00000110: 0e42 d5bd f191 33be 8ce8 9abe 02f6 5cbc
00000120: cecd 003e d4c3 313d ed4d a7bd c8f6 703e
00000130: c7f0 cc3e 79c5 2ebe c175 a2bd 5fa5 483e
00000140: 02c2 4d3e b331 eabd 01d8 973e bafd cebe
00000150: 310a c13c 6928 a63e 7e81 e63d 4afd 7fbe
00000160: 23ca 753e 0e6e 5abe 3a31 353e 3572 a43e
00000170: 5721 fd3d ebfd e3bc 4cab ce3e 8398 b83d
00000180: f41a 8d3e 09cb 20be 026a 13bd 8846 1bbf
00000190: b696 27bf 73c5 c23e 1441 a0be 32b0 97be
000001a0: 5170 bd3d b005 9bbd 02c7 ee3e f6ad fc3e
000001b0: 3c11 54bf c314 8a3d c9e0 99be 910d 74be
000001c0: bb0c d93e 8c57 b83e f2c9 a2be e4f8 23bf
000001d0: 49e3 67be 0d86 cebd e9f4 d9be 5812 66bd
000001e0: a133 b6be af06 c4be 119e 7fbe 6ee3 b3be
000001f0: ecf0 9c3e 7339 30be 122f a4be b633 4e3a
00000200: c136 933d bc4b 75be db0b 3ebe 035e 393e
00000210: 0cd1 eebe cb7f ccbd f0d5 c7bc 7b3c a9be
00000220: 3520 093e 6b83 01be ca2d 08bf 82df cfbe
00000230: 613c 873d d9fb 1bbf 23f8 9cbe 7a90 823d
00000240: 3f53 e1be d51d 74be 1fe7 f5bd a369 66bf
00000250: 48dc 2fbf a71a 9c3d c0f8 80be 5f80 ab3d
00000260: b9e9 9cbe 7f5b 08bf a156 29bc cdd8 463f
00000270: 75dd 8f3f d36f e0be 77fb 06be dd61 8abe
00000280: 3e70 ba3e 10a4 28be f7ab 293f 76bc 6c3f
00000290: f0a5 6bbe a110 21be b384 183f de98 22bc
000002a0: d0af 2e3f 874d a0bc 0539 723e 7ca9 19bd
000002b0: 8b7c 443d c868 94be 48f6 6ebc 59f7 053f
000002c0: b79e d2bd eaf4 27be a034 b93e f5e5 86be
000002d0: b60a 95be 2283 87bd 8f66 fa3d 1d65 38be
000002e0: 7335 c5be dd1c 1c3d 2d8a 66be 7c1b 1c3e
000002f0: 0f75 9d3e fb7c 123e dcab 993e b1f5 f0be
00000300: 75bc 2abe 4198 7bbe 86a3 cf3d e7f9 b63d
00000310: 2fc5 873e a898 8ebd 33c6 40be 8137 febe
00000320: 4971 e33e cb3e 963e e1e6 943e a1c3 083d
00000330: a3e1 0c3e c5f8 31be 8765 2bbe 5166 fabd
00000340: 3820 953d e999 65bd 19fb 603e 8089 1bbf
00000350: d439 383a 998f f33b 7b33 05be 15c5 86be
00000360: 6cc9 3f3e 0e29 bcbe 7aee 25be 55be 7d3d
00000370: bcc4 ba3e 2b0b 7fbe 8727 293f c619 1dbd
00000380: 4f64 90be cfdb 133d 2bf7 00be 8dac c8bd
00000390: c9e0 ccbe 3a3d ddbb 1099 81bd f27c 9e3d
000003a0: 46a4 81be b27f b7bd 5f33 00bf 55ad 99bd
000003b0: 23ae 253e 63d8 503e f495 11be 27ba 11be
000003c0: c658 9bbe 4f8a 70bd 2eb5 a1bb fa0d 213e
000003d0: f6d2 8f3d c862 9c3d fca0 843e cf26 5e3d
000003e0: 6371 913e fb8a a2bb c46c 0bbe ed44 e0be
000003f0: db91 bb3c 6765 153e 60cd d33d 6ab2 2c3e

embedder.emb_rnn.weight_hh_l0 f4 [60, 20]
-0.24633609 0.030388974 -0.088978775 0.16323526 0.25234917 -0.18106346 -0.19241087 -0.059232567
0.06086725 -0.005428628 -0.0308446 0.14496806 -0.10345658 0.19795655 -0.048857477 0.05868872
-0.07076351 0.18082386 0.03795833 -0.11414005 -0.063833974 0.13873105 0.045485895 -0.13008317
-0.6967499 0.41621438 -0.28274474 -0.44026402 -0.38778874 0.10991685 -0.05354972 0.28897682
-0.32512623 -0.22665459 -0.027777577 -0.17543721 -0.023362465 0.30747488 0.23782381 0.0838851
0.10521418 -0.09237396 0.3228297 -0.5712203 0.3111714 -0.5038369 0.3091358 -0.007668036
0.38696924 -0.39072466 0.3658078 0.12656814 0.30192968 0.2478743 -0.009769104 0.4341414
-0.15300831 0.22811373 -0.33616737 0.3579541 0.32693303 0.15593885 -0.2590398 0.38384286
-0.41563603 -0.35393593 -0.37837875 -0.4584087 -0.26646316 0.18103571 0.4476094 -0.1277986
-0.19575919 -0.4179325 -0.41362593 -0.27601615 0.30548212 0.15754655 0.533697 -0.26812294
-0.05424584 0.16605379 -0.07521598 0.08576769 0.12986642 0.3123417 -0.37633726 -0.30943847
0.08696614 0.34821117 -0.43851298 -0.15318501 0.18063268 -0.09045368 -0.22088845 -0.47946054
-0.07333703 0.083074205 0.20696393 0.33496305 -0.4914408 -0.34020004 0.43118528 -0.5027669
0.5625621 -0.270787 0.04587387 0.20359468 0.03305898 -0.37632024 1.0670098 0.4405103
0.45082894 0.27087012 0.10800392 0.043162737 -0.38440606 -0.013754589 -0.18719332 -0.0029117616
-0.1747691 0.13759635 0.41427094 0.14982653 -0.026102185 -0.19911203 -0.1031158 0.22182772
0.3825769 0.29098457 0.15122879 0.4392992 0.36725834 0.32604018 -0.039460633 -0.13110632
-0.0939966 -0.6030996 -0.13089429 -0.019443922 0.25013673 -0.15661229 -0.31808844 0.15742967
0.038889974 -0.33397344 0.2853457 -0.23863679 0.048760325 0.13811497 -0.19574177 -0.29101196
0.1309147 0.19451107 -0.10693761 0.08304243 -0.019586427 0.15989292 0.26634073 -0.051559467
-0.29826555 0.20775871 -0.0580509 0.020613594 -0.17211394 0.10143403 0.5440406 0.03537988
0.4386748 -0.17939824 -0.13445486 0.24977389 -0.05755021 0.0021036041 0.21110633 0.2114942
-0.037647888 -0.44858077 -0.10477696 0.118249044 -0.35635507 -0.71793747 0.3804334 -0.27697876
0.24702835 -0.66457754 0.28579026 0.6615641 0.51070905 -0.4617811 0.26342586 0.6681567
0.6895159 1.0184081 0.8449625 0.6034995 -0.41452324 -0.7877354 -0.23237959 0.41966224
-0.22549681 0.11964739 -0.107667446 -0.054456644 -0.07693903 -0.108493246 -0.019801136 -0.09558401
0.4759704 -0.018808816 0.16730893 0.2651603 -0.05782198 -0.030215558 0.34886312 0.23088092
-0.3214033 0.1997443 -0.14131004 0.0014456552 0.15109655 0.16637643 -0.1455363 -0.009161903
0.29735824 -0.14332949 -0.6824608 -0.24525513 0.07268445 0.13090394 -0.0466369 0.12792279
0.027969822 -0.2061337 0.120920606 0.14646702 0.11196731 -0.012719148 0.44082856 0.2059477
0.068675764 0.17728914 -0.053055078 0.30727768 0.17590898 0.10028225 -0.057169758 -0.2601766
-0.41469738 0.22088858 0.36705807 0.06330565 -0.274204 -0.48711804 -0.058767032 -0.26852092
00000000: 873f 7cbe 4cf2 f83c 813a b6bd 2527 273e
00000010: e933 813e b368 39be 5b07 45be d99d 72bd
00000020: f04f 793d a2e2 b1bb d1ad fcbc 8272 143e
00000030: 0be1 d3bd 1fb5 4a3e c71e 48bd 9563 703d
00000040: 76ec 90bd e429 393e 327a 1b3d 42c2 e9bd
00000050: 63bb 82bd 830f 0e3e 6b4f 3a3d 8634 05be
00000060: 345e 32bf 0d1a d53e ebc3 90be 496a e1be
00000070: 3f8c c6be 161c e13d f456 5bbd c5f4 933e
00000080: f276 a6be 2418 68be cd8d e3bc d0a5 33be
00000090: a462 bfbc 596d 9d3e 1688 733e f4cb ab3d
000000a0: 887a d73d 8f2e bdbd ef49 a53e 7e3b 12bf
000000b0: dc51 9f3e 75fb 00bf 0c47 9e3e 2644 fbbb
000000c0: d520 c63e 100d c8be 294b bb3e 149b 013e
000000d0: 8796 9a3e c3d2 7d3e 980e 20bc c847 de3e
000000e0: 36ae 1cbe a596 693e 211e acbe c345 b73e
000000f0: c463 a73e 6fae 1f3e dda0 84be 0d87 c43e
00000100: 3fce d4be 1737 b5be dcba c1be 8cb4 eabe
00000110: dc6d 88be 6d61 393e 0f2d e53e a3dd 02be
00000120: 1975 48be 40fb d5be c7c6 d3be fd51 8dbe
00000130: 2768 9c3e e253 213e 5ea0 083f 6947 89be
00000140: e330 5ebd 010a 2a3e d60a 9abd f8a6 af3d
00000150: b4fb 043e 40eb 9f3e 47af c0be b86e 9ebe
00000160: 4e1b b23d bc48 b23e c684 e0be 88dc 1cbe
00000170: c6f7 383e c73f b9bd 9530 62be da7b f5be
00000180: ba31 96bd cf22 aa3d 5aee 533e 4780 ab3e
00000190: 219e fbbe b32e aebe 51c4 dc3e 55b5 00bf
000001a0: 1204 103f 98a4 8abe 3de6 3b3d 207b 503e
000001b0: da68 073d 0cad c0be c793 883f 918a e13e
000001c0: 0dd3 e63e 7daf 8a3e 2931 dd3d 69cb 303d
000001d0: dfd0 c4be ed5a 61bc 9baf 3fbe 41d3 3ebb
000001e0: acf6 32be 0fe6 0c3e 521b d43e 206c 193e
000001f0: 40d4 d5bc 06e4 4bbe 602e d3bd ce26 633e
00000200: 1fe1 c33e eefb 943e b8db 1a3e d3eb e03e
00000210: 4909 bc3e bdee a63e 79a1 21bd bc40 06be
00000220: 4a81 c0bd bc64 1abf 2709 06be dc48 9fbc
00000230: ec11 803e f95e 20be 7ddc a2be 3e35 213e
00000240: 184b 1f3d 91fe aabe d518 923e 345d 74be
00000250: e8b8 473d 036e 0d3e 8870 48be 85ff 94be
00000260: 810e 063e e92d 473e 1b02 dbbd 2612 aa3d
00000270: b773 a0bc f8ba 233e d05d 883e 0530 53bd
00000280: 43b6 98be b3be 543e c8c6 6dbd d7dd a83c
00000290: a33e 30be a5bc cf3d 3f46 0b3f 7eea 103d
000002a0: fc99 e03e 2cb4 37be 89ae 09be bac4 7f3e
000002b0: c5b9 6bbd 9fdc 093b 422c 583e f091 583e
000002c0: ac34 1abd 61ac e5be 4e95 d6bd 8e2c f23d
000002d0: 2c74 b6be c0ca 37bf 2bc8 c23e 29d0 8dbe
000002e0: 00f5 7c3e c121 2abf 1a53 923e 445c 293f
000002f0: d4bd 023f 936e ecbe c1df 863e 510c 2b3f
00000300: 1d84 303f 325b 823f 764f 583f f17e 1a3f
00000310: 643c d4be 07a9 49bf eaf4 6dbe f8dd d63e
00000320: a3e8 66be b109 f53d c080 dcbd ee0d 5fbd
00000330: 3692 9dbd b531 debd fe35 a2bc 8dc1 c3bd
00000340: 64b2 f33e f214 9abc 0853 2b3e 17c3 873e
00000350: bed6 6cbd 9e86 f7bc 309e b23e 0c6c 6c3e
00000360: f98e a4be c589 4c3e 94b3 10be 247c bd3a
00000370: 0eb9 1a3e 955e 2a3e 7807 15be ce1b 16bc
00000380: 573f 983e f7c4 12be c0b5 2ebf 2924 7bbe
00000390: 96db 943d af0b 063e 5606 3fbd 31fe 023e
000003a0: f820 e53c b614 53be 39a5 f73d 73fb 153e
000003b0: 1e4f e53d f963 50bc 48b4 e13e f4e3 523e
000003c0: e1a5 8c3d 498b 353e 4850 59bd 8053 9d3e
000003d0: 7c21 343e c860 cd3d d62a 6abd de35 85be
000003e0: 3753 d4be 9e30 623e 09ef bb3e 65a6 813d
000003f0: 7764 8cbe 8967 f9be b3b5 70bd 937b 89be

embedder.emb_rnn.bias_ih_l0 f4 [60]
1.2359897 1.0577633 0.8025367 1.2884439 1.1997637 1.0799286 1.0548735 0.908509
1.0335066 1.0748192 0.9899647 0.84799594 1.1542406 0.8882942 0.9495873 0.95291513
1.0797168 1.1874809 0.85123646 0.98280555 1.0076821 1.0129333 0.939266 0.9485317
1.0490342 1.0425704 1.0508338 0.96863246 0.9204572 0.9591214 1.0479542 0.9166564
0.8515936 0.8141103 0.92887694 0.97081476 0.90764326 0.9602982 0.9809907 0.9232924
0.4639992 0.8305181 0.98146164 0.58367336 0.8331862 0.86204547 0.83366364 1.0038159
0.93321353 1.1121435 0.8645291 0.989929 1.2463405 1.035208 1.0294865 0.9455536
0.8113558 0.7073123 0.92181194 0.8746195
00000000: e934 9e3f ca64 873f 0c73 4d3f bbeb a43f
00000010: db91 993f 1a3b 8a3f 1806 873f 0c94 683f
00000020: f249 843f ad93 893f 546e 7d3f 4316 593f
00000030: 28be 933f 4067 633f 2718 733f 3ff2 733f
00000040: 2934 8a3f 60ff 973f a2ea 593f 2599 7b3f
00000050: bafb 803f cca7 813f bd73 703f f9d2 723f
00000060: c146 863f f272 853f b981 863f 4cf8 773f
00000070: 15a3 6b3f fb88 753f 5d23 863f fea9 6a3f
00000080: 0a02 5a3f 8869 503f e1ca 6d3f 5187 783f
00000090: 4f5b 683f 1ad6 753f 3522 7b3f e45c 6c3f
000000a0: 4e91 ed3e d69c 543f 1241 7b3f 9e6b 153f
000000b0: b14b 553f 03af 5c3f fb6a 553f 0a7d 803f
000000c0: 15e7 6e3f b85a 8e3f c751 5d3f fd6b 7d3f
000000d0: 1688 9f3f b281 843f 37c6 833f cd0f 723f
000000e0: 04b5 4f3f 6b12 353f defb 6b3f 10e7 5f3f

embedder.emb_rnn.bias_hh_l0 f4 [60]
0.23599578 0.05775871 -0.19746627 0.28843683 0.19976556 0.079923965 0.05487682 -0.09148543
0.033503424 0.07481198 -0.010033378 -0.15199769 0.15424164 -0.11170474 -0.050411858 -0.047084622
0.07972847 0.1874736 -0.14876725 -0.017199118 0.0076798415 0.0129247485 -0.06073167 -0.051473808
0.049034428 0.042569853 0.050833102 -0.031364914 -0.07954261 -0.040882103 0.047951397 -0.0833439
-0.14840487 -0.18588743 -0.07112367 -0.029181167 -0.09235977 -0.03969449 -0.019012704 -0.07670665
-0.6401584 -0.2815708 -0.7747152 -0.5253183 -0.3923329 -0.30026788 -0.7662943 0.08921237
-0.29061374 0.22378689 -0.24926157 -0.18505698 0.385098 0.055299997 -0.11621582 -0.42090732
-0.2142732 -0.5396679 0.22392718 -0.19961217
00000000: e1a8 713e 6694 6c3d 9934 4abe fead 933e
00000010: 588f 4c3e 2daf a33d 84c6 603d b75c bbbd
00000020: e33a 093d 0637 993d 0a63 24bc 48a5 1bbe
00000030: 85f1 1d3e 74c5 e4bd aa7c 4ebd cedb 40bd
00000040: ae48 a33d 14f9 3f3e 7156 18be 2ae5 8cbc
00000050: 2ea7 fb3b 53c2 533c c6c1 78bd 33d6 52bd
00000060: 53d8 483d ba5d 2e3d 5f36 503d 7f78 00bd
00000070: 3ce7 a2bd fe73 27bd af68 443d 35b0 aabd
00000080: 72f7 17be 4659 3ebe 49a9 91bd 580d efbc
00000090: 1e27 bdbd b196 22bd 88c0 9bbc 6018 9dbd
000000a0: 6ce1 23bf 0c2a 90be bc53 46bf 437b 06bf
000000b0: dcdf c8be b6bc 99be dd2b 44bf fab4 b63d
000000c0: 53cb 94be 6428 653e 6d3e 7fbe 947f 3dbe
000000d0: 912b c53e 4082 623d 8f02 eebd 2a81 d7be
000000e0: 6f6a 5bbe ad27 0abf 2b4d 653e 2267 4cbe

embedder.emb_rnn.weight_ih_l1 f4 [60, 20]
0.27724913 0.35322213 -0.15478127 -1.0644916 -0.8384825 0.11124158 0.10974071 -0.011790917
-0.43201572 0.48094165 0.2538309 -0.07126905 0.23923458 -0.40390745 -0.22878723 0.08235497
-0.012969943 0.29550102 0.5357009 0.0010676339 0.16239509 -0.17959389 -0.003627858 -0.41152996
0.17658988 -0.10010284 0.14996484 -0.23488522 -0.06766882 -0.14812942 0.29888 0.29727453
0.22228572 0.24958712 0.25930685 0.33734477 0.3852824 -0.013754724 0.24523133 0.13938244
0.109547995 0.33193064 -0.39004987 0.4622608 -0.2682372 -0.25700846 0.79205036 -0.2567554
0.13648278 -0.3005504 0.033064753 -0.124230534 -0.07314767 0.14983924 0.02914068 0.08882246
0.09092145 0.051929865 -0.11095618 -0.29366514 -0.022608412 -0.052944683 -0.10720503 0.12110238
-0.5791109 -0.1074519 -0.49147156 -0.22357805 -0.09156068 -0.06457388 -0.21669327 -0.36163884
-0.22529276 0.25701213 -0.31468695 0.16973288 0.18697488 -0.026581718 0.41338834 -0.26228347
-0.18757416 0.2873855 -0.8765711 -0.11838236 -0.4809632 0.35521924 0.06794531 -0.114030994
0.40839088 -0.08498776 0.49182993 0.25520742 0.1290248 0.046870127 -0.006482321 0.42240408
-0.15682453 -0.31094766 -0.14249337 0.004403963 -0.009686175 0.25014305 -0.2838142 -0.082250565
0.17899726 -0.33171424 -0.34442493 0.034423593 0.35841703 0.30392846 -0.3016478 0.14621921
-0.16823092 0.31881297 0.19362517 0.037115645 -0.092630796 -0.22339353 0.003841762 -0.22844
0.19089445 -0.11005028 0.03473583 0.6750928 0.30183446 0.24145754 0.48009428 -0.26071697
-0.055604596 -0.19585644 0.2623383 -0.14959042 -0.12640125 -0.055871725 0.10320777 -0.40491283
0.37870595 0.23092909 -0.3389244 0.21301483 0.07136893 0.4742471 -0.009129679 0.037741497
-0.33819103 0.020435281 0.4392282 -0.086441174 0.25865096 -0.0073439768 0.22704425 0.049176894
0.34723088 0.17423722 0.4195651 0.0639871 -0.11513697 0.13755463 -0.2542 0.12344425
-0.11560126 -0.19365469 -0.20994641 -0.013194212 0.2560249 0.08953794 -0.32914305 -0.14036682
0.043795086 0.24236467 0.23096795 -0.18749397 0.055922408 -0.20844254 0.24292693 -0.0072779874
0.29110664 -0.4373378 0.103319325 -0.20714848 -0.11178499 -0.009558021 0.24930899 0.4425355
0.37619966 0.051128056 -0.056613464 0.19817856 -0.10836831 -0.024988055 -0.4413031 0.025837915
-0.4198772 -0.1415002 -0.42474866 0.23401913 -0.38191947 0.0011819248 0.20026405 -0.3459458
-0.13486083 -0.15345502 -0.0041655195 0.22562207 0.3200945 -0.13559462 -0.2345189 0.017550629
0.61643386 0.099594764 0.057793394 0.24485037 0.19375102 0.03998266 -0.02782577 -0.12835486
-0.06544066 -0.23022434 0.491079 0.037591517 -0.09175888 -0.002781322 0.2452456 0.44352067
0.19503613 -0.051920015 0.1486285 0.11939556 0.07802064 -0.054498725 -0.9720962 -0.29625112
-0.33479312 -0.3295714 0.15492988 -0.2628447 -0.053507596 0.23861596 0.1095905 -0.17237988
-0.11173694 -0.10769844 -0.013220002 -0.37664658 -0.6462368 0.12527259 0.8433417 0.15940459
0.39191607 -0.036279544 0.60479295 0.18961571 -0.37490556 -0.26777026 -0.35875413 0.17820942
00000000: 99f3 8d3e 88d9 b43e fb7e 1ebe 4341 88bf
00000010: caa6 56bf a0d2 e33d bdbf e03d b12e 41bc
00000020: 2a31 ddbe fc3d f63e 20f6 813e 82f5 91bd
00000030: e9f9 743e f5cc cebe 3347 6abe b9a9 a83d
00000040: e27f 54bc e94b 973e b223 093f d9ef 8b3a
00000050: e64a 263e 76e7 37be 5bc1 6dbb 0eb4 d2be
00000060: fad3 343e b802 cdbd 6290 193e c085 70be
00000070: f395 8abd 3daf 17be cd06 993e 5e34 983e
00000080: de9e 633e c493 7f3e dec3 843e 74b8 ac3e
00000090: bc43 c53e 7e5b 61bc ec1d 7b3e 45ba 0e3e
000000a0: b35a e03d d0f2 a93e 9eb4 c7be 73ad ec3e
000000b0: 6356 89be 9d96 83be d0c3 4a3f 7275 83be
000000c0: 24c2 0b3e bee1 99be e86e 073d 946c febd
000000d0: 72ce 95bd 756f 193e 6fb8 ee3c 8de8 b53d
000000e0: 0635 ba3d 69b4 543d fe3c e3bd 475b 96be
000000f0: 4735 b9bc 86dc 58bd 508e dbbd 8604 f83d
00000100: 9d40 14bf be0f dcbd 29a2 fbbe a5f1 64be
00000110: 2a84 bbbd 4f3f 84bd d7e4 5dbe ba28 b9be
00000120: 25b3 66be 1897 833e a61e a1be 75ce 2d3e
00000130: 5876 3f3e e7c1 d9bc a3a7 d33e 054a 86be
00000140: 7113 40be 3124 933e f766 60bf 7372 f2bd
00000150: cf40 f6be 4cdf b53e e926 8b3d 1589 e9bd
00000160: 9c18 d13e 100e aebd 22d1 fb3e 8caa 823e
00000170: 141f 043e e4fa 3f3d a669 d4bb 5945 d83e
00000180: 9c96 20be 8834 9fbe c8e9 11be 1f4f 903b
00000190: c3b2 1ebc c012 803e 1850 91be fc72 a8bd
000001a0: 0f4b 373e 73d6 a9be 7758 b0be c1ff 0c3d
000001b0: 7082 b73e 839c 9b3e 9571 9abe 7dba 153e
000001c0: ba44 2cbe 743b a33e ad45 463e 9306 183d
000001d0: 37b5 bdbd 46c1 64be 12c6 7b3b 2dec 69be
000001e0: d679 433e 0b62 e1bd 2847 0e3d e2d2 2c3f
000001f0: 0c8a 9a3e a540 773e ebce f53e b27c 85be
00000200: a5c1 63bd 978e 48be 3551 863e 3b2e 19be
00000210: 546f 01be c0d9 64bd 985e d33d bc50 cfbe
00000220: bfe5 c13e ad78 6c3e 8087 adbe 8f20 5a3e
00000230: e029 923d 84d0 f23e a694 15bc d496 1a3d
00000240: 6027 adbe e467 a73c 85e2 e03e 1208 b1bd
00000250: e66d 843e bea5 f0bb 4a7e 683e b66d 493d
00000260: 3fc8 b13e 3e6b 323e 3dd1 d63e ab0b 833d
00000270: efcc ebbd 1fdb 0c3e 8126 82be 57d0 fc3d
00000280: 5ac0 ecbd 6a4d 46be 31fc 56be 892c 58bc
00000290: b215 833e ab5f b73d 7085 a8be 52bc 0fbe
000002a0: 7a62 333d 722e 783e dd82 6c3e 6bfe 3fbe
000002b0: e50e 653d f671 55be d6c1 783e 2f7c eebb
000002c0: ee0b 953e bdea dfbe 1599 d33d bb1e 54be
000002d0: 87ef e4bd 3f99 1cbc db4a 7f3e 0394 e23e
000002e0: 3e9d c03e a76b 513d 85e3 67bd 52ef 4a3e
000002f0: 34f0 ddbd c0b3 ccbc 7bf2 e1be 09aa d33c
00000300: 25fa d6be 6ee5 10be a878 d9be b6a2 6f3e
00000310: f38a c3be d1ea 9a3a 0512 4d3e cf1f b1be
00000320: f518 0abe 5023 1dbe e97e 88bb 7909 673e
00000330: 6de3 a33e 51d9 0abe b925 70be 56c6 8f3c
00000340: 9cce 1d3f 57f8 cb3d c4b8 6c3d 0eba 7a3e
00000350: ab66 463e dcc4 233d dff2 e3bc 756f 03be
00000360: c105 86bd eebf 6bbe b56e fb3e 90f9 193d
00000370: 14ec bbbd d746 36bb aa21 7b3e 2415 e33e
00000380: 8db7 473e 15aa 54bd 1232 183e a985 f43d
00000390: 49c9 9f3d 0e3a 5fbd 4cdb 78bf 3aae 97be
000003a0: 016a abbe 95bd a8be f0a5 1e3e 9593 86be
000003b0: c82a 5bbd be57 743e fc70 e03d 5a84 30be
000003c0: 56d6 e4bd 0091 dcbd b598 58bc d2d7 c0be
000003d0: c66f 25bf 7547 003e 3ee5 573f f53a 233e
000003e0: 39a9 c83e dc99 14bd b6d3 1a3f 9f2a 423e
000003f0: 9ff3 bfbe 2f19 89be 9fae b7be 887c 363e

embedder.emb_rnn.weight_hh_l1 f4 [60, 20]
0.08430229 -0.20946166 -0.10517501 -0.1972165 0.1170413 -0.06307488 -0.10534993 -0.5608046
-0.59422797 0.0041628135 -0.10861109 0.25628972 0.09918702 -0.02918938 -0.06034537 -0.11582243
0.82698035 0.26863566 -0.24360153 -0.1699174 -0.19522552 0.40481243 0.24981509 -0.16840698
-0.19286165 -0.32423565 -0.036630165 0.41222778 0.24201463 -0.029623896 0.4984327 -0.15160863
0.0009911107 0.27231416 0.32854092 0.5072676 0.3240587 0.052428834 0.35178652 -0.3687573
0.4421549 -0.32492325 -0.51589435 0.11337185 -0.085312545 0.13455701 0.18154424 0.38632315
0.335325 0.3623529 -0.28838077 -0.032598592 0.11271772 1.0282587 0.101522654 0.030804263
0.02735067 0.37892288 -0.24104643 -0.023136852 0.32324573 -0.4612152 -0.49398527 0.2514584
0.5559705 0.10251647 0.53024334 -0.9854165 -0.26847175 -0.4306013 -0.15100537 -0.045882635
0.30102432 0.10911352 -0.083028585 -0.44898084 0.032338478 0.5636014 -0.14179184 0.2581569
-0.032434102 -0.009821443 -0.40626296 -0.0151459845 0.22073948 -0.017908368 -0.14940806 1.1738911
0.17547986 0.9229283 0.17123677 0.2832617 0.0053610574 0.0702858 0.4442654 0.050851956
0.036548257 0.20372245 -0.16717552 -0.004951851 -0.5043319 -0.10763342 0.14582346 -0.42409587
-0.57334745 -0.2613287 0.196497 0.09546266 -0.18210627 -0.61798364 0.026687317 -0.41335866
-0.52457273 0.21751231 0.36333483 0.15921569 -1.3968217 -0.3619795 0.07642755 -0.33342847
-0.13249485 0.24052869 0.028857872 -0.26363 0.019316066 -0.29537696 -0.31631196 -0.04355345
0.07743425 -0.14022508 0.038646568 -0.053761654 0.14819056 -0.080095254 0.20319907 -0.27034208
-0.32983908 -0.24914505 0.24379312 -0.10269745 -0.4077026 -0.034664325 -0.09296277 -0.22675863
-0.3950324 -0.33829972 -0.25640324 0.4969007 -0.21603218 -0.40579215 0.41204327 -0.23187342
-0.39461035 -0.17800336 -0.2463359 0.18953975 -0.23304072 -0.3404633 0.49756593 -0.124054566
-0.22739746 -0.16358535 -0.31517372 0.16600652 -0.07570477 0.09374053 -0.22417964 -0.5757592
-0.20128131 -0.072864495 0.19983108 -0.13907488 -0.24244288 -0.5512052 0.0051344708 -0.23938438
0.11743442 -0.552596 -0.08642202 0.031552628 -0.014680564 0.16522016 0.22745734 0.014265331
0.0071473676 -0.07990346 0.13704512 -0.01982177 0.123236544 0.064660154 -0.0133424485 -0.17072424
0.036911886 -0.12081547 0.14883284 0.040746838 -0.4242349 -0.18573008 0.04696996 0.081230775
0.14333487 -0.05423514 -0.5045708 0.48865962 0.17213646 0.070233345 0.08953677 0.06676466
0.39499676 0.5677607 -0.16533214 0.4717941 0.42339197 -0.3829357 0.019194707 -0.32390508
-0.14517789 -0.067922145 -0.22399838 -0.008526288 -0.089814804 -0.23591144 0.13904923 0.22199576
0.13117497 -0.06502376 0.43386373 -0.24388929 -0.055870228 -0.043379094 0.058605067 0.35602394
-0.15736637 -0.32771775 -0.26004222 -0.2663117 -0.51379466 0.15325871 -0.31537682 -0.045484357
0.0069321017 -0.15914698 -0.012627244 0.3901701 0.587939 0.32568103 0.16581401 0.17930219
0.62528914 0.5932626 -0.29407805 0.57551914 0.23784485 0.19488579 0.024186138 -0.38049024
00000000: aea6 ac3d 1e7d 56be ff65 d7bd 1ff3 49be
00000010: 59b3 ef3d 672d 81bd b4c1 d7bd e490 0fbf
00000020: 531f 18bf 3668 883b 7e6f debd 6838 833e
00000030: 9022 cb3d 911e efbc b52c 77bd 4f34 edbd
00000040: fcb4 533f 9d8a 893e ae72 79be d4fe 2dbe
00000050: 33e9 47be 9343 cf3e 87cf 7f3e e172 2cbe
00000060: 867d 45be 3702 a6be 8309 16bd 850f d33e
00000070: afd2 773e d0ad f2bc 9232 ff3e 4b3f 1bbe
00000080: 28e8 813a c36c 8b3e 8436 a83e 4adc 013f
00000090: 06eb a53e 9ebf 563d 5d1d b43e c2cd bcbe
000000a0: 2162 e23e 575c a6be a711 04bf 802f e83d
000000b0: 58b8 aebd 50c9 093e bce6 393e 26cc c53e
000000c0: b8af ab3e 5286 b93e a5a6 93be 1a86 05bd
000000d0: 8cd8 e63d fb9d 833f 1ceb cf3d 3959 fc3c
000000e0: 830e e03c 2e02 c23e e0d4 76be 7f89 bdbc
000000f0: 7780 a53e 6624 ecbe a3eb fcbe 28bf 803e
00000100: 1554 0e3f 28f4 d13d 07be 073f 4144 7cbf
00000110: 2175 89be c677 dcbe 27a1 1abe 6eef 3bbd
00000120: dc1f 9a3e e976 df3d e40a aabd d1e0 e5be
00000130: 5a75 043d 2e48 103f e131 11be 242d 843e
00000140: 9fd9 04bd 1eea 20bc b301 d0be dd26 78bc
00000150: 8809 623e 92b4 92bc 6dfe 18be 1042 963f
00000160: feb0 333e 0745 6c3f b158 2f3e ad07 913e
00000170: cfab af3b 00f2 8f3d c176 e33e 244a 503d
00000180: a0b3 153d 9e9c 503e 0f30 2bbe 2343 a2bb
00000190: e51b 01bf e96e dcbd bf52 153e 1823 d9be
000001a0: e6c6 12bf e0cc 85be 8236 493e ed81 c33d
000001b0: 117a 3abe 2d34 1ebf 5c9f da3c bfa3 d3be
000001c0: 664a 06bf 8cbb 5e3e 0607 ba3e 7009 233e
000001d0: 0ecb b2bf 6155 b9be 0c86 9c3d 23b7 aabe
000001e0: bbac 07be 274d 763e 5867 ec3c 83fa 86be
000001f0: ba3c 9e3c a63b 97be a4f3 a1be 1a65 32bd
00000200: d995 9e3d 2a97 0fbe dd4b 1e3d 2e35 5cbd
00000210: 44bf 173e fb08 a4bd 6b13 503e 476a 8abe
00000220: abe0 a8be e11f 7fbe e7a4 793e 0a53 d2bd
00000230: 65be d0be 2efc 0dbd 4463 bebd 6a33 68be
00000240: b041 cabe 9f35 adbe 4947 83be c569 fe3e
00000250: 8a37 5dbe fdc3 cfbe 56f7 d23e 3a70 6dbe
00000260: 5e0a cabe 8346 36be 7a3f 7cbe b516 423e
00000270: 3aa2 6ebe 3551 aebe f6c0 fe3e 5210 febd
00000280: e1da 68be eb82 27be 735e a1be 9dfd 293e
00000290: 1a0b 9bbd 09fb bf3d 598f 65be f464 13bf
000002a0: b01c 4ebe fb39 95bd 85a0 4c3e a569 0ebe
000002b0: f242 78be c91b 0dbf 103f a83b 2e21 75be
000002c0: 7581 f03d ee76 0dbf 07fe b0bd 543d 013d
000002d0: c086 70bc 792f 293e 94ea 683e 23b9 693c
000002e0: 7734 ea3b 6da4 a3bd 8e55 0c3e 4461 a2bc
000002f0: 7163 fc3d 8b6c 843d 499a 5abc 56d2 2ebe
00000300: eb30 173d 1a6e f7bd a367 183e 28e6 263d
00000310: 5135 d9be 0730 3ebe 9363 403d 525c a63d
00000320: 60c6 123e ab25 5ebd 8d2b 01bf 9831 fa3e
00000330: 8a44 303e 80d6 8f3d 0e5f b73d e9bb 883d
00000340: 043d ca3e c458 113f d44c 29be ff8e f13e
00000350: d5c6 d83e 2610 c4be 383e 9d3c e3d6 a5be
00000360: 83a9 14be c41a 8bbd d55f 65be d8b1 0bbc
00000370: d3f0 b7bd c592 71be ec62 0e3e db52 633e
00000380: bb52 063e 2d2b 85bd 6323 de3e 1dbe 79be
00000390: 2ed8 64bd 47ae 31bd de0b 703d c548 b63e
000003a0: a624 21be 9fca a7be 4124 85be 025a 88be
000003b0: 0c88 03bf daef 1c3e 1279 a1be ce4d 3abd
000003c0: af26 e33b 6df7 22be 80e2 4ebc 60c4 c73e
000003d0: 2c83 163f aabf a63e 26cb 293e fe9a 373e
000003e0: f312 203f 0fe0 173f 6691 96be 3955 133f
000003f0: 9a8d 733e 2490 473e 0222 c63c 9ecf c2be

embedder.emb_rnn.bias_ih_l1 f4 [60]
0.8709606 1.0968972 0.9241436 0.9160573 1.0678595 0.99588245 0.77697456 1.1360843
1.0340958 0.8981379 1.0578015 0.89925915 0.8240252 0.98762906 1.0828335 1.1667843
0.99156404 0.9426439 0.89428246 0.94954884 0.5907001 0.74414176 0.6339531 0.7661878
0.6377534 0.75987214 0.5147168 0.7398586 0.73045367 0.47525272 0.8327402 0.67390573
0.70842475 0.533777 0.77399653 0.6046307 0.64052284 0.5774196 0.71142435 0.66759706
0.9196012 0.8149377 0.9143129 0.9786515 1.02523 0.8653539 1.0165436 0.7595323
0.8709227 0.9451828 0.7707106 0.9243894 0.9906549 0.897326 0.8615525 0.78639567
0.8875323 0.91763866 0.731209 1.0456914
00000000: 46f7 5e3f 2167 8c3f ad94 6c3f bb82 6a3f
00000010: 9faf 883f 27f2 7e3f cee7 463f 366b 913f
00000020: 405d 843f 5eec 653f 0a66 873f d935 663f
00000030: 51f3 523f 42d5 7c3f 4a9a 8a3f 3059 953f
00000040: 24d7 7d3f 1c51 713f b2ef 643f a215 733f
00000050: 1f38 173f 1380 3e3f c04a 223f e224 443f
00000060: cf43 233f fb86 423f 7bc4 033f 6067 3d3f
00000070: 03ff 3a3f 5354 f33e 762e 553f 1685 2c3f
00000080: 535b 353f 9ca5 083f a324 463f 14c9 1a3f
00000090: 4ef9 233f c5d1 133f e81f 363f a4e7 2a3f
000000a0: fc6a 6b3f c29f 503f 6910 6a3f e888 7a3f
000000b0: bd3a 833f d587 5d3f 1a1e 823f b570 423f
000000c0: caf4 5e3f 80f7 713f 4a4d 453f c9a4 6c3f
000000d0: 8f9b 7d3f 28b7 653f b48e 5c3f 3a51 493f
000000e0: 5135 633f 5eea 6a3f 8330 3b3f 37d9 853f

embedder.emb_rnn.bias_hh_l1 f4 [60]
-0.12903515 0.09689887 -0.075854 -0.08394494 0.06786236 -0.0041216407 -0.22303006 0.1360902
0.034089018 -0.10185998 0.057792913 -0.100741245 -0.17597406 -0.0123805115 0.08283485 0.16678476
-0.008438573 -0.05735579 -0.10572362 -0.050456308 -0.40930304 -0.25585532 -0.36604673 -0.23381373
-0.36224768 -0.24013042 -0.4852835 -0.26013497 -0.26954764 -0.5247459 -0.16726238 -0.32609907
-0.29157603 -0.4662245 -0.22600755 -0.39537832 -0.35947737 -0.42258757 -0.28857753 -0.33240384
-0.032425087 -0.1838858 -0.09948633 -0.035137128 0.07289817 -0.14916848 -0.018350549 -0.24827315
-0.14135674 -0.10459635 -0.25846368 -0.13760431 0.07873468 -0.092114925 -0.14779347 -0.2416321
-0.12599158 -0.0991845 -0.29383686 0.11505612
00000000: ca21 04be ea72 c63d 5859 9bbd 53eb abbd
00000010: 6cfb 8a3d d40e 87bb fe61 64be 3b5b 0b3e
00000020: eda0 0b3d f79b d0bd 43b8 6c3d 6d51 cebd
00000030: 8b32 34be a1d7 4abc 51a5 a93d a0c9 2a3e
00000040: f141 0abc e8ed 6abd a085 d8bd 46ab 4ebd
00000050: 2b90 d1be 78ff 82be 7a6a bbbe de6c 6fbe
00000060: 8778 b9be c0e4 75be 1477 f8be 6930 85be
00000070: 2602 8abe bf55 06bf d446 2bbe 75f6 a6be
00000080: 7449 95be fab4 eebe 866e 67be 076f cabe
00000090: 6b0d b8be 665d d8be 6fc0 93be d630 aabe
000000a0: 2bd0 04bd 8f4c 3cbe 7dbf cbbd f3eb 0fbd
000000b0: a34b 953d 9fbf 18be e453 96bc 513b 7ebe
000000c0: d2bf 10be 9c36 d6bd 5a55 84be 25e8 0cbe
000000d0: a63f a13d c0a6 bcbd 2c57 17be 686e 77be
000000e0: f003 01be 3e21 cbbd c971 96be 8ba2 eb3d

embedder.emb_rnn.weight_ih_l2 f4 [60, 20]
0.33457863 0.107666865 -0.07118296 0.26215276 -0.13350055 -0.17706339 -0.048115864 -0.79461265
-0.45890003 0.42560723 0.1562064 0.25314203 0.05484577 -0.23860496 0.24973807 0.15559691
0.14396344 0.043249138 -0.11941533 0.08973477 -0.027569393 0.21468668 0.08746641 0.09757021
0.06507063 -0.29760635 -0.34340647 2.0541952 0.78564596 0.28931388 -0.037844058 -0.244175
0.02216974 0.33875886 0.25655842 0.41035867 -0.11975834 -0.0782129 0.13234381 -0.16451888
-0.14422363 1.2256247 0.38916758 0.2551621 0.0118189575 0.14156891 -1.3907623 1.7094467
1.2048272 1.0814816 0.09719026 0.09285176 0.33170733 1.7613109 1.4519484 0.7225546
0.3966565 0.245614 0.23437215 0.25997308 0.043869976 -0.40340537 -1.0449271 0.15830995
-0.015916642 0.3655272 -1.2953006 -0.7590721 -0.6606493 1.3034716 -0.37130153 0.43979934
0.45744365 -1.7662209 0.9588837 0.5954524 -0.6693953 0.68901736 -0.3005622 0.1480602
-0.09373079 1.2662641 0.4337564 0.14302564 0.0619039 0.022631481 0.08617057 0.86274475
0.023482407 0.46377888 0.011838533 0.12627341 -0.00656073 -0.61542976 0.63986516 0.26605386
0.4349359 -0.050220516 0.066530526 -0.08080414 -0.028319217 0.8331552 0.41151574 0.14565718
0.30600426 0.3789474 -1.307802 0.35117194 0.66381997 2.0847657 -0.15978734 0.08860856
-0.06645584 1.5295153 1.2593392 0.38217863 0.026325224 0.16966926 -0.014888474 0.20106818
-0.46392298 0.75003517 0.3554459 0.33955994 0.30914932 -0.072354436 0.10950582 -0.6691926
0.42438462 1.3562347 0.11382756 0.36525974 0.020346649 0.26022592 0.67888594 0.16319068
-0.032530323 0.74546885 0.277188 -0.02689571 -0.32240143 0.15859863 0.053101666 -0.7003403
-0.18518251 -0.29558983 0.23843215 -0.3940261 0.41758254 -0.18741463 0.1645055 -0.378298
-0.1239081 0.08136078 0.47069195 -0.2331201 0.21167213 -0.8340011 0.1304326 0.24223848
-0.09364875 -0.04600208 0.1674374 -0.08576857 -0.30403683 -0.2664125 -0.035702698 0.12107536
0.11808364 -0.0988935 0.2840442 0.119222835 -0.5080231 0.10447472 0.12404075 0.31714168
0.42532933 0.6505248 -0.15098709 -0.13195567 0.16533546 -0.47443947 -0.32267156 -0.86561906
-0.34771475 -0.3515364 0.81057537 -1.2073396 -0.33806464 -0.32150978 0.40146062 -0.2589917
-0.08402294 0.8639031 -0.13347372 -0.18208028 -1.320371 -0.8582182 0.3719459 0.074326865
0.073873036 -0.84736764 0.42012843 0.12631221 0.2968257 0.059253458 1.6383667 0.4239681
0.2647553 -0.17244278 -0.22124414 0.07608977 0.30835065 0.8932807 -0.24933058 -0.2421738
-0.20097359 0.7743169 -0.10567354 0.13966523 -0.17484546 -0.3183624 0.3813124 -0.39076447
-0.4945951 -0.57316345 1.5992963 -0.24494043 -0.4922211 -0.17693673 0.36378464 -0.4478456
-0.44951674 0.2571096 0.064513095 0.31312737 1.2277218 0.033702627 0.18892805 -0.19351617
0.05101327 0.26134238 -0.14847375 0.111730084 0.14889811 0.1155215 -0.42671394 -0.32958078
-0.32157582 0.4702481 0.05498824 0.32483354 0.00029060023 0.8759169 0.09599863 0.63669306
00000000: e44d ab3e 7280 dc3d 5fc8 91bd e338 863e
00000010: 5eb4 08be 1b50 35be 2415 45bd bc6b 4bbf
00000020: f2f4 eabe 31e9 d93e 92f4 1f3e d59b 813e
00000030: f5a5 603d dc54 74be 56bb 7f3e cc54 1f3e
00000040: 276b 133e 0226 313d 0690 f4bd ddc6 b73d
00000050: 35d9 e1bc d3d6 5b3e 9721 b33d e4d2 c73d
00000060: c043 853d dc5f 98be f9d2 afbe ef77 0340
00000070: 1820 493f f320 943e 5f02 1bbd 0309 7abe
00000080: 519d b53c cd71 ad3e a05b 833e 881a d23e
00000090: dc43 f5bd 162e a0bd 2385 073e a377 28be
000000a0: 5caf 13be 45e1 9c3f f940 c73e 9ba4 823e
000000b0: 4da4 413c 71f7 103e 8004 b2bf 26cf da3f
000000c0: c737 9a3f fd6d 8a3f b00b c73d 1029 be3d
000000d0: 8bd5 a93e a372 e13f 72d9 b93f 57f9 383f
000000e0: 9016 cb3e 3d82 7b3e 41ff 6f3e 311b 853e
000000f0: 01b1 333d 268b cebe 2cc0 85bf 011c 223e
00000100: 9e63 82bc 6226 bb3e 69cc a5bf 8d52 42bf
00000110: 5020 29bf 28d8 a63f 3c1b bebe 612d e13e
00000120: 0e36 ea3e 8713 e2bf 6779 753f 926f 183f
00000130: 7e5d 2bbf 7163 303f 4ae3 99be 189d 173e
00000140: eef5 bfbd f114 a23f 5215 de3e 5075 123e
00000150: f28e 7d3d a865 b93c 327a b03d d7dc 5c3f
00000160: 2d5e c03c 6d74 ed3e 68f6 413c d14d 013e
00000170: 64fb d6bb ce8c 1dbf 34ce 233f 3638 883e
00000180: ebaf de3e 07b4 4dbd 2841 883d a47c a5bd
00000190: b4fd e7bc a949 553f 31b2 d23e 2827 153e
000001a0: 97ac 9c3e 6505 c23e 0e66 a7bf cfcc b33e
000001b0: 1bf0 293f cd6c 0540 4b9f 23be 6878 b53d
000001c0: 001a 88bd 28c7 c33f 0732 a13f ebac c33e
000001d0: ffa7 d73c c7bd 2d3e c9ee 73bc d1e4 4d3e
000001e0: 5087 edbe 4e02 403f 01fd b53e cdda ad3e
000001f0: d248 9e3e 902e 94bd 9644 e03d 3550 2bbf
00000200: f148 d93e 1999 ad3f 6c1e e93d 5303 bb3e
00000210: 04ae a63c 553c 853e 78cb 2d3f 751b 273e
00000220: 843e 05bd 0cd7 3e3f 96eb 8d3e 6454 dcbc
00000230: cd11 a5be ae67 223e 2281 593d 8049 33bf
00000240: 7ca0 3dbe 8d57 97be 8f27 743e cabd c9be
00000250: 61cd d53e 9fe9 3fbe 2174 283e 47b0 c1be
00000260: 88c3 fdbd 7ba0 a63d 89fe f03e 09b7 6ebe
00000270: 94c0 583e 1981 55bf 2090 053e 5d0d 783e
00000280: eaca bfbd ad6c 3cbd b674 2b3e 6fa7 afbd
00000290: b7aa 9bbe 3867 88be fe3c 12bd 5cf6 f73d
000002a0: d6d5 f13d ad88 cabd 3e6e 913e 1a2b f43d
000002b0: cd0d 02bf d8f6 d53d 1409 fe3d 6560 a23e
000002c0: c4c4 d93e cb88 263f 5c9c 1abe 631f 07be
000002d0: b34d 293e bbe9 f2be 3535 a5be 3699 5dbf
000002e0: ab07 b2be 94fc b3be de81 4f3f 1b8a 9abf
000002f0: cf16 adbe ee9c a4be 3f8c cd3e 8f9a 84be
00000300: 3814 acbd c128 5d3f 56ad 08be 4173 3abe
00000310: eb01 a9bf 30b4 5bbf b16f be3e af38 983d
00000320: bf4a 973d 16ed 58bf 131b d73e fd57 013e
00000330: 8af9 973e c1b3 723d 00b6 d13f 5912 d93e
00000340: 028e 873e d794 30be d38d 62be f4d4 9b3d
00000350: 23e0 9d3e 0bae 643f 8450 7fbe 69fc 77be
00000360: 05cc 4dbe a239 463f 5e6b d8bd 6704 0f3e
00000370: b00a 33be 6600 a3be 613b c33e 4812 c8be
00000380: 923b fdbe d7ba 12bf beb5 cc3f aad1 7abe
00000390: 6704 fcbe e72e 35be fb41 ba3e 054c e5be
000003a0: 0f27 e6be dfa3 833e 711f 843d 3b52 a03e
000003b0: fd25 9d3f c40b 0a3d 5b76 413e 1a29 46be
000003c0: 4af3 503d abce 853e 8109 18be bed2 e43d
000003d0: bf78 183e 8996 ec3d 407a dabe d0be a8be
000003e0: 96a5 a4be 5cc4 f03e 593b 613d 9550 a63e
000003f0: b45b 9839 173c 603f ee9a c43d 51fe 223f

embedder.emb_rnn.weight_hh_l2 f4 [60, 20]
-0.33928475 -0.21632516 0.34618425 0.41754112 0.06211971 0.0061499085 -0.5340011 -0.3577857
-0.01923561 -0.093756765 0.32937005 -0.07579769 -0.3241774 -0.16561566 -0.28408208 0.058921743
0.5256112 -0.03523872 -0.3240533 -0.03591661 0.001953991 -0.25265455 -0.059103087 0.14148675
-0.6464838 -0.3320667 -0.1659103 -0.16559388 -0.23852254 -0.09667865 -0.39208683 0.15668027
0.30888376 -0.0666821 -0.15477541 -0.19374956 -0.59801006 -1.032778 -0.301205 -0.0954936
-0.045521606 -0.5797235 0.55889523 0.6059493 0.20733593 -0.7159377 -0.4718384 -0.18494889
-0.55062187 0.016096888 0.03643386 -0.6927535 -0.19342078 -0.5037499 -0.4240048 -0.23440924
1.3971059 0.86818755 -0.44043812 0.3349676 0.3564547 0.4118198 -0.49284273 -0.39603642
0.18975724 0.3136829 0.50199133 0.39656365 0.43731612 0.4299923 -0.36608696 0.3286854
0.5983593 0.6584138 0.76342386 0.14093275 -0.47940555 -0.14618754 0.12380749 0.23139384
-0.5888957 -0.3826225 0.4790124 0.31725946 0.7101948 -0.15048228 -0.48210424 -0.6518251
-0.06808901 -0.37658176 0.15131901 -0.5039002 -0.3863839 -0.14243466 -0.4679834 -0.4848321
0.22093792 -0.61122954 -0.3892069 -0.584685 0.41032693 0.8313488 -0.23696737 -0.063484035
-0.5276609 0.2495628 0.6492999 0.6163062 -0.025201466 0.41665167 -0.13086027 -0.16823022
0.47905916 0.25768965 0.74020934 0.17955992 -0.16144595 -0.6907291 0.1717324 0.15602612
-0.2687849 -0.3183974 0.3860756 -0.013484118 -0.2590124 0.11773544 -0.12693694 0.07560298
-0.23358573 -0.6269078 -0.18049185 -0.226779 0.05675147 -0.09960724 0.17711647 -0.30843925
-0.21619433 -0.3527528 -0.1807605 -0.5967503 -0.39305824 -0.18165705 -0.11132065 0.17766356
0.24161987 0.13961466 -0.7506234 -0.1575234 0.108108565 -0.050709385 0.047699057 -0.1092323
-0.68226296 -0.6295186 -0.56425047 0.00959166 -0.026533075 0.31890327 -0.603982 -0.016426526
0.3506013 0.12638767 -0.117927365 -0.13901997 -0.18444912 -0.095560044 0.48281863 0.3397579
0.49473938 0.5491604 0.43227854 0.18449812 0.48500007 0.31019372 0.016059345 0.11789236
0.24829492 0.08413697 0.32255387 0.46704826 -0.116546154 -0.124328256 -0.16124235 0.02413025
-0.13851857 0.27456692 0.036240157 -0.081855 0.33486962 -0.32610187 -0.19214347 -0.3635952
0.13417137 0.47181785 0.26432267 -0.3210626 -1.068046 -0.43735892 0.086632244 -0.55616987
-0.26972026 0.077934906 -0.24071825 0.23179054 0.09359293 0.091259696 -0.10845083 -0.26908937
0.37880966 0.15746726 -0.3142904 -0.34837937 0.05062201 -0.02086365 -0.12803166 0.1189376
0.028127322 0.33970988 -0.003790506 -0.35382903 0.013610116 0.34418756 -0.30548036 -0.14658874
-0.0051477747 0.48248178 -0.022051917 0.057619642 0.42141598 -0.22948544 -0.2360163 0.20023043
0.42223915 0.3615328 0.2577961 -0.20704761 0.037463587 -0.09238022 0.003499555 0.108417295
0.096190386 -0.054189485 0.22877657 -0.15111533 0.33835295 0.036464565 0.1351683 -0.13994779
-0.28430364 0.037535906 0.13855852 -0.2216856 0.33516958 0.31518978 0.023930239 0.17601134
00000000: bbb6 adbe 5884 5dbe 103f b13e f3c7 d53e
00000010: 3d71 7e3d 2c85 c93b 4cb4 08bf b02f b7be
00000020: ff93 9dbc 8c03 c0bd 31a3 a83e d23b 9bbd
00000030: 95fa a5be 2797 29be 3573 91be ed57 713d
00000040: 758e 063f 7a56 10bd 50ea a5be 4c1d 13bd
00000050: 870e 003b f05b 81be 1416 72bd e7e1 103e
00000060: f67f 25bf a604 aabe 64e4 29be 7191 29be
00000070: 413f 74be 75ff c5bd 9bbf c8be cb70 203e
00000080: 0326 9e3e a090 88bd 727d 1ebe 4966 46be
00000090: 3017 19bf 1232 84bf 8b37 9abe 2692 c3bd
000000a0: dd74 3abd c268 14bf c213 0f3f 7e1f 1b3f
000000b0: df4f 543e b147 37bf ce94 f1be 3e63 3dbe
000000c0: 8ef5 0cbf 9fdd 833c ac3b 153d 4b58 31bf
000000d0: 1910 46be c1f5 00bf 2817 d9be fa08 70be
000000e0: 5ed4 b23f 8a41 5e3f 1b81 e1be e080 ab3e
000000f0: 3b81 b63e 0bda d23e e255 fcbe 49c5 cabe
00000100: b94f 423e 0c9b a03e 8182 003f 640a cb3e
00000110: e6e7 df3e f327 dc3e c06f bbbe 7449 a83e
00000120: 132e 193f cf8d 283f bf6f 433f ad50 103e
00000130: a574 f5be 30b2 15be c88e fd3d 82f2 6c3e
00000140: dec1 16bf 19e7 c3be 1d41 f53e d56f a23e
00000150: 54cf 353f 0718 1abe 5ed6 f6be 02de 26bf
00000160: 4072 8bbd 53cf c0be 5ff3 1a3e 9aff 00bf
00000170: 1cd4 c5be 64da 11be 859b efbe ea3b f8be
00000180: 8d3d 623e 8a79 1cbf 2046 c7be ebad 15bf
00000190: 5f16 d23e 46d3 543f 93a7 72be eb03 82bd
000001a0: c914 07bf 648d 7f3e 8538 263f 3ec6 1d3f
000001b0: 4e73 cebc 5e53 d53e 3c00 06be 8b44 2cbe
000001c0: 3e47 f53e e6ef 833e 5c7e 3d3f 8ede 373e
000001d0: 1652 25be 9fd3 30bf 9eda 2f3e 50c5 1f3e
000001e0: 2d9e 89be fc04 a3be b3ab c53e 7dec 5cbc
000001f0: 469d 84be 471f f13d c2fb 01be bcd5 9a3d
00000200: 1931 6fbe 087d 20bf dbd2 38be c138 68be
00000210: 3b74 683d e1fe cbbd 055e 353e c0eb 9dbe
00000220: 0c62 5dbe 049c b4be 4819 39be a1c4 18bf
00000230: ee3e c9be 4e04 3abe 15fc e3bd 70ed 353e
00000240: 336b 773e 25f7 0e3e db28 40bf d04d 21be
00000250: 0668 dd3d a5b4 4fbd 1660 433d 2fb5 dfbd
00000260: c9a8 2ebf 2228 21bf b872 10bf 5726 1d3c
00000270: e45b d9bc 4a47 a33e 909e 1abf ec90 86bc
00000280: 0382 b33e c56b 013e e783 f1bd 405b 0ebe
00000290: 3be0 3cbe fcb4 c3bd 0134 f73e bff4 ad3e
000002a0: 7b4e fd3e c795 0c3f 9d53 dd3e 13ed 3c3e
000002b0: ee51 f83e b6d1 9e3e e38e 833c 8d71 f13d
000002c0: 0641 7e3e 0150 ac3d c825 a53e f320 ef3e
000002d0: c0af eebd d09f febd b71c 25be cdac c53c
000002e0: d0d7 0dbe 0994 8c3e 8f70 143d 98a3 a7bd
000002f0: 0874 ab3e d3f6 a6be 42c1 44be 2629 babe
00000300: 3864 093e 1c92 f13e 4d55 873e 5162 a4be
00000310: bbb5 88bf 82ed dfbe 3f6c b13d 2661 0ebf
00000320: c618 8abe 569c 9f3d d87e 76be 805a 6d3e
00000330: a6ad bf3d 5de6 ba3d 781b debd 15c6 89be
00000340: 57f3 c13e 193f 213e acea a0be c85e b2be
00000350: 0659 4f3d 3fea aabc bb1a 03be 8e95 f33d
00000360: 456b e63c 74ee ad3e 236a 78bb 1429 b5be
00000370: f7fc 5e3c 5a39 b03e ec67 9cbe 5c1b 16be
00000380: aaae a8bb da07 f73e 39a6 b4bc 9302 6c3d
00000390: d6c3 d73e 3bfe 6abe 42ae 71be 3509 4d3e
000003a0: bb2f d83e d41a b93e dafd 833e 4a04 54be
000003b0: 6b73 193d d731 bdbd ca58 653b e309 de3d
000003c0: 77ff c43d cbf5 5dbd 6844 6a3e fabd 1abe
000003d0: 993c ad3e de5b 153d 8f69 0a3e 794e 0fbe
000003e0: 3f90 91be 40bf 193d 49e2 0d3e 8d01 63be
000003f0: 599b ab3e 8e60 a13e 5909 c43c 513c 343e

embedder.emb_rnn.bias_ih_l2 f4 [60]
1.0571773 0.8471184 1.0193248 0.99962646 1.0059807 1.0002695 0.84978503 0.8916916
1.1614399 0.94502175 1.2125231 0.8950649 0.97020334 0.9900975 1.1383647 0.96785545
1.0288732 1.0167067 0.9715087 1.1328771 0.97082955 0.71937835 0.7907995 0.7531221
0.42010415 0.6950833 0.77240723 0.5531582 0.44181797 0.8074312 0.6422656 0.75552785
0.8565327 0.53994447 0.64326125 0.9061634 0.13855705 -0.96963215 0.8195723 0.34480917
0.8593318 0.96232325 0.74507827 0.6613546 0.876803 1.10343 1.0355352 0.9265138
0.6380506 0.79201937 0.73380554 0.80189043 0.91594845 0.937733 1.1855543 0.83037996
0.82806784 0.9243963 0.8511216 0.7649992
00000000: 9651 873f c0dc 583f 3c79 823f 85e7 7f3f
00000010: fac3 803f d508 803f 838b 593f e745 643f
00000020: 10aa 943f f2ec 713f f533 9b3f f922 653f
00000030: 3f5f 783f 0877 7d3f efb5 913f 60c5 773f
00000040: 1eb2 833f 7223 823f cbb4 783f 1e02 913f
00000050: 4988 783f 2e29 383f d671 4a3f 9ccc 403f
00000060: e417 d73e fbf0 313f 7bbc 453f c79b 0d3f
00000070: f735 e23e d0b3 4e3f 856b 243f 466a 413f
00000080: ba45 5b3f cd39 0a3f c5ac 243f 53fa 673f
00000090: e6e1 0d3e d039 78bf 7ecf 513f d48a b03e
000000a0: 2bfd 5b3f d15a 763f 73bd 3e3f 894e 293f
000000b0: 2976 603f 323d 8d3f 6b8c 843f 0230 6d3f
000000c0: 4957 233f c8c1 4a3f aeda 3b3f b148 4d3f
000000d0: 997b 6a3f 450f 703f 3ec0 973f c893 543f
000000e0: 41fc 533f 3ca5 6c3f 1be3 593f fdd6 433f

embedder.emb_rnn.bias_hh_l2 f4 [60]
0.05717877 -0.1528816 0.019324869 -0.00037431344 0.005967437 0.0002776581 -0.15020943 -0.10830862
0.16142724 -0.05498267 0.21252935 -0.104940034 -0.029792182 -0.009908715 0.13835853 -0.032149624
0.02888099 0.016717914 -0.02848373 0.13287954 -0.029166466 -0.28061733 -0.20920241 -0.24688146
-0.5798975 -0.30490986 -0.2275958 -0.44683447 -0.55817443 -0.19256462 -0.35773528 -0.24446985
-0.14346802 -0.46005562 -0.35674495 -0.09384395 -0.8614431 -1.9696339 -0.18042347 -0.65518904
-0.14191546 -0.017736657 -0.39166412 -0.49552467 -0.12085692 0.26313046 0.18005052 -0.20443583
-0.44805706 -0.36780402 -0.3182195 -0.5100661 -0.10629219 -0.07620612 0.72379404 -0.25931776
-0.18993373 -0.1058717 -0.07443121 -0.29855174
00000000: 4934 6a3d ff8c 1cbe 304f 9e3c 803f c4b9
00000010: 7d8a c33b a492 9139 80d0 19be e9d0 ddbd
00000020: 2f4d 253e 8235 61bd 4ba1 593e cdea d6bd
00000030: bc0e f4bc 2a58 22bc dcad 0d3e 53af 03bd
00000040: d397 ec3c 02f4 883c b656 e9bc 9311 083e
00000050: 83ee eebc 13ad 8fbe 2839 56be 7ece 7cbe
00000060: 2a74 14bf 251d 9cbe e00e 69be 7dc7 e4be
00000070: 85e4 0ebf a92f 45be 1429 b7be 4e56 7abe
00000080: 48e9 12be 698c ebbe 46a7 b6be 4231 c0bd
00000090: 8987 5cbf f71c fcbf eec0 38be 78ba 27bf
000000a0: 4952 11be 774c 91bc 3388 c8be 69b5 fdbe
000000b0: d583 f7bd 09b9 863e 2a5f 383e a057 51be
000000c0: bc67 e5be cf50 bcbe abed a2be b193 02bf
000000d0: b8af d9bd f411 9cbd 914a 393f 4cc5 84be
000000e0: fd7d 42be 43d3 d8bd 646f 98bd c6db 98be
