output/Tennessee_Eastman_10/model.pt (torch, 178616 bytes, 65 tensors)

embedder.emb_rnn.weight_ih_l0 f4 [60, 55]
-1.0091914 -0.05225288 0.32659408 -0.2754309 0.98793775 0.49379146 0.29872143 0.21081004
0.34410027 -0.06818671 -0.24951878 -0.0826287 0.04373172 -0.1325327 0.27048153 -0.02241769
-0.6233137 0.46639428 -0.427098 0.75690657 -0.30205816 -0.6827032 0.36822513 -0.42937103
0.814924 0.7232011 -0.102376655 -0.14189766 -0.7302456 -0.70968705 0.072666906 0.6032701
0.044212192 -0.59701014 -0.96009856 -0.63222456 0.34236506 0.078537375 0.11467141 0.29659444
-0.7843054 0.04148815 -0.06883014 -0.23698059 -0.14401986 0.30611843 -1.8060292 -0.45920557
0.63710177 0.53099054 0.35701665 0.67777264 -1.0191029 -0.15547666 -1.0932099 0.759244
-0.18414542 0.2744309 -1.6222471 -0.54446876 -0.8261569 -0.7629877 -0.37506264 0.010076349
0.30104533 -0.1375557 -0.60904264 -0.8284061 -0.7150812 -0.7505137 0.09917638 0.071372345
0.48767126 0.60807025 0.11414616 -0.18653412 0.52295756 -0.41545042 -0.085088536 -0.42954788
-1.688382 0.39439127 0.2945252 -0.15764211 -0.017352354 -0.80637765 -1.6996485 0.29225478
0.5661934 -0.23959771 -0.027790887 -1.1547351 -1.3557507 -1.7029687 0.4375235 1.1702139
0.86252016 0.08075489 -1.527452 -0.14597373 -1.1338923 0.37815905 -0.9033179 -0.41577563
-0.23524182 -0.65043354 0.8289943 -0.3630859 -0.28634945 0.14243513 -0.016650405 0.2697627
0.46804586 -0.7978624 0.0017648464 -0.4532432 -0.06540022 -0.026469322 -0.13313715 0.79257596
0.2861064 -0.3530577 0.23635666 -0.79492277 -0.15050262 0.56254166 0.14902593 -0.44725043
0.9818335 -0.8193758 0.64091307 1.8538426 0.16569974 0.5374256 -0.7824306 -0.07496354
0.10501034 0.64674395 0.15195338 0.15569605 -0.25255626 -0.08604554 -0.09354726 0.80764186
-0.099180564 0.21227369 -0.3337279 -0.80008036 -0.88968474 -0.056905728 -0.03451645 0.01227515
0.24748695 -0.33408356 0.78980815 1.0624485 -0.3319998 -0.15442002 0.13328004 0.16859964
-0.09296638 -0.6129837 0.756012 -0.10282936 1.1486139 1.7046932 0.13986032 0.34796616
-0.3057094 0.22854318 -0.01724719 0.8608265 0.0065317852 0.55486816 -0.046724327 -0.2423917
0.11629565 0.122201376 0.5647457 0.6482684 -0.22642799 -0.37674972 -0.23621665 -0.15982366
0.059158903 -0.004543327 -0.4280473 0.3200416 0.2838209 -0.03741254 0.6443572 -0.73278236
-0.6517849 -0.5111834 -0.74910676 -0.24384192 0.38858274 -0.5192609 -0.54414356 -0.4015288
-0.6888971 0.2154726 0.09773943 0.33155483 -0.5644414 -0.8868375 -0.5475625 -0.39475995
0.4436884 0.84352803 1.6447612 -0.3133119 -0.02757317 -0.07763792 -0.55569935 0.64712924
-0.1715825 -0.84796643 0.46199593 -0.025474813 -0.117708296 -0.0016599818 -0.6037076 1.1982698
-0.65450764 -0.46928468 -0.64056647 -0.13116294 -0.68209934 -0.28031802 0.04271212 -0.09979083
-0.21579574 -0.35436112 0.77286565 -0.36106032 0.5020826 -0.05918582 -0.12910354 0.044113457
-0.22380842 0.50862247 -0.45697376 0.31906563 -0.06381552 -0.63818073 0.6350688 0.0897728
0.5752312 0.6071747 -0.34361959 -1.0584322 0.3722069 0.21943511 0.56790376 0.6834618
00000000: 2f2d 81bf 1e07 56bd 5737 a73e 4705 8dbe
00000010: 7de9 7c3f 3cd2 fc3e 04f2 983e 96de 573e
00000020: e92d b03e 79a5 8bbd da81 7fbe 3c39 a9bd
00000030: 0820 333d a7b6 07be 8e7c 8a3e 4ea5 b7bc
00000040: 7d91 1fbf 3bcb ee3e 97ac dabe a1c4 413f
00000050: 5ea7 9abe a3c5 2ebf 0188 bc3e 85d6 dbbe
00000060: dc9e 503f b523 393f daaa d1bd 9f4d 11be
00000070: 60f1 3abf 0dae 35bf 63d2 943d e96f 1a3f
00000080: d817 353d a8d5 18bf 05c9 75bf 78d9 21bf
00000090: 794a af3e 34d8 a03d d8d8 ea3d 3adb 973e
000000a0: 3dc8 48bf 7aef 293d d1f6 8cbd 0aab 72be
000000b0: f179 13be 8ebb 9c3e f72b e7bf fe1c ebbe
000000c0: 1a19 233f ffee 073f e3ca b63e 8282 2d3f
000000d0: f771 82bf 4635 1fbe 4dee 8bbf d15d 423f
000000e0: 9e90 3cbe 3582 8c3e cba5 cfbf 4e62 0bbf
000000f0: 057f 53bf 2953 43bf 3608 c0be 4517 253c
00000100: 9d22 9a3e 67db 0cbe 38ea 1bbf 6c12 54bf
00000110: 900f 37bf aa21 40bf fc1c cb3d aa2b 923d
00000120: 0cb0 f93e 7eaa 1b3f 76c5 e93d cd02 3fbe
00000130: 8ce0 053f ebb5 d4be e642 aebd b3ed dbbe
00000140: e71c d8bf a7ed c93e 02cc 963e ef6c 21be
00000150: 8626 8ebc c46e 4ebf 158e d9bf 6ba2 953e
00000160: 0df2 103f 1a59 75be b7a9 e3bc 5cce 93bf
00000170: 3d89 adbf e1fa d9bf 1503 e03e 92c9 953f
00000180: 1fce 5c3f d262 a53d 8c83 c3bf 237a 15be
00000190: 6223 91bf 109e c13e d83f 67bf 8be0 d4be
000001a0: 3be3 70be d082 26bf f838 543f 65e6 b9be
000001b0: 659c 92be 84da 113e 6e66 88bc 561e 8a3e
000001c0: b5a3 ef3e b640 4cbf 6b52 e73a 7e0f e8be
000001d0: 8df0 85bd 31d6 d8bc 1b55 08be 42e6 4a3f
000001e0: 8a7c 923e fbc3 b4be 7b07 723e 0f80 4bbf
000001f0: 5c1d 1abe bb02 103f 419a 183e 02fe e4be
00000200: 7159 7b3f 9dc2 51bf e112 243f b74a ed3f
00000210: 31ad 293e b994 093f 5f4d 48bf 7c86 99bd
00000220: a90f d73d 0391 253f ab99 1b3e c96e 1f3e
00000230: 0e4f 81be a538 b0bd b595 bfbd 9ec1 4e3f
00000240: 2e1f cbbd 465e 593e 62de aabe 11d2 4cbf
00000250: 61c2 63bf fb15 69bd 1f61 0dbd b61d 493c
00000260: 386d 7d3e 000d abbe de30 4a3f 50fe 873f
00000270: e1fb a9be 4820 1ebe 907a 083e 62a5 2c3e
00000280: 2865 bebd 80ec 1cbf 018a 413f 3398 d2bd
00000290: c805 933f 6333 da3f 8b37 0f3e 9f28 b23e
000002a0: f185 9cbe 3907 6a3e fb49 8dbc 205f 5c3f
000002b0: 9608 d63b d70b 0e3f 0262 3fbd 8835 78be
000002c0: 6a2c ee3d b744 fa3d 2d93 103f ebf4 253f
000002d0: bddc 67be 57e5 c0be c7e2 71be d0a8 23be
000002e0: 9b50 723d 30e0 94bb 0429 dbbe 7edc a33e
000002f0: f950 913e e43d 19bd 98f4 243f a097 3bbf
00000300: 60db 26bf eadc 02bf 76c5 3fbf b2b1 79be
00000310: 51f4 c63e 48ee 04bf fe4c 0bbf 2f95 cdbe
00000320: 8f5b 30bf d9a4 5c3e 9c2b c83d 8ec1 a93e
00000330: 3b7f 10bf c807 63bf 0e2d 0cbf fa1d cabe
00000340: 202b e33e 74f1 573f 8987 d23f 6b6a a0be
00000350: 21e1 e1bc a100 9fbd 5042 0ebf 43aa 253f
00000360: 53b3 2fbe 5414 59bf bb8a ec3e 8eb0 d0bc
00000370: 0c11 f1bd bf93 d9ba 958c 1abf e860 993f
00000380: d08d 27bf 1546 f0be 2afc 23bf 944f 06be
00000390: 109e 2ebf d885 8fbe e7f2 2e3d 225f ccbd
000003a0: 8ff9 5cbe d26e b5be 86da 453f e6dc b8be
000003b0: 7c88 003f d56c 72bd b833 04be 50b0 343d
000003c0: 092e 65be 1535 023f 77f8 e9be 925c a33e
000003d0: b6b1 82bd d05f 23bf de93 223f cdda b73d
000003e0: 5a42 133f cd6f 1b3f e8ee afbe b57a 87bf
000003f0: e791 be3e 99b3 603e 2462 113f 5af7 2e3f

embedder.emb_rnn.weight_hh_l0 f4 [60, 20]
-0.148914 0.4884757 -0.95400715 0.3907011 -0.33995914 0.09246192 0.82688916 0.31047288
-0.16686481 -0.53620845 -0.11317235 -0.22917984 -0.3289316 0.33831212 -0.04173558 -0.10453473
-0.374981 0.13481101 0.7883379 -0.3530498 -0.6792996 0.48350298 -0.43700185 -0.46729007
0.7524123 -2.102079 0.6405436 0.16206133 0.33594155 -0.4367981 -0.46511388 -0.14983974
0.19415058 0.87675476 0.11509418 0.48042798 -0.5123923 -0.62913835 -0.14760493 0.6236901
1.3685468 0.52134174 -0.09634564 0.6354398 1.3123686 0.0843935 -2.7664633 -0.5866334
0.8541352 0.6284132 0.059930336 -0.12566522 0.36728898 -0.2571774 -1.5792917 -0.6326319
-0.008165961 0.8409538 0.49137953 0.5388783 1.3480607 0.49425238 -0.043175034 0.263752
1.2339033 -3.6487558 0.23617315 -1.3925546 0.3699453 -2.0454485 -0.3912578 -0.89763486
-0.2641302 -0.12734129 -0.44105718 0.38958105 0.030842468 -1.0211782 -0.5004168 -1.0930879
-0.94510996 0.26130068 -1.499651 -0.11082709 -1.7461159 -0.105417065 1.4786031 0.16318071
0.0012058495 0.23967263 -0.5423456 -0.68721396 -0.09715731 -0.74805075 0.10772518 -0.07447667
0.539813 0.8131892 0.87484485 -1.2387383 0.7579449 1.0179349 -1.1831633 0.68855995
-0.85649264 -0.002123055 1.5847261 0.2133448 -1.270497 0.75775313 -0.16650926 -2.1752217
-1.1917459 -0.9252949 -1.0887299 -0.14461529 0.8469333 1.3170962 -0.8204772 -0.34870687
-1.3158846 0.68571967 0.3455557 0.9388589 -2.1809921 0.020980647 2.3824809 1.6189991
0.6595105 0.07209565 1.6063124 0.4368186 0.3903483 -0.23914985 1.098898 0.017580839
0.42742056 0.014585578 0.11544743 -1.1709743 -0.054767102 -0.083364174 -0.68903023 0.30567193
-0.21681757 -0.7029582 0.9746758 0.15160987 0.3077107 -0.38346407 0.33460155 -0.7190538
-0.0108172335 0.25784963 0.73790616 0.43064827 -0.330986 -0.33041832 0.15653442 -0.64166224
-1.8896205 0.3211006 -1.002009 0.28920886 -1.432014 -0.04587815 -1.7480274 0.7356826
1.1715404 -0.41067302 -0.5019355 -0.73017746 -0.5374668 -1.1554539 0.25094345 -0.05321464
0.12256843 -1.1548777 1.7185528 -1.5411527 -0.3272333 -0.92515373 0.03155492 -1.2110603
-0.1977144 0.22480324 0.6886502 1.6498752 -0.019202244 -0.3563022 -0.16795951 2.6265538
0.33328363 0.47514623 -0.5094254 0.115778156 0.39786685 -0.8210146 3.2619267 0.8659502
0.60396194 0.73431444 -0.20971477 -0.27369133 0.029827984 0.008957016 0.045527317 -0.7597734
-0.08611391 0.11822828 1.4817688 -0.5198143 0.36212862 -0.33004367 0.43216982 -0.035571016
-0.4459936 0.47593147 0.046128906 -0.31282568 -0.0049019107 0.04799061 0.80941385 -0.70969516
0.123352565 0.23403935 0.30529764 0.22988664 0.34236112 0.19700998 -0.66412044 -0.17293239
0.34719208 0.03452182 -0.007263023 0.11513138 -0.37517133 0.22184049 0.49378848 0.3282118
0.68436354 0.12963817 0.8044678 0.16647711 0.2511097 0.6673641 -0.23197226 0.60585046
-0.26516402 0.44779915 -0.21710421 0.3561262 -0.4861667 -0.2577731 0.020200614 -0.66330785
00000000: e97c 18be 7d19 fa3e d039 74bf f909 c83e
00000010: 200f aebe ad5c bd3d 02af 533f 4df6 9e3e
00000020: 9cde 2abe f544 09bf e8c6 e7bd 1fae 6abe
00000030: b969 a8be 3f37 ad3e edf2 2abd 4e16 d6bd
00000040: 82fd bfbe e60b 0a3e 83d0 493f f2c2 b4be
00000050: 94e6 2dbf b48d f73e b5be dfbe a540 efbe
00000060: 189e 403f 7688 06c0 aafa 233f 68f3 253e
00000070: 8800 ac3e 00a4 dfbe 6823 eebe 976f 19be
00000080: 69cf 463e 0073 603f 7fb6 eb3d a8fa f53e
00000090: 242c 03bf 360f 21bf bf25 17be 28aa 1f3f
000000a0: 8b2c af3f a776 053f dd50 c5bd 2fac 223f
000000b0: b2fb a73f 80d6 ac3d bc0d 31c0 9b2d 16bf
000000c0: 9ba8 5a3f b0df 203f 8379 753d 62ae 00be
000000d0: 4d0d bc3e c2ac 83be 3b26 cabf 2af4 21bf
000000e0: 86ca 05bc c048 573f 1996 fb3e eef3 093f
000000f0: 418d ac3f a60e fd3e 4ed8 30bd 810a 873e
00000100: 8bf0 9d3f 3785 69c0 60d7 713e 3b3f b2bf
00000110: 7869 bd3e a1e8 02c0 f152 c8be 66cb 65bf
00000120: 133c 87be c165 02be 3fd2 e1be 2b77 c73e
00000130: 58a9 fc3c f8b5 82bf 511b 00bf 4eea 8bbf
00000140: baf2 71bf 34c9 853e 90f4 bfbf 50f9 e2bd
00000150: ba80 dfbf e7e4 d7bd de42 bd3f d818 273e
00000160: 980d 9e3a be6c 753e 29d7 0abf 41ed 2fbf
00000170: 69fa c6bd 4180 3fbf 059f dc3d 3987 98bd
00000180: 2f31 0a3f 2b2d 503f d5f5 5f3f fa8e 9ebf
00000190: ad08 423f b14b 823f e571 97bf 7745 303f
000001a0: 1a43 5bbf f422 0bbb 4ed8 ca3f 0f77 5a3e
000001b0: a59f a2bf 1cfc 413f 6781 2abe d536 0bc0
000001c0: 218b 98bf 20e0 6cbf 805b 8bbf 0816 14be
000001d0: 9fd0 583f 9c96 a83f cb0a 52bf b589 b2be
000001e0: e86e a8bf 538b 2f3f adec b03e 0f59 703f
000001f0: 6095 0bc0 9bdf ab3c 917a 1840 5d3b cf3f
00000200: aed5 283f e2a6 933d a59b cd3f b0a6 df3e
00000210: bbdb c73e b3e3 74be b1a8 8c3f b105 903c
00000220: ded6 da3e 59f8 6e3c b46f ec3d 7ce2 95bf
00000230: 7853 60bd d6ba aabd 4964 30bf 0881 9c3e
00000240: 6d05 5ebe 12f5 33bf 5a84 793f 9e3f 1b3e
00000250: 428c 9d3e 6755 c4be e550 ab3e e913 38bf
00000260: c43a 31bc de04 843e 6be7 3c3f ee7d dc3e
00000270: ff76 a9be 972c a9be 8f4a 203e fa43 24bf
00000280: 16df f1bf 4c67 a43e d541 80bf 2f13 943e
00000290: 3c4c b7bf baea 3bbd 5dbf dfbf b255 3c3f
000002a0: 09f5 953f bc43 d2be d87e 00bf e9ec 3abf
000002b0: 6d97 09bf eae5 93bf a97b 803e 98f7 59bd
000002c0: 2805 fb3d 08d3 93bf 8af9 db3f 7e44 c5bf
000002d0: 208b a7be e0d6 6cbf bb3f 013d 0604 9bbf
000002e0: a575 4abe d232 663e 614b 303f 1c2f d33f
000002f0: 064e 9dbc 3e6d b6be 94fd 2bbe 7519 2840
00000300: 27a4 aa3e 5e46 f33e b469 02bf 191d ed3d
00000310: 34b5 cb3e 032e 52bf 68c3 5040 eaae 5d3f
00000320: 409d 1a3f 08fc 3b3f 78bf 56be 4521 8cbe
00000330: d159 f43c 73c0 123c da7a 3a3d 8280 42bf
00000340: 7d5c b0bd ab21 f23d 9aaa bd3f 8d12 05bf
00000350: ec68 b93e 7cfb a8be 5d45 dd3e eab2 11bd
00000360: 4659 e4be 4aad f33e aaf1 3c3d b02a a0be
00000370: 35a0 a0bb cd91 443d bf35 4f3f 95ae 35bf
00000380: 45a0 fc3d 03a8 6f3e f94f 9c3e 6767 6b3e
00000390: f549 af3e fcbc 493e cc03 2abf 3015 31be
000003a0: 29c3 b13e c066 0d3d a7fe edbb 00ca eb3d
000003b0: 7516 c0be 272a 633e d8d1 fc3e 610b a83e
000003c0: 7332 2f3f debf 043e 9af1 4d3f fa78 2a3e
000003d0: 7391 803e 60d8 2a3f 238a 6dbe 0419 1b3f
000003e0: 94c3 87be ee45 e53e 9150 5ebe 2c56 b63e
000003f0: d7ea f8be d6fa 83be c27b a53c 8bce 29bf

embedder.emb_rnn.bias_ih_l0 f4 [60]
1.003871 0.9188507 1.1655084 1.6723526 1.1691035 1.1256058 -0.23584536 0.78940326
0.8403627 0.20692937 0.8974948 0.5686164 1.4609678 1.0288597 1.1055269 0.8959861
1.4102778 1.4874566 0.82319427 0.89852464 1.0816947 1.1877007 0.78675234 1.0235647
1.104214 1.0887964 1.0342457 1.0698378 0.77214426 0.91403127 1.1677474 0.89288807
0.66478896 0.75969464 0.9891446 1.0224532 0.90853983 0.929532 1.3513404 0.86687344
0.8038386 0.91569537 0.92463785 0.43681732 0.8100333 0.81351274 1.1854292 0.8464954
1.152369 0.7268263 0.9405045 1.1424592 1.4005842 0.94848096 1.0142541 1.0981429
0.7024785 0.41397515 0.67274934 0.74641144
00000000: d87e 803f cd39 6b3f 612f 953f a60f d63f
00000010: 2fa5 953f da13 903f 7281 71be 5516 4a3f
00000020: 0322 573f 4be5 533e 38c2 653f d890 113f
00000030: fe00 bb3f adb1 833f e881 8d3f 585f 653f
00000040: fc83 b43f fa64 be3f dcbc 523f b605 663f
00000050: f974 8a3f 9406 983f 9a68 493f 2b04 833f
00000060: e256 8d3f ae5d 8b3f 2a62 843f 72f0 883f
00000070: 3fab 453f f4fd 693f bf78 953f 5094 643f
00000080: 9c2f 2a3f 597b 423f 9538 7d3f bfdf 823f
00000090: 1196 683f cff5 6d3f b9f8 ac3f 6beb 5d3f
000000a0: 5ec8 4d3f 036b 6a3f 11b5 6c3f 85a6 df3e
000000b0: 585e 4f3f 5f42 503f 25bc 973f ecb3 583f
000000c0: d480 933f 4a11 3a3f e7c4 703f 1a3c 923f
000000d0: 5846 b33f a6cf 723f 14d3 813f f28f 8c3f
000000e0: a2d5 333f 8df4 d33e 4d39 2c3f d214 3f3f

embedder.emb_rnn.bias_hh_l0 f4 [60]
0.0038851253 -0.08113114 0.1655198 0.6723545 0.16909537 0.12562731 -1.2358626 -0.21059218
-0.15962495 -0.7930993 -0.10250633 -0.43138844 0.46095926 0.028840384 0.105534464 -0.10402046
0.41028753 0.48744357 -0.17680135 -0.101466455 0.08171026 0.18769944 -0.21324341 0.023543645
0.104263246 0.08880499 0.0342361 0.06984714 -0.22786924 -0.08597794 0.1677203 -0.107099466
-0.3351894 -0.24032561 -0.01085767 0.022450978 -0.09145561 -0.07045028 0.35133937 -0.13312538
-1.1624625 -1.7400794 -0.5016429 -0.9548931 -0.80114347 -0.6163969 -4.0033975 0.9901515
-0.53144485 0.7655583 -0.8184599 -0.62425834 1.0509886 -1.1750209 0.6396359 -1.7803581
-0.52902883 -1.4622551 0.3481084 -1.4834358
00000000: 969d 7e3b 1528 a6bd 067e 293e 6d1f 2c3f
00000010: 5627 2d3e 72a4 003e bf30 9ebf 7aa5 57be
00000020: b974 23be 8e08 4bbf d7ee d1bd f2de dcbe
00000030: da02 ec3e ab42 ec3c 7422 d83d ae08 d5bd
00000040: 3511 d23e 3492 f93e 6a0b 35be a5cd cfbd
00000050: b557 a73d 4834 403e 7b5c 5abe 9ade c03c
00000060: f887 d53d 64df b53d 273b 0c3d 040c 8f3d
00000070: 8e56 69be 3415 b0bd dfbe 2b3e f756 dbbd
00000080: f29d abbe eb17 76be 5ee4 31bc 1deb b73c
00000090: 144d bbbd 3d48 90bd c1e2 b33e 0552 08be
000000a0: 92cb 94bf ecba debf ab6b 00bf e073 74bf
000000b0: bd17 4dbf 30cc 1dbf d51b 80c0 927a 7d3f
000000c0: c50c 08bf a1fb 433f 9786 51bf 65cf 1fbf
000000d0: cb86 863f 1667 96bf 2ebf 233f c6e2 e3bf
000000e0: 6f6e 07bf 2d2b bbbf 443b b23e 39e1 bdbf

embedder.emb_rnn.weight_ih_l1 f4 [60, 20]
0.31020933 -0.39081785 -0.081759974 -0.44032815 -0.091562465 -0.2994222 -0.41891617 0.33242956
-0.8186284 0.92558354 -0.31134507 -0.53726757 0.17548993 -0.4964647 0.0129071055 -0.14692417
0.17112549 -0.09850964 0.25344825 -0.6673929 -0.801552 -0.09760875 -0.26503357 -0.08609279
0.20624313 -0.03118263 0.2777135 -0.098721884 0.37145346 -0.4684915 0.8208877 0.19820789
0.31107253 0.36196637 -0.14108342 0.5367744 0.32278728 0.47066137 -0.73072416 0.55071723
-0.47060135 0.45750666 -0.4197114 1.0855287 0.14753868 -0.55746514 0.6049516 0.13031812
-0.23291558 0.10972698 -0.17218125 -0.545823 -0.09724053 -0.0006058182 0.009009267 -0.1948561
-0.09598066 0.48826587 -0.26072928 -0.09946653 0.039830532 -0.18520455 0.24571757 -0.13405687
-0.020080382 -0.010610219 -0.014344291 0.09344953 -0.25927925 -0.06766034 -0.5567685 -0.073212564
-0.5559678 0.37953848 0.02936435 -0.0018234632 0.001740518 0.0062861787 0.6180126 0.117660776
-0.4540644 -0.3612326 0.48844445 0.5988317 -0.29410717 0.25789392 1.4418836 -0.064215206
-0.16324429 0.11497946 -0.15128498 0.030713927 0.3761103 0.19458854 -0.20370306 0.34750724
-0.20665924 0.5303823 -0.6731844 0.1690339 0.2511525 0.08723805 -0.44921166 0.12782641
0.1907164 -0.13461146 0.017559342 0.09031326 0.57624674 0.28645098 -0.8638749 0.5149374
-0.15292126 0.43354252 0.07804745 0.122541964 -0.13239777 -0.104463264 -0.13176914 -0.30528525
-0.06357564 -0.20400642 -0.24850903 0.6807803 -0.23812057 0.31961855 0.12765373 0.5069298
-0.12264043 -0.19397177 0.27684048 0.18808599 0.13861671 0.046225093 0.3197794 -0.34068522
0.30815914 0.40831923 -0.8703124 0.5520604 0.35439372 0.85576385 -0.42902339 0.28288892
-0.13063869 0.058948994 0.7456467 -0.5635065 -0.21533738 0.11237914 0.19960369 0.1705077
0.40843937 0.10629324 0.501583 0.08742518 -0.18507086 -0.08112416 -0.6355451 -0.11930167
-0.04593834 -0.13266343 -0.14771052 -0.09956145 0.14996882 0.07682523 -0.5995284 0.02955796
0.25205794 0.15370005 0.22658972 -0.21358186 0.07327973 -0.33325833 -0.05604224 0.20978202
0.33500698 -0.3506954 0.19653372 -0.2538746 -0.15583101 0.08818607 -0.11364051 0.38777596
-0.21592383 -0.04048554 0.2755748 -0.0657594 -0.22836542 0.18463825 -2.1757076 -0.413009
-0.9611341 -0.38572162 -0.3109554 -0.38609204 -0.38453126 -0.28979644 -0.24806228 -0.18733536
0.11138689 -0.1902825 -0.60808766 0.4310003 -0.5000187 -0.2202885 0.31982544 0.27866843
0.7205449 0.047193058 0.60068196 0.23885198 0.24380372 -0.11167283 -0.125441 0.19079763
0.09220604 -0.6766156 0.4962768 -0.769446 -0.32705697 0.08148902 0.30216727 0.7713247
-0.09567506 -0.11256063 0.30412906 0.26935017 -0.04226878 -0.37895277 -0.3428041 -0.37614515
-0.59804267 -0.119660005 0.42448238 -0.45466018 -0.05279539 0.059941262 -0.43091723 0.015621313
-0.94684315 0.29531306 0.4596427 -0.39882347 -0.4512679 0.61735255 2.055773 -0.12054255
-0.4461392 0.28032595 -0.39262736 0.62635803 -0.24865001 -0.4753649 -1.0754808 -0.324746
00000000: c2d3 9e3e 4719 c8be c671 a7bd b172 e1be
00000010: 1a85 bbbd de4d 99be 2e7c d6be 3534 aa3e
00000020: a191 51bf 0bf3 6c3f 9f68 9fbe 5e8a 09bf
00000030: a2b3 333e 9f30 febe 5378 533c 4a73 16be
00000040: 853b 2f3e 6cbf c9bd f8c3 813e 43da 2abf
00000050: 8332 4dbf 19e7 c7bd 7bb2 87be 6b51 b0bd
00000060: 6631 533e b772 ffbc 7730 8e3e b32e cabd
00000070: 262f be3e 1ede efbe b225 523f 02f7 4a3e
00000080: e644 9f3e a853 b93e 2c78 10be 0c6a 093f
00000090: 6044 a53e 87fa f03e bd10 3bbf cefb 0c3f
000000a0: a9f2 f0be 503e ea3e 6ae4 d6be 9bf2 8a3f
000000b0: 6114 173e 09b6 0ebf 1cde 1a3f 1d72 053e
000000c0: 6c81 6ebe 8ab8 e03d 4850 30be 0ebb 0bbf
000000d0: 0b26 c7bd c5cf 1eba 9b9b 133c 5c88 47be
000000e0: 8291 c4bd fcfd f93e 4f7e 85be 1cb5 cbbd
000000f0: 5725 233d 43a6 3dbe 639d 7b3e 3446 09be
00000100: 9d7f a4bc 7cd6 2dbc 5104 6bbc 7862 bf3d
00000110: 40c0 84be 8191 8abd 6188 0ebf 78f0 95bd
00000120: e853 0ebf de52 c23e 818d f03c 4601 efba
00000130: 1822 e43a 4afc cd3b 1336 1e3f 22f8 f03d
00000140: 217b e8be 7bf3 b8be 6415 fa3e 094d 193f
00000150: 3795 96be ac0a 843e a48f b83f 4383 83bd
00000160: 8329 27be 5a7a eb3d 73ea 1abe c69b fb3c
00000170: 8791 c03e 3842 473e 8997 50be 78ec b13e
00000180: 7b9e 53be 22c7 073f d055 2cbf 3917 2d3e
00000190: 0f97 803e dda9 b23d 12ff e5be ede4 023e
000001a0: 294b 433e 96d7 09be 9cd8 8f3c 29f6 b83d
000001b0: e884 133f b4a9 923e e826 5dbf f0d2 033f
000001c0: 6497 1cbe 49f9 dd3e 57d7 9f3d 48f7 fa3d
000001d0: 4893 07be d6f0 d5bd 7dee 06be 594e 9cbe
000001e0: f233 82bd 0fe7 50be 2779 7ebe 9e47 2e3f
000001f0: e1d5 73be 0ba5 a33e a9b7 023e 27c6 013f
00000200: e82a fbbd 89a0 46be 09be 8d3e 9d99 403e
00000210: 8af1 0d3e 8656 3d3d 20ba a33e 4b6e aebe
00000220: 09c7 9d3e 380f d13e cbcc 5ebf d553 0d3f
00000230: 1873 b53e 5713 5b3f f4a8 dbbe d1d6 903e
00000240: 26c6 05be 8074 713d b4e2 3e3f f641 10bf
00000250: 6781 5cbe 0927 e63d e964 4c3e 9299 2e3e
00000260: f71e d13e 45b0 d93d be67 003f f90b b33d
00000270: 3783 3dbe 6c24 a6bd 15b3 22bf 6f54 f4bd
00000280: d729 3cbd ecd8 07be 6d41 17be e0e6 cbbd
00000290: 6d91 193e 8c56 9d3d b17a 19bf 8923 f23c
000002a0: bd0d 813e 8c63 1d3e 2307 683e 34b5 5abe
000002b0: af13 963d d6a0 aabe 8c8c 65bd 19d1 563e
000002c0: 0986 ab3e 598e b3be 2340 493e dafb 81be
000002d0: 2a92 1fbe e69a b43d 5bbc e8bd 928a c63e
000002e0: 231b 5dbe 2ad4 25bd 2418 8d3e ddac 86bd
000002f0: a0d8 69be cf11 3d3e cb3e 0bc0 ea75 d3be
00000300: e20c 76bf 4e7d c5be 8c35 9fbe dbad c5be
00000310: 48e1 c4be 3360 94be 0a04 7ebe d7d4 3fbe
00000320: cf1e e43d 6ad9 42be a2ab 1bbf 12ac dc3e
00000330: 3a01 00bf 4f93 61be 29c0 a33e a1ad 8e3e
00000340: a175 383f 824d 413d 4bc6 193f 9d95 743e
00000350: afa7 793e bab4 e4bd 9b73 00be 7460 433e
00000360: 85d6 bc3d ae36 2dbf fe17 fe3e 6afa 44bf
00000370: 0374 a7be b7e3 a63d abb5 9a3e 8975 453f
00000380: 49f1 c3bd 3086 e6bd ceb6 9b3e 44e8 893e
00000390: 0722 2dbd 1906 c2be 0584 afbe 1996 c0be
000003a0: 5319 19bf 4e10 f5bd c155 d93e 38c9 e8be
000003b0: fb3f 58bd f884 753d 2fa1 dcbe 89f0 7f3c
000003c0: 5064 72bf 4633 973e 4a56 eb3e 9732 ccbe
000003d0: 960c e7be d10a 1e3f c991 0340 03df f6bd
000003e0: 5b6c e4be e286 8f3e 7406 c9be 0059 203f
000003f0: 1c9e 7ebe 0763 f3be 5ba9 89bf 1c45 a6be

embedder.emb_rnn.weight_hh_l1 f4 [60, 20]
-0.15158103 -0.48722675 -0.41260144 -0.37912336 -0.51211506 -0.15559736 0.30307868 0.21375479
0.37472135 -0.42233133 -0.39396414 0.25382954 0.47499868 0.62089586 -0.02313067 -0.42806146
0.04076405 -0.09911923 -0.62462544 0.49207208 0.022867173 0.70179313 0.09356255 0.31291372
0.87264234 -0.32839686 -0.95738286 -0.42702255 -0.035281584 -1.3805269 1.9750856 -0.70047563
-1.1058184 0.2509932 -0.3897054 1.5498232 -1.405699 -0.3953305 1.6552801 -1.5249135
0.17151013 0.29414794 -0.6912188 -0.10716843 -1.1030966 -0.4200092 -0.062182255 -0.07011701
0.03325495 -0.098184235 -0.23841919 0.05353753 -0.054624807 0.10544675 1.0950487 0.32543105
-0.013381855 0.060707524 -0.13968985 -0.14828944 0.13701037 -1.6256502 0.46547878 -0.09789949
-0.16528326 1.2438966 -0.46703875 -0.121662386 0.37181592 -0.92488045 0.30463713 -0.31407574
-0.43630508 -0.08325022 -1.1760893 -0.1733031 -0.27836406 -0.5699218 0.69392496 -0.70293903
0.935392 -0.22249322 0.049412165 -0.04505839 -0.6793476 -0.906276 -0.31732956 -0.64009833
0.07903565 -0.064961195 0.43353018 -0.19382128 -0.34234175 0.42942694 1.4559385 0.2870378
-0.45238003 -0.41478512 0.125615 -0.13609186 -0.20109697 0.09518433 0.21366432 0.6336097
0.2665688 -0.29160154 0.21283208 0.47606206 -0.9238477 -0.5808462 0.48259768 -0.8117081
-0.89395326 -0.7414827 0.1506097 0.7597936 -0.79444516 0.06786037 0.31616843 -0.67232305
0.107039586 0.5694936 -0.2492369 0.1796949 0.41803634 -0.019750252 -0.5132595 -0.047464073
-0.4166989 -0.29532 -0.018701112 -0.41470784 0.120314755 0.017416673 0.25332493 -0.06430629
-0.16081811 -0.12546973 0.14969872 -0.00015009855 0.35865214 0.269538 -0.5686567 0.22194564
-0.28331918 -0.3280795 0.8626392 -0.45414525 -1.2717403 -0.68687576 0.563843 -0.1188285
-0.73476183 -0.56252533 1.1645627 0.5102352 -0.2096531 -0.07318885 0.7010183 -0.4596832
-0.051408276 -0.511227 0.030864906 -0.36906454 0.074090056 -0.4899748 -0.18272813 -0.6802334
-0.25067592 -0.5295705 0.9299105 -1.074035 -0.5756419 0.53388643 -0.14353737 -0.31626502
0.3988484 -0.7797197 0.38354102 -0.44248614 0.7205163 -0.07979109 0.4077918 0.36506593
0.335375 1.6893977 -0.85466444 1.3727071 -0.18145585 0.5418559 0.3029638 0.23202161
-0.009313173 0.7644671 -0.25383806 0.55402464 -0.041000124 0.6703472 -0.026477354 0.22730288
-2.3766007 -0.69117767 0.41446456 -0.8471786 0.032664336 1.4054637 0.8181343 2.0619392
1.4135497 -0.19803987 0.20905674 0.31744683 -0.15646437 -1.5791733 0.26834074 -0.7976942
-2.036688 -0.3562131 0.2562381 -0.49996772 0.55319124 -0.45814338 0.7325834 0.283592
-1.3961774 -0.19027437 -0.033531033 1.0968492 0.78251743 -0.04153871 -0.059688058 2.3578408
-0.056699555 -0.047581017 2.2323918 0.002237046 -0.8067049 0.17187274 -0.39497435 -0.0625493
-0.3626859 0.105491586 0.46250468 0.011021028 -0.06318944 0.1278774 -0.0888554 -0.25617665
-0.4591653 -0.081336565 0.0013303014 0.5043173 -0.10731904 -0.5350582 0.58041656 -0.12601632
00000000: 0f38 1bbe c975 f9be 7f40 d3be 751c c2be
00000010: f919 03bf ea54 1fbe 212d 9b3e 89e2 5a3e
00000020: 7adb bf3e d03b d8be abb5 c9be f2f5 813e
00000030: 0733 f33e 08f3 1e3f 887c bdbc df2a dbbe
00000040: 34f8 263d 06ff cabd 74e7 1fbf dff0 fb3e
00000050: f053 bb3c b7a8 333f b99d bf3d 3a36 a03e
00000060: 7d65 5f3f a223 a8be 0b17 75bf b3a2 dabe
00000070: 6c83 10bd 1bb5 b0bf 9bcf fc3f 5f52 33bf
00000080: 758b 8dbf 2e82 803e 7787 c7be 9b60 c63f
00000090: f2ed b3bf c268 cabe 38e0 d33f 5e30 c3bf
000000a0: 5aa0 2f3e 8f9a 963e b7f3 30bf 1f7b dbbd
000000b0: 4532 8dbf 720b d7be d2b2 7ebd 8299 8fbd
000000c0: 5836 083d d114 c9bd 2924 74be 2b4a 5b3d
000000d0: 43be 5fbd 77f4 d73d 8e2a 8c3f e69e a63e
000000e0: 913f 5bbc 74a8 783d db0a 0fbe 30d9 17be
000000f0: 724c 0c3e 4e15 d0bf 3c53 ee3e 877f c8bd
00000100: 0440 29be 0138 9f3f b41f efbe 212a f9bd
00000110: a85e be3e f7c4 6cbf 66f9 9b3e 89ce a0be
00000120: 6163 dfbe 177f aabd 188a 96bf 5e76 31be
00000130: bc85 8ebe 65e6 11bf 11a5 313f d0f3 33bf
00000140: da75 6f3f 43d5 63be 6964 4a3d 258f 38bd
00000150: b9e9 2dbf b401 68bf 0579 a2be 7cdd 23bf
00000160: 71dd a13d 600a 85bd abf7 dd3e 1679 46be
00000170: 6b47 afbe d9dd db3e 315c ba3f 9ef6 923e
00000180: 5b9e e7be b75e d4be 38a1 003e aa5b 0bbe
00000190: 5dec 4dbe 01f0 c23d d2ca 5a3e 3f34 223f
000001a0: b57b 883e cc4c 95be a7f0 593e 68be f33e
000001b0: 4881 6cbf 56b2 14bf 0b17 f73e 1acc 4fbf
000001c0: 1fda 64bf cfd1 3dbf 6e39 1a3e d581 423f
000001d0: c260 4bbf 61fa 8a3d d4e0 a13e 5d1d 2cbf
000001e0: 9237 db3d 55ca 113f f537 7fbe f101 383e
000001f0: dc08 d63e 48cb a1bc f964 03bf b069 42bd
00000200: 8f59 d5be 2f34 97be 1333 99bc 9654 d4be
00000210: 9567 f63d 69ad 8e3c ceb3 813e 04b3 83bd
00000220: 81ad 24be 237b 00be 9f4a 193e c663 1db9
00000230: 41a1 b73e e200 8a3e 7c93 11bf b845 633e
00000240: 360f 91be 09fa a7be ecd5 5c3f ba85 e8be
00000250: 63c8 a2bf 17d7 2fbf 0458 103f 5b5c f3bd
00000260: 5a19 3cbf a901 10bf 6410 953f c69e 023f
00000270: 4daf 56be 09e4 95bd ef75 333f 995b ebbe
00000280: 7c91 52bd c6df 02bf 66d8 fc3c 07f6 bcbe
00000290: 87bc 973d fadd fabe 151d 3bbe c723 2ebf
000002a0: 9858 80be ef91 07bf 9d0e 6e3f fb79 89bf
000002b0: 445d 13bf c8ac 083f 76fb 12be 7ded a1be
000002c0: dc35 cc3e b69b 47bf 7d5f c43e 8b8d e2be
000002d0: c273 383f 8369 a3bd 16ca d03e ece9 ba3e
000002e0: 46b6 ab3e 2f3e d83f 4acb 5abf deb4 af3f
000002f0: 90cf 39be 11b7 0a3f 121e 9b3e 1397 6d3e
00000300: 4796 18bc 1eb4 433f 10f7 81be 8fd4 0d3f
00000310: bfef 27bd e09b 2b3f 09e7 d8bc 16c2 683e
00000320: 3a1a 18c0 05f1 30bf b334 d43e b2e0 58bf
00000330: 0acb 053d 3ce6 b33f 4071 513f d0f6 0340
00000340: 32ef b43f f7ca 4abe f812 563e 6488 a23e
00000350: 3238 20be 5a22 cabf f563 893e b035 4cbf
00000360: 1959 02c0 9061 b6be a431 833e c5fb ffbe
00000370: f19d 0d3f c591 eabe 968a 3b3f f832 913e
00000380: f1b5 b2bf 49d7 42be d657 09bd 8e65 8c3f
00000390: 1053 483f 7f24 2abd 777b 74bd dde6 1640
000003a0: cb3d 68bd 50e4 42bd 82df 0e40 679b 123b
000003b0: 3684 4ebf 68ff 2f3e 143a cabe d919 80bd
000003c0: f7b1 b9be f90b d83d 6acd ec3e 8b91 343c
000003d0: 7769 81bd 4bf2 023e d2f9 b5bd 9629 83be
000003e0: b717 ebbe c993 a6bd 825d ae3a f01a 013f
000003f0: 16ca dbbd 93f9 08bf 2e96 143f 6c0a 01be

embedder.emb_rnn.bias_ih_l1 f4 [60]
0.6377587 1.2037151 0.7980947 1.0365243 1.0543523 1.114682 0.99612236 1.072964
1.0313256 0.7646845 0.9103319 0.946576 0.70222193 0.9576327 0.9907643 1.1834899
0.8755832 1.0429165 1.6476926 1.302764 0.014433365 0.68284065 0.24559368 0.4781388
-0.10699403 0.04603921 0.2188191 0.7866431 0.9172922 0.73508453 0.91538095 0.7035976
0.8140567 0.6370553 0.20490798 0.5749699 0.66501004 0.66986144 0.7206 0.4294267
0.7402126 0.78915197 0.9280506 0.8344695 0.8176073 0.72731847 0.8422292 0.7440111
0.82612586 0.9779552 0.7967866 0.8713599 0.9661679 0.8573792 0.90043664 0.74044293
0.9277382 0.87679815 0.45619902 1.4211177
00000000: 2744 233f 5613 9a3f ef4f 4c3f d4ac 843f
00000010: 04f5 863f e6ad 8e3f e001 7f3f e256 893f
00000020: 7a02 843f 5dc2 433f 830b 693f ce52 723f
00000030: d1c4 333f 6b27 753f bba2 7d3f 997c 973f
00000040: 3826 603f 4a7e 853f 97e7 d23f f9c0 a63f
00000050: ec79 6c3c a5ce 2e3f e97c 7b3e 9cce f43e
00000060: b01f dbbd 9c93 3c3d 1d12 603e 7161 493f
00000070: a9d3 6a3f 802e 3c3f 6856 6a3f f91e 343f
00000080: 0566 503f 0e16 233f 66d3 513e 3a31 133f
00000090: 193e 2a3f 0a7c 2b3f 3e79 383f d1dd db3e
000000a0: 937e 3d3f dd05 4a3f b994 6d3f cb9f 553f
000000b0: b64e 513f 8b31 3a3f 559c 573f 8377 3e3f
000000c0: fc7c 533f 465b 7a3f 35fa 4b3f 7111 5f3f
000000d0: c856 773f 347d 5b3f 0483 663f ab8d 3d3f
000000e0: 4080 6d3f d875 603f eb92 e93e 2fe7 b53f

embedder.emb_rnn.bias_hh_l1 f4 [60]
-0.36225128 0.20367648 -0.201921 0.036502436 0.054334328 0.11471072 -0.0038624648 0.07297371
0.031354364 -0.23530853 -0.089665234 -0.053433385 -0.297756 -0.042362124 -0.009211567 0.18347935
-0.124427475 0.04293948 0.64770913 0.3028191 -0.9855701 -0.3171538 -0.7544126 -0.52187365
-1.1070079 -0.9539518 -0.781192 -0.21332961 -0.08271953 -0.26489994 -0.08461145 -0.29638258
-0.18592618 -0.36294797 -0.79506695 -0.4250496 -0.33497941 -0.3301664 -0.27940196 -0.5705741
-0.065772355 -0.20551863 -0.054244526 -0.18322259 -0.1919018 -0.2907865 -0.21057458 -0.2924731
-0.17654157 -0.03598081 -0.2827398 -0.20398247 0.1959911 -0.1143164 -0.10052629 -0.28426751
-0.05498965 -0.1304111 -0.77357984 0.78023905
00000000: 0079 b9be 9190 503e 61c4 4ebe 9483 153d
00000010: ac8d 5e3d 74ed ea3d 6821 7dbb 3e73 953d
00000020: 6f6d 003d b8f4 70be 68a2 b7bd f7dc 5abd
00000030: 7973 98be e883 2dbd 1dec 16bc 03e2 3b3e
00000040: d5d3 febd 4fe1 2f3d 44d0 253f 1b0b 9b3e
00000050: 524e 7cbf fc61 a2be 2f21 41bf 8399 05bf
00000060: 6fb2 8dbf 2f36 74bf 33fc 47bf 1473 5abe
00000070: db68 a9bd f7a0 87be c548 adbd 75bf 97be
00000080: 6f63 3ebe 51d4 b9be 8289 4bbf 1aa0 d9be
00000090: 6c82 abbe 920b a9be c60d 8fbe 2511 12bf
000000a0: a8b3 86bd 7a73 52be 822f 5ebd b49e 3bbe
000000b0: e881 44be f8e1 94be dda0 57be 09bf 95be
000000c0: 50c7 34be 9d60 13bd 45c3 90be c8e0 50be
000000d0: e4b1 483e b71e eabd bae0 cdbd 838b 91be
000000e0: d43c 61bd 7d8a 05be 5409 46bf bfbd 473f

embedder.emb_rnn.weight_ih_l2 f4 [60, 20]
0.3513084 1.4560019 2.4053373 3.139202 0.75333744 -2.489011 -2.9593751 0.23972115
1.4218961 0.47501937 0.23724955 -1.3862903 -0.05373659 1.5568272 -1.3134798 0.25346226
0.4019981 -0.5015113 0.15482211 0.010795119 1.3077216 0.29789412 1.5344373 -1.3307521
-3.1731813 1.7843753 0.59618837 -1.8760105 0.9354602 -0.0421393 0.36228812 -0.3221768
0.30034277 2.6546984 -0.8801572 0.25117812 -0.92994696 0.38201815 0.40161702 -0.27607283
2.3742256 -2.6287653 1.2971232 0.9320225 -1.6555165 0.9016061 -2.8290403 -1.1005944
-1.3317919 1.1465706 -0.7467577 0.07387218 0.47309992 3.1079066 1.0586191 1.0524231
2.6106446 1.2574414 -0.11675322 1.3399423 2.0147734 -0.9602197 -0.5421628 -1.0660324
2.3349397 2.2662342 -2.3231266 -2.9572775 -1.6799134 1.4188604 -0.78376436 1.8079262
0.08550478 -1.5605947 2.4658809 1.2380259 1.041352 1.8971875 0.08061106 0.9235763
-0.16851296 1.1717715 -0.27115324 1.4722577 0.20162903 -0.63649064 -2.8590803 0.45470172
-0.32681566 0.31567243 0.052311767 -0.7509548 0.00774127 1.0760221 -1.2984207 0.54130816
0.2227977 0.11374968 0.017687498 0.1272549 0.60052866 3.1623037 2.7541606 2.4843388
1.248405 0.38921618 -2.7457721 -1.192896 0.40691 0.95977134 0.28264844 -0.9121587
-0.48780814 4.462745 -2.9261374 1.7278774 0.72458637 0.8859755 0.30844912 0.42174798
-0.07507311 -0.53180504 -0.7232124 0.8908974 2.2079098 0.8584549 0.5348964 -1.0616584
0.22816941 -0.004495016 0.18853883 -0.18379085 0.14380477 2.0490658 2.894852 1.2131445
1.407041 1.0303984 0.13951316 0.13056618 -1.1176709 0.5373622 -3.379122 -0.70872474
-2.5527434 0.072524995 1.5892726 0.48873717 3.7749772 -2.7297373 0.038197868 -0.85445726
-0.7661139 0.07205385 2.4653647 -1.0481309 -1.5025674 -3.3928397 0.68443197 -2.385724
-1.2243513 0.30800042 0.044451386 -1.0241146 0.3436572 0.098225944 0.25196037 0.95828444
0.45227468 -0.11664698 0.3325976 -0.1266049 -0.4364084 -1.8459432 0.54972035 0.3615313
0.24907485 0.6327449 -0.08839752 -0.092451125 -8.997803 2.7224433 -7.9763384 -6.968021
0.3439776 0.7496099 4.0738225 -6.0075364 7.728029 -2.2105985 2.1581001 6.131225
0.7264088 0.37716016 8.9519825 -2.8272161 -4.2262425 3.5635612 0.72211957 -1.164374
-1.391121 -0.15661758 -0.58057064 -2.300757 -2.3381445 -0.8332962 3.6032043 -0.98297566
-0.8598697 -0.31522423 -0.013109601 0.57690924 0.3425694 -1.0807798 0.619052 -0.8125832
-0.31880876 0.36117783 -0.05417663 0.13622037 -2.9980233 -1.0473866 1.4653779 -2.683275
0.436182 -4.2259755 4.431869 1.4458606 -4.871494 -0.16400556 1.2646683 -0.15104224
-1.2311698 4.764619 -3.058551 1.6799183 1.087998 0.47241294 0.39550197 -0.9367491
-0.44768396 -0.3208569 -0.19313565 -0.29940397 -3.8560934 -0.432851 -0.1979083 -0.36423403
-0.32671735 0.22529396 0.14962296 0.36580548 -0.14463782 -1.2097974 -1.025122 0.7575239
00000000: b2de b33e 455e ba3f 0cf1 1940 b0e8 4840
00000010: b9da 403f f54b 1fc0 6766 3dc0 7679 753e
00000020: b100 b63f bd35 f33e 8cf1 723e f671 b1bf
00000030: e61a 5cbd 1d46 c73f 1b20 a8bf cec5 813e
00000040: b2d2 cd3e 0b63 00bf b089 1e3e 03de 303c
00000050: 6c63 a73f 9485 983e 7168 c43f 1656 aabf
00000060: 6715 4bc0 6966 e43f cd9f 183f 1d21 f0bf
00000070: 527a 6f3f 429a 2cbd d47d b93e 5cf4 a4be
00000080: 87c6 993e 94e6 2940 fb51 61bf 6b9a 803e
00000090: 0111 6ebf e297 c33e bfa0 cd3e 6b59 8dbe
000000a0: 50f3 1740 b13d 28c0 2208 a63f 0799 6e3f
000000b0: f7e7 d3bf a8cf 663f ff0e 35c0 47e0 8cbf
000000c0: 2878 aabf d3c2 923f 832b 3fbf 4c4a 973d
000000d0: 273a f23e f1e7 4640 d580 873f cdb5 863f
000000e0: cd14 2740 d7f3 a03f 501c efbd 3b83 ab3f
000000f0: 0cf2 0040 f5d0 75bf 2ecb 0abf c073 88bf
00000100: a76f 1540 fb09 1140 1bae 14c0 0944 3dc0
00000110: 6707 d7bf 389d b53f c8a4 48bf 206a e73f
00000120: 211d af3d 91c1 c7bf fed0 1d40 a277 9e3f
00000130: 064b 853f 0ad7 f23f 6917 a53d 7f6f 6c3f
00000140: a98e 2cbe 9cfc 953f 99d4 8abe f172 bc3f
00000150: d777 4e3e 0df1 22bf 2cfb 36c0 aace e83e
00000160: 6254 a7be d19f a13e dd44 563d 933e 40bf
00000170: 7baa fd3b 18bb 893f a632 a6bf 2c93 0a3f
00000180: 1525 643e 98f5 e83d 5fe5 903c 1c4f 023e
00000190: 3fbc 193f 2f63 4a40 2b44 3040 68ff 1e40
000001a0: bccb 9f3f 5847 c73e bbba 2fc0 d1b0 98bf
000001b0: 8256 d03e 93b3 753f 4cb7 903e 3c83 69bf
000001c0: fdc1 f9be cfce 8e40 d645 3bc0 162b dd3f
000001d0: 7e7e 393f 4acf 623f 0bed 9d3e 5aef d73e
000001e0: eebf 99bd 6024 08bf 7324 39bf da11 643f
000001f0: 654e 0d40 b3c3 5b3f f8ee 083f 6ce4 87bf
00000200: 3ea5 693e ed4a 93bb 5310 413e ab33 3cbe
00000210: 8f41 133e e523 0340 4145 3940 5248 9b3f
00000220: eb19 b43f 18e4 833f 8adc 0e3e 24b3 053e
00000230: d70f 8fbf 9290 093f 8943 58c0 fc6e 35bf
00000240: 2660 23c0 fc87 943d 496d cb3f c23b fa3e
00000250: 3a99 7140 04b4 2ec0 5e75 1c3d b6bd 5abf
00000260: 0a20 44bf f890 933d 89c8 1d40 2729 86bf
00000270: 2154 c0bf 4924 59c0 ef36 2f3f b4af 18c0
00000280: 8bb7 9cbf 3bb2 9d3e a812 363d 3016 83bf
00000290: d6f3 af3e af2a c93d f300 813e 2152 753f
000002a0: 8c90 e73e 9de4 eebd 3c4a aa3e b7a4 01be
000002b0: ec70 dfbe de47 ecbf 79ba 0c3f a11a b93e
000002c0: 7a0d 7f3e 92fb 213f c209 b5bd 0457 bdbd
000002d0: 00f7 0fc1 833c 2e40 2a3e ffc0 07fa dec0
000002e0: d51d b03e 6fe6 3f3f c15c 8240 bd3d c0c0
000002f0: 034c f740 727a 0dc0 501e 0a40 ff32 c440
00000300: edf5 393f 231b c13e 523b 0f41 1cf1 34c0
00000310: 613d 87c0 6311 6440 d4dc 383f 350a 95bf
00000320: 4110 b2bf 5c60 20be 47a0 14bf 9a3f 13c0
00000330: 29a4 15c0 e652 55bf e69a 6640 4ba4 7bbf
00000340: 6c20 5cbf 1265 a1be a7c9 56bc 53b0 133f
00000350: 4265 af3e fe56 8abf 317a 1e3f 7405 50bf
00000360: e73a a3be 4dec b83e 50e8 5dbd 5a7d 0b3e
00000370: 9ddf 3fc0 c410 86bf 8191 bb3f c7ba 2bc0
00000380: 3f53 df3e 313b 87c0 dfd1 8d40 f611 b93f
00000390: 47e3 9bc0 13f1 27be a7e0 a13f d1aa 1abe
000003a0: f996 9dbf c277 9840 4dbf 43c0 9007 d73f
000003b0: 8543 8b3f 1ce0 f13e 3c7f ca3e cace 6fbf
000003c0: d536 e5be 5b47 a4be 5ac5 45be 7a4b 99be
000003d0: 3cca 76c0 a59e ddbe 79a8 4abe e27c babe
000003e0: 7f47 a7be 76b3 663e c336 193e db4a bb3e
000003f0: f01b 14be a4da 9abf 3337 83bf 16ed 413f

embedder.emb_rnn.weight_hh_l2 f4 [60, 20]
1.4333754 0.3264851 1.1916549 -1.2804958 0.39624658 1.8229731 0.1450503 2.1481657
1.7745479 2.3309097 -4.9993997 4.2876067 0.5370743 1.0125114 0.62378967 3.2505136
-0.39870036 -1.261548 -0.34375688 0.3754676 -0.36909714 -0.77128965 -0.4394272 -0.08332162
-0.0014563765 7.2146555e-05 -0.8686381 -0.24762513 0.11267636 -1.6734258 -0.11502897 0.027606929
0.22246449 -0.7973921 -0.09061256 -0.16479495 -0.40362135 -0.27481186 -0.35064054 -0.51242054
0.03730355 -0.92097384 0.31650826 1.0309657 -0.27925444 -0.37968788 0.11881464 -0.18372433
1.3584667 0.5900449 -0.010131971 -0.1619528 0.06977304 0.5456343 -1.0254347 -0.0969944
0.6074361 -1.8082244 -0.19435689 -0.26625398 0.92394084 1.9837639 -0.9765193 0.9791265
1.2094353 0.97527075 2.749965 -0.30949318 3.00838 3.2274456 -3.3480582 1.6342515
0.89154744 0.5683715 -1.5630727 2.6764598 1.1553289 -3.2082398 1.9293977 0.35181168
-0.31972745 -0.31863573 -0.054649115 0.18596852 1.249392 0.18514 -0.4288151 -0.24638772
0.5323005 -0.08125606 -0.630926 0.1848363 -0.0390083 -0.04604831 -0.008057322 -0.29168314
-0.09305232 -0.2533403 -0.0649815 -0.58194387 0.038568232 0.16118257 -0.48003766 0.6686026
-0.16213913 -0.14163302 -0.20313948 0.4719073 1.1863095 -0.0368524 1.0613197 -0.7093892
-0.20671855 0.2826113 0.79238516 -0.54038435 -0.56116885 -0.5079279 0.40835497 1.4303108
0.018646354 -0.62321866 0.38886622 -0.16157462 -0.045349114 0.29221004 -0.29926223 0.0152802365
1.1857721 -0.17178656 -0.8114501 -0.20385212 -0.36207873 -0.2907896 -0.29302645 0.015744379
0.44098842 -0.24530002 -0.29933426 0.6041893 0.3887093 -0.074840784 -1.2629675 1.643609
-1.2838035 -0.88458437 -2.2473228 -0.6044639 1.6297834 -1.4883927 0.82477957 -0.63656664
0.022565756 -3.2251043 -0.46857724 -1.3655976 0.9903715 1.3237778 -0.6065081 1.0051639
0.15120019 -0.13772629 0.14190862 -0.39700422 0.60403395 -0.0047690477 0.67772156 0.32863382
1.6073395 0.5732756 1.9352854 0.18531092 0.6875914 0.49015263 0.24127586 0.09223534
-0.4648098 0.71467113 0.37780336 0.90153456 2.8668811 3.0934412 -2.6062152 -2.7346678
2.1369445 3.356992 3.8293128 5.3370113 -0.58433765 1.8394223 -1.6028955 2.6268535
3.8804727 3.0677109 4.91836 4.250712 -2.4976668 -0.09224627 2.163386 -1.3162501
-0.015928952 -0.40552294 -0.6947282 0.42341658 0.28848067 -0.5529484 -0.81641465 -0.41945446
-0.61444944 -0.5979843 1.011124 -0.7037552 -0.35184094 0.07118388 -0.18680416 -0.5734038
-0.4753039 -0.11145776 -0.32624236 0.15414454 -0.6532752 0.09959654 0.4329737 -1.189021
-2.7421958 0.85480416 1.2131189 1.7795746 6.1465797 -2.045828 -1.7624408 1.5885582
0.81961834 0.923551 1.183304 -0.27589932 -1.7282325 -0.5844244 -1.1114192 -2.1246877
0.36672348 -0.6149677 -0.21757153 -0.2222003 0.22128138 -0.7510646 0.103218675 -0.53707826
-0.022747284 0.10258889 1.7725984 -0.46654552 -0.28383967 -0.48016825 -0.61805505 -0.69354284
00000000: d878 b73f 0e29 a73e 2688 983f 49e7 a3bf
00000010: d5e0 ca3e 2f57 e93f 1188 143e 8c7b 0940
00000020: 6324 e33f a02d 1540 15fb 9fc0 1334 8940
00000030: b47d 093f f999 813f aeb0 1f3f 6a08 5040
00000040: 7422 ccbe 687a a1bf e700 b0be 4a3d c03e
00000050: 4dfa bcbe 3d73 45bf 9afc e0be 87a4 aabd
00000060: e3e3 beba 634d 9738 115f 5ebf 7191 7dbe
00000070: ddc2 e63d d132 d6bf 4f94 ebbd ed27 e23c
00000080: bbcd 633e e321 4cbf 1493 b9bd 02c0 28be
00000090: 75a7 cebe 24b4 8cbe 2887 b3be fe2d 03bf
000000a0: 9bcb 183d f1c4 6bbf 5f0d a23e aff6 833f
000000b0: 70fa 8ebe 7366 c2be 1755 f33d 3b22 3cbe
000000c0: 3de2 ad3f 2f0d 173f 9100 26bc f4d6 25be
000000d0: 2be5 8e3d b1ae 0b3f 7241 83bf 00a5 c6bd
000000e0: ef80 1b3f e673 e7bf 7e05 47be 7152 88be
000000f0: 6387 6c3f faeb fd3f 2bfd 79bf 09a8 7a3f
00000100: c7ce 9a3f 58ab 793f 6dff 2f40 e475 9ebe
00000110: 4c89 4040 788e 4e40 9646 56c0 272f d13f
00000120: 743c 643f cb80 113f c412 c8bf 1e4b 2b40
00000130: d1e1 933f cd53 4dc0 81f6 f63f a920 b43e
00000140: 51b3 a3be 3924 a3be c0d7 5fbd 886e 3e3e
00000150: 14ec 9f3f 5795 3d3e a78d dbbe 104d 7cbe
00000160: d844 083f 9469 a6bd 5e84 21bf ba45 3d3e
00000170: 2bc7 1fbd 279d 3cbd dc02 04bc 7e57 95be
00000180: 3792 bebd d2b5 81be 0515 85bd 46fa 14bf
00000190: b9f9 1d3d 0b0d 253e 7fc7 f5be 8a29 2b3f
000001a0: cd07 26be 3f08 11be cc03 50be d59d f13e
000001b0: fdd8 973f 8bf2 16bd 53d9 873f 889a 35bf
000001c0: 07ae 53be 6eb2 903e c1d9 4a3f a156 0abf
000001d0: c3a8 0fbf 9007 02bf e713 d13e 6d14 b73f
000001e0: 3dc0 983c 428b 1fbf 7919 c73e d173 25be
000001f0: febf 39bd 8e9c 953e e638 99be f559 7a3c
00000200: 61c7 973f d1e8 2fbe 32bb 4fbf 9cbe 50be
00000210: 6262 b9be 60e2 94be 9007 96be 5bfa 803c
00000220: 3cc9 e13e ee2f 7bbe 5742 99be 26ac 1a3f
00000230: e804 c73e 2046 99bd eba8 a1bf c861 d23f
00000240: ac53 a4bf 1f74 62bf 23d4 0fc0 25be 1abf
00000250: be9c d03f a783 bebf c124 533f 08f6 22bf
00000260: d2db b83c 1c68 4ec0 5be9 efbe e7cb aebf
00000270: fd88 7d3f 8d71 a93f 1d44 1bbf 36a9 803f
00000280: 39d4 1a3e 1f08 0dbe 7e50 113e 2344 cbbe
00000290: f8a1 1a3f ac45 9cbb 297f 2d3f b142 a83e
000002a0: 4dbd cd3f 31c2 123f 6fb7 f73f 25c2 3d3e
000002b0: fd05 303f 49f5 fa3e 0511 773e e2e5 bc3d
000002c0: 8dfb edbe b0f4 363f 716f c13e f8ca 663f
000002d0: fb7a 3740 f1fa 4540 3bcc 26c0 cc04 2fc0
000002e0: b3c3 0840 f5d8 5640 7613 7540 ccc8 aa40
000002f0: 2797 15bf 3172 eb3f ae2b cdbf 5e1e 2840
00000300: aa59 7840 6055 4440 3563 9d40 d505 8840
00000310: c6d9 1fc0 9deb bcbd eb74 0a40 e27a a8bf
00000320: 6f7d 82bc b4a0 cfbe b5d9 31bf 0fca d83e
00000330: bdb3 933e 078e 0dbf 8d00 51bf bcc2 d6be
00000340: 8f4c 1dbf 8015 19bf 836c 813f 4d29 34bf
00000350: 7f24 b4be dbc8 913d 9749 3fbe 97ca 12bf
00000360: 085b f3be f743 e4bd 3d09 a7be 11d8 1d3e
00000370: 0b3d 27bf 45f9 cb3d bbae dd3e d731 98bf
00000380: 2380 2fc0 72d4 5a3f 7b47 9b3f 1ac9 e33f
00000390: c8b0 c440 d9ee 02c0 a997 e1bf e055 cb3f
000003a0: 82d2 513f d76d 6c3f 8176 973f ad42 8dbe
000003b0: b936 ddbf d69c 15bf fc42 8ebf e2fa 07c0
000003c0: 2ec3 bb3e 866e 1dbf 12cb 5ebe 7a88 63be
000003d0: 9697 623e c545 40bf 5064 d33d f67d 09bf
000003e0: 8358 babc 201a d23d 81e4 e23f 0edf eebe
000003f0: 6f53 91be 9dd8 f5be db38 1ebf 068c 31bf

embedder.emb_rnn.bias_ih_l2 f4 [60]
0.894857 0.70626426 1.3715838 0.8011617 1.0291612 0.8495849 0.77292264 0.27293602
1.1894422 -0.33795822 1.1852133 0.21918452 0.941271 0.9990124 0.8642398 0.49311328
0.91314024 1.0517906 0.62724143 1.2545936 0.7419023 0.7593841 0.46847245 0.821061
-0.80655545 0.6636708 0.85621804 0.5750636 0.286601 0.7864308 -0.10353058 0.94439614
0.87086487 0.17728041 0.6459058 0.8853732 0.22082011 -0.7733617 0.9236218 0.3613215
0.7853503 1.0203446 0.73210615 0.46580702 0.86965525 0.95152116 0.855581 1.1422629
0.6402662 0.9432619 0.70712155 1.0173142 0.88885385 0.85859793 1.0166585 1.146144
0.7381057 0.8396648 0.84416485 0.70785725
00000000: 5915 653f bccd 343f 0f90 af3f ef18 4d3f
00000010: 8ebb 833f 657e 593f 42de 453f 45be 8b3e
00000020: a43f 983f dc08 adbe 12b5 973f e871 603e
00000030: 23f7 703f 47bf 7f3f d23e 5d3f 5879 fc3e
00000040: 8fc3 693f 13a1 863f e592 203f 8696 a03f
00000050: 4fed 3d3f ff66 423f 9fdb ef3e 0e31 523f
00000060: 6b7a 4ebf 54e6 293f 1b31 5b3f 5e37 133f
00000070: 5ebd 923e 8753 493f d707 d4bd f2c3 713f
00000080: 00f1 5e3f ff88 353e 155a 253f d1a7 623f
00000090: ab1e 623e 08fb 45bf 7a72 6c3f 22ff b83e
000000a0: b80c 493f a79a 823f 4f6b 3b3f 427e ee3e
000000b0: baa1 5e3f e496 733f 5b07 5b3f ac35 923f
000000c0: 7ce8 233f 9d79 713f eb05 353f 5a37 823f
000000d0: ed8b 633f 13cd 5b3f de21 823f d9b4 923f
000000e0: 7ff4 3c3f 46f4 563f 301b 583f 2236 353f

embedder.emb_rnn.bias_hh_l2 f4 [60]
-0.10514323 -0.29374346 0.3715721 -0.19885753 0.029208716 -0.15042438 -0.22707742 -0.7270768
0.18943146 -1.3379412 0.18521787 -0.78080195 -0.058727957 -0.0009767142 -0.13579564 -0.5068996
-0.08683713 0.051776677 -0.37277308 0.25454673 -0.25810373 -0.24061714 -0.53151697 -0.1789355
-1.8066119 -0.33633634 -0.14377433 -0.42494392 -0.71340775 -0.21358243 -1.1035373 -0.055612724
-0.12914898 -0.82271916 -0.3540974 -0.11459223 -0.7791856 -1.7733742 -0.07637257 -0.6386733
-0.3974342 -0.064253725 -0.5522752 -0.8530527 -0.15596825 0.4437823 -0.081706785 -0.5925937
-0.4374272 -1.4148997 -0.40900436 -1.5657736 -0.13085896 -0.13273098 1.0848591 -0.24773568
-0.414704 -0.21471453 -2.401883 -0.33882764
00000000: 5555 d7bd 8b65 96be b33e be3e 4fa1 4bbe
00000010: 1e47 ef3c d908 1abe fc86 68be b521 3abf
00000020: 52fa 413e a841 abbf c1a9 3d3e a3e2 47bf
00000030: ba8c 70bd 1705 80ba 030e 0bbe 2cc4 01bf
00000040: aad7 b1bd c813 543d 1ddc bebe f353 823e
00000050: 2c26 84be 5764 76be 7f11 08bf de3a 37be
00000060: 0f3f e7bf 4734 acbe 9439 13be 4092 d9be
00000070: e4a1 36bf 5ab5 5abe b640 8dbf 2bca 63bd
00000080: a13f 04be b99d 52bf 414c b5be 55af eabd
00000090: b578 47bf edfd e2bf 3969 9cbd 1880 23bf
000000a0: 7f7c cbbe 7597 83bd e861 0dbf a961 5abf
000000b0: 24b6 1fbe 6f37 e33e e355 a7bd 39b4 17bf
000000c0: 75f6 dfbe 6f1b b5bf 0569 d1be 456b c8bf
000000d0: e4ff 05be a1ea 07be aadc 8a3f 6cae 7dbe
000000e0: 1554 d4be 20de 5bbe 73b8 19c0 d17a adbe
